simple-pendulum-2ndorder/2025-06-01_02-47-05/model.pt (torch, 138642 bytes, 12 tensors)

equations.x.layers.0.weight f8 [64, 1]
0	0xbfdaa9bd8d80c59f	-0.41661013430265287
1	0x3ff005f9e7f1690b	1.0014590320848267
2	0xbfc403649083ad01	-0.15635354095807233
3	0xbfc3f3dee304cdf6	-0.1558798416605069
4	0x3fe3cdbba6074de0	0.6188638918633238
5	0xbfa389c7bc866003	-0.0381605546601236
6	0x3fbb0d7a6428e122	0.10567440934471908
7	0xbff0704232b9ad14	-1.0274068814713404
8	0x3fdb25f5089f6c12	0.4241917213636849
9	0x3fdf7e231f9a4a46	0.4920738037700726
10	0xbfb066396cbb54d2	-0.06405981926521356
11	0xbfc27e879fef74a3	-0.14448638257355126
12	0xbfe07857de7c0ece	-0.5146903367426263
13	0x3fe7c139078de210	0.7423367641013687
14	0xbfe41f89f240818f	-0.6288499576076435
15	0xbfce4f4bbd1bfad5	-0.2367949174294696
16	0xbf971d000f51c774	-0.022571564612412456
17	0x3fa458aa6275a420	0.03973896457575443
18	0xbfe85cd7044fa3da	-0.7613329967690519
19	0xbfd45c6dbec898ab	-0.31814139968117655
20	0x3fd7fb77384ce006	0.3747232484633972
21	0xbfba40bd4e9692f1	-0.102550346075599
22	0xbfd54dbf0ece0f92	-0.33287025876801934
23	0xbfcbd4c3be0ebc0d	-0.21743056087640902
24	0x3fb290a53def6be8	0.0725196148118098
25	0x3fbd344faf0cd390	0.11407945655521545
26	0x3fb0ed47432638a8	0.06612058057200676
27	0xbfb356f20fb2f7ab	-0.07554543383864025
28	0x3fed8adc53003cd0	0.9232007619010805
29	0x3fd7e1a227f6f516	0.37314657118607053
30	0x3fb9cb96159ae71f	0.10076272990673062
31	0xbfd523310b1cdd66	-0.33027292332868396
32	0x3fcfdd46f4a708c6	0.24894034334108123
33	0x3fbe0b23d95682ac	0.1173574834451851
34	0x3fd05079ec4176ae	0.25491188117835406
35	0x3fb02ea039d78523	0.06321145450740011
36	0x3fa80636c95aba73	0.046922409133334585
37	0xbfd62baea1111ced	-0.3464161465567049
38	0x3ff08784962ea235	1.033085428856919
39	0xbfd22103fd3b531f	-0.28326511125242065
40	0x3fb5d89b31b15300	0.08533639872741716
41	0xbfd8c528e36d42e7	-0.38703367433212893
42	0x3fe0e45718c18068	0.5278735621941566
43	0xbfaf15daf2136d02	-0.060713617372778486
44	0xbfe7a7aeebe1b811	-0.7392191512169594
45	0xbfe97486340df584	-0.7954741493883124
46	0xbfd4681a7a1c4b10	-0.31885396885734085
47	0x3fd740ecfcefa95a	0.36333775234984034
48	0xbfbceaea60b45a10	-0.11295952664327324
49	0xbfaeed6bd79a2688	-0.060405130451795463
50	0x3fd85e87a891592c	0.3807696481866454
51	0x3fc0e19a82edd52c	0.13188487427729834
52	0xbfd3264e3bdb2d84	-0.299212988332066
53	0x3fec32ed5579b2ff	0.8812166852418101
54	0x3fe0b0608c1a25f8	0.5215304123277624
55	0x3fe21887f4b3d5e7	0.5654945163102497
56	0xbfc7826ed92feaad	-0.1836679993137599
57	0x3fdc3793a80704f9	0.440892137612607
58	0xbfc81a9fb092bc22	-0.18831249353158436
59	0xbfe26b9748d536e7	-0.5756336615101788
60	0xbfe922d2e766b9ce	-0.7855009574466807
61	0xbfb0ff9c91d6778b	-0.06640032349102236
62	0xbfe7a1d7e5056d07	-0.7385062668867314
63	0x3fe1345621e9cb62	0.537638727413974

equations.x.layers.0.bias f8 [64]
0	0xbfdcbf31ead298c7	-0.4491696160497551
1	0xbfc0578fb544673f	-0.12767216063439865
2	0x3ff67aaced2dd584	1.4049500717931958
3	0x3ff6854c0d4ce3be	1.407543231920712
4	0xbff0c1c120f2bec4	-1.0473033225097632
5	0xbfe2f338779f7214	-0.5921900116332517
6	0xbff017db1c6aeb2e	-1.0058241949142928
7	0xbfdbe9980f42b22c	-0.43613244524275063
8	0x3fc5eefb494fee35	0.17135563926409395
9	0x3fe9017cd4e567c0	0.7814315946700319
10	0x3fd442d7aa63136b	0.31657973899228037
11	0x3f89eba96d83700c	0.012656520514092072
12	0xbfe3b31cd21f4d21	-0.6156143287611578
13	0x3ff17c1061a51706	1.0927890600445962
14	0xbff2a7f16aad1284	-1.1660017172845594
15	0xbf828d4d033a553f	-0.00905857244587571
16	0xbf96d4a84893ecdb	-0.022295598439978952
17	0x3fd809513d670672	0.3755686854966377
18	0xbfee2c2fd6801cbd	-0.9428939046346368
19	0x3fa0d1fd0d0ebad2	0.03285208496469284
20	0xbff06120dd7e547d	-1.0237129833306249
21	0x3feb3764483a3fc7	0.8505116854375893
22	0x3ff53bbec75253d6	1.3270862375259092
23	0x3fc5dfc6e706c7c5	0.1708916309412968
24	0xbfe230724af6ad6a	-0.5684138740665905
25	0xbff03ddb6f165135	-1.0151018466322743
26	0xbfd95976346e054e	-0.3960853111276109
27	0x3fdf7699e4abb462	0.4916138394463073
28	0x3feffb6a3d8efe5c	0.9994403078380389
29	0xbfe5f25ece84875a	-0.6858362229870452
30	0xbfebce3915496997	-0.8689237037427117
31	0x3ff0a53091301ef0	1.0403295203595313
32	0x3fd37f28eff9f447	0.3046362250823375
33	0xbfef6a58c29aa8ac	-0.9817317772733722
34	0xbff18370a6b7b1c8	-1.0945898544697332
35	0xbfd55d427b3eca0e	-0.33381711993857344
36	0x3f93bf0be0d89b24	0.01928347167827406
37	0xbfc10bf190deb9fb	-0.13317699025851923
38	0x3ff3d8999acd089f	1.2403808638487488
39	0x3ff5434a84f431d8	1.328928489066234
40	0xbfe4a69b7fd613cd	-0.6453378197480731
41	0xbfc063611fc71b48	-0.12803281833313407
42	0xbfcfcb21f91de779	-0.24838661826998612
43	0x3fe8fdeb1a7ce647	0.7809958951322152
44	0x3fe468b467d74b79	0.6377813366074029
45	0x3fe65adef028d57e	0.698592633306063
46	0x3fe2882c6c614257	0.5791227452082904
47	0xbfe6a541a810dff3	-0.7076729090249486
48	0x3fe9bedb4b2fb281	0.8045479267580761
49	0x3fdaac65c6ef4792	0.41677231242385304
50	0xbff6f57d906d53bb	-1.434934200447272
51	0xbff2122f8ccff33e	-1.129439878509586
52	0xbf97f3c4cd779c2b	-0.02339084152290753
53	0x3fe7657495bf6b09	0.7311346935997288
54	0x3fd4630a14eb43ef	0.3185448841368829
55	0x3fe46d0114507c37	0.6383061787381682
56	0x3ffaededbcecf362	1.683088052740651
57	0xbfbe2e2fe0bc2fac	-0.11789225804039799
58	0x3ffa33a14d5d8b14	1.6376050016485282
59	0xbfcc1fc281ebaca0	-0.219719232023043
60	0xbff750229d263946	-1.457064260353563
61	0x3fe1ccc49f0eef58	0.5562461001022525
62	0x3fe2424165118a8b	0.5705878232950722
63	0xbfd2d19bdfac6e87	-0.2940435108482479

equations.x.layers.2.weight f8 [64, 64]
0	0x3fbac662634da402	0.10458960461041047
1	0x3f9182a012a3789f	0.017099858415229204
2	0xbf97ced4f6d19d89	-0.023249938549637448
3	0xbfb8a4649744cb90	-0.09625843709072357
4	0xbfa8c849a7da517b	-0.04840307401642271
5	0xbfbc101962b5581c	-0.10962065372345403
6	0x3fa9ce0e14bf2707	0.050400199921183435
7	0x3fbcb3c49b783224	0.11211804195063074
8	0x3fa1baded11f0d70	0.03462883284330587
9	0xbf90112ab5f44333	-0.015690486293411254
10	0xbfab0742cec2e346	-0.05278977178517734
11	0xbf52b896ba52248c	-0.0011426422072722568
12	0xbf8905571143a3f0	-0.012217216696130934
13	0x3f86e6b98634a515	0.011182259948855614
14	0x3fbdf302f665f480	0.11698931232054299
15	0x3f7b28ec173f31c2	0.006630823354452921
16	0xbfa6ffc8ebc4b737	-0.044920233517002854
17	0xbf6703413d0d01dc	-0.0028091692151124125
18	0xbfbb0f980fc9dd27	-0.10570669541799714
19	0xbfbe7fe82288f591	-0.11913920252933098
20	0xbfa6320ce4fd2880	-0.04335060401224755
21	0x3fb928abbfe80573	0.09827683863843166
22	0x3fb8fdcebe599ee9	0.09762279650896812
23	0x3fbc5b81bae2a592	0.11077128231649727
24	0x3fae8b08400ed2f3	0.05965448171574463
25	0x3f97a1be1d279fac	0.023077936677424013
26	0xbfb5b009da2e5b01	-0.08471738411604336
27	0xbf9c1d8513795235	-0.027456359208672693
28	0xbfb706fbb17c9dad	-0.08995030482457507
29	0x3fafba197c35a20e	0.061966701900761575
30	0xbfb7a1c65efa53ad	-0.09231223887247948
31	0xbf7dcadc595d672a	-0.007273541201209524
32	0x3fb9959744ba34fb	0.09993882587351159
33	0xbfc0462b75de5e1f	-0.12714141135505572
34	0xbfb3fe47590a5cd2	-0.07809873508300605
35	0x3fc0188a59282fb1	0.12574891427391102
36	0xbfb5afb3a895826d	-0.0847122465688785
37	0xbfb309faab9f5970	-0.07437102022172382
38	0xbf5f16c4b67e8351	-0.0018975182556248591
39	0x3fbc3835d2f0a00b	0.11023270034695558
40	0xbf87f7a7d2a4558b	-0.0117028342397514
41	0x3fb70a888b2b3ee0	0.09000447652510557
42	0xbfb1ba36bbfa6724	-0.06924764718351334
43	0x3fba830de90b4467	0.10356223048735701
44	0x3f8080d6105c465b	0.008058235525399462
45	0x3fb87299ab29aab3	0.09549866131571143
46	0x3fa8d50d710fd3d5	0.048500461627476156
47	0xbfb96531c8f3dc9d	-0.09920035511082621
48	0xbfaff4b9fd6816c4	-0.06241399019567731
49	0xbf529fb2b506d315	-0.0011367078005665766
50	0xbf94bffd054cb1dc	-0.020263627479993093
51	0x3fb67607e2c0ae41	0.08773850713685595
52	0xbfbef10380c239b9	-0.12086507695696626
53	0xbfb7b6310e71100f	-0.09262377359942796
54	0x3fa55e1fe10c2039	0.04173373815689314
55	0xbfa2ff4c597aecea	-0.03710402099883388
56	0x3f93434c5ea6fc4c	0.018811410214535848
57	0x3f7e2bc5a661ebc9	0.00736596304897836
58	0xbfa0ff620f853466	-0.03319841803986705
59	0xbfb70c39cdc0ac27	-0.09003030083901874
60	0x3f840deb3bc48f45	0.009792173158139081
61	0x3fa3b76c0773a17b	0.038508773717526666
62	0xbfac4a87b1c27f84	-0.0552561192027943
63	0x3fbd45d89c483973	0.11434701743585211
64	0xbf93dcb4702c6ece	-0.01939660963681327
65	0x3fb0c99cc816866f	0.06557636151276268
66	0xbfb5fe6745b17cc8	-0.08591313792702515
67	0xbfc1f10771e3f997	-0.14016812382756136
68	0xbfb7156e883117f8	-0.09017077279085572
69	0x3fb487858a87231b	0.08019289619472796
70	0x3fbf758644e97de4	0.12288703138755569
71	0x3fc2b324bd332db0	0.14609202612187522
72	0x3fb45dacc90738e9	0.07955436618724189
73	0xbfb01faafaa7c3a7	-0.06298321361079094
74	0x3f655b954072e881	0.002607146746950895
75	0xbfb5275a35b35925	-0.08263171969460766
76	0x3fb266238571e08c	0.0718710137169884
77	0xbfab34fdf47776f0	-0.05313867196285382
78	0x3fc3b1561b8eb419	0.1538493761594573
79	0xbfa2cea55c3ad7cf	-0.03673283339359978
80	0x3fbe5244b0ee1d73	0.11844281501372737
81	0x3fb8429a326ba462	0.09476627093285253
82	0xbfb34aa8e0ac04c8	-0.07535796628146152
83	0xbfb6659ddf9eb4d4	-0.08748804769011836
84	0xbfbe6dbcdbbf6e5c	-0.1188619648450468
85	0xbfb2aa81f739d453	-0.07291424070156553
86	0x3fa7ab0af5d22f18	0.046226828105402074
87	0x3fbe5d8cf0c146d1	0.1186149680882196
88	0x3fadf3937188fefa	0.05849896202971468
89	0x3fb66bbe09cf99a1	0.08758151759648182
90	0xbf9987de3181a2be	-0.024932357570295542
91	0x3fb06040ebfe69a2	0.06396871339385382
92	0x3f947f1e29b00563	0.02001616601410684
93	0x3f211beed765a0f9	0.00013053217453352204
94	0x3fa44ae4c885f6ef	0.0396338934688013
95	0x3fbdc941a7e3e0d4	0.11635217999344444
96	0xbf9914da24cf4b10	-0.02449360704106157
97	0x3fc0eab5a739cfe0	0.1321627680332531
98	0xbfa1f1e63025e705	-0.03504866922135189
99	0xbfbab66ef1353b87	-0.10434621228090012
100	0x3fb5e836d016c884	0.08557455616281301
101	0xbfb5ea80c8027c9e	-0.0856094826035467
102	0xbfaf23d467d95e6a	-0.06082023399056598
103	0x3fb7e81f709be677	0.09338566302531058
104	0xbfa4abec6461d259	-0.040374171498943574
105	0x3f8146f768cdd333	0.008436138997902276
106	0xbf9362f499dda59c	-0.01893217267153134
107	0xbfb42762af22e1eb	-0.07872597480571357
108	0x3fadd2d6cf70d7ed	0.05824919969784035
109	0xbfa774b40b10c12f	-0.045812250471842446
110	0x3fb1e77017187244	0.06993771137099097
111	0x3fb04e7454da842f	0.06369711944218247
112	0xbfb2e32692a06f4c	-0.0737785442328775
113	0xbfb80a429f455d09	-0.09390655888033818
114	0xbf45d007711fb00d	-0.0006656681382515309
115	0x3fc320ca0128270d	0.1494381433151876
116	0xbfa3ce254aa5f824	-0.03868214164957376
117	0xbfbd48ab697101f1	-0.11439009975675397
118	0xbf8fbefb6332ee00	-0.015500987973033453
119	0xbfbf5dc9274e0280	-0.12252480706775692
120	0xbfc444bf5b0c8241	-0.15834800668473473
121	0x3fb8a96e76c07072	0.09633531951152621
122	0xbfca7413f251fddd	-0.20666741687817494
123	0xbfb3f119974e70e7	-0.07789764350895077
124	0x3fa32f2ca60309d0	0.037469287171478904
125	0xbfb3d0db14fc44c9	-0.07740563642825572
126	0xbf67a02dc7514e77	-0.0028839964020706504
127	0xbf998d79839d2b40	-0.02495374551589724
128	0xbfbdf45b56620b73	-0.11700983866653107
129	0xbf807f46cb859f62	-0.008055260740277684
130	0xbfb1d41b1aa9e48c	-0.06964272881477224
131	0xbfac9cf5a8aca7f1	-0.05588500675214892
132	0x3fa5434bb97df8f7	0.041529051201893034
133	0xbfb90aa322fb4e92	-0.09781856159252758
134	0xbf67294f3c3f32e1	-0.0028273150983067906
135	0xbf6a3eb3fc746a72	-0.003203727279140361
136	0xbfb2747519274f21	-0.07208949913120623
137	0x3fb40a9e8d91b26f	0.07828703838613092
138	0x3f9cd5cbe0ac65f9	0.028159318531015363
139	0xbfba8fbde290559d	-0.10375582486479691
140	0x3fa2841f65fc95de	0.03616426582292907
141	0x3fa2c942725dfc27	0.03669173856814494
142	0xbf998fecdb72bd33	-0.024963093656592505
143	0x3fb35dbb025cda18	0.07564896400149512
144	0xbfb32ea2deb7d3f2	-0.07493036210492202
145	0xbfa1d74dad2488c9	-0.03484575975950716
146	0x3fb7a4695b296c82	0.09235247111921477
147	0xbf5538fe829525dd	-0.001295326752670404
148	0x3f60c4ce9d7e4dd0	0.002046969933823674
149	0xbfb472a910c3dae7	-0.0798745790415115
150	0xbfb13e468e79f9a4	-0.06735650041989644
151	0x3fbcdfaf8d220ba9	0.1127881736338582
152	0x3fa9217a4c546ddd	0.04908353978882094
153	0x3facb5bcabddbcb7	0.05607404325461956
154	0xbfc0602f6392168e	-0.12793533670280904
155	0xbfb769f2b2d3c22f	-0.09146038881204598
156	0xbfc097af8d6661f2	-0.12962908176702076
157	0x3fbeea243ef74f67	0.1207602170682641
158	0xbfb82790ab7ca8c6	-0.09435371576970217
159	0x3f9887aa3b666011	0.023955020785791762
160	0xbfbd7f2563be0a5f	-0.11522134480586875
161	0xbfbad98cad4a4306	-0.10488204222407313
162	0xbfb8e2ed612bf490	-0.09721263525348633
163	0x3fb82b983b6938ac	0.09441520166839962
164	0xbfbb9c876981265c	-0.10785719228547336
165	0xbfa420a1bfdaa44d	-0.03931146113365767
166	0xbfbe102cb01aba06	-0.11743430423187115
167	0xbfa546422ca92029	-0.04155165476964868
168	0xbfb1bc8270242dcd	-0.06928267705750742
169	0xbf9d44852e533b5e	-0.028581696464978427
170	0xbfb05bdd960e4791	-0.06390175736876659
171	0xbfa6fcaab4c4b0b7	-0.044896444860883226
172	0xbfb0307a855991a5	-0.06323972468960067
173	0x3fb3bb599dee91af	0.07707748513946087
174	0xbfb365f7b45e5156	-0.07577465203786934
175	0x3f872cb8e856da42	0.011315769758636244
176	0xbfb9e839ea3cff8c	-0.10119974106510038
177	0x3fbc1025d70592d6	0.10962139606051421
178	0xbf72d62634672350	-0.004598759877304584
179	0xbfb655c20628e03a	-0.08724606180555919
180	0xbfaa4360cd4528ad	-0.051295304353133765
181	0x3f8c0fac67b74529	0.0137017697478848
182	0xbfa24c643aa06a6c	-0.035739071041651055
183	0x3fab9ecf383db34b	0.05394599496398785
184	0xbfbf9e0178556d1a	-0.12350472629389167
185	0xbfbef80cad0a07cf	-0.12097243523206135
186	0xbfb1ac61d4bb79af	-0.06903659289989748
187	0xbfbc7ab01e32b042	-0.11124706971412571
188	0x3faf5ef1ae7ff477	0.0612712407600861
189	0xbf88fd1b2643fb17	-0.012201511483451761
190	0xbfb8ae18c01359ee	-0.09640650452943308
191	0xbf7f7e3d7188e174	-0.00768875123372258
192	0x3fb67273c10402c7	0.08768390142723624
193	0xbfbb8f8515acbfa2	-0.10765868930025005
194	0x3fa49aa431ee7991	0.040242320151480666
195	0x3fb127877723a401	0.06700941713974375
196	0x3fc19f3d51819dc9	0.13767210464287263
197	0x3fa8e84cb6f0224f	0.048647305804540346
198	0xbf9ac5d85c4b54e6	-0.02614534438437923
199	0x3f95d29801ab0aff	0.02131116399938104
200	0x3f976f3fa29d653e	0.022885317135068244
201	0x3fc01ab61fa12158	0.12581516785054236
202	0xbfb7a929dd3249cb	-0.09242498064330744
203	0xbfc0f1615b406d92	-0.13236634212158244
204	0xbfb6a0ce02217ea6	-0.08839118530294829
205	0xbf9ec303480d9ede	-0.030040789864329003
206	0x3fb09902c2759589	0.06483475921193906
207	0xbfac84d95f79b4cc	-0.05570105829688429
208	0x3fb8449fa0faa872	0.09479711227564439
209	0x3f9a82a9f01aaf23	0.025889067916678898
210	0xbfb54b3748b23c75	-0.08317895436106133
211	0x3f89cd8bcd2555d8	0.012599079320959314
212	0x3fb31e7c8aa75c28	0.07468393693066899
213	0x3f93f495064a0118	0.019487694271902972
214	0x3fb0ca87cc5730e9	0.06559036959442079
215	0xbf70c6533d3950d6	-0.004095387604668063
216	0xbfbe0d730ccf85ee	-0.11739272177467061
217	0x3f7ad54822c4d231	0.00655105760624912
218	0xbfa8c5e4d898a04c	-0.0483848108672765
219	0x3fb30b0469e8bd5d	0.07438685975715971
220	0xbfb09b7e4e9ffc49	-0.06487264079622536
221	0xbfac3defd2f3c12a	-0.05516004037952123
222	0xbf93696630a4c124	-0.018956753462760947
223	0x3fb353727481b78a	0.07549205154802344
224	0xbfbb6e4eae847628	-0.10715190659217255
225	0xbfb954ed9efde42a	-0.09895215160021623
226	0x3fbd94cfc8677379	0.11555193560293543
227	0xbfb9c77be5ff36b4	-0.10070013394507776
228	0xbfba160f83de5e8a	-0.10189911813210464
229	0xbfba72d9a552641f	-0.10331497465303173
230	0xbfa0175d308633e2	-0.03142825333916456
231	0xbfb212c0be2a5dc0	-0.07059864657127601
232	0xbfb8c953a5cd6e72	-0.09682200239097385
233	0x3f7bf9d8c626d1ea	0.0068300693259754994
234	0xbfb2e9166bb0f1c4	-0.07386913422755642
235	0x3fbce4508a7bb0da	0.112858804520957
236	0x3fab1f41f32f6050	0.052972851691891365
237	0xbfc025655dd74a59	-0.12614123422698034
238	0xbfbc9c99ada6cea3	-0.11176453103581223
239	0x3fa546dac0326b3b	0.041556201898137655
240	0x3f9c65576e72ad5a	0.027730337253769256
241	0xbf87963782999ee6	-0.011516984627817316
242	0xbfb13969fd19401d	-0.0672823183933819
243	0x3fbd16028c685fe1	0.11361709525988274
244	0x3f8250fdb213b241	0.008943540570237054
245	0x3f9f6cd7f78b2e22	0.030688642963282338
246	0x3fb3ecdc52663436	0.07783295642566732
247	0xbfb3d20ae5e41313	-0.07742374527522271
248	0xbfc09edeab22b18f	-0.12984832149721767
249	0xbfb586402ff913fc	-0.08407975360121606
250	0x3f7131cb02cacbcb	0.004197876941065946
251	0x3fa57c0d9d0ee828	0.04196207563605042
252	0xbf9086b45e167698	-0.01613885711923632
253	0x3f9fb8257c6bdc80	0.030975900382113952
254	0xbfa7d2e616b4aa87	-0.04653090502900619
255	0x3fba40c7b32f6768	0.10255096554410914

equations.x.layers.2.bias f8 [64]
0	0xbf914d888038fffc	-0.01689732821091637
1	0x3fae16c7f7e4e286	0.058767556200511925
2	0x3fbb9ac7be477aab	0.10783050914276752
3	0xbfbb3b9d5a026991	-0.1063783974408692
4	0xbfb5be0c34d888f4	-0.08493114748174319
5	0x3fb8c0d2ccf34a82	0.09669225219412605
6	0x3fbd327591205bae	0.11405119698643659
7	0x3fc0c26f046011a9	0.13093364442478375
8	0x3fbd47259f234dd5	0.11436686644747536
9	0xbf9a6b2d460d2ead	-0.025799472237209176
10	0xbf76c709c81d7d50	-0.00556091137863686
11	0x3fb38e1015749ace	0.07638645671668629
12	0xbf9f7b3ee2c214c4	-0.030743582334726197
13	0xbf603d3b2a3932b6	-0.0019823222699300825
14	0xbf9a6b5322fe8c34	-0.025800036440738874
15	0x3fbc9779bcd5af89	0.11168633327696233
16	0xbf9cafca08bc2de3	-0.028014332564493826
17	0xbfbaac5c1b482fe6	-0.1041925016981505
18	0xbfb92d9974832606	-0.09835204214609669
19	0x3fa14dce801437da	0.03379674256767347
20	0xbf9939d0f76f4745	-0.02463461408826297
21	0xbfb3e49444e14ded	-0.07770659143107368
22	0x3fb7012056558682	0.08986093623891558
23	0x3fbda5531687b5e1	0.11580390262653097
24	0xbfbee79e08bc6041	-0.12072169984128413
25	0xbfbb06b327ca2514	-0.10557098123003456
26	0x3fa24173851ff7d2	0.03565560340938102
27	0xbfb3553ac1003309	-0.07551924907620501
28	0x3fa10d96434e6d29	0.03330678531275517
29	0xbfc5078fc5bdabfa	-0.16429326205556533
30	0xbfb76c39ad893dc2	-0.09149513708802373
31	0xbfbc72262cfa0ac1	-0.11111677740158667
32	0x3fbcb2668ae295ca	0.11209717646359887
33	0x3fbf1a4a619c601b	0.12149491198613342
34	0xbfb31623bafdc638	-0.07455657305924823
35	0xbf82db39227c8c9c	-0.009207197537369809
36	0x3f996358b08229b1	0.02479303910562586
37	0xbfb1ef88042b9fee	-0.07006120778862598
38	0x3fb48750303d2f1b	0.08018971612653696
39	0xbfb939cec625683e	-0.09853832566787532
40	0x3f9011b1645557fc	0.015692493199217936
41	0x3fb5be3f80dc9493	0.08493420501743491
42	0xbf82eb41cf36b9d6	-0.009237779747164259
43	0xbf9e550eef5ea51b	-0.029621346816985566
44	0xbfb8a18ff427f424	-0.09621524535028009
45	0x3fb35e034d4e313d	0.0756532729848844
46	0xbfbf85dcf2ab466d	-0.12313633846795265
47	0xbfa7a77017ea28bc	-0.04619932453086181
48	0x3fbfd8f2d815cef3	0.1244041230727893
49	0x3f8edcfd1031790d	0.015069939667395471
50	0x3fae3f963372f4f0	0.05907887819328461
51	0xbfa168e79d383429	-0.03400348467048559
52	0xbfad5fee79a19b71	-0.057372524592941405
53	0x3f9481bd26ff2215	0.020026164536632935
54	0x3fb38e459872ba34	0.07638964626196626
55	0x3fb5c3df665ecaae	0.08502002953791063
56	0xbf8f7bd4ecb05474	-0.015372909043472861
57	0xbfb72c3ffeac3d0a	-0.09051895110700428
58	0x3fb83d81561ed3dd	0.09468849518346141
59	0xbf6cab0e82c2c42d	-0.003499534932494905
60	0x3fb7f38e34222e18	0.09356011174002565
61	0x3fab54eb558ae078	0.053382257644842335
62	0x3fb41ae43e59047d	0.07853533289109467
63	0x3fb70ee09a7f0124	0.09007076045873369

equations.x.layers.4.weight f8 [64, 64]
0	0x3fb1d277c0f6efee	0.06961773358392495
1	0xbf9748fda1ee97d9	-0.022739375122590253
2	0xbfa8a7beeee35a18	-0.048154799138206694
3	0x3fb53a2b5974ab27	0.08291884359338707
4	0xbfb2e63835306f25	-0.07382537172855715
5	0x3f88663e5c05999d	0.011913764174732938
6	0x3fb8eeae8e4b7fb6	0.09739199613568314
7	0xbfae3b2bf75f2f41	-0.05904519457507585
8	0xbfa327ad64a86c78	-0.03741208890661424
9	0x3f95319ffa900f3f	0.020697116535316026
10	0x3f73d91ba43981b8	0.00484572217428119
11	0xbf66bc35499b74c4	-0.002775291516498331
12	0x3f8bf20424c40369	0.013645202991485044
13	0xbfaa4bb8c2ad8aeb	-0.05135896088065358
14	0x3f9fa676ea252563	0.03090844921215331
15	0x3fa5060fe2fa74b0	0.041061874825780165
16	0x3fa163e0fa3dd50c	0.033965139910757086
17	0x3f910c8b1f379155	0.016649411945665566
18	0x3fa50bd0a5e9cd4d	0.04110576653774931
19	0x3fadce376eb5a9e8	0.05821393228946531
20	0x3f93c5a9b970fc57	0.01930871195167713
21	0xbfaa7f174cc1cdca	-0.05175087749457992
22	0x3fa77758686e1dd6	0.045832407710857545
23	0xbfb165a33f785f32	-0.067957118030219
24	0xbfb633bae69ae6b7	-0.08672683839804561
25	0xbf97478fc01d51ca	-0.02273392305444747
26	0xbfb93dd0b1db719f	-0.09859947530953271
27	0x3fb7d5f3b1c66d80	0.09310839739048582
28	0x3fb7250dd62b278c	0.09040914992070109
29	0x3f7551402348e968	0.0052044396766695936
30	0xbf6712e88c852be8	-0.0028166334124413057
31	0x3fb9f7964e4c3c13	0.10143412982527904
32	0xbfb4c2c29e85c891	-0.08109680528812847
33	0x3fc0c687b01d7ebd	0.13105865573287714
34	0x3f34f5b455c947e8	0.0003198209067579714
35	0x3fbc9675fe6d1ead	0.11167085134104111
36	0x3fad3e5812b39c91	0.057116272242461304
37	0x3fa85fe93313a6ba	0.04760674236770286
38	0x3f884b195873e00f	0.011861989986286429
39	0xbf940d574359db29	-0.01958214138582118
40	0x3fa0ec65ff6db293	0.033053576879727896
41	0xbfaefb333f77f222	-0.06051025533449585
42	0xbfa3696aa3e044bd	-0.037913639549637314
43	0x3f6c85840c1e6f41	0.0034816340493772084
44	0xbfc35f093d6f5d03	-0.1513377714133882
45	0x3fab398014f0867a	0.053173067623231554
46	0x3f791f1f047e1b62	0.006133195078183858
47	0xbfb7810608a12ce5	-0.09181249342616445
48	0xbfb8f3cc03b942d3	-0.09747004595670754
49	0xbf98b6f0fa83b637	-0.024135365762893293
50	0x3fc1bb92e1171fba	0.13853679648150125
51	0xbfb247b51c434746	-0.07140666904458923
52	0xbf919e434e8dc534	-0.01720528761820113
53	0xbfb55cd3a4d8c6e9	-0.0834476735551807
54	0x3fbe473980cbacb2	0.11827430147575305
55	0x3fbb3e71fd873aad	0.1064215892758777
56	0x3f6518984e743fc3	0.0025752043471882493
57	0x3fc42b02d8742cad	0.15756259507211237
58	0xbfb3e9b1fc0e1e0e	-0.07778465655984965
59	0xbf7ac8fc861e063e	-0.006539331838099792
60	0xbfa7a567329ff967	-0.04618380063037613
61	0xbfa5a83ab50972fe	-0.04229911289141873
62	0xbfc2230c0ad7508b	-0.1416945507941175
63	0xbf72337c5b21a643	-0.004443631902270764
64	0xbfbd976a9e4f52a5	-0.11559168210016908
65	0x3fb40a706f6cea88	0.07828428955409994
66	0xbf90b276c6725f08	-0.01630578600142399
67	0xbfa489d7ab69a0ba	-0.040114154505148616
68	0xbfc14babff2b0f12	-0.13512182196984007
69	0xbfc0638f914586ab	-0.12803835481013456
70	0xbfa5cce9dd007339	-0.04257899115348213
71	0x3fab3b72cbac5b8a	0.05318793045278543
72	0x3f9caf1a7ebb6118	0.028011716828445804
73	0x3fba28d17587d980	0.10218533629799786
74	0xbfa7860c082154de	-0.045944572441536144
75	0xbfb06e6958fba9a6	-0.06418474600255894
76	0x3fa39d13b055d386	0.038307776713657524
77	0x3f838f30fbf72ff0	0.009550459565524222
78	0x3fb24e5cbf932520	0.07150821377867489
79	0x3fb86c1b0ee9ebe1	0.09539956201653822
80	0x3fa5ef13656a509a	0.04283962834338802
81	0xbfb9695004932d8d	-0.09926319228832466
82	0xbfc22724309b8f0f	-0.14181949971600047
83	0x3fa80826f358f342	0.046937195973873816
84	0xbf954dfad3ab7990	-0.020805281800556907
85	0x3fa16c2fc317696c	0.034028523030161434
86	0xbf9c2be5ca68ecb7	-0.027511206130139878
87	0xbfba3939ec66c71e	-0.10243570348282247
88	0xbf57d86daf330c77	-0.0014554091583683074
89	0xbf967684298acfd7	-0.0219364786486976
90	0x3fadfce42d31b147	0.058570032612666405
91	0x3fc4266718b3ce2e	0.15742195802850872
92	0xbfb1597e9e31c237	-0.06777182924430113
93	0x3fb244cb1788e9fb	0.07136220287876675
94	0xbf9ba2249c6fafe2	-0.026985714004624024
95	0x3f94ace1697fedcf	0.020190736831848185
96	0x3fad4e35f7c63458	0.057237326141241496
97	0xbfb63e6fb6267765	-0.08689020344760719
98	0xbf9ba003b13a4bbf	-0.026977594081994512
99	0x3fa56b111a319c17	0.0418324799036826
100	0xbfadad70cd1ac095	-0.05796387199132017
101	0x3fa52b8aa52b3a21	0.04134782091351875
102	0x3f84aa1f8d15f403	0.01009010934171251
103	0xbfb677f518debe40	-0.08776790482692665
104	0x3fa912890ab8708d	0.048969538267756275
105	0xbfad6a7ab6fdd2b9	-0.05745299800665777
106	0xbfb78d2ad169094c	-0.09199779141002756
107	0x3f99398fdc4efd59	0.02463364393383691
108	0x3fab03b2c9a0477e	0.05276259146934502
109	0x3f8c686c8affb151	0.013871047965914459
110	0xbfbf558b9caf0e9e	-0.12239906859673019
111	0x3fbfcdfd3dbbf727	0.12423689610656351
112	0xbfbed994a942bce7	-0.1205075181230658
113	0xbf7c638f21678b7e	-0.006930884459935947
114	0xbfb358d8b7b8baa7	-0.07557444081678942
115	0xbfa48f951bc6eab9	-0.04015794719767513
116	0xbfbabd643cbcdfb7	-0.10445238573890846
117	0x3fbe9361ba681718	0.11943636704389993
118	0xbf9f1522d4f37723	-0.030354065177440447
119	0xbfa35789354bb840	-0.037777221446831266
120	0xbf793bca1501211f	-0.006160535223962676
121	0x3f7a0362d36c4238	0.006350885428006374
122	0xbfb656ce985a1915	-0.0872620698884002
123	0x3fb647fe0129908f	0.08703601387384395
124	0xbf9b8d0e76cb235f	-0.0269052753454021
125	0xbf8e7ef592af0d10	-0.014890593089040866
126	0x3fb43721a95f5230	0.07896623978678785
127	0xbf90e01299bde158	-0.01647976935734738
128	0xbfb51625272acb12	-0.08236915785054702
129	0x3fb13cb3402831ea	0.06733246151288311
130	0x3fb2d846ae76a55d	0.07361261138307414
131	0x3fbcb2002c30c155	0.11209107474201592
132	0x3fa3e9f515f679f9	0.03889432805157251
133	0x3fbc10d24921364e	0.10963167462724607
134	0xbf8f600d652afe2f	-0.015319924020672364
135	0xbf93b550a8eddb0f	-0.01924634963094279
136	0xbfa32ed9d012eaf8	-0.03746681847538541
137	0x3fad684e8eb8095c	0.05743642322706208
138	0xbfab00a3f5db3ebc	-0.05273926140000415
139	0xbfb68daf0ed409e1	-0.08809942352312518
140	0xbfab70035436a17d	-0.053588966398197414
141	0x3fac242e228b4b48	0.054963533131419384
142	0x3f9780cafd424888	0.02295224352617045
143	0xbf967a7112e3d29e	-0.02195145299715994
144	0x3fbe57b59b53e3ad	0.11852583925418854
145	0xbfb7a01cfc1a7863	-0.09228688387745047
146	0x3fa0f65124cf687b	0.033129249328070785
147	0x3fb8e1afe325364d	0.09719371123829852
148	0xbfa79818c2731542	-0.046082280861393446
149	0xbfb024ae91916ef5	-0.06305972150715518
150	0xbfa7a88c7b9e4835	-0.04620779999744721
151	0x3fa631abf963912a	0.04334771556185253
152	0x3fa4e8ef3975978d	0.04083964897544865
153	0xbfafb5c3178f328b	-0.061933609605692906
154	0xbf8f35c13db4032f	-0.015239247985392971
155	0xbfafaa0745a272f9	-0.06184408879309972
156	0xbf91bc1865992772	-0.01731908912760311
157	0x3fb3b5a6c7d02a23	0.0769905317139679
158	0xbf8512fb0e76ec84	-0.01029010904209416
159	0xbfb001ec432d0f1e	-0.06252934112586359
160	0xbfb00f8faeb00cd0	-0.06273744597278896
161	0xbfb7411050366e1b	-0.09083654363933429
162	0xbfa6370fb159721e	-0.043388834380241756
163	0x3fa01616a2d126b8	0.03141852128517314
164	0xbfb73374c16fa56c	-0.09062890741883728
165	0x3fab3dfe929ed6be	0.05320735492516125
166	0x3fb4b8b5f08c77e8	0.08094346163531407
167	0xbfb00f78627fe650	-0.06273605732703769
168	0x3fa533abf4230b23	0.04140984873949651
169	0xbf9e568d27376481	-0.029627042311265676
170	0x3fba2d9e788ee482	0.10225859111132432
171	0xbfa153d612384077	-0.033842744564140874
172	0xbfb52f4524bc4789	-0.08275253435956932
173	0x3f9938ee05ea816f	0.02463123236759784
174	0xbfaf7c42847020a3	-0.06149490229296475
175	0x3fc00f2876f6d85b	0.12546258744049762
176	0x3facc09455367b6e	0.056156764413791346
177	0x3f97909ab325570f	0.023012559112735306
178	0x3fb5b87c43ebe590	0.0848462739776521
179	0x3fbbe77bb1599fed	0.109000902937282
180	0x3fbeaaec8e0bb261	0.11979559390938156
181	0xbfa0f6e715b93d33	-0.03313371792011779
182	0xbf9bdf84ae792a85	-0.02721984209919494
183	0xbfb6101f1687093f	-0.08618349361407683
184	0x3fc26556d3d6912a	0.14371762603435317
185	0x3fc395d364a0d99b	0.15300981915943343
186	0x3f904641477ea681	0.015893001545612243
187	0x3f77bf80fb9f65d3	0.005797866668183232
188	0xbf958be71d6cf747	-0.021041499300955804
189	0xbfb06c3de844d909	-0.06415163918140733
190	0x3fafe187d5373d6b	0.06226753690463734
191	0xbf9ef88c3022c420	-0.03024500888631476
192	0xbf6049f48e1f5d3f	-0.001988389632042647
193	0xbf67719e5a5c832f	-0.0028617947417760785
194	0xbfb0e54d58a5aecf	-0.06599887289274452
195	0x3fb21e19d8ccdf15	0.07077180426574288
196	0xbf877f837154b83a	-0.011473681350789734
197	0x3fb29b707069764c	0.07268431419785165
198	0xbfb285dde5819697	-0.07235514500788508
199	0xbfaeffd855c145e2	-0.06054569289029722
200	0x3fb19f01a1b6b514	0.06883249471748726
201	0xbfa81ee6ab34631d	-0.047110756300929625
202	0x3f9990203e10a246	0.024963859356065286
203	0x3f8f10a790ed8f7f	0.015168484793043778
204	0xbf912f85eafebab3	-0.016782848804434546
205	0xbf52198b806da46a	-0.001104723198034808
206	0x3fc3b0765efe4cf3	0.15382270468089806
207	0xbfb684dae3db32aa	-0.08796470702072648
208	0x3fbb92a3ec5bbdaf	0.1077063037916932
209	0x3fa49cbaa9e5befd	0.04025824855750491
210	0xbf71bebf9db68b9f	-0.004332302570591389
211	0xbfb012ee9fcd1775	-0.06278888131518363
212	0x3fb295288149d7f0	0.07258847385841682
213	0xbfb3706e518e87ce	-0.07593430987483815
214	0xbfb1ddd05104848a	-0.06979085901231677
215	0xbfb8409659fd3391	-0.09473552414892895
216	0xbfb91fe44a806e3b	-0.09814287966622086
217	0xbfa5cc855f5d7ba1	-0.04257599629521925
218	0x3faf45b001d29902	0.061078548643580546
219	0x3fa1da3cde60014d	0.034868147035015264
220	0x3f9e04f69f2e9f31	0.02931580874033485
221	0xbfc72fa745ce0b76	-0.18114176662865206
222	0x3fb983dbb9c4b553	0.09966824803696754
223	0x3f977dff84a3660d	0.022941582174871345
224	0xbfb1f25f521c0bfa	-0.07010455851199984
225	0x3f9c20aa68fb6ef4	0.027468359620669028
226	0x3fb5007e4a47c905	0.08203877747999762
227	0xbfb5539c938ccb91	-0.08330706217092955
228	0xbf76d904140d2ec1	-0.0055780562696090006
229	0x3fbe79b40b4c7775	0.11904454494330514
230	0x3fa98328501c18de	0.0498287771024921
231	0x3f9f144a9a44e81d	0.030350843110888193
232	0xbfc0811d42b1b79d	-0.1289402557044327
233	0xbfa3c0b234f54aaa	-0.038579529728527476
234	0x3fb573f88ee0d744	0.08380082596053479
235	0xbf9011cd839b5dd0	-0.015692912252090185
236	0xbfadf4d1dba42d67	-0.058508451520618725
237	0xbfb675294a71cfc1	-0.08772523944372691
238	0x3f908f6c69dd6b9a	0.016172117196542858
239	0xbfb5a1b363d357bd	-0.08449860751292611
240	0x3fbbafdb61e9c7d8	0.108152114300338
241	0x3fa91ea61db1986c	0.04906195747825923
242	0xbf8cbdc385be86d5	-0.01403382064728779
243	0x3faf664fcd2755f1	0.06132745150868491
244	0x3f7a200d9c435ad7	0.006378224530826335
245	0xbf95ff0604ad28e8	-0.02148064998190416
246	0x3f7c75ac7259cdf6	0.0069481598089739995
247	0xbf952cb3e7f148de	-0.020678339988372645
248	0xbfbb164b199ca99a	-0.10580891967098296
249	0x3f8df8d66eb17888	0.014634776356782689
250	0x3fb7b5e3c81c67d0	0.09261916766663991
251	0xbfbea32a0370b3ef	-0.11967718681326266
252	0xbfa96b252e0a9b1f	-0.04964557826069992
253	0xbfb0d4443aa63520	-0.06573893005243692
254	0xbfb03ed02095b7db	-0.06345845027473677
255	0xbf9a37a17890bdc5	-0.025602839454391253

equations.x.layers.4.bias f8 [64]
0	0xbfb06c8f32447f19	-0.06415648438678224
1	0x3f997c8a445ddc1b	0.024889145300644438
2	0xbf5e04223352040c	-0.001832040213486377
3	0xbf7d223a891ee58e	-0.0071127211139637835
4	0xbf84d9e145b94a4b	-0.01018119806318398
5	0xbfabe0d30055f4aa	-0.05444964770411194
6	0xbfb13be99ec2cda5	-0.06732044340133443
7	0xbfadf21e46f2d7bc	-0.05848784080573874
8	0xbfb6876e71008060	-0.0880040193446816
9	0x3fb1079a1d9072ad	0.06652224752219622
10	0xbfb11f3f21b768f9	-0.06688303540378006
11	0x3f8b5cce750fa0d0	0.013360608050746597
12	0xbfa363f88a338a8d	-0.03787209212329854
13	0xbf97a4c73d5ace9d	-0.02308951675395453
14	0x3fbbae8ab32b902e	0.10813204645415972
15	0x3fa2acff73aed271	0.03647611891884573
16	0xbfa644b32495aba6	-0.04349288770284625
17	0x3f657ffd4788b583	0.0026245066512930472
18	0x3fba308dae85ceab	0.10230336676414235
19	0x3fc0397f852a6e05	0.12675470354302845
20	0xbfc143e96398cdce	-0.1348849998772565
21	0x3fb935af1aef01c1	0.0984754029041204
22	0x3f5bf713873fe25d	0.0017068567949519921
23	0xbf9afdcefff38137	-0.02635882794572916
24	0x3fbe2bad4b9d8670	0.1178539571388002
25	0xbf4666579601b4c1	-0.0006835868516767083
26	0x3fbbd54ddc6b891e	0.10872351294850488
27	0xbfba1e22d4bf9df9	-0.10202233976416854
28	0xbfaece44a991ab2c	-0.06016745157179168
29	0x3fb12a0949b256c5	0.06704767274126329
30	0x3f8577131ff1f475	0.010481023228061862
31	0x3fa5751086a73905	0.04190875667301167
32	0x3fc102b110dc3162	0.13289464305160964
33	0xbf904e6174302fef	-0.01592399856239973
34	0x3f9b131dd208a59e	0.026440111107296375
35	0xbfae7acf8ea9bb31	-0.05953072182170727
36	0x3f95d61d9e26c126	0.021324599054140546
37	0x3fad0e5f4f35205a	0.05675027696503383
38	0xbfb08c847075acbd	-0.06464412446591701
39	0x3fb7f80c0d48babf	0.09362864803618275
40	0x3fad06c56790f3eb	0.05669228448139293
41	0x3fb757e80172860f	0.0911850932630147
42	0x3fb9aa0e887794ac	0.10025111037937745
43	0xbfb81b27aefabd91	-0.09416435262641289
44	0xbfa81b404f1835aa	-0.04708291020879625
45	0x3fa5658262502ecf	0.041790079594731126
46	0xbfb60a271d309635	-0.0860924192680493
47	0xbf82952901ea57a6	-0.00907356297583901
48	0x3faaf2f84ebbeacf	0.05263496361836461
49	0xbfb3095e637f7053	-0.07436170510430999
50	0x3f94c40116584793	0.020278946865864688
51	0x3fb5338cc5726f75	0.08281783886417123
52	0x3fabad57999d816d	0.05405687093912346
53	0xbfc1c2d5f42d204c	-0.13875841543836243
54	0xbfbc603125164ba0	-0.11084277301260537
55	0x3f831261b7e948e1	0.009312404084230898
56	0x3fb50fb427bb6427	0.0822708699228235
57	0x3fac5208ef3badb4	0.05531337662054217
58	0xbf5919af7eb9a1ee	-0.0015320028132014235
59	0x3fb132653f8e64e9	0.06717522432008462
60	0x3fa26def18dfa328	0.035994979654623116
61	0x3fa31f78ec93b471	0.037349490050339614
62	0xbf9372a3f1621e3d	-0.018992005927911604
63	0x3fb9eb24e27aef65	0.10124426392843373

equations.x.layers.6.weight f8 [64, 64]
0	0x3f8cb9aaf6bdec90	0.014026008276905949
1	0x3fb11e2fc89b9833	0.06686686179782057
2	0xbf9b60913860be79	-0.026735562387499166
3	0xbfaa739adb5a7c32	-0.05166324546484481
4	0x3f9e34c6e8e9f374	0.02949820324510051
5	0xbfc03aad18e92513	-0.12679065433830114
6	0xbfbb1e07a4782fd6	-0.1059269691979233
7	0xbfb5ce0d3ef551e6	-0.08517535006587415
8	0x3fa030f4da625866	0.031623508127425023
9	0x3f445c9e86ee7c01	0.0006213926370611801
10	0x3fb6d6048ddf9ec3	0.08920315231045621
11	0x3fa52a063478b575	0.041336244492735576
12	0x3fc1ad8d6603c958	0.13810889702979057
13	0x3fa2cf7bfb7531df	0.036739229627162244
14	0xbfb5daf3790d6ee0	-0.08537217812903064
15	0xbfb4af3189d5d7b3	-0.08079824080581836
16	0xbf9cb657404057d3	-0.028039325043287832
17	0x3fa50b4de2a05f5f	0.041101869501459325
18	0xbfbac3899b96693a	-0.10454616592906954
19	0x3fa27ae79b6b631c	0.03609393856249296
20	0x3fa62ad4fe3d76be	0.04329553226010095
21	0xbfa2db9214d80134	-0.036831440967946355
22	0xbfbf201c1c770b4c	-0.12158370680758174
23	0xbfadacd8ab24592a	-0.057959338084560066
24	0xbfa854ffac6ea79e	-0.04752348880658917
25	0x3fb85dbed2b7f3ec	0.0951804413270591
26	0x3fa966cb006eb710	0.049612373163979595
27	0x3fab50d7ed3dc81c	0.05335116168033968
28	0x3fbafb682785b019	0.10539866413972766
29	0x3f5d925b7f909d50	0.0018049138582315223
30	0xbfad0f7118f4a6fc	-0.05675843648562126
31	0x3fa0ac30216f9578	0.032563690263297695
32	0xbfa504df71a75ebe	-0.041052801727059926
33	0x3fc181e06f6bbd69	0.13677602234336497
34	0xbfb16391f160d242	-0.06792556899092353
35	0x3f7e538f6688a747	0.0074039079268376
36	0x3fbf171911ea915f	0.12144619643601605
37	0x3fa135d171cdc711	0.033613724844043465
38	0xbfb08ee8ec0f45bc	-0.06468063128638496
39	0x3fa03f291e70c851	0.03173187729443384
40	0xbfb0fa44f04f2937	-0.06631880633282071
41	0x3faa21560c8d4a80	0.05103558448049217
42	0xbfb7b551547559d1	-0.09261043846104335
43	0x3fb4b07992be911f	0.08081779320361136
44	0xbfb6019b6b4ae32e	-0.08596202248999127
45	0x3fae6f76597eff0a	0.05944413988572535
46	0xbfa80925fc88a5b2	-0.04694479663551067
47	0xbf8e3d0811025579	-0.014764845866276787
48	0x3fbe5bef2df065c3	0.11859030601080804
49	0xbfb3b9208ed90149	-0.07704356658451163
50	0x3fae62457b3d6708	0.059343501371314444
51	0xbfae537062893c03	-0.0592303390773097
52	0xbfabbda383edff13	-0.05418120370359083
53	0xbfb6c1a43897cf10	-0.08889223462739104
54	0xbf8fbe12f693f4af	-0.015499256277048038
55	0xbfc6bb805e286ab2	-0.1775970897441162
56	0x3f7120799f438ff6	0.00418136128084611
57	0x3fad0f71ce02e60c	0.056758457563272996
58	0xbf3bf0af7c646e1a	-0.00042633327793037553
59	0xbfa4f0e60ba47651	-0.04090041057700645
60	0xbfb201fa5ebe52c7	-0.07034268200943493
61	0xbfb9084a8eb7094d	-0.09778276428463535
62	0xbfb0f77b8ba30bcd	-0.0662762847814939
63	0x3fa6cb1b36a9e338	0.04451832811623152
64	0x3f82f51349bc00ee	0.009256506622023566
65	0xbf98478f3dfdc3ca	-0.023710477980276846
66	0x3fa61555ed3753fd	0.043131528098150775
67	0x3fc10b2df23cd3f9	0.13315367057808183
68	0x3f935ed1c9db9d02	0.018916395135332394
69	0xbf88027c139e17c2	-0.011723489140205493
70	0x3f96184677943ada	0.021576977776073793
71	0x3f82244b334e764d	0.008858287337541482
72	0x3fb7891a3afd0ec5	0.09193576755665862
73	0x3fb017222aade821	0.06285298864341417
74	0x3fb6828769d4781d	0.08792921384562687
75	0xbfad9f5b954cc73b	-0.057856428122603686
76	0x3fb02aeba738331b	0.06315491516597797
77	0xbfbc1549e9a59aeb	-0.10969984010953808
78	0x3f968687cad5f971	0.021997567896954565
79	0xbfa8eb93b2a57105	-0.0486723094533961
80	0x3f9f07d80a3b9783	0.03030335962730347
81	0x3fa4c0b0b29ce2bc	0.04053260975201087
82	0xbfb8d8cc1e775053	-0.09705806487846873
83	0xbf8cea804fcbd5d4	-0.014119150576770524
84	0x3f9c05e73e622bc9	0.02736626928576039
85	0xbfab73b253d64223	-0.05361706994438389
86	0x3fa78daebddb6c52	0.04600282733527962
87	0xbfbb466d65e5402d	-0.10654338586505281
88	0xbf8dd902ecab7f3e	-0.01457407269248245
89	0x3faef8afa8e19422	0.060491074910523204
90	0xbfa179109105f395	-0.03412677545836754
91	0xbfa341c7159992d3	-0.03761121882124532
92	0xbf8cee2b5d4f9705	-0.014126147065279602
93	0x3fb4b415c94ad6d0	0.08087288059581543
94	0xbf9dcafbd0eb5f70	-0.029094633699826955
95	0xbfaee2cad7877b20	-0.060324038324088614
96	0x3f92770e2fdd529a	0.0180322853769491
97	0xbfbeb8c089bf6cfa	-0.1200065933511957
98	0xbfb197beda60c501	-0.06872170287603653
99	0x3fbef9d2353b0890	0.12099946784568005
100	0xbf9132615c908b80	-0.016793748163887567
101	0x3f93b147092a2341	0.019230947431910343
102	0x3fc26383342ece69	0.14366188095083324
103	0x3facdb819ef8e750	0.05636220040874085
104	0x3fb4d8d7f536e305	0.08143377052955365
105	0x3fb07f5d773196b9	0.06444343719484892
106	0x3fb1b8dd70a0b158	0.06922706603717665
107	0xbf9889e0f9697864	-0.02396346590318678
108	0xbfb7f6e093470063	-0.0936107978404848
109	0x3faa3a5f9ba93a81	0.05122660422477044
110	0xbfbaee28156aa79b	-0.10519648096911142
111	0xbfb6866400ebd187	-0.08798813841332818
112	0xbf96fd302b1adc27	-0.0224502111729771
113	0xbfb09344c28aab29	-0.06474714040329545
114	0xbfb296ce340d7764	-0.07261360903563979
115	0x3fbb4d88e2fc029a	0.10665183583842933
116	0x3fbdc67652a68f48	0.11630954282605643
117	0xbfbd3e3735582637	-0.11423058559753306
118	0x3fb75ed5ce4de5e1	0.09129081999517254
119	0xbfb089714c15e7fe	-0.06459720714147463
120	0xbf944e69956188c3	-0.019830369703762295
121	0xbfc168cad89abf6b	-0.1360105092658118
122	0x3fb502f830a0d075	0.08207656085215993
123	0xbf98660fcb63a490	-0.023826834477322978
124	0xbfa108e6d8fd318f	-0.0332710399512478
125	0x3f5fe1aeae37dfcd	0.0019458967079781675
126	0xbf8373e99e7e2912	-0.009498429440800513
127	0x3fa33e097f69e90e	0.03758268051474732
128	0xbf9eafc2eabafc63	-0.029967351509864303
129	0xbfaa0f38bcfbffde	-0.05089738184869906
130	0xbf81ebd7c8dac449	-0.008750615899176266
131	0x3fa354e5b8091e0b	0.03775709029701709
132	0xbf8b16a2b6cd9dd2	-0.013226767734251608
133	0x3f8222eea659f47b	0.008855690433160248
134	0x3fb64ddea8482be4	0.08712569817014032
135	0xbfbfa51e1bb7c8c4	-0.12361324478823393
136	0x3fa1912aadd6cbe1	0.034310659142100304
137	0x3fad2eed0c0395dc	0.05699864169745769
138	0xbf936bde44ef45a5	-0.018966172177732016
139	0xbfafac2a0844e6ff	-0.06186038351957101
140	0x3fb27b400e578d9b	0.07219314909121126
141	0x3f87d4f8e9a4999f	0.011636681204049646
142	0x3fa287d0ed5581de	0.03619244477409088
143	0x3f94bc2a67be2d37	0.020249044973337873
144	0xbfb08b73bc86d556	-0.06462787010862789
145	0xbfb1c714faa91486	-0.06944399947777144
146	0xbfb633b1dce591af	-0.0867262996958462
147	0xbfa621b0dcdb4185	-0.04322579093934834
148	0x3f9303b3a563f503	0.018568808526642232
149	0xbfaf55e786d5135d	-0.061202273568176514
150	0xbf7bd17d83763a5f	-0.006791582381437593
151	0xbfa7ceff55309596	-0.04650113978304231
152	0xbf98a6575b2d1a83	-0.02407204145427012
153	0x3fba81c07cf0d1b9	0.103542356970883
154	0xbfb44913cbea875c	-0.07924007156773655
155	0xbfaecfd155358198	-0.06017927327298195
156	0x3fbf3ba81fe84194	0.12200403956399547
157	0xbf649ba61f8de92b	-0.0025156254382042906
158	0xbfab314f72b6892b	-0.05311058306985424
159	0x3fa05b8d0510f63c	0.03194847761959038
160	0xbfa1e1fe6be8e252	-0.03492732112176057
161	0xbf96b254bd27b200	-0.022164653821095115
162	0x3fac7d9e0cc5cfd1	0.05564588457028175
163	0xbfa8b0896d46335a	-0.04822186907686073
164	0x3fb02305ba095a8c	0.06303439895541824
165	0x3fc0cb0ea05a7439	0.13119681195976954
166	0x3fc183f2cf26eca0	0.13683924784513568
167	0xbfa9f92d3e28b267	-0.05072919257904545
168	0xbfc17655b4143882	-0.13642379086417483
169	0xbf851e4fe15090a3	-0.010311721862372563
170	0x3fbc8a7a9322af39	0.11148801891493755
171	0xbf96f70ab8ea5565	-0.022426764999712207
172	0xbf88575a958df82d	-0.011885364235919205
173	0x3fb1a6394212fd66	0.06894262183322084
174	0x3fc34f5de81a2256	0.15085958321675957
175	0xbfae96f7a993c790	-0.059745540094709004
176	0x3fa63cb3e3dc2e6b	0.043431874813987324
177	0x3fa263c79d4f5d43	0.035917509034045135
178	0x3f89b66ab5e54b3d	0.01255496375657616
179	0xbfb053c5530cd5aa	-0.0637782409438247
180	0xbfa87ea88b91da95	-0.04784132674915501
181	0xbfb3cff2e1e8430e	-0.07739179625810896
182	0x3f9099db03b7d101	0.016211912252360076
183	0xbfb836113de1b9ce	-0.09457500229630186
184	0xbf87b74850cf9956	-0.011580052343515373
185	0x3fbf3c41f21c4404	0.12201320801638366
186	0x3fb12188d15b0e95	0.0669179450151723
187	0x3faf40b5653a2723	0.061040562254744545
188	0x3fb7192c92d61af1	0.09022787651893417
189	0xbfa52b0082ba818e	-0.04134370418364873
190	0x3f7754300c4a24fb	0.005695522010350058
191	0xbfb1a637fda54268	-0.06894254629629304
192	0x3f93d4ac1d07c466	0.01936596800982606
193	0xbf8663ff15c29958	-0.010932915546004437
194	0xbf9a8d17f06d4725	-0.025928854035846122
195	0x3fb1cc5941bcdc21	0.0695243630878939
196	0xbf6f6ecf376b65f5	-0.0038370177456783458
197	0xbfb7c97602d8dab3	-0.09291780061253511
198	0x3fc1c403a094e3ea	0.13879437771700448
199	0xbfa14f7a4f84f481	-0.03380949230857145
200	0xbfa70915f67313cd	-0.04499119409005168
201	0x3fb16dfcf130d236	0.06808453453488358
202	0x3fbd516c4fb20ec8	0.11452366777126166
203	0xbf83150c29bb5119	-0.009317488692808728
204	0x3f7df1b91708a888	0.007310603149145341
205	0x3fb4a7fec1365ff9	0.08068840233897835
206	0xbf93a3b067e71563	-0.01917911180659838
207	0x3f94aa5b3c0b443b	0.020181108035846256
208	0x3fa09edd98c7ae19	0.03246204843511808
209	0xbf80c58b67783419	-0.008189286322727128
210	0xbfa6bad6edd6af54	-0.04439422276786212
211	0xbf534f5d96d6e194	-0.0011785901982489288
212	0x3fb2015a89e9e890	0.07033315531762896
213	0xbfa37627f19af861	-0.03801083397182548
214	0x3fae85508b903931	0.05961085990576221
215	0xbf94284ca2c4a86a	-0.019684979853231623
216	0x3fbefbd63aeadc0b	0.12103022516645028
217	0xbfada251e9ec4e7f	-0.0578790281344057
218	0x3fa72d25f7fd5b06	0.045266329309631856
219	0x3f94256daf86d637	0.019674028242397248
220	0xbfb41928a9a7a035	-0.07850889341318708
221	0xbf9a9b915c8875a7	-0.025984069130677103
222	0xbf7ecf240049c83c	-0.007521763448140869
223	0x3fc48fb3bdce0a3d	0.16063544051947246
224	0x3fb80fe32b534820	0.09399242217776349
225	0x3fb3d20b5014e8e2	0.07742376999968628
226	0xbfbcfe0888a5d3f8	-0.11325124107482043
227	0x3f756a07d3e9f521	0.005228071763324211
228	0xbf9b1d83cfa3f19a	-0.026479777859081823
229	0xbfa1b056ab83717e	-0.03454848140401888
230	0x3f89135c2104054e	0.012243957288321863
231	0x3fc1bc1a945718eb	0.13855297320532797
232	0x3f5fed8a363f9228	0.00194872376686662
233	0xbf955cf3baf7ec0a	-0.020862396513603478
234	0x3fb760376439ee8f	0.09131189534121574
235	0xbf9509f375586bb7	-0.02054577258796161
236	0x3f9c1afa9b3b92e8	0.02744666645493768
237	0x3fae42b8e76d9317	0.05910280060814992
238	0xbfa8a8ddfc8c0e1f	-0.048163353994848494
239	0xbfa2593bb66ba003	-0.0358370456868329
240	0x3f9fceebe77cdf4b	0.031062780383961635
241	0x3fb0c44b600c3910	0.06549521536746661
242	0x3fc132ca5e678d4e	0.1343625031432602
243	0x3fb8fd0dbb468cae	0.09761129209668937
244	0xbfbd6dee906194bd	-0.11495867752963114
245	0xbfba03d73d0b8890	-0.10162110557897308
246	0x3fb683c8cc4ef8de	0.08794836986541862
247	0x3fb95d86b4ac19bc	0.09908334647125278
248	0x3fb4ebc31d75764f	0.08172244519433856
249	0xbfb72ac11ddbcf16	-0.09049612978907037
250	0xbfa9cd4c222c76f8	-0.05039441983374887
251	0x3faa66b6c3f2bef7	0.0515648950762379
252	0xbfb68765b6755e39	-0.08800349907448259
253	0xbfbefc16fe4449f6	-0.12103408534702695
254	0x3fb9f5d0db38fd57	0.10140710212816849
255	0xbfc3daef5750f6ab	-0.15511886371125647

equations.x.layers.6.bias f8 [64]
0	0xbfa7ac853c61c693	-0.046238101597635105
1	0x3fb2fab58e4a2c2d	0.0741380188357403
2	0x3f9b34aea06b7983	0.026568153897522883
3	0xbf92bba2ea097fda	-0.01829390099953785
4	0xbfb8ddab6ba86c45	-0.09713240984312772
5	0x3f8028ca9cccacd5	0.007890303526059498
6	0xbf8de03d2d4dd536	-0.014587858147687354
7	0x3fa92d97bf67633b	0.04917597018692851
8	0x3fb28fb8e5857854	0.07250552753018386
9	0xbf7d4e97c0cac0a6	-0.007155030046007626
10	0xbfb0dec3656acfec	-0.06589909769064634
11	0x3fb02a65a68be36a	0.06314692798686186
12	0xbfb7d1dfbd62ac60	-0.09304617284458194
13	0x3fac824ce6b9dab8	0.05568161312560477
14	0x3f9f94d94a2c51c0	0.030841250564735523
15	0x3fa4fbf028afbb30	0.04098463532124297
16	0x3fa4a0fb150dc8aa	0.040290685958909236
17	0x3fab6a6e4234919f	0.053546376783091924
18	0x3fa647ac32228534	0.04351556884763355
19	0xbfb58dbb1eb231a0	-0.08419389247337117
20	0x3fc27d4acaccee08	0.14444861318939695
21	0xbf983d215e605aaf	-0.023670693764951064
22	0x3fa6a0511c993df9	0.044191870442428845
23	0x3fa63277cc150406	0.04335378996120913
24	0xbfb9205afe1aa651	-0.09814995483125101
25	0xbfa7554c4037b5b0	-0.04557264598757216
26	0xbfb05d132636cfd1	-0.06392020876847872
27	0xbfb21f06d6a93c2c	-0.07078593006848227
28	0xbf9ff2c7aaefbc7c	-0.031199569519170897
29	0xbfb1dc0ebd9e8332	-0.06976406220793477
30	0xbfb130974b4cf6d7	-0.0671476897086579
31	0x3fb0d6995718b5e5	0.06577452064876572
32	0x3fb092cad5d4b7f5	0.06473987312776315
33	0x3fa127e259c59b71	0.03350741716240336
34	0x3f99380ac9d77240	0.024627846307213597
35	0xbfb00aed04fb202c	-0.06266671535115681
36	0x3fb9f1354f52f634	0.1013367956793097
37	0xbf967c9eec23820d	-0.02195976558948769
38	0xbfb7bb2948a71473	-0.0926996042608879
39	0x3f93276a88f05a6c	0.0187050481873378
40	0xbfad143d74f6db55	-0.05679504444872544
41	0x3f9fa5ef469b9247	0.03090642803626256
42	0x3fadf3392446c589	0.05849627082660464
43	0xbf8a144095add195	-0.012733940666046087
44	0x3fb9c0b26a5b212e	0.10059657188970014
45	0x3fa2c9d4d38d62bf	0.03669610102105513
46	0x3fb5b9f025f5ebec	0.08486843992970677
47	0xbfb046cde76bb9e9	-0.06358038806840906
48	0x3faa6b1d340c6154	0.051598465541419586
49	0xbf921a85e2a9ad18	-0.017679302176856287
50	0x3f90e7246248ebf1	0.016506737231093586
51	0xbfa3d7eeacee6802	-0.038756807908797
52	0x3fa08d53793ad32d	0.03232823233466884
53	0x3f714dae1419d50f	0.004224472040381912
54	0xbf94f2b353fc4955	-0.020457078934734103
55	0x3f9300a97692690b	0.0185572126980356
56	0xbf9b64f77ba1a6da	-0.02675234500967503
57	0xbf75444411d206c1	-0.005192056557577097
58	0xbf90ab98c2034505	-0.01627958950195298
59	0x3fa423c4ebdeb02d	0.03933539752264923
60	0x3f9476c5c4c039cb	0.019984331258507553
61	0x3fb7d1eb1b0dc10b	0.09304685030452135
62	0xbfacbe2cf83a1fe6	-0.05613842516055438
63	0xbf8efb0a9cb52a87	-0.015127261073435662
