simple-pendulum-system/2025-05-30_20-01-39/model_best.pt (torch, 277858 bytes, 24 tensors)

equations.x.layers.0.weight f8 [64, 1]
0	0xbfe07770cecc641a	-0.5145801581412599
1	0x3feb4e2022c1a2cd	0.8532868079028845
2	0xbfd3ed83f204b45f	-0.3113717902622905
3	0xbfe9b2d6c0149f06	-0.803080916554763
4	0x3ffa37688b23d67b	1.6385274348407666
5	0x3f8c126b9ea0518a	0.013707009104145813
6	0x3fd4f02af5e0c732	0.32715868007209103
7	0xc013f8f81b67fb74	-4.99313395330579
8	0x3feaa4f52f3b629f	0.8326364443301663
9	0x3fe8395b3b857da8	0.757001510861234
10	0xbfba6e07768ca65e	-0.10324141163132469
11	0xbfb8675bc980ce5b	-0.09532712621221988
12	0xbfe38ff812b9380f	-0.6113243451779925
13	0x3fd3b8785155ff84	0.30813415472948
14	0xbfe3ea8810068f60	-0.6223793328285687
15	0xc006a408ca8e0e09	-2.8300948929406826
16	0xbf8bff0e965dbbb7	-0.013670076335726351
17	0x3f9c7485a71e2373	0.02778824646478335
18	0xc01336ee81d89ce3	-4.803644207807539
19	0xbfe28790d9339e1e	-0.5790485613078464
20	0x40112e891614295d	4.295444817524495
21	0xbfb40649f1700ba9	-0.07822096008753356
22	0xbfe2d769e5b8baa7	-0.5887956129789317
23	0xbfc7acaa8830d33a	-0.18495685243547105
24	0x3fa8c2b3fbd56470	0.048360466472055275
25	0x3fbe4696769148c4	0.1182645835372425
26	0x3fc09065b5c0f7d6	0.12940665602394458
27	0xbfcdcf5bd036e92f	-0.23289058367465418
28	0x40102a6d77d9d9a7	4.041433212920686
29	0x4019530118d1018b	6.331058871990886
30	0x3fb28c80a6c28b14	0.07245639869010417
31	0xbfe9f175afc23b7c	-0.8107250626361373
32	0x3fc11fc0382be7f5	0.13378145926236554
33	0x3fca445ba36ecbf6	0.20521111946217702
34	0x3ffd2022dff1dc07	1.820345759186013
35	0x3fb74e8665e93ac8	0.09104194629729101
36	0x3fb9b3ddf3849194	0.10040080256709977
37	0xbfcf90aa296eaa22	-0.2466023161226341
38	0x400ada0a8649ef46	3.35646538651591
39	0xbfe68ece6e729be9	-0.7049324185544467
40	0x3fcc17083c8f0c74	0.21945288617107261
41	0xbfde4376e73bf351	-0.4728677042146972
42	0x3fd6e00acf71b927	0.35742445238328674
43	0x3fc3b452ac0e465a	0.1539405193439503
44	0xbffc908734e731cd	-1.7852851931121336
45	0xbff0b3fff298c08b	-1.0439452625687717
46	0xbfe7d472e7b26bf9	-0.7446836972552539
47	0x3fd3b9e692c13bf8	0.30822147685552137
48	0xbfdd94e9e7d7a0a7	-0.46221397057389385
49	0xbfb6e7d842ceb04e	-0.08947517043151373
50	0x3fe2f542fbb17d10	0.5924391666302729
51	0x4002e8a1ae773b9b	2.363589633001039
52	0xbfbfd66706042131	-0.12436527153852663
53	0x3fe1b32a40399039	0.5531207327262627
54	0x3fe2ed100623ad85	0.5914383048924924
55	0x3fe2416f346e855b	0.5704875968987538
56	0xbff56d2fe79e2101	-1.3391570136610087
57	0x3fd2d8f9163d2f25	0.2944929806878796
58	0xbfe536a76b809853	-0.6629216289191028
59	0xbfe79f33ff5301c0	-0.7381839739610356
60	0xbfed95928204069f	-0.9245083369607591
61	0x3fb4c0e5dc5de72a	0.08106838827179944
62	0xbfe3ef6910d9a328	-0.6229749039749537
63	0x3fe810c5e5d488cd	0.7520474900122963

equations.x.layers.0.bias f8 [64]
0	0xbfe66407a4c2707a	-0.6997106759986444
1	0xbff0a890a23c8c5e	-1.0411535584796847
2	0x3ff1b3baedc206c5	1.1063794410151087
3	0x3feec3b6e2984ea7	0.9613909173662777
4	0x3f80cd9cf3892661	0.008204675848122624
5	0xbfe4bae34a3cc74f	-0.6478134584378753
6	0xbfe16e387c83a95e	-0.544704669181822
7	0xbfa097bcd27dfa80	-0.03240766591533362
8	0x3ff8939716ac0406	1.536032761156322
9	0x3ffa253f730e5d08	1.634093713224333
10	0x3fcf3befdc9bdfb0	0.2440166308585936
11	0x3fc0d6907d06f378	0.1315479860767501
12	0x3fa7fc31d8f9d9f5	0.04684596799500077
13	0xbfc288a244452e3a	-0.1447947343207135
14	0xbff7a5bb0cdbfaf2	-1.4779615881267856
15	0xbff25a1a776c8030	-1.1469978966706655
16	0x3fb21eb66a58d528	0.07078113647806517
17	0x3fdfd96bc3cf6d44	0.4976453220567303
18	0xbf9f4a73db59c404	-0.030557451499081636
19	0xbfeb7009c3d63c6e	-0.8574265313090004
20	0xbfa29c42aa6fb3e5	-0.03634842234155381
21	0x3fe61817ae807b49	0.6904409797897212
22	0x3ff01e6969904873	1.007424747808298
23	0x3fd93fd172e5b651	0.39452015133324375
24	0xbfdecb221607e80a	-0.4811482634682994
25	0xbfe9e5616fd16b82	-0.809250563044188
26	0xbfcd744eeb61cb3c	-0.23011194699537352
27	0x3fd5b5ba156cd7e7	0.3392167290907068
28	0xbfcd0309874f742d	-0.22665518862678039
29	0x3fabac2f2683f092	0.05404803605230869
30	0xbfe77b4489d8a448	-0.7337973301229193
31	0xbfc4084172089e17	-0.15650194232988276
32	0x3fae52c165a6899c	0.05922512403346333
33	0xbfea764b526d6c31	-0.8269402131949218
34	0x3ff4b3ca51f06a04	1.2938941193339142
35	0xbfcf5fc990105763	-0.24511069807402483
36	0xbfc2a81ef9ebd1a9	-0.1457556457822993
37	0xbfc2613878fcf887	-0.14359193713784554
38	0xbffa8f88bbf75f68	-1.6600425093110633
39	0x3fef1ab30dde64c0	0.9720092078088314
40	0xbfe156bf9c9023af	-0.5418394143936122
41	0x3fc99f8fbcd7b304	0.20018192978695748
42	0xbfe3e26f56ebba49	-0.621390981452188
43	0x3fef87713b3615d0	0.9852834850759624
44	0x3ff251f577f1d3e5	1.1450094876611214
45	0x3fe10e1af6941acf	0.5329718414294237
46	0x3fe9e3d46548dd4a	0.8090612390723575
47	0xbfe9d71d8bf53354	-0.8075092061568321
48	0x3fe4caafc0cea69b	0.6497420087591367
49	0x3fc7b89482591c2f	0.18532043804791118
50	0xbfeafdd79b758fd4	-0.8434865986168867
51	0xbfe0111373469ad4	-0.5020844699364155
52	0x3fac519315d59a19	0.05530986444027892
53	0x3fdbc800bfa52f3f	0.43408220973354966
54	0x3fe6474a88e22f7e	0.6962025331026636
55	0x3ff297785e1a0496	1.1619800258488673
56	0x3ff0608eddb07d3a	1.023573747610341
57	0xbfe29080d20680e1	-0.58013955135905
58	0x3febf70b70c33d4c	0.8739068224330508
59	0x3fe99ccf3ad350b8	0.8003917836126879
60	0xc00071180f44b7b1	-2.05522167137584
61	0x3fe22c121be5eda4	0.5678797287832151
62	0x3ff2206c0a9bef47	1.132915536348223
63	0xbfe236c705669e10	-0.5691866975293483

equations.x.layers.2.weight f8 [64, 64]
0	0x3fb7b45491a1f957	0.09259537272916894
1	0x3f84ef72c7539bdf	0.010222336490597726
2	0xbfa1c734a658fa07	-0.03472294359788824
3	0xbfb0c057b30f412e	-0.06543491479465466
4	0xbfb2fee36a634077	-0.07420178744655624
5	0xbfc05c7a72da8b03	-0.12782221420373938
6	0x3fa4826df26145c1	0.04005759795894504
7	0x3fb91de86cf2f642	0.0981126085270825
8	0x3fa8ec83a5968722	0.048679460490588036
9	0x3f51daed12142d6b	0.0010897936957146813
10	0xbfb20e083804bdca	-0.07052661292686149
11	0xbf9040e4a2102dfb	-0.015872547523072083
12	0xbf93811f095c54ec	-0.019047245928125386
13	0x3f97489fcb43f87a	0.022737976819364715
14	0x3fb9b910f9a0e3b6	0.10048013777203732
15	0xbf7da4e13ee43daf	-0.007237319818400519
16	0xbfb1b5299e202210	-0.06917057142721483
17	0x3f8e977922a915db	0.014937349672559932
18	0xbfbf40a82ca37230	-0.1220803364735239
19	0xbfc073fd666017e1	-0.1285397291068753
20	0xbfa150070d43f334	-0.033813686723055986
21	0x3fc100a5975081ac	0.1328322399940708
22	0x3fbdca90713673d1	0.11637213481885957
23	0x3fbc1a1c1287d6f2	0.10977340176017572
24	0x3f935a401b4df73d	0.018898965517556866
25	0xbf6d5b75048d1de0	-0.0035836492064935527
26	0xbfb1aa8fc269f14c	-0.06900881287032695
27	0xbfa2495c012ed1ca	-0.03571593775214728
28	0xbfb3c519fa524a8e	-0.07722627984393624
29	0x3fb30e380e621c98	0.0744357142558435
30	0xbfbc65e8cdfb71f4	-0.11093001393187035
31	0xbf2b4be60ba4d2b4	-0.00020825560734185277
32	0x3fbc1c17429bcd70	0.10980363250910385
33	0xbfbb7b5323bb7778	-0.10735053655977633
34	0xbfaf3886a19b9517	-0.06097813341856744
35	0x3fc274ccbf25280b	0.14418944676646137
36	0xbfb3907066b68430	-0.07642271525993816
37	0xbfb594df178d3c48	-0.08430284810059263
38	0x3f605cd3639ff836	0.001997387761547588
39	0x3fbd7bb0ae45c494	0.11516861204815348
40	0xbf67f55b7850f347	-0.0029246126673840053
41	0x3fb5aeb76bb59162	0.08469721202488281
42	0xbfb2852f11925e8f	-0.07234472445486005
43	0x3fc0224eeba637a6	0.12604700571358513
44	0x3f97326876ff53fb	0.022653229010604275
45	0x3fbaa0c54146833c	0.10401566356314346
46	0x3fb2b5ceba675330	0.07308666277760945
47	0xbfba87179fe57f18	-0.10362384465906549
48	0xbfafbef5cb203fc4	-0.062003785176898
49	0xbf9079b1176d79e7	-0.01608921723834014
50	0xbfa15bc21d4b2cc8	-0.033903184963116895
51	0x3fb6003e06f4226f	0.08594119710699898
52	0xbfc099430e2f7a79	-0.12967718308114565
53	0xbfb4c1f2bd7878de	-0.08108441472765857
54	0x3faa60a534197d09	0.051518595323381496
55	0xbf96fde4e932a43b	-0.022452904446854865
56	0x3fa6d8e9a4a179aa	0.044623662325409555
57	0x3f78ebfc3be414bf	0.006084428109038586
58	0xbf7185a8cff8329f	-0.004277858184207033
59	0xbfb7a1820b902b25	-0.0923081663351409
60	0xbf814e782dffc5e1	-0.008450449851781396
61	0x3fb07fc656878b63	0.06444968807731537
62	0xbfaa0383b93f0bfd	-0.050808063853331455
63	0x3fba600bc5d7b479	0.10302804546491186
64	0xbf9821bdeca5072e	-0.02356621510376227
65	0x3fb4d78097c4ce86	0.08141330437939062
66	0xbfa7f20eed7eb0c7	-0.04676863335711939
67	0xbfb087d8565701b5	-0.06457283122927644
68	0xbfbb1199d210b562	-0.10573731783434462
69	0x3fb47d864512d1f3	0.08004035173764361
70	0x3fb47f2c8360e5b0	0.08006551940424944
71	0x3fc24a4699c9c9cf	0.14289171704474632
72	0x3fb524272876c207	0.08258290040863168
73	0xbfadb50812978204	-0.05802178599310895
74	0x3fa05d96101e732e	0.031964005916256574
75	0xbfb5461d8c2bd5f2	-0.08310112640523196
76	0x3fae28d46c0ecbc2	0.05890525645317936
77	0xbfa1422aeb525556	-0.03370794413164428
78	0x3fc2efd70a5a342c	0.14794433598982104
79	0xbfa20bf675af2960	-0.03524751841139806
80	0x3fbead77e6e1ff3f	0.11983441721713194
81	0x3fb886c82f83e97e	0.09580660972634367
82	0xbfb48dc67febb15b	-0.08028832076133112
83	0xbfb66bc19e0a2cd8	-0.08758173092262511
84	0xbfbea375a41e289d	-0.11968169457228091
85	0x3fa926759818b7a5	0.04912154657027593
86	0x3fa64c06cb87811b	0.04354878649223989
87	0x3fbdd1dea8420433	0.11648360832079234
88	0x3fa8164b9f6e02be	0.04704510041392983
89	0xbf87a05e631fdaf2	-0.01153634777072685
90	0xbfa9137c1a8e30be	-0.0489767820755289
91	0x3fb4644201a2957b	0.07965481319350502
92	0x3f9b063af2212a58	0.026390954044737874
93	0x3f60efc5d0e7f45b	0.002067457541896673
94	0xbfa305c49dc6313e	-0.03715338159517721
95	0x3fbf5d3863b09068	0.12251617845373775
96	0xbf93795490dbec10	-0.01901752599858858
97	0x3fb949fec1d7913c	0.09878532631370701
98	0xbfa0a9b36185d347	-0.032544713644631566
99	0xbfc039fcdad808d3	-0.12676964460121684
100	0x3fb763c67f40a577	0.09136620146514028
101	0xbfb5bf93a35c013e	-0.08495447862879232
102	0xbfa6cfbf82e55ee5	-0.04455374214984235
103	0x3fb4c8205b56a48a	0.08117868642752249
104	0xbfb076e2ca92abb5	-0.06431405492428051
105	0xbf65e3bf7e9882a6	-0.0026720752837408766
106	0xbf80d73db17e6dc2	-0.008223039607222375
107	0xbfb297a94b9c6e4f	-0.07262666793797588
108	0x3fa98188bb7ba766	0.04981639183627244
109	0xbfaa758e9d733e93	-0.05167813941954793
110	0x3fb281a54f92eda4	0.07229073708270178
111	0x3fb127050e719059	0.06700164415957612
112	0xbfaeb12a90416d67	-0.05994542132313079
113	0xbfb1e746d17b1f02	-0.06993525137215431
114	0x3f68f6d46b1ec3a1	0.003047385101091441
115	0x3fb5927ec80accfa	0.0842665899643186
116	0xbfa7d9b7e1ec17bd	-0.04658293373908815
117	0xbfbb4d60778ee02a	-0.10664942664050217
118	0xbf878d920dbda05c	-0.011500493091901536
119	0xbfbe3b199a7428be	-0.11808929463237214
120	0xbfb08fdd9e32f2e7	-0.06469521629601226
121	0x3fbb090c9be69ab6	0.105606830655783
122	0xbfbb118399843d78	-0.10573599336588824
123	0xbfba30abf7b14b93	-0.10230517193967463
124	0x3f9fc1c7cb10770d	0.031012651223242083
125	0xbfafdc4a25ace72c	-0.062227551554725785
126	0xbf94a54877547e91	-0.020161754878357533
127	0xbf9584cbc3947ea9	-0.02101438885904253
128	0xbfbcf012b55932eb	-0.11303822448207838
129	0x3f85f28cd2f0980d	0.010716533839580955
130	0xbfa57ef96805a7e3	-0.04198436159897747
131	0xbfad6018c89e8102	-0.057373785485880915
132	0x3fa32bda350506f3	0.037443942043422405
133	0xbfb710d699a023ea	-0.09010068178771716
134	0xbf7d4113d7993cd6	-0.0071421408734544025
135	0x3f66ba6996eb1825	0.002774435262241875
136	0xbfb3dd17a69a09ce	-0.0775923520796262
137	0x3fb2e434a72f3ea3	0.07379464227346459
138	0x3facc14b1e40085c	0.05616221184028866
139	0xbfb7159ab329cab9	-0.09017340540030262
140	0x3f9da34d1177c94a	0.028943256560475285
141	0x3fa5847d780536d4	0.04202644434063321
142	0xbf9631c2b4757c86	-0.021674196495379515
143	0x3fb49d4456d93684	0.08052470321964661
144	0xbfae77d1366b6068	-0.059507882969854375
145	0xbfa5eaf5d3553b1b	-0.04280822949168891
146	0x3fb8fc20028fd8da	0.09759712278887225
147	0x3f600787388ac84f	0.001956714728600629
148	0xbf84ff0f1f30bad3	-0.01025211156783482
149	0xbfb5e8492e18094f	-0.08557565093363916
150	0xbfb19a6015426152	-0.06876183051133936
151	0x3fc03cdb2cde4169	0.12685718241528868
152	0x3faa64ac5266bdea	0.05154932504535366
153	0x3f96d55122726ddf	0.022298114516713482
154	0xbfc30c92ef752523	-0.1488212269999077
155	0xbfb589c7cdf75dd1	-0.08413361338113325
156	0xbfc0d88888bcbd63	-0.13160807301162966
157	0x3fbc3dca1fd59c83	0.1103178336830855
158	0xbfbb2fb8ac16df46	-0.10619692040824899
159	0x3f9f9d59113869e2	0.03087367217640658
160	0xbfc024a6e8b8368d	-0.12611852992306574
161	0xbfc23bc0a734b56b	-0.14244850315428023
162	0xbfb6ffa8283a106b	-0.08983851415729453
163	0x3fae319f0a3d7a40	0.05897233009340086
164	0xbfbf8842b9dedf9c	-0.1231729224954265
165	0xbf9e33218b3c201a	-0.02949192440340207
166	0xbfba8244808307c8	-0.10355022561546356
167	0xbfb212387a12271e	-0.07059052448508082
168	0xbfb735a7bbb7e680	-0.09066246350257678
169	0xbfa071a083c0ed8d	-0.03211690529175391
170	0xbfb090dff8026f87	-0.06471061520499975
171	0xbfa922ee3c9e33ac	-0.04909462442365195
172	0xbfb4e8d624cac374	-0.08167780302279742
173	0x3fb155f666d1486d	0.0677179337519946
174	0xbfb5c9bc73fd9ef1	-0.08510949928097113
175	0xbf7e3de7c9e2a267	-0.00738325636317736
176	0xbfbd3a06f0eb2758	-0.11416667348671916
177	0x3fc0e6412db9d416	0.13202681286534873
178	0xbf74677bf16a09c7	-0.004981502678335698
179	0xbfb881a4bcb9df3d	-0.09572820289201629
180	0xbfa50545da7e281f	-0.041055853768810595
181	0x3f8d27b9cdd528f9	0.014235927194608854
182	0xbfa3a86657397913	-0.038394163272402214
183	0x3fa97cbf3d142aea	0.04977986927595686
184	0xbfbf90a5c8c155c8	-0.1233008971333539
185	0xbfc076e7994f396f	-0.12862868295492144
186	0xbfb035022bbd87fc	-0.06330884521369734
187	0xbfc0d062ad1eb2f0	-0.1313594193756198
188	0x3fb095c8b9ad97cd	0.06478552373081854
189	0xbf94b79024050e67	-0.020231487463446742
190	0xbfbb27c2efc22673	-0.10607546189762633
191	0xbf482fff12b473e7	-0.0007381434892611533
192	0x3fb57ce2e23d79ba	0.08393686316910634
193	0xbfbd5553c186ab63	-0.11458323931462426
194	0x3fba40be610f6354	0.10255040998107506
195	0x3fb7fd78cf04500c	0.09371142439005115
196	0x3fbf30acd9108a6b	0.12183647441319471
197	0x3fa9b2993b0d55a9	0.050190723856455684
198	0xbfab90e918e2d9b3	-0.05383995465074367
199	0x3f8eb1967935aae4	0.01498715932276213
200	0x3f9f2f5eb0fe1e9e	0.030454139282965025
201	0x3fc13417fd48342d	0.13440227381980333
202	0xbfa515b82f91ff27	-0.04118133145038732
203	0xbfbbba78042f25c3	-0.10831403829720103
204	0xbfb7c5a89dc54111	-0.09285978175944744
205	0xbfa0733d951558ee	-0.03212921566835002
206	0x3fad0fba7e355451	0.0567606238425148
207	0xbfb13c31cdcc986a	-0.06732474588770435
208	0x3fbff7bd6ce2b4e0	0.12487396152819796
209	0x3f9726c7aedfb754	0.022608871506171482
210	0xbfb78a831bcb58ac	-0.0919572775704604
211	0x3f791c807f0499cb	0.006130697191372335
212	0x3fb57daf9e1c612b	0.08394906625870095
213	0x3fb2358c92c84724	0.07112959464600671
214	0x3fb24923e1b1eb24	0.07142853031284041
215	0x3f9370ce68b77589	0.018985009328266442
216	0xbfbf5dd6cceef535	-0.12252562049157663
217	0xbfd48785ab320125	-0.32077161520284597
218	0xbfb6ce3f3f546680	-0.08908458038458811
219	0x3fb9b4e1a5ab0716	0.10041628164892943
220	0xbfae7fb40521fd77	-0.05956804812103205
221	0xbfa799fb16a5ba28	-0.046096655382701635
222	0xbfb06060c5f22d11	-0.06397061188379306
223	0x3fb2a452971594e3	0.07281986416417711
224	0xbfbe7e847cf1a3b2	-0.11911800432575495
225	0xbfc80c407ac6c4f3	-0.1878738975042676
226	0x3fc0dd6e0ab2dcc5	0.13175750276943723
227	0xbfc3f78f2d1498f6	-0.15599240971750533
228	0xbfc09c1c40999d21	-0.12976411012935166
229	0xbfb828ae4ea4a531	-0.09437074108122513
230	0xbf967e07fef0bcbc	-0.02196514600308029
231	0xbfb2ea95cf3c6b74	-0.0738919859835912
232	0xbfc268f83344ffd9	-0.14382841590304343
233	0x3f80c2aff0b1b8c6	0.008183836491494022
234	0xbfb75377401ef149	-0.09111733737421902
235	0x3fbd84cf21d19b9f	0.11530775619176702
236	0x3fae9a52f45a2064	0.059771148994571616
237	0xbfbe3456915ab962	-0.11798611687365715
238	0xbfbb121a5bc8902e	-0.1057449792938889
239	0x3f84322b9cb7376d	0.00986131736763315
240	0x3fa55bb29f7696a2	0.041715223279692695
241	0x3f9e7bc85533f3ff	0.02976906795537459
242	0xbfb1f345ab6f82a0	-0.07011828837813505
243	0x3fb9ff5fc4e45f2d	0.10155294949470024
244	0x3f973655ded36b3a	0.02266821072121703
245	0x3fa24576443b441a	0.03568620283989095
246	0x3fb4c6bd90d07674	0.08115753922944596
247	0xbfb22c0916662ceb	-0.07098442837575518
248	0xbfb9a73334ec165a	-0.10020751993223467
249	0xbfbb3e978e010921	-0.10642382828612941
250	0x3fa3e74e7f6f0e49	0.038874104553113194
251	0x3fa453bb90e14340	0.039701329646624206
252	0xbf9a68104fea111a	-0.025787596585829943
253	0x3f976e015d8e40fc	0.02288057454603719
254	0xbfa046700dbce835	-0.03178739707659909
255	0x3fb855ea66c31365	0.09506096848333596

equations.x.layers.2.bias f8 [64]
0	0x3f67fc73809d1bd9	0.0029279952913472238
1	0x3fb10c5e2ba1642b	0.06659496846386108
2	0x3fbad697be66d8d1	0.10483692549209712
3	0xbfb85cbc3695e07e	-0.0951650269761348
4	0xbfc318ee2247f2aa	-0.14919830964926933
5	0x3fb395e7f3eeac93	0.07650613503817487
6	0x3fbc92d984bb0cac	0.11161574831480675
7	0x3fbe914c6d366090	0.11940457979506136
8	0x3fb0fa8f53849a23	0.06632324017537221
9	0xbfb493575ed7f03a	-0.08037324967875828
10	0xbfa61fd4833a7f23	-0.04321159459982329
11	0x3fb3dee4237246d8	0.0776197992838904
12	0xbfa746939d04efb4	-0.045460331838028806
13	0x3fd6fbfa9a022a4b	0.35912957229507886
14	0xbfa7e3539f84dc6b	-0.04665623972180629
15	0x3fba1a86b87a87ac	0.10196725849030369
16	0xbf956aded58f991e	-0.02091549089882349
17	0xbfba4347a08cc770	-0.10258910817790734
18	0xbfbc5c90b7c991d6	-0.110787434453932
19	0x3f910b5bb97f9a9f	0.016644890973021572
20	0xbf8d0abf5fe86155	-0.014180655588504601
21	0xbfabde076e6f40fa	-0.05442832205847199
22	0x3fb2c2e6b38c4285	0.07328645595067414
23	0x3fb8625b65e89424	0.09525080907822364
24	0xbfb759fc8d9cdf77	-0.09121683556884173
25	0xbfba3caf6e7b300e	-0.10248848387999507
26	0x3f9dc34fb4a1f70b	0.029065366172736733
27	0xbfb0b2b29b68dc2d	-0.06522671026401446
28	0x3f9ba17bae1530cd	0.026983196735543658
29	0xbfb650446f150c32	-0.08716228210418889
30	0xbfb44a209046bc7b	-0.07925609133120474
31	0xbfb2903c8f6ea7ca	-0.07251337529910909
32	0x3fc05609d1ef8d32	0.12762568236130672
33	0x3fbbc26efafbd464	0.10843557002574894
34	0xbfb489c3348a5d00	-0.08022708924032784
35	0xbf94fb79218c24dc	-0.020490544006894193
36	0x3fa034988b2accf0	0.031651274669821094
37	0xbfb4c863c3f06132	-0.08118270429293231
38	0x3fbaab273480f34b	0.10417408973530688
39	0xbfbbd2a27c8aaa7f	-0.10868278065269442
40	0x3fa3e1aff259d3eb	0.038831232389305935
41	0x3fb4489f26501b7e	0.079233118871441
42	0xbf9380d2345bc9c1	-0.019046101041519273
43	0xbf78b64658ec0beb	-0.006033205789893063
44	0xbfbfe8bcba68d30c	-0.12464503813755473
45	0x3fae0e8eb8c6f5f9	0.05870481496411268
46	0xbfbf1c000ef73678	-0.12152099957821771
47	0xbf92ad0f1fdfde88	-0.018238292999710498
48	0x3fc0d63d8f911dc8	0.13153810033894175
49	0x3fc6f4385aa5fd54	0.17932800699416396
50	0x3f96cdffdfc613f0	0.022270200760903636
51	0xbf64590429559589	-0.0024838525084073843
52	0xbf9474825aec14b2	-0.01997569732613575
53	0x3f9c4108a77a23af	0.02759183428000583
54	0x3fb92b8b543e4b1f	0.0983206825897409
55	0x3fb6668a4bb2a460	0.08750213955012631
56	0xbf925fc3b9833882	-0.017943437764920585
57	0xbfb401f4cc2085a6	-0.07815484984941765
58	0x3fb9d2043860321e	0.10086084724770969
59	0xbf6836d09cb2192c	-0.0029558252768452555
60	0x3fbc1be68260df42	0.10980072672907418
61	0x3fa84185a5664ba4	0.04737489360845551
62	0x3fae79671353bc7d	0.05951997862745715
63	0x3fbd78cf712744b9	0.11512466919454568

equations.x.layers.4.weight f8 [64, 64]
0	0x3fa4993aee4829b2	0.040231553637642206
1	0x3fa1264736ea094d	0.03349516434993181
2	0xbfbbacf84439d148	-0.10810805955572278
3	0x3fbbb75ba101471e	0.10826656990800784
4	0xbfa6c9a3934ca5de	-0.04450713322723819
5	0x3f6904a36e32682d	0.003053969574080126
6	0x3fc12b67d2e4ae65	0.1341371326210378
7	0xbfbbd667abbb40f9	-0.10874031012213327
8	0xbf6706d2e70d1295	-0.0028108710470483114
9	0xbf8250a2cc9f02ee	-0.008942863339940623
10	0x3fa79d3eff6036d9	0.04612156741505453
11	0xbfb1a6e189a5a432	-0.06895265207789761
12	0xbfaf9e1bfa9c7424	-0.06175315317361932
13	0xbfb56fdc6c4c2e5e	-0.08373811382278393
14	0x3fb58e9836e799ae	0.08420707073637487
15	0x3fa73e76816a65a7	0.045398429200939554
16	0x3fb6b1995a057333	0.08864744613442781
17	0xbfa37874fcd52aa5	-0.03802838884674501
18	0x3fb86203b6e8e30c	0.09524558272904587
19	0x3fb6374435d08158	0.08678079904394076
20	0x3fa6933a7d012d5f	0.04409201408324281
21	0xbf80839c39990d46	-0.008063526637789874
22	0x3fb3ff68824b982b	0.07811597043073053
23	0xbfb7f4cd66113050	-0.09357913724778766
24	0xbfb7bac91f6eada2	-0.09269387261763609
25	0xbfb2924f5c83c8ab	-0.0725450135103382
26	0xbfbc41ac047f46c3	-0.11037707433504367
27	0x3f913745d0245cda	0.01681241114519314
28	0x3face94fd96adcb4	0.05646752861996998
29	0x3fc1fee3630a52c9	0.1405910714717236
30	0x3faefe376aa3913a	0.06053326775307473
31	0x3fb07d37512fcbc5	0.06441064579102747
32	0xbfc3112a14c57bcc	-0.14896131529073242
33	0x3fb83157f9c94e68	0.09450292442607522
34	0x3f7d79553a757e1f	0.007195790217650293
35	0x3fb38773f8c63fe6	0.07628559897989326
36	0x3fb5ea4e2270478f	0.085606463821277
37	0x3fa607a03a3e35c6	0.043026930913679304
38	0x3fb08066ce4936d1	0.06445925270346754
39	0x3f857d0987d8c3c3	0.010492395837987339
40	0xbf9ec60026f47f85	-0.0300521873260773
41	0xbfb80b3d5850f4a2	-0.09392150312574413
42	0xbfb23c661757803b	-0.0712341124522035
43	0xbf9097abe488a59f	-0.016203580688090132
44	0xbfb4bac4804460ba	-0.08097484714051265
45	0x3fa5828477128d01	0.0420113940574769
46	0x3fb396b535464329	0.07651836920400669
47	0xbfc08a44f8a1492e	-0.12921964779031597
48	0xbfae0e72b52e90cb	-0.05870398008053853
49	0xbfb3e427f8bb3f4f	-0.07770013639969629
50	0x3fbfabe7450f54e5	0.12371678768188905
51	0xbfba46a08ca060e1	-0.10264018471969251
52	0xbf9a619aba65ea9a	-0.025762956263387517
53	0xbfba7c5f8787d7b4	-0.10346028384068867
54	0x3fbbb1e9c0d51393	0.10818348844357066
55	0x3fb4c3ccda760734	0.08111267407914796
56	0xbf8b4d7b68eb0be1	-0.013331379069660034
57	0x3fc2988e8c179a87	0.14528066482963117
58	0xbfbc2ec3d8853a9f	-0.11008857761519629
59	0xbf9691999b72a2ba	-0.022039795029430855
60	0xbfbbf21b9a31ba24	-0.1091630221796796
61	0xbfa182a65f951496	-0.034199904601828354
62	0xbfb56462c81f0ac0	-0.08356301675579925
63	0xbfa7374c006e7402	-0.045343756725948495
64	0xbfb52907906a57ab	-0.08265731120840651
65	0x3fbba6a07a82f01a	0.10801127425196491
66	0xbfb36750bf367512	-0.0757952181652011
67	0xbfc029ff09195319	-0.12628162330897721
68	0xbfb4a5db685912cc	-0.08065577790791706
69	0xbfb822c16e76c151	-0.09428032824394462
70	0xbfb002e17f1c608d	-0.06254395821850008
71	0xbf95a30bb24c9108	-0.021129782445442863
72	0xbfa9a7ba31651fab	-0.05010778286901937
73	0x3fbabfc8c324d535	0.10448889507536736
74	0xbfb3dfdab8c31625	-0.07763449679176711
75	0xbfae77fa08f4eb00	-0.059509099572514046
76	0x3fa966102535d00b	0.04960680441118378
77	0xbf831077ca767405	-0.009308753839656356
78	0x3fb93bc1d13f887b	0.09856807097051672
79	0x3fb8ff835233c7df	0.09764881855861017
80	0x3f8ec5701fec61b2	0.015025020574783141
81	0xbfac4d0d11a79b8e	-0.05527535286437689
82	0xbfc36a351c2fdbe8	-0.15167869449916727
83	0xbfa2595553eb05d0	-0.03583780908003187
84	0xbf731bc9a5672c43	-0.0046651722718236725
85	0xbf7cf1ad577a8a3e	-0.007066418758457758
86	0xbfa7bcda6bd9e86e	-0.046362710633688006
87	0xbfc22dd53f51ee07	-0.14202371207998984
88	0xbf8072cd674fca12	-0.008031468119928529
89	0xbfa5818a302d794d	-0.042003935223635304
90	0xbfa66c8699fbe106	-0.0437967360466605
91	0x3fb38a5ea7b39645	0.0763301047732848
92	0x3f65d864d47e3da0	0.0026666611992777894
93	0x3fbb6133b8f19921	0.10695193543651672
94	0xbfa32cb7934a522f	-0.03745053933122155
95	0x3fb046ca297c47ae	0.06358016503170802
96	0x3faad060065d46ec	0.052371025826358636
97	0xbfb30a664f54bd47	-0.07437743603508294
98	0xbfa6b6b2e490de25	-0.04436263122664411
99	0x3fb8bf966756e729	0.0966733934682479
100	0xbfb2db482cf3045b	-0.07365847680468234
101	0x3fb3752b7f22c161	0.07600662092113943
102	0x3fb7235e36022b53	0.09038342302862405
103	0xbfb1bdb09d651c26	-0.06930068819666299
104	0xbf7d8d67ff3ab077	-0.007214933622588507
105	0xbfb4696bcce0edec	-0.07973359825057685
106	0xbfae1e5cd1ef9c57	-0.05882539808936176
107	0x3f988f6c9ae7ecf4	0.023984620051106867
108	0x3fbbfcc2f9feff16	0.1093255863515846
109	0xbfad323d13e6a304	-0.05702391498500073
110	0xbfb6f9cd70cb1f5b	-0.08974918369051237
111	0x3fb22a90d3769aaa	0.07096200144460832
112	0xbfb606efbf033ba3	-0.08604334271806961
113	0xbfb611453c96255c	-0.08620102624094755
114	0xbfa484f8e7ec793f	-0.04007699805355224
115	0xbfaf93e329b66c39	-0.06167516597926021
116	0xbfb98e69fd6c7c4e	-0.09982931553939631
117	0x3fbb52e628ddaf68	0.10673368928627058
118	0x3f8a14bf7aec8dfb	0.012734886111110724
119	0x3f6f90ccfbac796f	0.00385322604905907
120	0xbf7a994043428e15	-0.006493807817750792
121	0xbf99b4327a2947dd	-0.025101460176592972
122	0xbfabf5eb93a0d76e	-0.05461059739211192
123	0x3fa80b8fbc5392fd	0.04696320699603083
124	0xbfad1f332ea689e2	-0.056878661579748316
125	0xbf9636dedef4a944	-0.021693689687859022
126	0x3fbd61d4694e2635	0.11477401324204879
127	0xbfa7cd47e3d48354	-0.046488043366713555
128	0xbfb0ea91752f5016	-0.06607922659833351
129	0x3fb9b7f901fa9252	0.10046345041571073
130	0x3fb035220de995ce	0.06331074561747771
131	0x3fb9e0a4ad7378d1	0.10108403429646563
132	0x3fbbdcd81a24e007	0.10883856428415593
133	0x3fb24724553f17e7	0.07139803963863721
134	0xbfa43b25260fcd98	-0.03951374139424074
135	0xbfb0313bd9bffbc6	-0.06325124803696189
136	0xbfa9997d7239732b	-0.04999916095105158
137	0x3fb27abc98220cb6	0.07218531336006859
138	0xbf828803a7c8d7dd	-0.009048489148977207
139	0xbfa5677b0325087d	-0.04180511868845913
140	0xbf67f6e746059f35	-0.002925349908924258
141	0x3f98bd097619dc03	0.02415861876803761
142	0x3fad20927f1056e0	0.056889131556244754
143	0xbfa5d8e4614d5a70	-0.04267038047571681
144	0x3fb6eac7239a8454	0.08951992625454014
145	0xbfb2e4d5938f70d4	-0.07380423405215036
146	0x3f9b1be9d4168a67	0.026473668641879302
147	0x3fb3f0adbb883aa9	0.07789121464177619
148	0xbfaaa2f0c70b8894	-0.05202438764332942
149	0xbfb99602903f9e17	-0.09994522115413705
150	0xbfae0c9514529ee6	-0.058689745646288746
151	0x3f7f6edc8d6b70a5	0.007674085171597654
152	0x3fa169e317b95c6e	0.03401097931480811
153	0xbfb4248a41e26bd3	-0.07868255718714971
154	0x3fa4cd242f507e4d	0.040627604270636476
155	0xbfbdd9ab869fc8cc	-0.11660263096544837
156	0x3f812f0949b5c102	0.008390495836210213
157	0x3fbc644d69e8482c	0.11090549312237447
158	0xbf9e13cea46516e7	-0.02937243345629428
159	0xbfb347bfc6e13287	-0.07531355481587286
160	0xbf91feb0aae52617	-0.017573128157243625
161	0xbfb373ae9158394d	-0.07598391579106085
162	0xbf1a77894c5f1c58	-0.00010096335890273764
163	0x3fa6a1ff06c46032	0.0442046828995334
164	0xbfb7280c0c5d55ef	-0.09045481969709333
165	0x3fbcf84a1472d207	0.11316359519225482
166	0x3fb580c3f42e4aaf	0.08399605475851034
167	0xbf77542dcf5f3c60	-0.005695513673301539
168	0xbf6c5ec0aa6e5bf1	-0.003463150310789136
169	0xbfa71f5a68de616a	-0.04516108064780407
170	0x3fbd1e1d2e79709d	0.11374075302723204
171	0xbf9379e3dfaea74d	-0.019019661452751625
172	0xbfa31b89ec437433	-0.0373194790752013
173	0xbf43b70b36706b08	-0.0006016545056611597
174	0xbfb46beed91be51d	-0.07977192688476405
175	0x3fb787333a88558d	0.0919067399884936
176	0x3fb19057ecaec39d	0.0686087563360744
177	0xbf9f0c0e4f318dd5	-0.03031942709311671
178	0x3fc099ea4ab76b04	0.1296971192194506
179	0x3f93f995c715f741	0.019506778980477483
180	0x3fb647a774b384c4	0.08703085517074088
181	0xbf62ce6e877cdb86	-0.002295699956359201
182	0x3f81414adebb5072	0.00842531673644251
183	0xbfa25f35de258702	-0.03588264786482222
184	0x3fb34815e20f9e98	0.07531868714397161
185	0x3f8a939a00d9c7f4	0.012976840163194205
186	0x3f34334b5a54667a	0.0003082331625861922
187	0x3f802846d56f3bf1	0.00788932169771603
188	0xbfb7f08350a4022c	-0.09351368635908192
189	0xbfbc01a012ed4915	-0.10939979993898803
190	0x3faa19ea1271e655	0.050978960753991366
191	0xbfaa8efbd3d7f473	-0.051872129068194626
192	0xbf899eef1e8bda5e	-0.012510173911761398
193	0xbfaa6b3610703348	-0.05159920645392063
194	0xbf8416c815b62311	-0.009809077417928276
195	0x3fa1d16811cc246f	0.03480076997045322
196	0xbfae4e61c2591697	-0.05919175622379418
197	0x3faaf551a28926b0	0.0526528845699209
198	0xbfb5aa332db95a21	-0.08462829462346423
199	0xbfa2e61d7bbfd306	-0.036911889415852925
200	0x3fb6f719958e5dd6	0.08970794583580441
201	0x3f9739f0772e2ce4	0.022681958460037857
202	0x3f9638818e59ac7a	0.021699928582546303
203	0x3fbe8ea57836e1d5	0.11936411080285521
204	0xbf9145be0cb4fc5a	-0.016867608571598282
205	0x3f8de5c9d14567aa	0.014598442744205038
206	0x3fc414bc08ace50c	0.1568827669487195
207	0xbfb59d80d772849c	-0.08443455944008565
208	0x3fa3a1e878d38c81	0.03834463572436509
209	0x3fa78e86ef517401	0.04600927039493997
210	0x3faf723d2bd70c34	0.061418449021879346
211	0x3f916daa1efffbc2	0.0170198995037898
212	0x3fac94da1355b5fb	0.05582314954777342
213	0xbfc0ba71e9c43792	-0.13068984903696595
214	0xbfb94c24555dd4f2	-0.09881808361190617
215	0xbfa616c719352b99	-0.04314253027640475
216	0xbfb6e086acc3cea3	-0.0893634959973562
217	0x3f7092aaece9fc5e	0.004046123197098598
218	0x3fbb82bee76627ed	0.10746377133742131
219	0x3f8a13a296446ee6	0.012732763491434661
220	0x3fb5a1ce273838a3	0.08450020272741425
221	0xbfb90e21c066efce	-0.09787188479725659
222	0x3faa530dd257c5aa	0.051414901663416515
223	0x3fb3ae0c9b2443df	0.076874530674345
224	0xbf917400fa5c5b75	-0.017044081955727337
225	0x3fabed2c5ba4286f	0.054543863474535985
226	0x3fbd41a2b84f78d1	0.11428277015463385
227	0xbfc0f3966c37d26b	-0.13243370327076617
228	0xbfb7633649103b40	-0.09135760577940477
229	0x3fb5784c1e13ea1f	0.0838668416435344
230	0xbf97d230dec134aa	-0.023262752147549172
231	0x3f7b4368995977ff	0.0066560827159189975
232	0xbfb0e6ba407c5079	-0.06602062296252766
233	0x3face94400862562	0.056467175544706164
234	0x3fbc7159e13af5ab	0.11110460041796581
235	0x3f974dc593c152ef	0.022757613318691246
236	0xbfa0c8e9e8331bcf	-0.03278284987896251
237	0x3fb12b92631e45e8	0.06707110328559163
238	0xbfb1f2abaaa0fcea	-0.0701091090750087
239	0xbfa3e2825ff01591	-0.03883750363460615
240	0xbf746cd89ad98009	-0.004986616242234739
241	0x3fb2e2c4fe09f2de	0.07377272798653275
242	0xbfa24c041c51432d	-0.035736206490247426
243	0x3faaca095372fc5c	0.05232266563097518
244	0x3fa484b572430244	0.04007498760029596
245	0xbf774f3acab11370	-0.005690793662385882
246	0x3f2c4946994bc479	0.0002158068351927644
247	0x3f82076c2f62c9de	0.008803219982245144
248	0xbfb51ff71b3fc21c	-0.08251900115261218
249	0xbf915480c259fead	-0.016923915731693984
250	0x3faf9555171e9108	0.061686190674011654
251	0xbfb0fd1040a10c6c	-0.06636144235476288
252	0xbfa5a10b46f3ea94	-0.04224429360507034
253	0xbfaa28f0f4c21b3d	-0.051093606832230944
254	0xbfa2ae1c6e0a946a	-0.036484611923960866
255	0x3f96d032b07e6f2a	0.02227858736260583

equations.x.layers.4.bias f8 [64]
0	0xbfb60444ebd6e302	-0.08600264318273435
1	0x3f7ab9b798cfd690	0.00652476995036512
2	0xbfa186a1942b9f21	-0.034230279290396355
3	0x3f8927166daa5fee	0.012281584951139703
4	0xbf85fc3939c2d15f	-0.010734984469629337
5	0xbfa744d445adde8a	-0.045447000032195
6	0xbfb992f4060bee9c	-0.09989857814428621
7	0xbfb80a24a2f53ee2	-0.09390477159945079
8	0xbf90f1a7b02e6d67	-0.016546840790039676
9	0x3fb629ec5907add6	0.08657719777664083
10	0xbfb764eea6376db8	-0.0913838535120054
11	0x3f7db065ddd168e3	0.007248304286884474
12	0xbfbc791528f41760	-0.11122257470932828
13	0xbf8d57310398b5b1	-0.014326460764176515
14	0x3fb3c36329330320	0.07720012431947199
15	0x3fb11d3d941be52e	0.06685242525044963
16	0xbf5d31a145eaffb0	-0.0017818522389205609
17	0xbf7a3e067850e3ae	-0.006406808160186834
18	0x3fbf8c846d7f0a0d	0.12323787377594204
19	0x3fb5fd5da716ab4f	0.0858973057681116
20	0xbfb7f0c614f05ffd	-0.09351766596989815
21	0x3fbb6c56cb3c95c6	0.10712187253792313
22	0x3f9e05e217f8509e	0.02931931754399441
23	0xbfaa951aeb13a531	-0.0519188320120726
24	0x3fbc9e8537fce654	0.11179382912532648
25	0x3f7a431a0c7ee773	0.006411649468583624
26	0x3fb7d728a24c1240	0.09312681162197922
27	0xbfb3674bd35e9f77	-0.0757949248351205
28	0xbfb3effca586beca	-0.07788065949602721
29	0x3fa3ee7dc68430b4	0.03892891929908285
30	0x3fb4c47731fb7501	0.08112282724637866
31	0x3fa98ac82d989334	0.049886947217862604
32	0x3fbe540165e5705a	0.11846932161046322
33	0xbf9b07ab5354376c	-0.026396443329807992
34	0x3f59120060543968	0.001530170791116692
35	0xbfb1edb0e213c132	-0.0700331260629852
36	0x3f7aedce230f9cf8	0.006574444982994303
37	0x3f8e759c797e4fd0	0.014872763116535653
38	0xbf9709babb28151a	-0.02249805228531896
39	0x3fbbc1fc821b02ee	0.10842874695209634
40	0x3facd3a4d9a2e192	0.05630221516315993
41	0x3fc11254b446820f	0.13337191393385736
42	0x3fb421118248e123	0.07862958365229082
43	0xbfb92c13be44af83	-0.09832881350729221
44	0xbfa1871b4197c5b8	-0.034233905560437206
45	0x3fae86e6cc21aea7	0.05962296716537923
46	0xbfbd1a467b8ad713	-0.11368217960520281
47	0xbf70c7b72f7ead2f	-0.004096713608230203
48	0xbf71a034174586ab	-0.0043031725693666685
49	0xbf9fa9fa8955506b	-0.03092185462203682
50	0x3f8ebd049a2ec291	0.01500896068122984
51	0x3fbd8d21623c59fd	0.11543472908338255
52	0x3fa0faf6f8c928fa	0.03316470896659669
53	0xbfb912a50747497d	-0.09794074466416265
54	0xbfbb5ee0b300ebe0	-0.1069164692898279
55	0x3f95a0b33771e187	0.021120834597668583
56	0x3fa6df0affc2a212	0.044670432778108574
57	0x3fa72f285c982d77	0.045281659415276225
58	0x3f5c8d473da2dd36	0.0017426677427872634
59	0x3fa376af7803cbee	0.03801487293267046
60	0x3fa0259d179ed974	0.031536969312059876
61	0x3fa9088bd53ebf96	0.0488933275040601
62	0xbfa0f82c690d2504	-0.03314341337552132
63	0x3fb6cce3dbd300a7	0.08906387440493067

equations.x.layers.6.weight f8 [64, 64]
0	0xbfada8a764fea077	-0.0579273520264118
1	0x3fa949158c23ed1c	0.049385712964033796
2	0xbfb02b064c3a7ab5	-0.0631565033058717
3	0x3f6e4283afcd84b2	0.0036938259130897206
4	0xbfac62c94c40032c	-0.05544117980753635
5	0xbfbe092c73f8569c	-0.11732747870731902
6	0xbfb3724419f348e6	-0.07596231111100202
7	0xbfad907e5e0e4b98	-0.057743023854661846
8	0x3fb0e14b3967ada4	0.06593771125306219
9	0x3f7d4bde3a15d665	0.0071524315584291275
10	0x3fc177789c902caa	0.13645846981703375
11	0x3fa897075c64ec37	0.04802725794657941
12	0x3fc3dd1ff2d24e41	0.1551856933261764
13	0x3f9bf46f804d9300	0.02729963512992395
14	0xbfb6d5c15d144563	-0.08919914743844042
15	0xbf925f04680b9d51	-0.01794058690111672
16	0xbf91a3eac9b8dad8	-0.017226856767787208
17	0x3f85c3eb6e4af7d8	0.010627593329782956
18	0xbfc20d93e23fc41b	-0.14103935763662964
19	0x3f7dcad078e455ee	0.00727349695650535
20	0x3fa0afd2b2f89dc0	0.032591423365655015
21	0xbf7d85a069e1e559	-0.007207514396321579
22	0xbfb46376b480a63e	-0.07964269549179279
23	0xbfab85397ed41c36	-0.05375079796981945
24	0xbf722a2d784119a5	-0.004434754959282837
25	0x3fbcd474339d791e	0.11261678943762773
26	0x3f9a4772cd205956	0.025663179178161265
27	0x3fb2993e22fa05be	0.07265079835817453
28	0x3fb59fd008266a0e	0.08446979712463351
29	0xbfa480a0a8e0a1f4	-0.04004385053150719
30	0xbfbd78c487f1e6d9	-0.11512401885002123
31	0x3fa88666017e6f93	0.04790037887798273
32	0xbf8999824adb433f	-0.012499826344908647
33	0x3fac08b760e99b77	0.05475400026335014
34	0xbfc02bd2bc83320f	-0.12633737759314598
35	0x3f68981ae188a3ae	0.0030022168177947428
36	0x3fbf39e7d9a5b085	0.12197732032444904
37	0xbf79c7206f2e6157	-0.006293417641153396
38	0xbfa9e28013aa7f36	-0.05055618515075226
39	0x3fb7732ee8315a34	0.0916013066174422
40	0xbf93a5bb2748e7aa	-0.019186901352646814
41	0x3fb3c9e08f3d260b	0.07729915139238856
42	0xbfb3a60c6d5be116	-0.07675244970221615
43	0x3f99ed582a7c832b	0.02531945952717078
44	0xbf9ee31de71ca29a	-0.03016325686545205
45	0x3fb768a7ae21b377	0.0914406585813604
46	0xbfa8823224a0dc0d	-0.047868315669283935
47	0x3f995be5dfce405d	0.024764625344289793
48	0x3fb6c154c5127621	0.08888749896365102
49	0xbfb4f4c4b9fa5ffb	-0.08185987034300972
50	0x3fbebeeed12a7f62	0.1201009045275874
51	0xbfaaf185a9446da5	-0.05262391749621579
52	0xbfb8ce4b935ceb35	-0.09689781520584691
53	0xbfb6f1acc925b35b	-0.08962516699621174
54	0xbfa357dc4e08b981	-0.037779697919506645
55	0xbfb9734b9bdd816a	-0.09941551738075352
56	0xbf829e5ccfc12712	-0.009091115083851107
57	0x3fa885abe6c94f35	0.047894832536853484
58	0xbf931de28de4682d	-0.018668689642346848
59	0xbfad293413c25cce	-0.056954982196822365
60	0xbfb323b3c96877f2	-0.07476352374257525
61	0xbfb9a4b12748859b	-0.10016925057472863
62	0xbfa2fbf9f35c7388	-0.03707867713658347
63	0x3fa06d1536aa0cdc	0.03208223621643366
64	0xbf8a35b9effb91a6	-0.01279778731936505
65	0xbfb04c5169e1b619	-0.06366452059747764
66	0x3fa6f4efb6a81aac	0.044837466284709165
67	0x3fb9a2e05eee38cc	0.10014154737129671
68	0xbf80410ef5bbb8c7	-0.007936589121041128
69	0xbf9a33913ec3b524	-0.02558733888229371
70	0x3f37fffc86167928	0.0003662101281295565
71	0x3fb734156bcd0f02	0.09063848382816889
72	0x3fb2ea683d4361ae	0.07388926978763408
73	0x3f9bec83ebc65ee6	0.027269421830708483
74	0x3fb903a3bef41b7f	0.09771178638412258
75	0xbfa27e573d0b2943	-0.03612015361939538
76	0x3facd2a857578cc9	0.056294689809669736
77	0xbfc0b88e25e7ae89	-0.13063217974501054
78	0x3f758f2df7e40b78	0.005263499797595432
79	0xbfb90e25394c1fbc	-0.09787209175931272
80	0x3fb69b3a75f08efe	0.08830609683405652
81	0x3fb520093d175de3	0.08252008191572417
82	0xbfb6ec70d7359dbd	-0.08954530004631685
83	0xbf7b626b7dbd7a9a	-0.006685657393829781
84	0xbf52c822212c7c1f	-0.0011463483139733178
85	0xbfb6f989abcf965f	-0.08974514431573642
86	0x3fab0127661c27eb	0.05274317857227103
87	0xbfc0f7e17aa2aa9a	-0.13256472099358946
88	0x3fa4145aaa8e1efd	0.03921778995487377
89	0x3f70dc9afc22b396	0.004116635713370528
90	0xbfaaf9b756993ed5	-0.05268643314468383
91	0xbfab7b6b0073696f	-0.053675979428322466
92	0xbf456347b7971700	-0.000652704256190545
93	0x3fb7c55eb8f44ca9	0.09285537734494888
94	0xbf763a84ac12a06d	-0.005426901102659182
95	0xbfa69fd3fe5dfced	-0.04418814163272509
96	0x3fa3dfaf40157a9a	0.03881595284723467
97	0xbfc0199ed96ece2c	-0.12578187577092714
98	0xbfb777c894f66ac8	-0.0916715015104429
99	0x3faf4e77dd9bef6d	0.061145540048498905
100	0x3f9dc21573e8c0ed	0.02906068344071937
101	0x3fa90c593ffa1201	0.0489223375889516
102	0x3fbe95d62d53e376	0.11947382551796956
103	0x3fa54bfefa096db9	0.041595428487848314
104	0x3fb7315a6da473a3	0.0905968206102004
105	0x3fad38b0b71070a7	0.0570731376139702
106	0x3fbdcfdf7a051b5c	0.11645313958170561
107	0x3f79ad61c45647cd	0.006268865491977094
108	0xbfb5de57fd62de63	-0.08542394577204386
109	0x3fa75c9c779a0c91	0.04562844238264419
110	0xbfb54d4bc3e70332	-0.0832106927182508
111	0xbfb013917af8fb2a	-0.06279858829746546
112	0xbfa04fe284889f59	-0.03185947292177955
113	0xbfbc184a346e8ae8	-0.10974563388894476
114	0xbf99cf7d81f54b11	-0.025205575043695087
115	0x3fc19df8a91d0945	0.1376334024190077
116	0x3fba35f03e93d9be	0.1023855355050278
117	0xbfbbda9f89fcbc10	-0.10880467528180326
118	0x3f989ab432bb2369	0.024027648540854516
119	0xbfa477c7150a00e1	-0.039976331060644694
120	0xbf748711fe979a89	-0.0050116255674540556
121	0xbfbbeb857c86fbf2	-0.10906252184120982
122	0x3fb075457435a540	0.06428941809794697
123	0x3fabe06165f6f171	0.054446262070515845
124	0xbf98442a14f69b24	-0.023697526483057577
125	0x3f8223481b21f22a	0.008856356933614046
126	0xbf959f18d239e429	-0.021114719229874766
127	0x3f95742bc8b43a2c	0.020950969815254947
128	0xbfad2a4e7efaaf9c	-0.05696339893378807
129	0xbfa99d151abab046	-0.05002656890187089
130	0xbfa51b3dbe55c6e1	-0.04122345875192735
131	0x3fb227692826d7db	0.07091386060969233
132	0xbfa99fd3a8609198	-0.05004750662218099
133	0x3fa198e303ae3696	0.034369558524400975
134	0x3fc05931b046baf4	0.1277219877933572
135	0xbfc1e08616c459a7	-0.13966442214650707
136	0x3fb23fc72c4a0350	0.0712856753471105
137	0x3fa051f284fced94	0.03187520860088991
138	0xbf97fb9588e16465	-0.023420654754179888
139	0xbfc07868d8e1be36	-0.12867460813457549
140	0x3fa19eb2dc86806e	0.034413899821857594
141	0x3f7b85c68f68a2c1	0.0067193752534328586
142	0x3fa4c241bfa03887	0.04054456199820416
143	0x3fb0a7ce56248fb1	0.06506051638694889
144	0xbfa6458f9f010ebf	-0.0434994584652748
145	0xbfc2d63e4e0bcb27	-0.14716318903773493
146	0xbfc13df06c848de3	-0.13470273302765098
147	0xbfb749ac4e63fbc0	-0.09096791185218844
148	0x3f880eeddd5c8c40	0.01174722511092885
149	0xbf9240bf923339c0	-0.017825120256753868
150	0xbf758a438499d826	-0.005258811704711907
151	0xbfac85b1a2cbea63	-0.055707503435731075
152	0xbfa8ba0441b19b07	-0.048294194239863635
153	0x3fbb5ed912404b9f	0.10691601462921917
154	0xbfbc2a07db4b8a54	-0.11001633743175293
155	0xbfa9217e33e13fd6	-0.04908365615176506
156	0x3fb79247c44c332b	0.09207581083701359
157	0xbf9a254bcd635d0f	-0.025532898341080797
158	0xbfab0362c0f4a4c8	-0.0527602062741806
159	0x3fb1c147a35b124a	0.06935546625306546
160	0xbfa7a7a7b2cf0a02	-0.04620098169063526
161	0xbfae5eef9425234f	-0.05931805308734416
162	0x3fb1580062186964	0.06774904627710537
163	0xbf89930e049da513	-0.012487515941489257
164	0x3f95ceddd5a9f813	0.02129694573022085
165	0x3fbbf481e1051259	0.1091996359219335
166	0x3fb9367261b98e8b	0.09848704229221476
167	0x3f932cdc4e900c16	0.01872581700810024
168	0xbfb52cb5476b9e29	-0.08271344178830788
169	0xbfa1adeccdf49c57	-0.03453006757836679
170	0x3fba8a31cd1f978d	0.1036711812772337
171	0xbfafd8574a84d5f9	-0.06219742569593829
172	0xbf7cf4d5a0440ced	-0.0070694298522113565
173	0x3fb5bdfdc56c016d	0.08493028707380797
174	0x3fba9f1271893205	0.10398974677918467
175	0xbfa150a22af5fdcc	-0.03381830954003426
176	0x3f7c7b1ea09134ce	0.00695335353618738
177	0x3fac78241842a903	0.05560410305163723
178	0x3faa0fb994cc7b2f	0.05090122167006538
179	0xbfacd30ef6bd20d9	-0.056297748202781946
180	0xbfae652efab2f190	-0.05936571893969067
181	0xbfb1390ee8bc7529	-0.06727688962969992
182	0x3fa23d646f8ca6d7	0.03562463628470674
183	0xbfc00297dffa2628	-0.1250791400564577
184	0xbfa3f253ea0a25e9	-0.0389581893151208
185	0x3fbb05b73606f10b	0.10555596417447448
186	0x3fa58e1b3bb4d89f	0.042099810636885275
187	0x3fa9691ed376b6f8	0.04963013011307099
188	0x3fb4ce280aa27aef	0.08127069720874734
189	0xbf94b5cc01514628	-0.02022475011864891
190	0xbfa12e96321a552a	-0.03355855332953646
191	0xbfbc601e140082bc	-0.1108416365464206
192	0x3faea0a32fd72754	0.05981931647290986
193	0xbf9f386a09afb5bc	-0.030488640633782302
194	0x3f82228400b95790	0.00885489585122537
195	0x3fb35cfc277bade6	0.07563758815711416
196	0xbf8eb6c881b8e3a4	-0.01499706884270486
197	0xbfb3aa3afb9a6da8	-0.07681625979096529
198	0x3fb0f1d73d87478c	0.06619019748839444
199	0xbfa23de8c167191b	-0.03562857972024088
200	0xbfb249e89f1bd18a	-0.07144025692452352
201	0x3fb425836c2b9c66	0.0786974085891515
202	0x3fb2200f76830558	0.07080170291285037
203	0x3f84492e0c093284	0.009905204527194351
204	0xbf99c540616b323c	-0.02516651720616124
205	0x3fa9ecad09000678	0.05063381895889746
206	0xbfa1d539d04165c0	-0.03482990901165861
207	0xbf86c193ef8155c7	-0.011111407991999734
208	0xbf535a9e976c6d4c	-0.0011812733407115692
209	0x3f976ae7c11b1d02	0.02286874881863544
210	0x3f9bae85fb99f2d7	0.02703294132378428
211	0xbf83557bd0f0148f	-0.00944039088609319
212	0x3fb0dbc9a6ae3912	0.06585369414662903
213	0xbfaf57ea164d7b66	-0.0612176086640293
214	0x3fa5a8a5d473aa7b	0.04230230539709098
215	0xbfa0e82c177fff61	-0.03302133356919402
216	0x3fc40988e8fc0660	0.1565409791583532
217	0xbfae41daecf7b1b8	-0.059096185137466006
218	0x3fb675a2ba67b69d	0.08773247767359256
219	0x3f9d8bc7033f67b5	0.028853520940039085
220	0xbfa9c882ec66398f	-0.050357905728662826
221	0xbf976f0fe2a2ff02	-0.022884605605894677
222	0x3fae5253952ef70c	0.05922185131156085
223	0x3fb055be0f983d84	0.06380832558374122
224	0x3fbbffaa92f119ee	0.10936990821310363
225	0x3fbf19a4f08bc973	0.1214850508947956
226	0xbfb06370628bc2b1	-0.06401731878191687
227	0xbf90b8935564af41	-0.016329099738114698
228	0xbfa352c09dc0a69a	-0.0377407257622739
229	0xbf7ec2d86ec8673e	-0.0075100378421895635
230	0x3f762c7111bfa617	0.0054134766360021324
231	0x3fb85dc862bf4b01	0.09518101130315061
232	0xbf97ef8045c2532a	-0.023374561555630148
233	0xbf95dfe6462c1049	-0.02136192134186413
234	0x3fb51f42a39de600	0.08250824446249538
235	0xbf9072550f48d178	-0.01606114297665459
236	0xbf8e72c0cecef884	-0.01486731177453416
237	0x3f84a6e499837df3	0.010083948073257942
238	0xbf9cc1f36a14d9d4	-0.02808361372918873
239	0xbfadae0a31832dbb	-0.05796844343566528
240	0x3fb4a08539d75d48	0.08057434713497458
241	0x3fab52c179bdaa24	0.053365751372286746
242	0x3fb9a76c32719537	0.10021091681990844
243	0x3fb6fd88b4ad7caa	0.08980612193180329
244	0xbfa3fe53888f67b8	-0.03904973070139256
245	0xbfb29959bc48ebe1	-0.07265244337843015
246	0x3fb885a611943ee0	0.09578931740929475
247	0x3fab4e71fea85f37	0.053332865081925744
248	0x3fbcb8b904f0d553	0.11219364519714263
249	0xbf9ed880ed3e4dbe	-0.030122770767389666
250	0x3f8e8b83af7c3f2e	0.01491454009331469
251	0x3faf358b804ee788	0.06095539037001091
252	0xbfbe9bf40dc6a263	-0.11956715904546793
253	0xbfc1bc46898320e2	-0.13855821337188617
254	0x3fa4147187de26a4	0.03921847137014581
255	0xbfb853db692e2a6d	-0.09502955739859838

equations.x.layers.6.bias f8 [64]
0	0xbfa77024f4d8ffdb	-0.0457774685751244
1	0x3fb49184110de5d3	0.08034539619793372
2	0xbf92508cb2dc8c49	-0.017885397354927588
3	0xbf981dcfa9e513d8	-0.023551220650251142
4	0xbfb1c17ef1dcc831	-0.06935876278728938
5	0x3faba06d7e9068bf	0.053958341312140494
6	0xbf926b7028cde96c	-0.017987968912600946
7	0xbf5007efd68c4097	-0.0009784547966696139
8	0x3fb4a008919ee25e	0.08056691699210591
9	0x3f8e193005a2fe82	0.014696479007738409
10	0xbfa20900f0c6c462	-0.03522494258084731
11	0x3fb1b9c8a900981f	0.0692410862544368
12	0xbfb2346d66b292ff	-0.07111247784866846
13	0x3fa9a9b15a82c481	0.05012277822368905
14	0x3f9a2850479dbf8b	0.025544409152132224
15	0x3f96713ed1174851	0.0219163718337046
16	0x3fa035c4f0088977	0.03166022710890364
17	0x3f9d856216117588	0.028829128834663403
18	0x3faa707f7f8de80e	0.0516395419317207
19	0xbfb745bc15731d68	-0.09090781711267015
20	0x3fc1449aa2e9471d	0.13490612940454919
21	0xbfaf967d85e237f0	-0.06169502505609603
22	0x3f88c7f7cf41e300	0.012100158703320485
23	0x3faf55d925a92308	0.06120184502339582
24	0xbfc2057c2529b61b	-0.14079238714786943
25	0xbfa5c8744b4d57a1	-0.042544969741967316
26	0xbfb28e5109d6ef88	-0.07248407831406045
27	0xbfbe41fbec072b1a	-0.11819433700945262
28	0xbfa3e3cca9291f07	-0.038847346925249986
29	0xbfbc11b1fa8d76a8	-0.10964500777250896
30	0xbfb7dcfda04a02d9	-0.09321580088909388
31	0x3fb83cbc4230b91c	0.09467674842810364
32	0x3fba7514dfa07556	0.10334902248037756
33	0x3fa4ca371ad52b9b	0.040605279946780835
34	0x3f6688d41b909c8c	0.002750791809848224
35	0xbf682307363f341b	-0.0029463902337512177
36	0x3fad228b4630d545	0.05690417510815363
37	0x3f7ee8835ad92cb0	0.007545960526452664
38	0xbfb0dd96d7c9f09d	-0.06588118332178046
39	0xbf8bff9ee14d5a6c	-0.013671151400257396
40	0xbfa2d86a58793a23	-0.03680736856459912
41	0xbf3ea6c71d7e1661	-0.0004677044030291008
42	0x3fb28ea32a26be6f	0.07248897341809778
43	0xbf94f4d8918b69c4	-0.020465263255440083
44	0x3fbdfdb369593bde	0.1171524173926026
45	0x3fa3dfc434c032fd	0.03881657737665554
46	0x3fb91ef869204d7c	0.09812882010037599
47	0xbfb0df30e455b158	-0.06590562414721057
48	0x3fb65d683170d447	0.08736277777718825
49	0x3f940865fa1b8ec2	0.01956328715358669
50	0x3fa2ac3446ff4e4c	0.036470063845311346
51	0xbfaa5e9a3711eee3	-0.05150300905458296
52	0x3fb5513d32ab8335	0.08327085959491572
53	0x3f88c6dae43762e5	0.012098035897837043
54	0xbf68d514ad93d579	-0.003031292330542609
55	0x3fa9ec7254ce49b5	0.050632069446823115
56	0x3f73b0e4c5355a94	0.004807370790635663
57	0xbf7f2c206b4bd6b0	-0.007610441815577282
58	0x3f8fe01094748614	0.015564088373653674
59	0x3f9bcaa2f1ba17b1	0.02714018440612848
60	0xbf71bd897c3abcbb	-0.004331147243347984
61	0x3faf8f047fdc5ec7	0.06163801251221695
62	0xbfb86b0038eb3c79	-0.09538270368214964
63	0xbf93a435116e7f56	-0.01918108862776021
