fisher-kolmogorov-3T/2025-06-03_23-36-15/model_best.pt (torch, 8292 bytes, 8 tensors)

equations.x.layers.0.weight f8 [16, 1]
00000000: 2e6f 2f4f ccc2 d23f 23e8 6002 a458 d13f
00000010: 7440 65f1 6f6a b2bf 3741 518e d614 d0bf
00000020: cd80 6ad9 5f3a dfbf 1edb 9e15 9197 c8bf
00000030: bf13 07f8 bf1a e1bf ce4d 2507 2a07 d5bf
00000040: bdfd 03e8 6663 ddbf bbfb 2bd5 2d36 b6bf
00000050: d4e0 9e9b 90a3 e8bf 150d ecdd d3b7 dbbf
00000060: 6ce2 929d 8946 d8bf 28d9 7d52 f4a1 b63f
00000070: d456 1f2c c279 b53f 9759 5341 82a6 ae3f
0.2931395314496851 0.27103519661216263 -0.07193660396046814 -0.25127185724433637 -0.48793789131196946 -0.19212544971170414 -0.5345153660097067 -0.3285622663290412
-0.45919201524517544 -0.08676420645131959 -0.7699664153542707 -0.4330949465949783 -0.3793052710348437 0.0884087277789588 0.08388913705070006 0.05986411139899699

equations.x.layers.0.bias f8 [16]
00000000: 0de8 2dd5 3fef e33f b7cf 3f93 add7 dabf
00000010: 9bd1 84de 1c71 e6bf 98c0 be03 b0cb b9bf
00000020: 3b8b a776 b76a c2bf 39da ab35 5178 e3bf
00000030: 86dd 05f9 9654 b2bf 8c03 8fdc c4ca ef3f
00000040: ff17 a678 19fa b03f f4a9 f2c9 1fd1 ad3f
00000050: d787 f492 1087 b5bf d3ca 09c9 e05f e83f
00000060: 8725 bf5d 8c59 f3bf 318e 028c 8150 bdbf
00000070: b483 b5aa e3ae a0bf d143 75e7 0dfd dc3f
0.622955242505897 -0.4194139421444975 -0.7013077112265366 -0.10076427546914812 -0.14388173383403022 -0.6084371612803984 -0.07160323695813106 0.9935020740305034
0.066316215472483 0.05823611583885571 -0.08409217441342719 0.7617038656738607 -1.2093623792628436 -0.11450967472279029 -0.03258429964876744 0.4529452095349003

equations.x.layers.2.weight f8 [16, 16]
00000000: da58 2620 e4d9 33bf 0ecc f6c2 6ccb bebf
00000010: 1bbf b62a 7eda c6bf c96b 53c1 50c3 85bf
00000020: 50d3 401d f6af 5dbf 8bfd e23b e222 c13f
00000030: 93ca b5f7 e143 bcbf 000a 8617 38c2 ad3f
00000040: 6ea0 1f34 99c5 d33f f241 01d0 2df0 ecbf
00000050: a6cb 8441 92aa b0bf 90cf ee95 3348 c63f
00000060: 21da 5e32 c1c7 dc3f cd22 9fbe 8b99 e43f
00000070: 8fdc 44e0 ebd7 e63f a2fb cc84 48e2 ba3f
00000080: 0af0 9cae 6d39 c83f 4f0c 6fb7 e54d b9bf
00000090: 1198 ea92 f692 c63f a061 0d19 7ccf c43f
000000a0: 0254 afac e7e9 b03f 3fcf cfd9 ba49 cdbf
000000b0: 5c6c 5fb7 872e cebf e94b 8618 747a b63f
000000c0: 59a1 66a8 2f06 abbf 7222 df9f 442a e23f
000000d0: 82dc 51e0 3dc2 b23f 5d8d 32a8 1e94 c8bf
000000e0: d990 be16 a222 b9bf 1bab 7cc8 3a30 c0bf
000000f0: 8591 0564 1b55 dcbf e196 2098 f5ee c9bf
00000100: 01e4 f729 760f bcbf 309b eed0 a97a c4bf
00000110: 8fad 673a 2f31 b3bf 0944 bda2 bea8 d63f
00000120: f327 6101 3319 cdbf a0ce c20c 5780 c73f
00000130: fc8b 5490 9cce d33f 658d b06a 25e2 b73f
00000140: 8b2d 6cec f566 cbbf b30f cbde 71d2 e3bf
00000150: 1bfc eaf6 30db 9abf 536b 1b84 a2a1 9d3f
00000160: 5667 9e01 51da cc3f 64ee 7a21 68a7 e13f
00000170: 1cfb bede 8bb9 e63f ebc5 2a45 3509 983f
00000180: 0ee1 592c c5b8 c4bf cfb1 bed3 59ef 973f
00000190: 3b13 0364 d9af c7bf d861 0b56 cc05 d33f
000001a0: c1a3 b7a9 5146 b4bf e3e2 bd55 025e d13f
000001b0: 465a 64b1 643c a03f 9555 2857 c457 a0bf
000001c0: 1764 7d14 a68b c8bf ecd6 1662 be57 ea3f
000001d0: 4fc5 3860 d884 cbbf 206f 4444 268d c73f
000001e0: b960 954d 2e66 c93f 576f 6817 819e e5bf
000001f0: 2b49 aaaf c63a d9bf 18c0 779a 1fc8 bc3f
00000200: 804e cf9c fb26 b13f 337d e448 f590 b8bf
00000210: f9c4 9c92 c7b9 5cbf cb41 f475 122c ad3f
00000220: 89a9 17e7 8e87 c23f 853b 67db 43d4 9abf
00000230: d6be 3869 69c3 b0bf a6a7 1441 a40b c0bf
00000240: d355 17be 7c1a a93f 0c69 77f3 b1ec cebf
00000250: b547 b806 4e66 a2bf 107f eed9 c88d bbbf
00000260: 88d5 c146 c4b6 c3bf 9f22 705f e0bc c7bf
00000270: 9938 c781 8509 c1bf b15d 8b04 3f11 97bf
00000280: d636 43bf a835 babf 1e5c 3379 b612 e3bf
00000290: 5043 c0aa 3ccf dabf 89c9 4ac9 93fb d73f
000002a0: bff7 16fe 4633 b6bf 4e62 a016 c29e 933f
000002b0: d6da eb5e e9ac d23f da5d 6571 de3b f03f
000002c0: 0c48 6e85 de2e e0bf ac67 9c7a 428c 01c0
000002d0: 2b59 a3d6 cdcc bc3f d2e9 3101 2cf9 c7bf
000002e0: ce9b f54d 2de0 e93f e0ff 69e7 d0b5 fa3f
000002f0: b4c0 6486 9dc5 e43f cf09 81de 753d aa3f
00000300: fa6c 0a31 91e3 81bf 9760 6ae4 5714 d0bf
00000310: 88b2 922c dadb b4bf 014c facf effb 80bf
00000320: 8139 42a8 af9e cabf f8cd 9bb9 b98f bebf
00000330: 9ef9 1c6d 0c2a afbf e7ca b74f a8b0 d13f
00000340: fcf8 8340 67e5 ce3f 9302 834d 802b b6bf
00000350: 6d5f 6354 d40e b33f fd28 914a db2e d1bf
00000360: 0202 4d8a e679 d03f 6d4c 4b15 9ba3 ca3f
00000370: 8f19 0f93 a396 c13f 542e f4de 7912 b3bf
00000380: 1508 c263 4a01 b7bf a6c0 c901 2dbc b8bf
00000390: cc6c ad48 97f4 cd3f fbc7 187c dba3 bbbf
000003a0: efb1 ac37 9eeb be3f 6feb 82b6 9908 a93f
000003b0: c5a7 a441 09db 80bf a5a6 e299 1195 a33f
000003c0: dc24 c805 e6c5 de3f 1a78 2bd7 71c9 e4bf
000003d0: bc7e bd50 d0fa c7bf dbeb 35bf 72c7 bbbf
000003e0: 6179 e1aa 4660 c6bf cb4e cc9b 50a5 de3f
000003f0: 53df 44bc b206 dd3f febb d011 fc49 9d3f
00000400: 3f46 d540 f8f3 5c3f 558e 333b bf40 cd3f
00000410: 769e 1e40 1c54 d0bf 2443 1fbd 42f2 b63f
00000420: 66f8 00a0 45ef d23f a671 c8e7 f827 c4bf
00000430: 9388 31c0 aa04 90bf 384a 75c4 bb38 a43f
00000440: feb6 dbe5 7ae4 bcbf 8d24 5bce 9e79 cdbf
00000450: b011 46a9 709c a1bf 267f 1ad7 5751 b73f
00000460: 00af 6155 7e07 c23f b361 0b56 9468 c03f
00000470: 3d81 3788 4ace c23f 460d d7f5 9892 bf3f
00000480: 4ef1 dcab 7c4f b5bf 1952 0a93 4fd2 b53f
00000490: 31d3 7035 5e69 c13f d15f 9789 468a cfbf
000004a0: 072f f853 3419 c83f 86f4 6c63 adc0 c63f
000004b0: 9b9c 475e c9e1 bfbf 0822 cce1 6fb5 bfbf
000004c0: edaa 2ee0 454e acbf b0fe 9971 643d c53f
000004d0: b52b 674a 62a9 bbbf 1b4c c4a6 9626 c33f
000004e0: d960 3b27 0f45 993f 4462 75b7 6a8a dcbf
000004f0: cffc 386e 8539 d2bf 0125 61c4 907e c03f
00000500: 4481 236d dc78 b03f e247 b4d8 09fc cbbf
00000510: ccb6 c1ad 5752 d5bf 3eb0 f6a7 6373 b6bf
00000520: 58bb 4584 0184 c63f 2db5 1e31 d8ec c73f
00000530: 982b 0e58 62a1 cf3f 3963 3635 4402 a4bf
00000540: 28e9 af59 7524 813f b4b5 f569 0b7d e7bf
00000550: c47d 09f8 2147 b9bf e6f9 2062 dacd a53f
00000560: 7e36 8797 d10c b13f b621 834a cdd2 e23f
00000570: 6934 73ee d180 e73f c38c 2134 2ce6 ad3f
00000580: 6235 d5b2 55fd d5bf 5797 e78f 5136 edbf
00000590: 4b96 2dcf 4014 ddbf af8d d56e 4e82 e03f
000005a0: 18ed 3525 0331 b4bf 40f9 33df 44df af3f
000005b0: 8254 5407 3a19 acbf 40cf bad7 743d e93f
000005c0: 90c8 47f1 b0c7 c9bf 7f05 0cea e215 03c0
000005d0: 8cf3 fd02 0a12 b63f 07bb 82c0 73fe c93f
000005e0: 6878 f6c0 b38d ec3f 285c d161 17ac 0340
000005f0: 73d9 3967 f44a f33f f138 6851 d2b5 e23f
00000600: cac0 57a6 15a2 56bf 03d8 ae69 41ab cebf
00000610: 8cb6 1f4c a8cf a1bf 11dd 5371 fe62 d53f
00000620: 0200 d01c 40c2 c83f 4f89 4d85 0cdf 73bf
00000630: 2785 e134 2760 adbf 1a3e 945a 1f8a ca3f
00000640: de4d f3ed 5506 be3f acd3 ce39 48ca d7bf
00000650: 9cde 40c4 7d35 c3bf cd24 0bbc 1ba9 b4bf
00000660: cb4a c6df c02f b6bf 2334 a63a 93df ea3f
00000670: 2710 6b80 f305 ae3f 5bdf d086 83c5 a23f
00000680: e99c cfc4 36a3 b3bf 236d 08e2 6a2d f13f
00000690: 846f 7773 8d95 bc3f 8e4b 0836 721d e0bf
000006a0: 8a84 8a73 ae96 c2bf 2668 3847 0071 e23f
000006b0: dbd1 e9d8 af18 913f 667a 76ac 4ab6 e8bf
000006c0: 172b 420b d6f7 a3bf a5fc 6a6d f7b3 f93f
000006d0: 22ae 338a d972 b33f 28a7 d573 685d e93f
000006e0: 156f 7c93 bcf0 d2bf 5b02 0549 8d0f febf
000006f0: 1b01 deb7 d56c e83f abcc 33de 4b84 b4bf
00000700: 2f97 f4d5 0805 a03f 06cf 6f50 1405 a83f
00000710: 246a 42ab 6c6e abbf f28b 2c42 f2b6 cc3f
00000720: 5184 f5f8 23ed babf 7cd5 b6a6 6291 cf3f
00000730: fbb5 d4c0 53db 953f 0834 7194 867b a8bf
00000740: babc 47fe 3275 b4bf 05a4 a72a d2bf b6bf
00000750: e234 12c0 8c7f 9a3f 601e f8b9 3b93 ac3f
00000760: bd2b 539d 8571 b6bf d9a7 11ab 726b b03f
00000770: 647c 134c fc44 b8bf ecec 913d f53d 923f
00000780: 6377 1b9d a492 e1bf accd ebf7 fc64 cabf
00000790: 64c2 0427 ff67 c03f ed84 0ec4 4dfe e5bf
000007a0: c015 fde2 0a33 d13f f2c6 bd55 6a80 e0bf
000007b0: 00e3 5321 dd8a dc3f efe9 0c84 8172 ae3f
000007c0: b5d2 c640 b177 d43f 9c3f b4c9 e22f ecbf
000007d0: b1ba fc17 ac14 d2bf 926e b2c1 3546 b7bf
000007e0: 7a8d c3e2 dd9b e4bf 3e77 d50d 90a6 e13f
000007f0: 7cf0 10f4 a79c e13f 2db1 f620 c3d2 bebf
-0.0003029043147305795 -0.12029151687492876 -0.17854287229192142 -0.010626440906369343 -0.0018119719943687392 0.13387706684259756 -0.11041080758676917 0.05812239920762252
0.3089354523676836 -0.9043187201114604 -0.06510271167353085 0.1740784151166932 0.44969205779071514 0.643743393237935 0.7138575916532249 0.10501530878262469
0.18925257707621795 -0.0988448689304715 0.17635996030475146 0.162581932289652 0.06606910673083635 -0.22881255755748417 -0.23579498723742887 0.08780599211449637
-0.05278157168078463 0.5676596758358541 0.07327639318997295 -0.1920202561642367 -0.09818471007617137 -0.12647185124782187 -0.44269451873540105 -0.20260496070948533
-0.10961092495553261 -0.159993388192754 -0.07496924568083883 0.3540493573428312 -0.2273315197692792 0.18360412715047847 0.3094855699038701 0.09329446654060332
-0.2140796093375282 -0.6194390632085657 -0.02622677332942312 0.02893690043752468 0.22541248873749947 0.5516853956136853 0.7101497030742823 0.023472626062987983
-0.1618887392576273 0.023373988675006004 -0.18505399115942986 0.29722889330653635 -0.07919798272599989 0.2713628613778793 0.031710764555260826 -0.031919608725881655
-0.19176174164275103 0.8232108989529627 -0.21499161432579192 0.18399504025807634 0.19843081272370514 -0.6755986649691107 -0.39421240954210884 0.11242864152131948
0.06700108126033832 -0.0959618857345859 -0.001753277678698871 0.05697686853284586 0.14476190837678996 -0.02620035196906258 -0.06548174685371619 -0.125355273988416
0.049030206875311365 -0.24159836185464945 -0.03593677360562656 -0.1076322109279284 -0.15401509718837425 -0.18545155201015448 -0.13310307347132236 -0.022526726391189637
-0.10238127393241866 -0.596034275741548 -0.4188987414827823 0.37473005921778985 -0.08671992972719432 0.019160301810275997 0.29180368680628754 1.0146164350061242
-0.505721340758329 -2.193486173532582 0.11250006189525112 -0.1872916227183184 0.8086153528828335 1.6693886794673674 0.6491229653238606 0.05125015584100689
-0.008734831151107948 -0.2512416582699272 -0.08147967899521735 -0.008293031248546969 -0.20796771732097954 -0.11938057691059345 -0.060867679900627567 0.276407316064406
0.24137583398982787 -0.08660127537133126 0.07444502887972045 -0.26848490030228317 0.25744021898211156 0.20811785259010965 0.13740963631262246 -0.07450067227562701
-0.08986344275948029 -0.0966213349690884 0.23402682350829307 -0.10796901492793147 0.12078274592631265 0.04889374115869926 -0.008230278316279436 0.03824667933925
0.4808287674391758 -0.6495904161963637 -0.18734172766106905 -0.10851208847263598 -0.17481311172282246 0.4788400193658446 0.4535338247837803 0.028602541530002405
0.0017671512935816395 0.22853842154209994 -0.25513368856125085 0.0896341048931047 0.2958540022408499 -0.15746985738304636 -0.015642803173598962 0.039495341998776856
-0.11286132919095945 -0.23027405811288695 -0.034396668113035545 0.09108494760084493 0.14085368317625324 0.1281915111674273 0.14692050601207454 0.12333065034822707
-0.08324412532687583 0.08524033870555349 0.13602807626161842 -0.24640733450246313 0.188269177437512 0.17775504450574803 -0.12453898002387336 -0.12386225950843521
-0.055284675231936344 0.1659360460944206 -0.10805334393005135 0.149615127019019 0.024677502412345873 -0.4459482947909559 -0.28476081623007315 0.12886247242776253
0.0643441931201823 -0.21862910348187287 -0.33315078705241485 -0.08769820070909959 0.1759035011159209 0.18691542051730306 0.24711255359246986 -0.03907979154172953
0.00837032012895074 -0.7340142316367548 -0.09874164872734698 0.04258615920888413 0.06660184811991063 0.5882326560322813 0.7344751031138347 0.058396703113226
-0.34358732666154 -0.9128806887281183 -0.4543611548636803 0.5159065403681121 -0.07887286814177619 0.06225028252264275 -0.05487996425123588 0.7887520040007772
-0.2014065912367795 -2.385686710826746 0.08621275494620145 0.20307776355681303 0.8922976273349947 2.45902897281805 1.2057994873299236 0.5846950139982977
-0.0013814174102400483 -0.23960130367566998 -0.03478742532011578 0.3341671091761365 0.19342805296764715 -0.0048513878908543326 -0.057374215321724535 0.20734016344839362
0.1172841745313273 -0.37172132153801374 -0.15006992418942822 -0.08070538845926763 -0.08666615927931358 0.8397918839924653 0.05863915388684431 0.03666316052152637
-0.07670919709163439 1.0735882596407655 0.1116569907093759 -0.5035944991417283 -0.14522343293814216 0.5762940779707193 0.016695735563603136 -0.7722524040617145
-0.039000214456868125 1.606437137044659 0.07597121833867296 0.7926523458856751 -0.2959433975499775 -1.8787968494726985 0.7632855025440536 -0.0801436822401224
0.03128841029892581 0.046913752383174454 -0.05357684698647727 0.22433307868149616 -0.10518097713567555 0.24662430897084764 0.02134447922178671 -0.04781742631949021
-0.07991331775677937 -0.0888644556176957 0.025877188895312105 0.05581080098278046 -0.08766970721187213 0.06413952518928968 -0.09480263573958464 0.017814475901542545
-0.5491507595540778 -0.20620691400072866 0.12817372708515784 -0.6872929410202723 0.2687403885541606 -0.5156757044444176 0.4459755731073045 0.05946736084884551
0.3198054440102099 -0.8808454455884092 -0.2825117334604484 -0.0909150693791452 -0.6440267018300994 0.5515823621933362 0.5503730551640866 -0.12040347628380195

equations.x.layers.2.bias f8 [16]
00000000: daaf 6342 c06a cd3f c69a 41b7 3d97 c2bf
00000010: 17af d72a ed26 d33f 3756 073c 94ba a53f
00000020: 2246 e0d0 c2bc a5bf 61a6 c3a7 2740 813f
00000030: a9b3 2a08 ccd4 87bf 3d75 628f c2da c03f
00000040: e08e 59fd 86ff b5bf 548e eccb 6569 c13f
00000050: 27a0 1a54 4f80 923f 4dcf b535 aaeb bebf
00000060: ab53 347d e38f c8bf 34cf 447c 5d06 d83f
00000070: 552f 6fff 640f aa3f 8831 f7eb 0811 d7bf
0.22982028237981816 -0.14524051139888722 0.2992508810409488 0.04243911011478157 -0.04245575713879314 0.008423147017725787 -0.011636346816283298 0.13167602540208093
-0.08593028722094287 0.13602898080090375 0.01806758833723179 -0.12078346072467845 -0.1918911324834459 0.3753884995996828 0.05089870088667562 -0.3604147247649725

equations.x.layers.4.weight f8 [16, 16]
00000000: 9319 99a7 bf3a 913f 7837 4246 18e2 a43f
00000010: 8127 e003 301a 92bf 804b f4e9 b6fc 7e3f
00000020: a849 23ad 19db 94bf 7387 626c 7f1d 6abf
00000030: a3ee e0ef 980f 8bbf 5a78 e1f7 294d 9dbf
00000040: 9e8b 7abe 0d0a a7bf 3720 165b c735 91bf
00000050: 1db1 c7cc 1840 70bf 4e46 c7ac 2ab4 9cbf
00000060: 53b7 bed1 ffab 95bf d885 3c03 ed00 74bf
00000070: b27f ce45 20cf a63f a24c 2ad5 4095 9bbf
00000080: a563 d9d4 8101 6b3f 9cef fb09 ca9e 80bf
00000090: c1a0 95c0 abee 893f 0dec 011b 7cb7 98bf
000000a0: 878a 1db5 dcd2 7c3f 5875 8cde 5da9 903f
000000b0: 4173 713b 8749 a0bf bfa5 8789 60dd 6bbf
000000c0: 8748 8933 b2d6 733f 975b 7c6b b5aa 4c3f
000000d0: 5e88 ab86 e386 80bf 6b56 1b3f 798c 903f
000000e0: e73a ed23 29d6 7f3f d274 6345 47d3 98bf
000000f0: a74d c7a6 de62 9abf c74c ee5b 8181 6bbf
00000100: 4aac 1d7d 97ad c73f 1ce3 4e8f 59b9 c63f
00000110: b77d 6767 15ce ca3f 1ca4 5ce4 0355 bcbf
00000120: 65b6 5aed 764a c63f 7382 f3a3 e949 87bf
00000130: b93e 42e4 0b25 cbbf 5ddc a6a2 0bac d0bf
00000140: 44dc 9700 8f95 bb3f d126 6121 03ff d93f
00000150: 2574 476a 503a c7bf 1f30 6eab d9c0 c8bf
00000160: 14af 56d7 4ce6 af3f 934c d8da 9c14 d73f
00000170: 9526 3208 2fb5 b1bf a9e8 88fa fe69 b43f
00000180: 4573 2cf2 9f5a 8e3f 8d1d 465e 1cf7 83bf
00000190: bfcb c925 abaa a1bf 80b8 e3c4 b656 8d3f
000001a0: 3992 e168 11cb 9bbf 2d25 8080 98b6 7cbf
000001b0: b576 d696 0426 56bf c3fe 0af0 30f3 5dbf
000001c0: f56f 0f3f d174 92bf 7ca1 47f0 26d4 83bf
000001d0: e3ca d5a4 5520 8abf 07db dc8c 6b74 a3bf
000001e0: c4e3 9bf2 d097 843f 3e6c 6f44 e522 963f
000001f0: a7b4 9c60 88ca 983f 0ddd 2330 8d62 73bf
00000200: cecc 756b 39c5 3bbf 5f2d ed4e 1c03 7c3f
00000210: 7874 3acf 68c0 9cbf 9de9 4fd0 74ab 683f
00000220: 1c9a 21da 0779 90bf 7b14 af73 8790 a2bf
00000230: 1984 11b1 a71b 833f 60b7 27bb 2a5b 803f
00000240: 2c6c 323b 1aff 96bf e9d4 c5ea fd03 643f
00000250: ce45 7f5c a396 8ebf 6b47 224f e738 95bf
00000260: 5f22 65d1 44a9 86bf 6d10 ca0f 134a 793f
00000270: f872 e2e2 70f6 95bf fda4 0e02 bdba 663f
00000280: 98a2 f537 910b d03f 8ceb b5a3 4b0e c5bf
00000290: 1a59 d3b2 72ba d13f 92ba 6707 0359 b6bf
000002a0: 5b94 7a03 13bf bb3f 043f 7f36 b96d 993f
000002b0: d31c 8586 fec7 c7bf 2aae c039 73fe d0bf
000002c0: 815c 1bbb 3b83 c93f f477 e42d ea97 c6bf
000002d0: 6d45 4eaf 9b0b ca3f 2e7f bb17 aa69 6d3f
000002e0: b08c 73ff 0658 d8bf bbae da9f 1939 d03f
000002f0: 1946 63cd 4a10 c23f 7abe 0c16 6f73 cdbf
00000300: c28c ea80 cd6f 7c3f add4 7f46 04f6 a0bf
00000310: 09c9 697d db82 6e3f 2270 1f39 0f0f 90bf
00000320: bc1a 3942 2a69 913f 238a 9275 99fb 9d3f
00000330: e115 1e51 4dc7 943f 64e0 a536 0648 713f
00000340: 6802 c89a 9c1f 883f 929b 18c1 3c57 933f
00000350: 8f7d be00 dcd8 70bf 7a0e d1a1 23e9 933f
00000360: 9bd4 df7d d21c 773f 0571 2441 8fcb 90bf
00000370: 555c 5f7e 7f74 a3bf d6ff 22c4 9800 833f
00000380: 9052 0fab cc7c d2bf 9180 12c5 85a6 aabf
00000390: 8a38 a354 72de c9bf eb8b f11a 8c35 bdbf
000003a0: 0803 4474 39d3 a83f 206d ff07 e8ec babf
000003b0: 1e4a 34f8 82c0 b1bf eb59 f495 8692 b9bf
000003c0: e77f b42b 6f4c c13f de86 373c 48b7 ab3f
000003d0: 49fc bf77 996f c3bf 02d0 dcef 0203 c3bf
000003e0: f1cb 07b6 b0e5 a0bf dbc5 f4ee 88e8 d5bf
000003f0: 851f 39c3 aac8 c33f 2f48 036b 60ac b1bf
00000400: 108c a55d e0e7 d43f 05f2 1245 b177 ce3f
00000410: c186 7e51 9535 c1bf 6a5e b558 f5d8 983f
00000420: 1ed2 59ca 28ec bebf 0dec e68c d428 8ebf
00000430: 2473 d91b dba6 b3bf 06f7 18e8 0ac6 a5bf
00000440: f9a6 a6c5 f1c2 b4bf 5912 3fdf 981b bcbf
00000450: be52 fd8b e85c c53f 978b 35bb 8201 c63f
00000460: 3dd0 138e 1b63 bf3f 5633 b28a 7112 d0bf
00000470: 0cc1 bafb 41c3 cf3f f15e c3e3 6b09 b73f
00000480: 2b3d 9395 d8a0 d93f 3986 89fc d2bc cbbf
00000490: 23b0 62ea ad92 e13f 3741 b506 d174 cabf
000004a0: 279c 0612 05ef bb3f 1cc9 8f5e 091a f53f
000004b0: 263d 8f9a a080 ce3f 0ac6 8dd4 0894 a03f
000004c0: 213b 2d95 3466 b83f b536 4393 11c3 c1bf
000004d0: 6a5a 133d 52a0 c73f e3a4 2b51 0034 f13f
000004e0: 9726 d229 0d34 d13f cc03 0ed2 cbd5 e3bf
000004f0: 8634 f79e eaf7 c3bf d928 6030 f630 d03f
00000500: b732 f536 b57b a5bf 6ce1 604a fff8 70bf
00000510: e05c 02b9 ab14 a03f 929c 4c6f 6975 55bf
00000520: 0549 5421 7d43 9abf 936e 566f f185 a3bf
00000530: c35b aabf e046 a3bf db34 76e2 2d14 84bf
00000540: 1610 2c6d 2b3a 43bf 10fe 3cfe 171d 98bf
00000550: 7d04 15c8 0bc6 b0bf b00d e5e9 cb6d 50bf
00000560: 3e53 35a8 46d8 503f b77b 383c a6f2 933f
00000570: 4823 9464 d6e2 983f 5f4b d0e6 9a19 663f
00000580: 91a7 a42c 69dd 81bf ff93 d971 fd01 a03f
00000590: 2518 24b3 a09c 9cbf c441 146c 8b82 773f
000005a0: 8b4d eda7 4047 8ebf a63b 72e7 1ba6 9cbf
000005b0: b6ef 40d1 c51d 97bf 0d38 e2a5 5207 85bf
000005c0: 8f88 c51c 884c 84bf d45d f552 66ad 6dbf
000005d0: a895 b651 9153 4abf 040e 78da f754 98bf
000005e0: 376a 32c2 8e8c 573f 2191 7fdf 83e6 953f
000005f0: 0dea 8837 dffc a03f 846a 0479 d2c0 7cbf
00000600: c551 32f7 05f1 e5bf 79c4 6274 0708 e73f
00000610: d90f ca3f f286 c4bf bf49 9efc 5291 d93f
00000620: 3a95 0280 35be c9bf 3ef7 8bb6 16ed b9bf
00000630: 25c0 a33a abe6 da3f bd27 3632 c0b6 ddbf
00000640: 831d f69d d8dc d9bf a166 6638 4b3e bb3f
00000650: 3c26 c867 9249 dabf d2d3 53fc 8699 d2bf
00000660: 22a7 e150 4e83 c6bf 2a36 09a9 4eb0 d13f
00000670: 9919 6e9f 6037 86bf b0af df66 8d8d 9fbf
00000680: 73f2 503d 5dc8 a3bf 003c cb6b dc5e adbf
00000690: fef7 0ce4 3411 b8bf 4ab0 9086 a4e3 a23f
000006a0: 66de 69b6 ff33 d03f 0a92 cf0c 7da9 733f
000006b0: 811c 4728 5065 a8bf 4114 07ab 0136 ab3f
000006c0: e621 05f2 4aeb ce3f 6696 f92b 6703 a43f
000006d0: 83be 6fd3 83ef a23f a4e5 1258 b084 c3bf
000006e0: e28e 3203 10d8 c8bf 11dd b75d b497 a3bf
000006f0: dc05 d2a3 53a3 b7bf 3034 ebeb 0205 d33f
00000700: 19cd a05b 98d0 593f 69e5 2736 e5d8 9a3f
00000710: d24c 9602 1743 a1bf 16b9 8f67 5786 7b3f
00000720: 61d7 9ad6 11f6 92bf 42d3 cfd5 ff65 98bf
00000730: c74f 2949 45a6 873f 39b8 4ff0 2224 6dbf
00000740: 3d89 adbf d577 9bbf c760 c717 9e4c 713f
00000750: c771 533f 3df7 823f ba08 73d0 6572 94bf
00000760: c851 a60b a6b3 77bf ee53 3242 c238 863f
00000770: e5c7 7154 4c29 7c3f 70a7 c8f6 0cba 84bf
00000780: 2dc5 af8d 251e c8bf 640f bf08 5f52 bbbf
00000790: a789 a0e0 c17c c5bf 1ccd ffb3 d980 c0bf
000007a0: e791 026a f816 c2bf 9639 6407 5d3e cc3f
000007b0: a556 f4e3 7b2a be3f 5515 b847 fad5 b93f
000007c0: 4eb1 9291 d148 a9bf 2a3d f821 1a0a c1bf
000007d0: e6dd d765 64b7 a4bf 7ffc 4124 8450 d33f
000007e0: d856 f786 6706 cd3f b7c0 9b68 3c90 e5bf
000007f0: 82d5 8414 f819 c33f bfb7 f920 54ce b2bf
0.016825670818684534 0.04078746659898419 -0.017678022610233327 0.007565226085051502 -0.020367051308150558 -0.0031878937471256307 -0.013213343449130227 -0.02861466956562029
-0.044998578550141874 -0.016806712088083677 -0.003967377543159037 -0.028031031413610123 -0.02116393773729126 -0.004883695440896806 0.04454899646884715 -0.026936543474744064
0.003296617104564042 -0.008115366391841232 0.012662259878837625 -0.024137438915641286 0.007037031305886849 0.016271082599918912 -0.03181097603439876 -0.0034014592640587422
0.004843422030335393 0.0008748422469321168 -0.008069779918006666 0.016160864330990437 0.007772598938415177 -0.024243463144433992 -0.025767783097604326 -0.0033576513810174877
0.18498509987998296 0.177531428312954 0.20941417264019233 -0.11067222905389013 0.17414747800414712 -0.011371445957082593 -0.21206806798408254 -0.26050082096066324
0.10775083317263162 0.4061897111865678 -0.18146710576448402 -0.1933853232443434 0.06230392578740243 0.3606331002385527 -0.0691708941468739 0.07974237076351422
0.014821290567448417 -0.009748670222292666 -0.03450522266657385 0.014325549968330131 -0.027141830469547854 -0.007010074339640665 -0.0013518376175406914 -0.0018280008227264256
-0.018023747896094695 -0.009681991775281722 -0.01275698575293433 -0.03799759001269903 0.010055191425168426 0.0216174910564002 0.024210101029144806 -0.004732657924470429
-0.00042374278878938305 0.006838903979608928 -0.028077733658041087 0.0030114442365604802 -0.01608669537417927 -0.036258919593401516 0.009330091563414954 0.007986387096902525
-0.02245751367864217 0.002443309718894161 -0.014935756931580804 -0.020724882321310128 -0.011065042152624103 0.00617415853469448 -0.02144791016381739 0.0027745906413271224
0.25070600952907673 -0.16449876302416688 0.2770048853248156 -0.08729571276465212 0.10838431200916558 0.024832624388920102 -0.1857908398471638 -0.2655304016104504
0.19931742321088922 -0.17651107064096971 0.20347925243235512 0.003590423786462702 -0.380372762169098 0.25348511324657935 0.14112219837856868 -0.23008526398324475
0.006942560909610042 -0.03312695847118028 0.0037245070373553885 -0.015682447301387133 0.01700273541635043 0.029280088234950107 0.020291526866932478 0.004219078322755452
0.011779044602918634 0.018887471471454705 -0.004113063227037541 0.019444042922499773 0.005642721398534746 -0.01640151820275639 -0.0379981843722638 0.009278481946580468
-0.28886715607703994 -0.052051716143297296 -0.20210103161520393 -0.1140983167438631 0.048486514513575385 -0.10517740435846124 -0.06934374389337747 -0.09989205513952697
0.13514508852040238 0.05413270697660065 -0.15184324595608903 -0.14852940284765742 -0.03300239774753056 -0.3423178037220091 0.154561372112081 -0.06903650868051224
0.3266526140707251 0.23802772400621577 -0.1344477317734825 0.024265130557380145 -0.12079100551802255 -0.014726315069188112 -0.0767647688857776 -0.04252657016011878
-0.081099615816722 -0.10979609918929024 0.16689783893038695 0.1719211019618256 0.12260601252256804 -0.25112570328274353 0.24814629355888262 0.08998750982879834
0.4004422627158017 -0.21669995623510532 0.549155195030384 -0.2066899569276843 0.1091159028061247 1.3188565915884913 0.23830039545871634 0.03237941355372349
0.09530953065880655 -0.1387655228667676 0.18458011610228492 1.0751956148836193 0.2688019665152778 -0.6198481657630679 -0.15600331079477686 0.252988383523769
-0.04195944114562649 -0.004143712261843607 0.03140770562566231 -0.0013097314487795814 -0.02564807430196316 -0.0381312797937571 -0.037650130650198864 -0.009804113839687314
-0.0005867683451872298 -0.02354848374602453 -0.0655219424707116 -0.0010027400345088248 0.0010281267176043963 0.01948032133634189 0.024302816284975465 0.0026977563306983944
-0.008723088908101835 0.03126518263596977 -0.027941237386606716 0.005739731424242615 -0.014784340977405793 -0.027977405549389232 -0.022574511429624265 -0.010267873465888777
-0.009911597612419136 -0.0036227224842766224 -0.0008034190718048577 -0.02376162787369475 0.0014373201491141416 0.021387157932523885 0.033179259804871554 -0.0070198270407454445
-0.6856717899377648 0.7197301171455727 -0.16036823382103085 0.3994948832488738 -0.20111721754543926 -0.10127393681247285 0.4203289101269568 -0.4642792215678318
-0.4041043799010923 0.10641927840188227 -0.4107404721731631 -0.2906205619941008 -0.1758821387223231 0.27638594157619656 -0.010847811570567955 -0.030813416866223242
-0.03863803266037715 -0.05736435714572252 -0.09401255195277256 0.03689302580491523 0.2531737595922777 0.004800308682181962 -0.047647957722397834 0.05314641201724913
0.2415555650461691 0.03908846294215777 0.036983604011649816 -0.15248684216002772 -0.1940937057125814 -0.03826678890248492 -0.09233591794511348 0.2971808723348799
0.00157561186507566 0.02621801512757341 -0.033714980188187874 0.0067199148406713784 -0.018516806338730322 -0.023826596665418316 0.011547604842384275 -0.0035572702786259816
-0.026824321579064437 0.0042234588149414115 0.009260633940748953 -0.019967642638911022 -0.0057865606453514976 0.010850446362647728 0.00687532249786391 -0.010120488435024305
-0.18842000406542905 -0.10672563518079198 -0.16786979168052804 -0.12893220223450264 -0.14132599998732973 0.22065317974961535 0.11783575358671301 0.10092128992990486
-0.04938368703855876 -0.13312079104114477 -0.040461671287569875 0.3017893175201109 0.22675794687409367 -0.6738569300778384 0.149230012911783 -0.07346082501473371

equations.x.layers.4.bias f8 [16]
00000000: 621b e655 8c94 53bf 4e3d 478b 6995 593f
00000010: a1be 2c3a aee8 c73f f424 24b3 1f8f 253f
00000020: bfe8 33b6 8c97 21bf 7af0 264a e7f5 c1bf
00000030: 0d29 8ce7 bddf 503f 583b 5469 1423 c33f
00000040: d567 a0dc 3afb 99bf 2b06 d665 4679 6bbf
00000050: 7576 c7e6 f426 6d3f 57e9 aa6d a0ca 36bf
00000060: bd92 b280 0cc6 933f fd21 ac17 ec38 a9bf
00000070: 72ce 6658 080a 59bf c720 b53a 454d d03f
-0.0011950846161156927 0.0015615015700978954 0.18678834763112653 0.00016448270759664813 -0.00013421623871307482 -0.14031687851627678 0.0010299067054711536 0.14950804846781796
-0.02537242862317853 -0.003353726859757674 0.003558615039067454 -0.0003477708502647356 0.019310183863711517 -0.04926240719766282 -0.0015282708642247148 0.2547162125888573

equations.x.layers.6.weight f8 [1, 16]
00000000: 1272 c550 1ba8 35bf a5fd 1f27 4b81 50bf
00000010: f799 f9fa 1bf3 b2bf f9fd 63b3 d61e 553f
00000020: d820 0518 e8d5 423f db19 6a5f 6e85 abbf
00000030: aef5 af3d d3d5 2e3f a352 e534 5e5c c43f
00000040: e0eb d48b 61c0 973f dd09 740d 9d55 a63f
00000050: 54c8 9dd6 d7dc 3ebf e1ea c257 c206 33bf
00000060: cf9b 7ff5 3212 88bf c9b9 6115 3a1e b4bf
00000070: caec 25d1 f7b1 473f 270b af9e dc56 c9bf
-0.00033045451052318806 -0.0010073884882329878 -0.07402205350226852 0.001289090794273194 0.0005748160620351562 -0.05375237383582362 0.00023525432229114018 0.15906884749224046
0.02319481292691339 0.043621929065938515 -0.00047092694750639386 -0.0002903198690195463 -0.011753461949366354 -0.07858622571959652 0.0007231197399017117 -0.19796331165533695

equations.x.layers.6.bias f8 [1]
00000000: 5856 c2d4 7cb8 9d3f
0.029024076925074332
