simple-pendulum-2ndorder/2025-06-01_08-11-01/model.pt (torch, 138642 bytes, 12 tensors)

equations.x.layers.0.weight f8 [64, 1]
-0.3940413758053764 0.6713215493077308 -0.45304428532996205 -0.5499461453303381 0.8730838520031015 -0.10328626933068949 0.5094107181871436 -0.847840369181373
0.5516892161099389 0.46625955600209157 -0.1468593121115636 -0.17675352727992957 -0.5031545574964751 0.5037511094569378 -0.4739760722899648 -0.7472371286630813
-0.1212011442691183 0.17126797089405954 -0.689578594301704 -0.5239920034354391 0.9249703531964579 -0.058179312810980294 -0.6358912087920069 -0.2927639535600301
-0.028074755815932637 0.15909254907587098 0.19206455785533444 -0.32663972864417296 0.6715393076311966 0.9499442086808463 0.060190428868164766 -0.5552731453429045
0.20842292012204502 0.273890655130003 0.7229500127275574 0.1315421940317692 0.2208421637155587 -0.19948019328611896 0.8148529317683572 -0.6142537953864755
0.27137543812762305 -0.42058652710176014 0.560521390542397 0.14145158205149796 -0.8064862995036949 -0.7079214618751339 -0.5214053903241954 0.4768394786919092
-0.5125544294178468 -0.16374626540032888 0.571390582886777 0.9223040988210232 -0.36176731003961693 0.7387131346669003 0.39595653298089367 0.44631566943840234
-0.7509842561444962 0.3315369637614536 -0.47058759338014383 -0.7076054430029758 -0.49564295031450106 0.17475375906872725 -0.7095282329984357 0.5221891062420394
00000000: 4bb7 9651 f937 d9bf 610e 6c54 777b e53f
00000010: b770 4875 adfe dcbf 7f29 98a8 2899 e1bf
00000020: da9b e08b 4df0 eb3f 5eb2 e60c f870 babf
00000030: 990f dbb4 174d e03f 1e9a 3b20 8221 ebbf
00000040: 24f0 9724 70a7 e13f 627e 1e52 32d7 dd3f
00000050: aaec 5033 49cc c2bf 3d5a 8f0d dc9f c6bf
00000060: 98fb 2896 d719 e0bf d61e 8ea5 ba1e e03f
00000070: 839a 64bc 9f55 debf 49e0 bed6 5de9 e7bf
00000080: eea6 dfc6 0907 bfbf 5ccf ebde 1bec c53f
00000090: e184 d120 0711 e6bf 06dd c3e0 8ac4 e0bf
000000a0: 88f2 176d 5b99 ed3f 4c61 a7cb adc9 adbf
000000b0: 216b 3285 3859 e4bf 433b 7f05 a5bc d2bf
000000c0: f95b 4af8 a0bf 9cbf d7b8 a807 255d c43f
000000d0: 5acc 5a49 9295 c83f 6577 0652 aae7 d4bf
000000e0: a424 8800 407d e53f f8e1 a965 f165 ee3f
000000f0: 26be 0aa7 47d1 ae3f d808 f32f ccc4 e1bf
00000100: c59b d42c 9aad ca3f faa7 9dab 6c87 d13f
00000110: 36d8 a910 6822 e73f 6a8c b4e6 5fd6 c03f
00000120: e23b 5e57 8e44 cc3f bf8b 2e25 9188 c9bf
00000130: 83d5 9f74 4613 ea3f 081f 5493 f7a7 e3bf
00000140: 3188 ec15 375e d13f e893 c2c0 e3ea dabf
00000150: 37d1 228e caef e13f 6b77 70df 151b c23f
00000160: 354b 215b bcce e9bf 9c7c dce8 4aa7 e6bf
00000170: 2dd1 6c5b 5aaf e0bf 9f19 9bbb 8984 de3f
00000180: 80a0 f88b d866 e0bf 3c47 5e3b a3f5 c4bf
00000190: f7b6 57e7 d448 e23f c2e5 ace2 8383 ed3f
000001a0: 7673 5813 3227 d7bf aea3 50ba 89a3 e73f
000001b0: 4997 f211 5a57 d93f c989 fb98 6f90 dc3f
000001c0: ac72 7e22 1008 e8bf 3051 31d0 e637 d53f
000001d0: e925 de6c 1b1e debf 816b 852b b4a4 e6bf
000001e0: c1ff 8535 9db8 dfbf ccd0 06c8 545e c63f
000001f0: 7324 8a8d 74b4 e6bf 8a62 b4ed c5b5 e03f

equations.x.layers.0.bias f8 [64]
-0.23559405595201624 -0.772569219748638 1.039698084138518 1.0621177285588426 -0.9502834857608295 -0.6333025008559322 -0.2899840394736044 -0.17682815360779888
0.433071216435446 0.7331819488340894 0.22512828999794168 0.14927285950802485 -0.5573103191409887 0.49444171230160217 -0.7027953803809411 -0.7209864104799191
0.006679718572184961 0.5978350280353039 -0.6719476731470464 -0.3745028942633083 0.1367398698231847 0.6897774367442955 0.917034147657184 0.1928259471569745
-0.4837972128998351 -0.811653734094297 -0.1766781288524107 0.14390737013280816 0.28877613824966086 0.309093403030541 -0.7270298393508774 0.30075063608717256
0.15878054508159284 -0.7797318180124596 0.26937055391316206 -0.22671776601065247 -0.014693205187978467 0.10451413337969112 0.8201684953612078 0.9933412836711673
-0.47246378664006466 -0.16418567822334765 -0.3879927794904151 0.7876255538998483 0.5936466099609843 0.8331808008554137 0.5309273330678229 -0.6782578041089524
0.3543098308855293 0.15496573185124984 -0.8016564082839093 -0.36715859102057197 -0.11253917479104454 0.24936689701335957 0.29261163343401836 0.3900801716330785
1.0143715190035698 -0.37946814585500477 1.1116111265900557 -0.6445168897230915 -0.8367777762545145 0.5615208535230625 0.9053282841146715 -0.4910535949768225
00000000: 6113 b92e f227 cebf b2ee 9615 e3b8 e8bf
00000010: b06b 5175 9aa2 f03f b197 ca28 6ffe f03f
00000020: 50b1 a8e9 b868 eebf f7d6 349b 0344 e4bf
00000030: b0ab 7937 198f d2bf bff7 6010 4ea2 c6bf
00000040: a877 db55 70b7 db3f 9651 88fd 3976 e73f
00000050: 3908 79f9 00d1 cc3f 2939 e280 5f1b c33f
00000060: 42e2 4d73 7cd5 e1bf 9645 07da eea4 df3f
00000070: 4183 d0bc 4c7d e6bf d6e4 bb17 5212 e7bf
00000080: f937 064d 315c 7b3f 7113 baec 7621 e33f
00000090: 8c46 1968 9880 e5bf 7e91 c7fc daf7 d7bf
000000a0: 8695 792a b180 c13f 12bc 8a21 a812 e63f
000000b0: 4517 30ff 5758 ed3f ca01 6e48 85ae c83f
000000c0: 583f d395 88f6 debf a78f 7340 11f9 e9bf
000000d0: 4a77 ab90 639d c6bf f7d7 2f84 8e6b c23f
000000e0: 1e70 69e9 4e7b d23f bc3b 5bb2 2fc8 d33f
000000f0: 064d e714 d443 e7bf f8b7 8f98 7f3f d33f
00000100: 4ee9 2ec0 eb52 c43f d173 4024 90f3 e8bf
00000110: f3fe e3fd 5d3d d13f 2e0e 3877 1605 cdbf
00000120: 08d9 0b9e 7817 8ebf f4e6 d530 70c1 ba3f
00000130: 3826 1900 d23e ea3f 5e4c e4a8 73c9 ef3f
00000140: 2375 0ac0 d83c debf 056e 384b 0904 c5bf
00000150: d2b5 bfaa dfd4 d8bf abcc 6f81 3a34 e93f
00000160: fe3c e52c 27ff e23f e987 6ac8 6aa9 ea3f
00000170: 8585 8251 5bfd e03f 82f3 dcb5 49b4 e5bf
00000180: 357f 1324 03ad d63f 28a2 26c7 ead5 c33f
00000190: b0a9 0657 2ba7 e9bf 313e 38bf 867f d7bf
000001a0: b511 3f0b 5ecf bcbf f84d b025 41eb cf3f
000001b0: d5ce 0125 26ba d23f 5edb fed2 12f7 d83f
000001c0: a9d3 41a1 dd3a f03f 528b 14c3 3449 d8bf
000001d0: 202f a9bf 28c9 f13f f491 62e2 e19f e4bf
000001e0: 400c e12f e2c6 eabf f6e9 bc94 faf7 e13f
000001f0: 6a52 8d05 73f8 ec3f 418e c00e 6c6d dfbf

equations.x.layers.2.weight f8 [64, 64]
0.10455979435974308 0.01647200888821859 -0.007938228031477245 -0.07253405035917015 -0.06676507513646422 -0.11504483124622204 0.02968294774804912 0.11081304397979885
0.034242349694647206 -0.014828348003223291 -0.06958277221640671 -0.026029222284072315 -0.010685621763621707 0.01278969193448409 0.11565822015500969 0.008575432264063562
-0.05891096306453229 0.005853497386444878 -0.106780626585176 -0.11613424724514745 -0.047347208576834936 0.13199174645726733 0.11701726297405712 0.1138955389219121
0.04476771227691774 -0.004074685360057431 -0.06062008456102643 -0.02831671303055999 -0.08794242161403665 0.060079858748421824 -0.11362783270589602 0.006570056842863586
0.10655278676043717 -0.07889435813126006 -0.07388456666951143 0.13081217314187557 -0.07561674059868406 -0.09100384298637858 0.0005902388209924889 0.12073874409011635
0.004179520556272643 0.09328929502285929 -0.08086828560458723 0.11451976068174755 0.013420055253511653 0.09817160166561553 0.07146163429895037 -0.12136868802358844
-0.0576416457495315 -0.019257917218302466 -0.03798427216584235 0.07910381281768168 -0.12015151998763136 -0.09116235051614997 0.03975464342020567 -0.03671241540592029
0.035189707554027054 -0.004178218851759091 0.005493345127477993 -0.09084955956152212 0.007640475455032609 0.056694443896934614 -0.052661049892716395 0.10139880297280841
-0.031665265217833284 0.07605460369205466 -0.06416530527989632 -0.05939909542072488 -0.09994216619680328 0.07930128428017869 0.0797479716708011 0.1332274974787803
0.08992474791203138 -0.051196311409741485 0.041402220655155406 -0.07789606575218756 0.06203350505814091 -0.04027101538754956 0.141632327714093 -0.04130372746186128
0.12743445101713785 0.09561510561176012 -0.08679672101629475 -0.09531083375470797 -0.11103910419964018 0.08671395768020494 0.05026195342531648 0.11580056976599093
0.02900613993828987 -0.12003819031295976 -0.05347748042529433 0.0778471348930035 0.03289186978128879 0.009399942661175675 -0.07041956208147397 0.11532202421840321
-0.021999814848160385 0.10650335767967066 -0.02260406772146267 -0.13870713077748154 0.08738886131833419 -0.08405995094647004 -0.04844839949502098 0.08492842791326617
-0.06096302737376023 -0.0025266149531631213 -0.011618300680078918 -0.07223078096086873 0.05052417688863826 -0.053642055617057816 0.07791111119416919 0.07778626120654634
-0.053076944737063855 -0.06170950482283447 0.002772192159505588 0.09587821846434408 -0.04815686470272066 -0.10207717498349392 -0.004717674001741756 -0.11063338219724246
-0.06751294524396292 0.10722046932873457 -0.11095292408337609 -0.08888255175785711 0.025179718757795396 -0.06235022263383893 -0.009706879876511533 -0.022172658245892818
-0.11581428741657353 -0.010908433396657289 -0.06200013311715062 -0.04033597735642006 0.027708191282402265 -0.11729338240770866 -0.010434939385954533 -0.004892033984374947
-0.07058533678914432 0.08137033155660905 0.00184232127343312 -0.11756640102947065 0.034343170753922264 0.039592131196764975 -0.028392029891964817 0.07234443555792906
-0.10581540160089692 -0.02530302777920587 0.08905923679517486 -0.0021622847223439334 -0.002294520875649932 -0.10809326406753302 -0.05448737773012496 0.11919529017889657
0.027661675644684348 0.15719410417231952 -0.11120488539706418 -0.08695106148787127 -0.12714529636799385 0.1188591574705362 -0.0884899875552477 0.03313602299947378
-0.11534600450032005 -0.10430679485737236 -0.08276860573084566 0.12509927670382692 -0.1108324931087707 -0.04315079632537946 -0.11316443858113355 -0.06104775782602389
-0.0763192651554087 -0.026575802160139547 -0.06988437489400208 -0.03356642298526815 -0.05852938946185399 0.08281516097931207 -0.06748984716805702 -0.001465371691569209
-0.10253749125322872 0.08607943983305812 -0.018545988715713405 -0.09315792682822165 -0.04836241059477741 0.016185175088418154 -0.03622933158245325 0.055805470635541525
-0.10310664707093237 -0.13097578517766062 -0.0556820457308132 -0.11299482652509142 0.05702101948842301 -0.006261401373798903 -0.09074560760400496 -0.01357786189448515
0.10226105553615815 -0.11855031098536069 0.0902107269866883 0.09376850581073001 0.12390819392443461 0.04982074432055019 -0.05497931357238427 0.03265940748040236
0.013218237859188037 0.11604548955660918 -0.0786938527431691 -0.10995526876939106 -0.07781800143591104 -0.03996171642894749 0.07445266009567109 -0.048777906089316155
0.10120750183348493 0.014200772635857024 -0.07366494356244761 0.02173787934862835 0.0658616481647665 0.04670854813891994 0.0731050466457642 0.02663105865837591
-0.10070401866445002 0.013229149952994313 -0.06974084963666378 0.10622642619058789 -0.07511806766765991 -0.06461949093221589 -0.041466548646997 0.08500196891397939
-0.1258334710929376 -0.13497335957693116 0.11512798548518026 -0.10783208828126732 -0.12958370679626122 -0.07274394123494636 -0.0402903968653098 -0.07304794060710354
-0.15030285371121457 0.021612579989676722 -0.09130802023163774 0.10342174013037497 0.06662469546423214 -0.1141445302762442 -0.09903173810005185 0.014033533183146677
0.045170722683682454 0.0026118672271663733 -0.07791384611491065 0.08867236689206968 0.025493831603062973 0.02055614566803383 0.06525974110125517 -0.08816336629304702
-0.09678902310385634 -0.10601722463153267 0.048467572215247945 0.05215303052361915 -0.007354424101938213 0.013557103331658186 -0.03437401779021828 0.08774116434935654
00000000: aa67 4041 6ec4 ba3f 2fb4 e5cd 09de 903f
00000010: 795f 44ee ea41 80bf f898 236e 9791 b2bf
00000020: 77e1 3916 8417 b1bf b3bf c6fb 9373 bdbf
00000030: fb96 4ee7 3465 9e3f c80a dd5f 3e5e bc3f
00000040: ec45 2798 3688 a13f 3a06 d22d 535e 8ebf
00000050: f6d3 0833 2dd0 b1bf f936 cd89 67a7 9abf
00000060: 64f2 18e0 57e2 85bf fe1a ad64 7b31 8a3f
00000070: 474f 14f1 c69b bd3f cb58 fc08 ff8f 813f
00000080: 16df 79e7 9329 aebf 53d7 783d d6f9 773f
00000090: ab9b 07a3 f955 bbbf 720d dd59 f9ba bdbf
000000a0: 5fee c9b0 e43d a8bf 111d 3005 1be5 c03f
000000b0: 707f 8ae5 d7f4 bd3f d374 d40e 4228 bd3f
000000c0: 8acd 4a28 cbeb a63f a996 ce05 9eb0 70bf
000000d0: d339 5781 9809 afbf cffc 9571 0eff 9cbf
000000e0: a869 c300 6583 b6bf 120f f288 c9c2 ae3f
000000f0: 661e 63b1 b616 bdbf 6c0b 5e34 34e9 7a3f
00000100: 8c09 6f1e 0b47 bb3f 943e 03b0 6b32 b4bf
00000110: a451 8655 19ea b2bf dd11 c80a 74be c03f
00000120: 50c6 e663 9e5b b3bf 1bd3 6f21 074c b7bf
00000130: fe4a 6c37 4857 433f 5b27 3afd bbe8 be3f
00000140: ce68 a281 8b1e 713f d6a8 30a7 cee1 b73f
00000150: de8d f4b1 c8b3 b4bf cab4 dfc2 2a51 bd3f
00000160: 460f 6553 f97b 8b3f eebc 8c2a c621 b93f
00000170: 7992 3b46 4f4b b23f 6eda d1b1 0412 bfbf
00000180: 8682 c3ae 3483 adbf b615 91f2 58b8 93bf
00000190: 64e7 6dad ac72 a3bf 0b75 0ac1 2540 b43f
000001a0: 755c e900 40c2 bebf f9e5 1772 6a56 b7bf
000001b0: a635 b57a b85a a43f af1a 0d3f f8cb a2bf
000001c0: 1f61 33a6 6204 a23f a06e 2e15 2e1d 71bf
000001d0: 6bc7 b09a 3080 763f cb38 2caf ea41 b7bf
000001e0: 47ba 4883 9e4b 7f3f 87f2 cddc 0d07 ad3f
000001f0: 15de 1f9e 63f6 aabf a52b 9f9e 45f5 b93f
00000200: bd3c 0ffd 6d36 a0bf 424f 9183 5078 b33f
00000210: f30a b72f 236d b0bf 23ed 7ce8 8e69 aebf
00000220: b781 4e4f cf95 b9bf 68a0 83c6 164d b43f
00000230: cb98 3ff2 5c6a b43f 55b5 4c40 990d c13f
00000240: a51a 62eb 4e05 b73f f480 5c26 6736 aabf
00000250: 9e2e 64ff ab32 a53f b988 e41e fff0 b3bf
00000260: 2641 f606 dbc2 af3f f7e9 210c 679e a4bf
00000270: 2a50 cb13 0221 c23f 5f9d 4d1d c325 a5bf
00000280: 0e4c c0a7 c54f c03f 1829 9b47 3b7a b83f
00000290: df3e 2a56 4f38 b6bf a253 ee71 4a66 b8bf
000002a0: d355 1d09 0f6d bcbf 7fdc 57cc e232 b63f
000002b0: 11be 634c efbb a93f feca 002c 1ba5 bd3f
000002c0: ae30 ac19 c9b3 9d3f a449 aaa5 d2ba bebf
000002d0: 918c ff7a 6661 abbf 75e7 7332 caed b33f
000002e0: 62a4 0702 34d7 a03f 661f 83f2 4640 833f
000002f0: 7b79 2334 0407 b2bf c0cc 8682 be85 bd3f
00000300: c1e2 2995 1e87 96bf f7fb 25d6 cd43 bb3f
00000310: 2f23 7b4e 8525 97bf c4a4 34bf 27c1 c1bf
00000320: dd9c 65cd 1d5f b63f 8aec 37f4 f384 b5bf
00000330: 2dd3 bf86 3ace a8bf 395f 6394 debd b53f
00000340: 7dc0 abc1 8b36 afbf 504c fd12 b2b2 64bf
00000350: e6f4 a5eb 55cb 87bf 05d1 fd69 b77d b2bf
00000360: 09bd c90e 4ede a93f 2086 21b5 f876 abbf
00000370: 1af0 928a fbf1 b33f a3d1 f5e7 cce9 b33f
00000380: a673 a2bb e62c abbf e502 2262 6398 afbf
00000390: 8ec9 3955 b5b5 663f 70fe b394 798b b83f
000003a0: 05c1 f33d 04a8 a8bf 82e0 38d0 ba21 babf
000003b0: a68b cff8 d652 73bf ed0d 6226 7852 bcbf
000003c0: 4224 e143 8748 b1bf 2b8b 3af9 cc72 bb3f
000003d0: 786b 552c 6967 bcbf 822a fcc4 01c1 b6bf
000003e0: 4f4d 5952 b6c8 993f 0fa8 384e 5eec afbf
000003f0: c131 ed5c 33e1 83bf 1040 20e8 6db4 96bf
00000400: 411d dd50 01a6 bdbf d28e 8325 2957 86bf
00000410: 16ef 2b40 7bbe afbf c52f 32cf eaa6 a4bf
00000420: 5192 8e3d 895f 9c3f dd73 7a69 f006 bebf
00000430: 46f5 2fdb e95e 85bf d0ba 945f ab09 74bf
00000440: 3526 1671 e111 b2bf e47a e6a0 afd4 b43f
00000450: 8c48 8f67 412f 5e3f e5ad 87e7 d418 bebf
00000460: b444 7596 6d95 a13f 518d 5679 6b45 a43f
00000470: 2f84 69df cc12 9dbf a3d5 c438 2a85 b23f
00000480: 2cf9 49d9 b716 bbbf 37b4 3473 09e9 99bf
00000490: a426 710d 96cc b63f 1cf2 58c5 a3b6 61bf
000004a0: b775 de83 f5cb 62bf a583 160a 00ac bbbf
000004b0: 4797 ca02 c5e5 abbf ccd4 2721 9583 be3f
000004c0: fd64 fca0 5753 9c3f 09a6 45b8 ef1e c43f
000004d0: cf91 ef61 ec77 bcbf 6261 71bd 6c42 b6bf
000004e0: 43d1 de0c 4c46 c0bf 5f83 2ac2 8d6d be3f
000004f0: 96bf 92a2 47a7 b6bf 4a59 346e 34f7 a03f
00000500: cf9a 0dd5 5087 bdbf 0fba a9a0 d9b3 babf
00000510: 40df bfc6 5230 b5bf cc1c 19cb 4003 c03f
00000520: 2d7f 3cad 845f bcbf e318 0776 dc17 a6bf
00000530: 07b3 c63a 58f8 bcbf afbb b6d6 a641 afbf
00000540: 0bb1 e5cb a889 b3bf 1f31 92e4 af36 9bbf
00000550: fdcf ab40 f1e3 b1bf c34c ee41 9e2f a1bf
00000560: 88e0 2f6b 90f7 adbf 18e5 04d8 5f33 b53f
00000570: 951a 66be 0347 b1bf 7439 79df 3602 58bf
00000580: a6e7 8ba3 e53f babf 59e4 f05a 4d09 b63f
00000590: 141e 063c b8fd 92bf af22 17a9 32d9 b7bf
000005a0: 4f78 b837 f5c2 a8bf 8f39 bdb6 d892 903f
000005b0: 53eb 9aa4 a68c a2bf 7f94 a2de 8892 ac3f
000005c0: 847c 2b7d 3265 babf f4f6 f384 d0c3 c0bf
000005d0: a8c4 c66a 5b82 acbf b9de 8a9c 3aed bcbf
000005e0: 7553 c6eb db31 ad3f daa1 0a22 8ea5 79bf
000005f0: a033 eaa8 1a3b b7bf b095 4ac6 b5ce 8bbf
00000600: 37a7 2ed1 c72d ba3f 6ddd 9c2c 5059 bebf
00000610: 70fd 27da 0c18 b73f 3e14 da79 3601 b83f
00000620: aea3 9c88 72b8 bf3f d3cc 09c7 1a82 a93f
00000630: 6ef5 7fa3 3f26 acbf 28f4 11de bbb8 a03f
00000640: ea16 87da 2912 8b3f 3e73 7e3e 28b5 bd3f
00000650: 519b edc3 4725 b4bf 452e 634b 0726 bcbf
00000660: db12 356b e1eb b3bf ab07 4fb2 dc75 a4bf
00000670: 680b 365c 540f b33f a989 d7ee 6af9 a8bf
00000680: d813 7c1e bce8 b93f 6a39 6470 4b15 8d3f
00000690: bb5f 76ab b4db b2bf dc08 8c63 7442 963f
000006a0: 12a7 ed18 4fdc b03f 178e 66cd 2eea a73f
000006b0: e61f 8428 03b7 b23f e479 fb17 2c45 9b3f
000006c0: 8955 bd12 bdc7 b9bf cd46 3773 e217 8b3f
000006d0: 4d7d 624c 89da b1bf f2a3 75b2 a731 bb3f
000006e0: 0ea8 f80b f03a b3bf eaef 3c28 e78a b0bf
000006f0: 8739 a27c 1a3b a5bf 41c6 9464 b0c2 b53f
00000700: cf0c 8ba9 4f1b c0bf d969 9b9a ce46 c1bf
00000710: db61 8314 0779 bd3f 1f9f a03c e29a bbbf
00000720: 0d67 64eb 3296 c0bf db13 96d0 589f b2bf
00000730: 543c c261 f1a0 a4bf da99 f213 45b3 b2bf
00000740: a1b2 97b8 1f3d c3bf c88d f3b0 9b21 963f
00000750: 57e4 c160 f65f b7bf d02c 8edf d879 ba3f
00000760: 4af5 1fe8 500e b13f 9bc2 8d70 9338 bdbf
00000770: e1df 67dc 245a b9bf 6f33 8df0 9cbd 8c3f
00000780: 0a82 53f1 9d20 a73f 613f 4f8a 7b65 653f
00000790: 1c18 f86c 29f2 b3bf 0f40 dc73 3bb3 b63f
000007a0: 2586 f013 0e1b 9a3f b30a 8195 ab0c 953f
000007b0: 3d7b c6c5 dcb4 b03f 7214 efd6 df91 b6bf
000007c0: 1cc5 d758 2ac7 b8bf 0be9 9ae0 f123 bbbf
000007d0: e879 29db bdd0 a83f aaf3 f850 cdb3 aa3f
000007e0: 88d5 fa2f ac1f 7ebf 8ff3 809b d3c3 8b3f
000007f0: bb72 7ba4 7899 a1bf f9b8 6477 3476 b63f

equations.x.layers.2.bias f8 [64]
-0.014250401436007509 0.07073923606805267 0.1131701743331416 -0.11410263834254142 -0.09004913252755867 0.08389271213925456 0.12021247446897092 0.11464719287819111
0.08105091336324817 -0.02280357047291544 -0.02928168258978049 0.07960349332582224 -0.03398423089821231 -0.004750723301668824 -0.025703262192406356 0.10363771400362734
-0.03420430414623788 -0.09479133060005805 -0.0992182454243343 0.02082623432667775 0.020764396017605942 -0.07923654999158322 0.08980356689374998 0.10875677556738288
-0.12896377775076653 -0.10679584935843314 0.02825400479938445 -0.07613958047116362 0.045508289848381324 -0.084870685667673 -0.09959815692108305 -0.05938991123932847
0.11228442673317059 0.12005995193028006 -0.09765466864036249 -0.0340765275705867 0.013642159846517319 -0.08322231377157815 0.12018487569065377 -0.10337639377276465
0.036604506496625056 0.08562908743313342 -0.0076655688963535255 -0.0015522405866416021 -0.10213128533272925 0.07448306527066964 -0.11642058215495178 -0.021825227185729032
0.10912381645943273 0.015716455467647977 0.024347068353628324 -0.0025208092874014674 -0.021792824646316118 0.01639656307066103 0.09037133433117203 0.10372636528857666
-0.01978446383115948 -0.0898379578930324 0.1053144505350227 -0.007735485056188579 0.09292083035656162 0.04692382703176319 0.06213771149181779 0.06043356634612749
00000000: b3ed fa80 502f 8dbf b9d0 7471 f71b b23f
00000010: e9b9 a475 b8f8 bc3f 408b 119c d435 bdbf
00000020: 5a31 3dbf 750d b7bf 72c6 0227 fe79 b53f
00000030: eb5b 6aa6 3ec6 be3f ee72 fdb7 8459 bd3f
00000040: adc1 34ae c0bf b43f b51e a7b5 d159 97bf
00000050: 243d 6174 04fc 9dbf ad54 7b00 e560 b43f
00000060: bb37 9390 6166 a1bf 0c80 6893 7e75 73bf
00000070: db4d 11ba f451 9abf a21c 4750 0088 ba3f
00000080: 018d 61ff 3983 a1bf 6f1f dfa0 3e44 b8bf
00000090: a696 43ef 5d66 b9bf 23e1 53ed 7853 953f
000000a0: e269 4407 4343 953f 9e99 dcb6 d848 b4bf
000000b0: 1d70 dfd6 5dfd b63f 23c3 47ea 7bd7 bb3f
000000c0: 9d71 e793 e281 c0bf b2cf 5708 f956 bbbf
000000d0: 01a6 602a 9eee 9c3f e607 0e30 e27d b3bf
000000e0: d5fd 30d1 dc4c a73f aaed 54d3 15ba b5bf
000000f0: 1dca b7ca 437f b9bf d173 f8bc 5a68 aebf
00000100: 8d48 ab14 acbe bc3f 0f92 19bf 3fbc be3f
00000110: dcb0 1c78 e5ff b8bf d62d f486 7a72 a1bf
00000120: 12cc 19b3 6bf0 8b3f de45 f2bb 0e4e b5bf
00000130: dbaf 909e 6fc4 be3f 89b4 6e16 e076 babf
00000140: 3015 946c d3bd a23f f593 1cb2 c9eb b53f
00000150: 9af0 707b ee65 7fbf eb91 87a3 916e 59bf
00000160: 540b 67a2 4625 babf 0280 7179 5211 b33f
00000170: 11d2 ef40 bdcd bdbf 6c3f f633 5a59 96bf
00000180: ba70 e8d6 89ef bb3f 1b69 f878 f917 903f
00000190: 2149 5419 70ee 983f abea 5c2e 85a6 64bf
000001a0: f5d4 92b4 db50 96bf 7604 9fb8 42ca 903f
000001b0: 8ec1 7265 9322 b73f 1dbb a5a2 cf8d ba3f
000001c0: b9b1 7ee4 6042 94bf 300a 17d3 9eff b6bf
000001d0: 0c19 d848 e3f5 ba3f ed44 5c75 3eaf 7fbf
000001e0: 00a4 7fd7 a8c9 b73f ca58 025d 6606 a83f
000001f0: c049 699d 83d0 af3f 3d14 13fe 25f1 ae3f

equations.x.layers.4.weight f8 [64, 64]
0.005632807310273127 0.03607350105043627 -0.11444705949926721 0.09979884486432088 -0.04876246623639511 0.052445842724873896 0.1292281087546083 -0.11751627851565835
0.01680431785372096 -0.02895929132739985 0.03973105424699379 -0.07291049759172133 -0.007267561126601273 -0.0481701609484723 0.11689618627821273 0.06735919934096192
0.07122233426412856 -0.010039309827118092 0.09912658495580358 0.015524808974282095 0.04545965321748637 -0.020823109593803266 0.09137719289235308 -0.09095085180324432
-0.11159837752314121 -0.09294516246309915 -0.07714545087940569 0.03358848721862079 0.07128707638069219 0.1264416565240856 0.04843544823712313 0.10789614064196507
-0.11937185685380255 0.08804929743764815 -0.019441239411388516 0.06234211326964617 0.10219949868244237 -0.005358469264021486 0.04838846343141365 0.014450867043628152
-0.012423817565510763 -0.12484998763777092 -0.05622315579958081 -0.013485741727501168 -0.09990514785973004 0.05782757904769329 0.09371215073717698 -0.12312486143845472
-0.07503805267286708 -0.049782507362949036 0.11852995945181781 -0.06629254207718989 -0.053257525648408646 -0.11348693557208772 0.08519863583221497 0.06895215361571827
-0.02185674980346744 0.13325347524918488 -0.08879385320590177 -0.07450345201349735 -0.10306611410059566 -0.028246592820131648 -0.08956784219315601 -0.059834648857665734
-0.13805284568208723 0.1423463406392382 -0.08937688971946564 -0.12713731771434772 -0.06467176684105425 -0.0508786598629073 -0.07998418669228666 0.0008571854244424151
-0.025546777723427148 0.0898954319839875 -0.05584819673329654 -0.10591971791309268 0.09756929486587385 0.021819190373995743 0.15859596228284467 0.10365470447353885
-0.005229178635390194 -0.03264125246746693 -0.12841053335652436 -0.13927238882509083 0.008173080516990675 -0.013287890563973464 -0.045167890944208866 -0.1271146589354499
-0.022462954011320004 -0.07186206720248046 0.030279213325682803 0.10511908113128152 -0.004269079618714356 0.0637157040875094 -0.021125806154167984 0.1137985689998603
0.08291883580201705 -0.1140881428460169 -0.04500027006197545 0.04102029733289461 -0.05582681799560137 0.03592452397014685 0.030720883961700002 -0.06980751378048816
0.012248659217702771 -0.10744870435339696 -0.05438284768003079 0.007842879049509317 0.1351104010092799 -0.06203966495158289 -0.06745858205630989 0.10148944714740837
-0.1017486600038552 -0.05991788582927656 -0.057622821202760945 -0.04807551003873172 -0.09367389900932194 0.12081422667067691 -0.021231117623506303 -0.0026302196605187044
-0.01883631943281284 0.019493074329165475 -0.037474429816194095 -0.009547657757230472 -0.07662404654242064 -0.028790381092558815 0.10009091328256133 -0.04471358156489227
-0.11904145368695061 0.09196540524634059 0.039640027662291945 0.0871248261681818 0.08926966767047896 0.1380269685617314 0.04879530240732433 -0.02783829166619784
-0.0787885819892305 0.048303326083408586 -0.041409509716982554 -0.09769110832222226 -0.006060171299271049 0.06461843028564666 0.0632379557526028 -0.05883081159848163
0.08902007131446242 -0.09096186355525727 0.07146047702039127 -0.02195851941812202 -0.0327795875354799 -0.11513655793056056 -0.04888566317433477 0.029475488946665532
0.024820194344991272 -0.08606654680621097 -0.03873034112021874 -0.0855417201360534 0.013333027203791386 0.07064128864807062 -0.02695472883992353 -0.06671962250519069
-0.040856903686486 -0.10698599799829682 -0.05689500047426545 0.04324522399683529 -0.11401543572079752 0.04230501818614267 0.1012723983082185 -0.04550593225611734
0.019918377289410677 -0.06169478461262846 0.10884871650779145 -0.042300585024775274 -0.046216950425360115 -0.03649508371310588 0.00018161084218773802 0.09300977720404825
0.06936138731781344 0.005379484765096345 0.11894239941890161 0.05989494135129921 0.10651115700002958 -0.0474781478490816 -0.0026011153458554395 -0.07955362162639883
0.13897663643380018 0.13079704477734155 0.04342432313875674 -0.06997062991237812 -0.04034975394047629 -0.05654299972093715 0.08584349199015794 -0.05748661552778358
0.0522973310655051 -0.11485307217086994 0.04322678236983417 0.07168414343673121 -0.08587153732541689 -0.033571592116772256 -0.08002182230722253 0.03781472070567586
0.040061633607516925 0.026794432296293833 -0.021546598788066047 0.12441417425516649 -0.0575526967498062 -0.003723489415530438 0.08081252772877397 -0.16983283865436838
0.1253701711041397 0.05767330289515133 -0.04926991665173128 0.044956910622167105 0.03982687242889229 -0.09214459038472247 -0.11240817027799192 -0.029154279274040525
-0.04443441888003287 0.032089758469508546 0.06108920081761672 0.1281985227214826 0.07750741903849971 -0.13849320850891889 0.04883042958782393 0.01586479194248208
-0.08072729194802973 0.05496171578026538 0.09979941115215771 -0.11054493350632458 -0.034707757735088114 0.10000467235692621 -0.0424788391891135 -0.019313386358812697
-0.07545632338891557 0.002754440810277856 0.07717016845483642 0.0028479195877595224 -0.09518967619542641 -0.07241098705711335 -0.04714388850160323 -0.07505918573524578
0.042126569457463396 0.0663762461381784 -0.026819831395369177 0.0661798220143557 0.041162751494247446 0.04244550377671734 0.10579405262119226 0.06791241417974116
-0.0287882821690323 0.05776665641734881 0.09557996575661214 -0.05758907324938144 0.019041869592446595 -0.03912097728426874 -0.08854471657514523 0.05616358252637199
00000000: dcab ea32 6d12 773f bf16 87d6 3978 a23f
00000010: 4d37 ac09 674c bdbf 17ef dec6 6a8c b93f
00000020: ede6 83db 64f7 a8bf 3705 a176 2eda aa3f
00000030: bf98 69f2 8b8a c03f e6ed f8fc 8b15 bebf
00000040: 460a 74ae 2635 913f e683 aa24 81a7 9dbf
00000050: c6bc 40f5 a057 a43f 1a08 b12a 43aa b2bf
00000060: cc55 c415 97c4 7dbf 955f d563 c2a9 a8bf
00000070: 6f90 1791 e8ec bd3f b111 41d6 733e b13f
00000080: 25c2 687c a03b b23f 0019 0e5b 7d8f 84bf
00000090: ada1 8c20 5c60 b93f 7dcb 9196 78cb 8f3f
000000a0: f394 b6d7 7c46 a73f d95c d33a a752 95bf
000000b0: 34ac 12e7 7e64 b73f 85cc 0916 8e48 b7bf
000000c0: 2ba1 bf15 b691 bcbf f9b4 1911 41cb b7bf
000000d0: c6ed 8fe4 cdbf b3bf e88e 409c 8232 a13f
000000e0: 17ba aead de3f b23f e1be cf7d 3d2f c03f
000000f0: d684 4af4 87cc a83f c8fe 6bdb 149f bb3f
00000100: d6f7 3f6d 278f bebf a333 ee14 668a b63f
00000110: 7bcb dc7d 67e8 93bf 7835 5033 4eeb af3f
00000120: 2f39 8210 bf29 ba3f 6cf3 ed23 c3f2 75bf
00000130: 2c1b e267 5fc6 a83f 2a50 cf8a 6a98 8d3f
00000140: a62c 1591 a871 89bf 426b cf35 2bf6 bfbf
00000150: 2fcd df0e 48c9 acbf 8192 749d 699e 8bbf
00000160: 2874 c23e 6293 b9bf 2d26 a291 939b ad3f
00000170: 606c a7fe 84fd b73f cae3 3365 1c85 bfbf
00000180: 3d7c 2f9e b135 b3bf 48d0 12c2 177d a9bf
00000190: 6b17 71bb fa57 be3f 35b3 304c 8cf8 b0bf
000001a0: fa01 da05 9244 abbf 1c2d ced4 7a0d bdbf
000001b0: 5f2c 90ea 93cf b53f e0ad c42c d9a6 b13f
000001c0: 8836 69a6 9d61 96bf 2505 232b 730e c13f
000001d0: 9cec 9aa7 31bb b6bf a54a d681 a812 b3bf
000001e0: fa4a 6375 8a62 babf c127 8bc1 acec 9cbf
000001f0: 4d2e fe08 ebed b6bf 7ccb 05a8 a5a2 aebf
00000200: a582 a934 b7ab c1bf 571a e0a6 6738 c23f
00000210: 7601 5d62 67e1 b6bf a696 d71e 0946 c0bf
00000220: b88e 8e33 548e b0bf 71da 5988 c40c aabf
00000230: 2660 0afa d779 b4bf 40d2 aaae 9716 4c3f
00000240: d977 5c3b ef28 9abf 3e57 6e14 6303 b73f
00000250: 8e29 0585 2298 acbf 0433 70fc 8d1d bbbf
00000260: f8ee 8a22 4dfa b83f 4977 5314 c557 963f
00000270: e427 a45b df4c c43f 4757 ca5d 1d89 ba3f
00000280: 0945 95f3 306b 75bf cb4d b2af 5ab6 a0bf
00000290: 4e35 9da0 c16f c0bf efa9 9e79 add3 c1bf
000002a0: 2272 394c 0cbd 803f 69a1 3d7b ae36 8bbf
000002b0: 488d deec 3e20 a7bf 5f27 7c0b 4b45 c0bf
000002c0: 5793 6653 8700 97bf c925 756c 8d65 b2bf
000002d0: 35fe ed9b 8301 9f3f 06f9 a487 15e9 ba3f
000002e0: f4d8 8a55 747c 71bf c226 4c21 ac4f b03f
000002f0: 1199 22da 00a2 95bf a89d 2f2c e721 bd3f
00000300: 75f7 fd37 2b3a b53f 9a90 626a e134 bdbf
00000310: 8a67 7480 460a a7bf 64b1 08c7 9c00 a53f
00000320: dbcb 0f2b 5595 acbf fafc 26ff b264 a23f
00000330: 18c9 ad9f 4b75 9f3f b4c7 b3bc e7de b1bf
00000340: 323d 1436 d315 893f 9206 321f c281 bbbf
00000350: a387 7f90 11d8 abbf 0469 3168 ed0f 803f
00000360: 3a97 d730 4c4b c13f 642f 0bb8 a9c3 afbf
00000370: b431 c433 f744 b1bf 2022 6360 36fb b93f
00000380: 99dd 203f 330c babf bb16 2aa0 8ead aebf
00000390: dd62 2309 bd80 adbf d7b1 b56e 5a9d a8bf
000003a0: 3cdd bb3c 03fb b7bf b32c 7160 aeed be3f
000003b0: 8ae6 662f 9cbd 95bf 2e0d 8b6d f88b 65bf
000003c0: e285 c3ff d349 93bf c113 f812 fef5 933f
000003d0: b15c fe34 d92f a3bf 17ce 90ee b88d 83bf
000003e0: 12a4 fc2d a29d b3bf 9d7b edc4 397b 9dbf
000003f0: 3de5 2cdf 8e9f b93f 2338 04d5 b2e4 a6bf
00000400: 0f29 742e 8079 bebf c27b e577 0b8b b73f
00000410: c51a d89c b24b a43f ede0 0f07 d04d b63f
00000420: 1164 2b7f 60da b63f e625 f821 deaa c13f
00000430: 1166 13a8 b2fb a83f f29d 2121 a481 9cbf
00000440: 4424 f10e 7d2b b4bf 4fed a1ab 36bb a83f
00000450: b2a6 f493 a033 a5bf af9b 5ad3 4802 b9bf
00000460: 79ce 9dd8 8cd2 78bf 8bb3 cb5c d58a b03f
00000470: 5ec5 d2d7 5c30 b03f 370f a077 121f aebf
00000480: 3fb3 fbf6 04ca b63f e92d 27d5 4649 b7bf
00000490: 0057 c2db 3b4b b23f 88e1 134b 4b7c 96bf
000004a0: 3bec e170 7cc8 a0bf a1c1 e2e6 9679 bdbf
000004b0: b571 27a9 8a07 a9bf 84f7 3c94 d22e 9e3f
000004c0: 7fe9 f70b 776a 993f d1f4 cf0b 7508 b6bf
000004d0: aad2 f298 76d4 a3bf 168d 6dea 0fe6 b5bf
000004e0: c92d 609e 584e 8b3f 68a2 7d28 8c15 b23f
000004f0: 182e 5c3b 059a 9bbf 4f48 a984 8914 b1bf
00000500: 536e 4c32 32eb a4bf e358 8832 6f63 bbbf
00000510: 428d af6c 5721 adbf a198 8ced 3c24 a63f
00000520: c7f6 a897 1d30 bdbf c6e0 21db 00a9 a53f
00000530: 15a6 b8e6 fcec b93f a3c6 a0b5 8d4c a7bf
00000540: b88b 30ac 7b65 943f 1171 7d74 7596 afbf
00000550: 65cf 9c6d 82dd bb3f 7def 901a 6ca8 a5bf
00000560: 900f 3285 bfa9 a7bf d66f 06ce 7baf a2bf
00000570: 7264 6e41 d9cd 273f c9b4 4c1f 7dcf b73f
00000580: 549c 22fa aac1 b13f 29ad 2a72 cc08 763f
00000590: e0a8 9c53 0273 be3f 1b6e 99bc 8caa ae3f
000005a0: 5a68 f9af 5044 bb3f a7aa 9248 0e4f a8bf
000005b0: 798c fe2a ef4e 65bf f3ea 294b a05d b4bf
000005c0: 9b14 3286 fcc9 c13f 6cb6 dd22 f5bd c03f
000005d0: 1cbb 767f b63b a63f 9078 275f 98e9 b1bf
000005e0: 87e8 2613 b9a8 a4bf d302 3d3d 34f3 acbf
000005f0: 1713 acce d6f9 b53f a392 4cbb e26e adbf
00000600: 0759 303d b7c6 aa3f e9aa d1cc 0267 bdbf
00000610: 56f3 2d21 d221 a63f 3ed9 b35b e459 b23f
00000620: f24b 7854 adfb b5bf 3ab0 6eb4 4b30 a1bf
00000630: b79d c665 4f7c b4bf 26fc 7979 735c a33f
00000640: 5255 565c f582 a43f 39ba b5e9 ff6f 9b3f
00000650: f502 8ac4 4f10 96bf 7cb4 9579 9bd9 bf3f
00000660: 4b8e ac0c 8c77 adbf bcd9 8828 b980 6ebf
00000670: e5c1 b33b 21b0 b43f 7857 e71b 15bd c5bf
00000680: 57a2 6438 210c c03f a9ee 92eb 5a87 ad3f
00000690: 0c44 6411 e839 a9bf 0feb b399 9704 a73f
000006a0: 7309 2b15 3064 a43f b2a8 34b2 c996 b7bf
000006b0: 3bad 2527 c8c6 bcbf 12f2 1490 9eda 9dbf
000006c0: 9221 d0af 1bc0 a6bf fd7e 539e 116e a03f
000006d0: 8206 4d6f 1547 af3f e9fc 3d27 cf68 c03f
000006e0: c3bc f7b5 86d7 b33f fcc7 a13c 25ba c1bf
000006f0: 2338 4254 4d00 a93f 3006 342a dc3e 903f
00000700: ffb9 cf36 8baa b4bf c9d7 9d27 f123 ac3f
00000710: c6fe 0e47 748c b93f baed 253a ac4c bcbf
00000720: 0986 c718 37c5 a1bf 975e 38fd e799 b93f
00000730: d9b6 2d52 c9bf a5bf d2fa 246b e3c6 93bf
00000740: bd56 3b09 1b51 b3bf e17a 5d26 7b90 663f
00000750: 7b86 bd95 6cc1 b33f d8cd b62f 8554 673f
00000760: 891a 2dc2 595e b8bf 9808 48c5 8689 b2bf
00000770: 112d a466 3e23 a8bf 1c4d ff2b 1437 b3bf
00000780: af96 391c 9d91 a53f 890c 659e 08fe b03f
00000790: 0acd e86a a876 9bbf 21ee 342b 29f1 b03f
000007a0: a45b f6be 4813 a53f 269f 2ac5 6abb a53f
000007b0: 028c 1eac 5115 bb3f 11f7 e43d b562 b13f
000007c0: a430 b2e9 ac7a 9dbf 723b 3958 9793 ad3f
000007d0: b3d3 13bb ed77 b83f ce13 6da4 507c adbf
000007e0: 04f5 9d3c b67f 933f 4b07 0c2c aa07 a4bf
000007f0: a480 ecd5 ddaa b6bf 209b 5a1c 79c1 ac3f

equations.x.layers.4.bias f8 [64]
-0.05655596033120967 0.03234570761403248 0.003588640790729831 0.0008392737462847067 -0.0023854993859980154 -0.07370349230547998 -0.06963108767888478 -0.10895969470306305
-0.06334923147314496 0.06454776418982244 -0.05532658111084649 0.00462550827815418 -0.07178043941444699 -0.020423591306430365 0.10310426211110416 0.0793679154176558
-0.03616461254059255 -0.007079956571400834 0.11116506674871066 0.09555142037725504 -0.07636970703190664 0.100117452939778 0.022670085289260223 -0.03685982751304606
0.12097074201018458 -0.009254014518389206 0.09093605667651725 -0.0741269348700114 -0.0446222976259977 0.05188196271479835 0.06272139257533864 0.015565163032094681
0.11507145039566563 -0.05630123410790915 0.0055200123197071075 -0.058759638126320866 0.0066814862481581775 0.022248520860981568 -0.0763699722919968 0.10719044697858872
0.03316303396760353 0.11138069660099727 0.07301946969564563 -0.10677603001968437 -0.034448778780548826 0.04590070563523931 -0.10522311413339808 -0.01203106384616862
0.03598930089360719 -0.06876995892750687 0.034993621567468935 0.09658310872329448 0.0308708635850518 -0.11762697939993368 -0.11457759151411336 0.014192143878474622
0.05949866953908999 0.04054309324085083 -0.0009568563482348832 0.0411056620649102 0.04263818791896652 0.0777603513015967 -0.02380019719408102 0.08606922965251937
00000000: 0e68 0820 e7f4 acbf f68a bcd8 9d8f a03f
00000010: dc32 aada ec65 6d3f 2aad 76a5 5680 4b3f
00000020: 6ba2 1e3b c18a 63bf fe92 0d69 3bde b2bf
00000030: bd9f 5dcc 57d3 b1bf dcf0 5455 c8e4 bbbf
00000040: 6f65 67bd a737 b0bf 30a7 39c8 3386 b03f
00000050: 79ef f000 c453 acbf 4f46 836c 32f2 723f
00000060: 1f0e c7ef 3360 b2bf c675 e902 ece9 94bf
00000070: 6a6c d879 0a65 ba3f fb0d 12a9 7451 b43f
00000080: 5fca 4408 2b84 a2bf 1778 e65e dfff 7cbf
00000090: dab3 2456 5075 bc3f f74d 9bd1 0e76 b83f
000000a0: 8b6d 1b12 f78c b3bf 369a 2222 4ca1 b93f
000000b0: 6ddc a8ab d336 973f e0d2 6893 4adf a2bf
000000c0: 7be3 b444 f0f7 be3f 659d b4cd c4f3 82bf
000000d0: 96ed 73dd 9547 b73f c6f8 0499 fbf9 b2bf
000000e0: 54bb f3d9 bbd8 a6bf fa85 39ca 4590 aa3f
000000f0: 5be3 de59 820e b03f 5023 70d1 a0e0 8f3f
00000100: 6415 2794 5275 bd3f d791 6fee 83d3 acbf
00000110: 7ac1 2f06 279c 763f 7b99 2748 be15 aebf
00000120: 43ce cace 0b5e 7b3f 53dd edf5 50c8 963f
00000130: 3efb 6385 fb8c b3bf 1177 3748 d570 bb3f
00000140: cb6b a7c4 befa a03f 5996 4e01 7283 bc3f
00000150: 4e66 506a 67b1 b23f f766 ee84 ac55 bbbf
00000160: 0bcb 7f34 45a3 a1bf 5323 221b 4c80 a73f
00000170: ec78 fce9 e6ef babf d205 0b0e bea3 88bf
00000180: c019 b08c 306d a23f c478 8a74 e89a b1bf
00000190: a8d9 6618 afea a13f 1204 50ad abb9 b83f
000001a0: 2d01 fd95 9c9c 9f3f 2565 a63d cd1c bebf
000001b0: 1d56 6800 f554 bdbf 639f 8b4e c510 8d3f
000001c0: bfdc a60f 9c76 ae3f e2a4 1877 10c2 a43f
000001d0: b56d 7f5c b15a 4fbf 6499 7f24 cd0b a53f
000001e0: 5a67 582d acd4 a53f 5c0d c435 1ae8 b33f
000001f0: e703 5932 145f 98bf feaa 8c0e a208 b63f

equations.x.layers.6.weight f8 [64, 64]
-0.025069086263036347 0.058869960833031316 -0.040864620440854 -0.1290250679837944 -0.03811010842542213 -0.0780365103598197 -0.11141987144229523 -0.05046160134849328
0.046193936276269644 -0.024669896839380246 0.07058404186765554 -0.021544435402144235 0.13252139032067964 0.013427764554287493 -0.1391897365725107 -0.07370046421537349
-0.017620545843586178 -0.06536438949635112 -0.13266591041364634 0.008038350764882895 0.044454360303207624 0.017931735461453758 -0.08076382927894162 -0.04251161834724533
-0.04787452333042824 0.10303715467408152 0.023469183235368438 0.06298938050350567 0.07031281332108416 -0.000784025167668007 -0.08595345119429859 0.07707978951068793
-0.10527371768381656 0.09372655150105096 -0.09391113719366079 -0.030762336554390136 0.03436320319332074 0.03848243852258666 -0.07731098240837375 0.08667149978336446
0.0029470822683326657 0.07109863310105805 -0.07857158259629687 0.03462372812159269 -0.06097247542932246 0.1490439227124327 -0.06316107488883084 -0.018270373299336357
0.06757071888952818 -0.0890447568971041 0.07226256618129641 -0.018539085278126363 -0.08410431737305539 -0.06634732813444981 -0.005064687411447266 -0.11989207105774138
-0.004226478971087012 -0.004648645416890486 -0.039740613952289824 -0.06163046082396305 -0.06644991297420051 -0.12528484013950453 -0.09748684149201034 0.02287767917786976
0.0045556578173466394 -0.0661742359006955 0.05342056278914104 0.021247049745176515 -0.0247179954272374 -0.011901890036549682 0.005790241432052179 0.07260908162523336
0.07602023705872507 0.05085818153027688 0.07250821252848566 -0.07385665106477506 0.07304258588760132 -0.11593437728111712 0.001176489023475768 -0.09660296111382116
0.08003608730686997 0.013901074492367882 -0.1216817900706255 0.007548028569300121 -0.026433179996731872 -0.06358904993102361 0.06635094515561847 -0.07575369205581547
0.008539105083618858 0.05847046146162415 -0.05519572765820783 -0.04599072357968026 0.0035526629310613286 0.10715526078351333 -0.04636225533704405 -0.03995088870484166
-0.0035286793842215234 -0.11721043625965943 -0.0890780903351236 0.08379511392924413 -0.024830821023357787 0.0733805638420446 0.12364640457264768 0.06008008236407619
0.09195457381674702 -0.005808148826743388 0.12761879722789832 -0.0028609482609080724 -0.06580603865758197 0.07515802186643154 -0.0889066348751234 -0.0900617487348492
-0.06492292515222427 -0.11386796945200645 -0.05810586000596388 0.13025619803424543 0.11179486108411704 -0.10407430923155343 0.055243279935444506 -0.075903947083632
0.008415270672043864 -0.146059519602487 0.05014278823781261 0.04856419826163547 0.0027713823659459734 -0.030839802019151256 -0.0063612006019925045 -0.0026145445617434338
-0.07155833942457375 -0.07073008684423551 -0.054707291549365586 0.19318749963372042 -0.06488941280100191 0.018336039032445458 0.13142899598752592 -0.12652067640283182
0.0721685008992347 0.034962636166524 0.01968023372015195 -0.08021423556707323 0.027808163627606228 -0.010552905483501305 0.04646370018192138 0.06494527104001996
-0.04610694033948856 -0.056704512079810795 -0.1004367867380558 -0.09551556764732763 0.018869061692715502 -0.028630447621445784 0.013702545310364871 -0.10484736204228952
0.005713955062531376 0.09394779480794545 -0.12740379731779283 -0.04025779750397008 0.06897717123654151 -0.0498129483024075 -0.024653756944917515 0.08374139742097025
-0.01186050399201441 -0.07176137410873283 0.03960308072882978 -0.04233733569995322 0.10608182668470353 0.08951029412697584 0.11115906243876819 0.00856643394937478
-0.08414201554101637 0.02785654017527798 0.07526291971783758 -0.066503489567795 -0.030119399858538266 0.045681578769180636 0.10268300079691811 0.006426905188147831
0.039933697009015334 0.061588811942573166 0.05808636880027653 -0.06299948621726897 -0.07368558760211444 -0.0862521578303075 0.01348454171274504 -0.06508774591430067
-0.0550734725208588 0.13986437364307883 0.0613984018330395 0.041158709907834296 0.04559393562396042 -0.00587107206282551 -0.026865793627702424 -0.07184414754809333
0.05459498764446896 0.03153527712171251 -0.010685469339275616 0.15396729998878667 0.09204500594679832 -0.13310461377213387 0.13052647454182814 -0.07242857577179088
-0.06634073851048052 0.11381557151341651 0.15121815987511764 0.07287045306466164 0.01623714376020583 0.10895053439486813 0.03552531379604295 -0.014354912768208999
-0.002576662413959386 0.07878307889611018 -0.00826969316851838 0.04521306753874149 0.09013857925187929 -0.11545817951033223 0.0353339986681104 -0.06643809503731866
0.13277638157062802 -0.06660156771638263 0.06979012210487287 0.01637798778995 -0.033860851768101045 -0.03380758144765011 0.04503819254694358 0.1218902789838237
0.13928106906936416 0.11649060499030385 -0.07490232550736604 0.04158158735637911 0.06865157843502945 -0.008614780805435183 0.010541504927269319 0.06761410863468324
-0.065414030550256 -0.05266724083687431 0.08014399127048964 0.01721019271554419 0.0127099726083788 -0.04531906494165365 -0.0379299472173961 -0.07380539518233854
0.09133356960315898 0.09058886551390095 0.12506770717911841 0.03551688117629165 -0.11070385271364039 -0.13327873007205449 0.10224130939123349 0.07056036407245536
0.08871271936613903 -0.038744364292489675 -0.0051002854389624675 0.06061942511627523 -0.09959218856880586 -0.061425057894833726 0.11365358833973448 -0.11975450547610425
00000000: 54b6 8fe6 b5ab 99bf 7145 fd18 3424 ae3f
00000010: 5bbe b620 35ec a4bf ab62 adb7 e483 c0bf
00000020: 8a1c ab0a 2b83 a3bf 1eaf e363 33fa b3bf
00000030: 561c f83f 0386 bcbf 1bbb fd5e 1ad6 a9bf
00000040: 0d01 294b bba6 a73f 5dbb 7bc0 1043 99bf
00000050: 50ea 70b7 cb11 b23f 201b da95 be0f 96bf
00000060: 8750 b9fe 75f6 c03f f4d1 f30c 0480 8b3f
00000070: e646 4223 f8d0 c1bf ca4a 819b 08de b2bf
00000080: dd21 8bd0 1e0b 92bf aeb7 357b b8bb b0bf
00000090: 8aa5 4251 32fb c0bf f90b 312d 6976 803f
000000a0: f470 55cf b8c2 a63f 5d49 7865 b25c 923f
000000b0: 7de9 7335 f0ac b4bf 5abe 0035 15c4 a5bf
000000c0: 1814 0870 0283 a8bf 5b1b 9999 a460 ba3f
000000d0: ccc5 d639 4e08 983f e802 4271 1220 b03f
000000e0: de2c b441 0500 b23f d1f5 283a e1b0 49bf
000000f0: b49b db9d 0b01 b6bf 2787 2147 80bb b33f
00000100: 7190 94e6 37f3 babf 6bc0 7699 76fe b73f
00000110: e418 fa6e 8f0a b8bf 4d71 cc75 2980 9fbf
00000120: fe5e cdc3 0d98 a13f aa84 d95d f8b3 a33f
00000130: f0ca 100d a7ca b3bf 2398 1079 1a30 b63f
00000140: 616a c1be 7a24 683f ca97 f51f 8533 b23f
00000150: 0c64 a569 441d b4bf c64a e587 33ba a13f
00000160: 2ba7 d9c7 c837 afbf 67d5 db0a df13 c33f
00000170: a919 07ff 522b b0bf c5b6 39ff 77b5 92bf
00000180: 3a38 cc8b 504c b13f 67da c01e a3cb b6bf
00000190: a544 79ae cc7f b23f ef85 def3 e8fb 92bf
000001a0: 63d6 914c dc87 b5bf 83b2 8374 23fc b0bf
000001b0: f3fd beac b5be 74bf 1222 3e2c 3fb1 bebf
000001c0: b42c 54cf c84f 71bf 8f75 9440 750a 73bf
000001d0: e6ff 7eba e158 a4bf fe47 5a1b 078e afbf
000001e0: 35d6 0b8b dc02 b1bf a6b8 8a69 5509 c0bf
000001f0: 069f ffcb e5f4 b8bf 0063 820f 3f6d 973f
00000200: d075 6515 f4a8 723f b901 0873 cbf0 b0bf
00000210: 39ff 39a4 f059 ab3f d606 2b5f c9c1 953f
00000220: ff3e ee97 ac4f 99bf e294 bda3 0460 88bf
00000230: 67bf 6219 82b7 773f ae14 f93e 8296 b23f
00000240: 305b 00f0 0f76 b33f 002a d064 150a aa3f
00000250: cc52 80f1 e58f b23f 9b50 eafc 44e8 b2bf
00000260: ac3e 9a3d ebb2 b23f d98e e716 e0ad bdbf
00000270: cacb 5078 8d46 533f 383d aebe f8ba b8bf
00000280: 4199 7bb9 3e7d b43f c082 97a2 2a78 8c3f
00000290: 3f40 dfac 8926 bfbf e2b1 ab7d aeea 7e3f
000002a0: ba02 76ae 4c11 9bbf 9d63 d639 5f47 b0bf
000002b0: b987 8023 60fc b03f de54 ee0d 9864 b3bf
000002c0: b3eb 9148 f37c 813f eff7 841f d7ef ad3f
000002d0: 8583 574a 9d42 acbf 7061 639b 188c a7bf
000002e0: 8ca9 4863 791a 6d3f afd7 a8f4 866e bb3f
000002f0: ecff e124 cbbc a7bf a2ea dd60 7174 a4bf
00000300: 02a4 b451 2de8 6cbf 7831 7cce 8001 bebf
00000310: a08c c75c d2cd b6bf c204 e4b9 9873 b53f
00000320: 67a0 e930 406d 99bf 4f16 dd91 11c9 b23f
00000330: 5b52 e86f 4aa7 bf3f 4815 ca09 d1c2 ae3f
00000340: 2ab3 42bf 558a b73f e8b9 2d14 49ca 77bf
00000350: 4e6e 3910 d055 c03f baaf eae6 d76f 67bf
00000360: 6ae3 e91f aad8 b0bf cbc8 f25d 8e3d b33f
00000370: 28a2 2fd1 95c2 b6bf a2ce 6f69 490e b7bf
00000380: fd19 4af0 c99e b0bf 34b9 db84 7326 bdbf
00000390: a4f6 dc20 0dc0 adbf ea45 542f 3cac c03f
000003a0: de96 3788 969e bc3f 1dd9 802a 9da4 babf
000003b0: fc02 4be1 d848 ac3f 2f8c 5cea 706e b3bf
000003c0: 4e5b 9682 063c 813f d127 fb0d 14b2 c2bf
000003d0: 522b 39c7 50ac a93f 0d93 9416 68dd a83f
000003e0: e6de 0b94 02b4 663f 5e77 5914 7894 9fbf
000003f0: 6b1a c8c8 330e 7abf 9236 5fec 186b 65bf
00000400: 1da9 95b7 a551 b2bf ded7 d6f1 5d1b b2bf
00000410: 7e51 1d18 9802 acbf a91f 7634 5eba c83f
00000420: 2842 d6b1 979c b0bf 0f1d eebf aec6 923f
00000430: e19a c153 aad2 c03f c47f b55b d431 c0bf
00000440: 0bdf 2987 a279 b23f f796 d565 9fe6 a13f
00000450: 26a0 d220 0e27 943f 0329 6f8e eb88 b4bf
00000460: 4c9a 5e45 be79 9c3f 4572 6fff c29c 85bf
00000470: 720a 7711 17ca a73f dc90 25d7 40a0 b03f
00000480: 4ce2 c031 549b a7bf b63b d6b1 5f08 adbf
00000490: 61f3 5aaa 39b6 b9bf a2dc 4d4f b573 b8bf
000004a0: 1c74 814b 6952 933f 6fd8 d0d0 4c51 9dbf
000004b0: 49fd d67f 1410 8c3f 2923 0bd7 46d7 babf
000004c0: 107c fd21 8467 773f ef3f 3b72 f60c b83f
000004d0: 70dd 6e83 c44e c0bf 9188 6087 ab9c a4bf
000004e0: 74ac a1e6 7ca8 b13f 869a c02f 1581 a9bf
000004f0: 5333 359f d53e 99bf 6491 3e83 1370 b53f
00000500: 3007 14e6 514a 88bf 3fbc e912 f45e b2bf
00000510: 2f33 1ae1 da46 a43f 1d4f 7640 3dad a5bf
00000520: c68c 4fb8 2d28 bb3f 7e42 ee89 25ea b63f
00000530: a21a d499 eb74 bc3f 1d4d 3f4d 478b 813f
00000540: 3ddb f7c4 548a b5bf 4a4f 21c4 6c86 9c3f
00000550: 4e22 ca42 6e44 b33f 7478 c368 5f06 b1bf
00000560: fa63 78b5 9ed7 9ebf 3cc2 af6d 9363 a73f
00000570: cc24 47e2 6e49 ba3f 14b8 8f39 1953 7a3f
00000580: f8fd 5285 3072 a43f 8289 2f9a 9188 af3f
00000590: d360 ae1c 7fbd ad3f 14cd f7fc bb20 b0bf
000005a0: 2a08 f004 0fdd b2bf a131 1715 9f14 b6bf
000005b0: 3c26 438d c89d 8b3f e080 122c 97a9 b0bf
000005c0: 5e5f b516 9732 acbf 0d16 5667 13e7 c13f
000005d0: 9594 cc7f 9c6f af3f 9cd8 ff21 c112 a53f
000005e0: d13a cd9c 1658 a73f 4c66 09e8 430c 78bf
000005f0: 525b 0ce4 b482 9bbf 81c8 20c8 6064 b2bf
00000600: e8c2 eacc dff3 ab3f 39ec d04f 6425 a03f
00000610: 4338 d66a 43e2 85bf 2879 0d53 33b5 c33f
00000620: 4037 4df2 4290 b73f 1f8c 8c6d 9209 c1bf
00000630: 8eac b56d 17b5 c03f d256 3cdc ad8a b2bf
00000640: 3985 4be6 b4fb b0bf eaf8 6c6d 0423 bd3f
00000650: 7fca 9cdd 1d5b c33f 96e6 c154 a3a7 b23f
00000660: 0ade b845 78a0 903f 0891 1ba6 2ee4 bb3f
00000670: df47 deb9 5f30 a23f 03d9 02c7 1b66 8dbf
00000680: 1b0e a019 a71b 65bf 6344 56bb 202b b43f
00000690: db67 a76d b3ef 80bf 2889 dccc 2a26 a73f
000006a0: 58a6 fe69 5213 b73f 8175 0dd1 aa8e bdbf
000006b0: 73d1 6e41 4c17 a23f 9fd1 6445 1602 b1bf
000006c0: d976 4304 d1fe c03f fb45 34e3 cc0c b1bf
000006d0: ee36 06f4 c3dd b13f 577e ba27 64c5 903f
000006e0: 6fda eaa5 3556 a1bf d759 5931 3a4f a1bf
000006f0: f8c1 1ef8 3e0f a73f 2393 ef89 3334 bf3f
00000700: 466b 4d4a f6d3 c13f 0180 b90a 54d2 bd3f
00000710: d5cf 727e cc2c b3bf d671 9f8b 2e4a a53f
00000720: b07d 325c 2693 b13f 328a 924e a0a4 81bf
00000730: 2d53 4ed7 c896 853f 3b8b 5581 284f b13f
00000740: 73b3 e951 f9be b0bf 6a0b ee59 33f7 aabf
00000750: 1748 7a0d 5184 b43f cf06 7c7b 8c9f 913f
00000760: fd03 7da5 af07 8a3f 5691 9e7b 0f34 a7bf
00000770: f5e9 acd5 8d6b a3bf 8195 930e e9e4 b2bf
00000780: 41f6 7806 a361 b73f 0592 c3f6 d430 b73f
00000790: c05c 0ff8 3702 c03f a857 37c6 442f a23f
000007a0: d23f f272 1657 bcbf acb8 7405 470f c1bf
000007b0: 6cb4 2288 7c2c ba3f c8c5 1578 3e10 b23f
000007c0: f2b2 6a74 e0b5 b63f 68c3 1423 4dd6 a3bf
000007d0: 89da 9172 09e4 74bf dae1 c060 8209 af3f
000007e0: e40f d7a8 df7e b9bf 0a5e a0ed 1a73 afbf
000007f0: 3f01 fecc 6618 bd3f 928a 9134 3ba8 bebf

equations.x.layers.6.bias f8 [64]
-0.067548059504559 0.05410978843551999 0.02586681373023322 0.0004202876946780692 -0.053367478648297634 0.0477362828141844 -0.015660366452624405 -0.015992946409746862
0.08544729639425631 0.04670590233565643 -0.08301402544884903 0.060069501658802635 -0.12471697775844687 0.09676884898136777 0.05273623110571082 0.03591155633204429
0.01758614196712304 0.053428327306461035 0.0673366632944784 -0.09101927978428463 0.10647746321609552 -0.03299102018672014 0.02946503184061518 0.0387762909146024
-0.11185451973552166 -0.07694487582099022 -0.09252284784062872 -0.09562172501709279 -0.006947542218191011 -0.08593526471756482 -0.09141221889581415 0.07576958551510181
0.08526784623304935 0.05151797737717467 -0.02282654561776585 -0.0701665505938814 0.10824952220450419 -0.05343559947026669 -0.07721009908383131 -0.0012415104113390426
-0.047683945246730426 -0.003549329914479623 0.06117821105439571 -0.019151335509645765 0.10195652099465599 0.06272494490490997 0.09456062244824688 -0.046022250371443765
0.08010737818335267 0.0326485206467918 0.007931895316638522 -0.03328825049032566 0.033527909539543696 -0.0008442717637866963 0.008310727564441187 0.030668835861709837
-0.012946447041392738 0.016816235377160548 -0.03452020438811516 0.013901038915051738 -0.014384558962656046 0.11834447138996756 -0.07378954114586267 -0.011581481109005188
00000000: c0f7 7a62 d44a b1bf 06b5 7237 47b4 ab3f
00000010: 17a1 177c d47c 9a3f ea48 4fe7 418b 3b3f
00000020: 04c8 ed6e fb52 abbf afff 09db e370 a83f
00000030: 2c93 0767 4509 90bf 12a9 2f77 7460 90bf
00000040: d181 8bbf dfdf b53f 22a6 1f06 d6e9 a73f
00000050: 9680 693c 6840 b5bf 5e20 3902 6ec1 ae3f
00000060: 3c7e baac 73ed bfbf 7b83 a5e1 d7c5 b83f
00000070: 739f d347 3e00 ab3f 283b fddf ff62 a23f
00000080: fe48 7202 1a02 923f da26 ec2c f55a ab3f
00000090: 98ea abbe f93c b13f 339e fa1d 0a4d b7bf
000000a0: 3830 4666 1b42 bb3f abfb 86f1 32e4 a0bf
000000b0: 952f 86d0 142c 9e3f aa42 ad6a 7cda a33f
000000c0: 9281 2c70 7fa2 bcbf 8af5 3ecd a8b2 b3bf
000000d0: 8ab8 9bcd 93af b7bf f24a bc55 aa7a b8bf
000000e0: d4d9 d5a9 0675 7cbf 9ef8 887f daff b5bf
000000f0: adc0 9c8a ca66 b7bf 579f d1b3 a265 b33f
00000100: 5da7 f812 1dd4 b53f b068 fb77 9060 aa3f
00000110: 7ac5 a28b d75f 97bf d5e7 1260 6ff6 b1bf
00000120: 750c ad9d 3db6 bb3f 847a 5530 e95b abbf
00000130: dc68 7c82 0ac4 b3bf 6a6c 51a7 4557 54bf
00000140: 4907 c2b2 076a a8bf c512 f9fc 7b13 6dbf
00000150: 43af 691f c052 af3f 012e c15e 689c 93bf
00000160: 4e36 4993 d219 ba3f b78e 02f3 bd0e b03f
00000170: 6d95 e7fc 1f35 b83f 3aa4 7778 3a90 a7bf
00000180: e83e 77c9 ea81 b43f 30aa e190 4eb7 a03f
00000190: 8491 d7f7 983e 803f ccdd 6456 280b a1bf
000001a0: 1680 f3f5 912a a13f 93a9 a4ce 43aa 4bbf
000001b0: 850d c3f8 3605 813f d536 21bc a667 9f3f
000001c0: 192e 23b5 aa83 8abf b36c f273 4638 913f
000001d0: 99df cbd9 a1ac a1bf e320 2adc 2578 8c3f
000001e0: 59f5 7ed2 a675 8dbf 0446 48c2 d24b be3f
000001f0: b021 0212 dfe3 b2bf 1ac1 d114 08b8 87bf
