simple-pendulum-system/2025-05-30_23-53-53/model_best.pt (torch, 277858 bytes, 24 tensors)

equations.x.layers.0.weight f8 [64, 1]
000000 34 2b 7c 3e ce 4b d4 bf 63 f2 71 27 98 ab e8 3f
       -0.3171268091397679 0.77094657615778
000010 74 31 4c a3 35 50 db bf 0c 46 3d ac d0 5a e5 bf
       -0.4267706007674612 -0.6673358310746962
000020 44 2e d8 b9 0f 43 e9 3f 8a 68 85 f1 de 50 b8 bf
       0.7894362096571474 -0.09498399158965945
000030 d2 26 12 ad dd 0a dd 3f 8b 98 40 02 6b c9 ec bf
       0.45378820325332214 -0.8995871585837149
000040 cc 47 db 80 0a d4 e2 3f 1d 52 71 39 7d b8 d9 3f
       0.5883839146356364 0.40188532457003295
000050 d7 1b ed d8 4c fa b7 bf 5d 2a fe b0 88 2f c4 bf
       -0.09366302772569611 -0.1577006210539648
000060 6a 00 6f e5 c4 da df bf 8e 45 de 03 97 29 e0 3f
       -0.497727607780695 0.5050768924285636
000070 70 35 25 46 f8 32 db bf d4 50 64 16 68 72 e6 bf
       -0.424985950948062 -0.7014656483975394
000080 3d c3 a1 5e a9 77 b5 bf b6 b3 5c 37 bf f4 c0 3f
       -0.08385714111660732 0.13246908381679895
000090 23 81 4e 4f fb a3 e5 bf e8 7f 21 46 af 03 e0 bf
       -0.6762672947843708 -0.5004497880690879
0000a0 39 a1 1c de 62 16 ed 3f 44 a4 bc 6a 44 16 9f bf
       0.9089826906320361 -0.030358380331709137
0000b0 54 98 80 97 a7 83 e3 bf 37 51 f1 d8 51 7e d2 bf
       -0.6098211249379895 -0.28895994363599037
0000c0 52 12 2c 73 60 f6 82 bf 83 ba 91 a0 96 98 b7 3f
       -0.009258988871360039 0.09217206401965865
0000d0 e2 e3 65 5f 44 b7 c0 3f f7 b1 6b ba 45 1e d4 bf
       0.13059286745172388 -0.31434767918724965
0000e0 3f 7d be a8 96 d9 e6 3f b6 8d 4c de a5 76 ed 3f
       0.7140610976966072 0.9207333890703271
0000f0 d1 ab 21 bf 4f 6e 98 3f 20 a7 4e 80 23 40 e0 bf
       0.023858305016272233 -0.5078294282913909
000100 c7 01 ca e8 cb 55 cb 3f d4 3c f5 f0 81 f8 cb 3f
       0.21355580202727095 0.21852134957814562
000110 6e a3 cc d4 f2 f2 e6 3f 48 e0 96 93 85 cc b2 3f
       0.7171568065869971 0.07343325474983076
000120 5e 69 ae 9f d4 c4 cf 3f d5 d7 8a 49 a5 97 c9 bf
       0.24819429203928228 -0.19994035807547897
000130 08 34 1c 7b ac a5 eb 3f 96 c6 72 b0 be e8 e2 bf
       0.8639738468642699 -0.5909112402207082
000140 ec d1 47 f3 62 de d0 3f ea e7 a0 85 93 64 d6 bf
       0.26357339628091725 -0.34988868760740266
000150 e6 99 ca cf bb e5 de 3f 63 50 6d 4e db d0 bf 3f
       0.4827718285763737 0.12428064980241653
000160 8a ef 79 54 95 04 ea bf ee 45 a6 f5 5f 96 e8 bf
       -0.8130594873359638 -0.7683563039628873
000170 0b bb ff 50 aa 3a e3 bf ce 64 41 57 63 59 d9 3f
       -0.6009112913141917 0.3960808136085462
000180 46 78 2e 08 e5 1f e2 bf 9a 69 54 85 e9 ba ba bf
       -0.5663933906360021 -0.104414553691106
000190 49 1b 9a da 81 73 e2 3f ad 32 2c b6 bd ae ea 3f
       0.5766000051088237 0.8338306959209
0001a0 98 94 1e 37 45 a6 d3 bf af 5a a3 97 fb 37 e6 3f
       -0.3070233381534506 0.694333835762185
0001b0 09 d8 26 36 dd 87 dd 3f bf 4f a4 a0 38 7c dc 3f
       0.4614174870324637 0.4450818604248034
0001c0 b8 e4 3d ed 14 2b ec bf 45 a5 bd 11 1a 42 da 3f
       -0.8802590020778984 0.410284535717967
0001d0 f6 62 69 65 86 2b e2 bf 0b bb ec ba 81 49 e9 bf
       -0.5678131085106475 -0.790222992980348
0001e0 9d 07 7b 43 3e 95 df bf 27 e7 cb 17 10 f9 c5 3f
       -0.4934840830793464 0.1716632953828647
0001f0 37 b6 3c bc 5d 45 e4 bf 38 c2 b5 3c e3 8c e1 3f
       -0.6334675480372373 0.5484481988660894

equations.x.layers.0.bias f8 [64]
000000 01 eb 95 94 8a a2 d0 bf 67 26 77 b2 9d 6f e4 bf
       -0.2599207354575555 -0.6386250005391049
000010 43 19 c2 2e 5d a9 ee 3f cc ef 5c 8c 69 59 ec 3f
       0.9581743157621435 0.8859145871606358
000020 41 f8 49 72 4a 25 ef bf f9 c5 d8 40 b6 35 e5 bf
       -0.9733021003919547 -0.6628066317118161
000030 37 d6 0c 42 19 92 d4 bf f4 2b f4 09 2f 34 ae bf
       -0.3214171547909674 -0.05899188038355155
000040 6d 5b d5 6d 2d f1 de 3f 1a cb 8f 67 d3 01 e8 3f
       0.48347030378265893 0.7502228758515657
000050 51 ad 51 ed 9f cf ca 3f 80 d5 2b f2 1b 2e b5 3f
       0.2094612034592083 0.08273482000716648
000060 22 53 bd 16 cb d2 e0 bf ea cd ff 16 9c 41 e0 3f
       -0.5257316059238273 0.5080089997485946
000070 c6 68 7f 44 fd 4f e6 bf 8c 62 c1 d4 8f 9f e6 bf
       -0.69726432207542 -0.7069777636889554
000080 4d ab 28 68 06 a1 90 bf 52 15 8f 61 53 d5 e3 3f
       -0.016239261729576616 0.6197907357642782
000090 26 51 09 11 e9 72 e3 bf b2 49 03 a9 e7 8c d0 bf
       -0.6077771504156189 -0.2586001539722488
0000a0 63 15 44 eb 8a a3 c7 3f f5 1e be 1e f9 88 e6 3f
       0.18467842567057877 0.7042203522150589
0000b0 8a aa d2 3b 70 30 eb 3f 8c 21 2f 6e 6e 24 ca 3f
       0.8496628921905807 0.20423679714282306
0000c0 4b 50 6a 05 e8 f2 de bf 58 48 27 2c 9b 29 ea bf
       -0.4835758259662312 -0.8175788748142265
0000d0 19 ea bd 6b 5e 8a c4 bf 8f f1 57 5b a6 12 c4 3f
       -0.16047268162567788 0.15681914768346103
0000e0 75 0a a2 de be c0 d2 3f 2a d4 38 40 39 0d d6 3f
       0.29301425687314203 0.3445571067016454
0000f0 e9 94 c0 87 cf f3 e7 bf f7 d8 17 a6 9c 1d d0 3f
       -0.7485120440875593 0.251807367515894
000100 4e 28 d8 ad 44 24 cc 3f 8b d8 93 37 39 de e7 bf
       0.21985681999678025 -0.7458768926142211
000110 2a 5d 8d d0 c0 f1 be 3f 60 90 de c2 d2 66 ca bf
       0.120876360813203 -0.2062629176626869
000120 d0 0e 20 39 16 ad ac 3f 4f ea bb b8 88 43 9d 3f
       0.05600804755525035 0.02857793452765583
000130 f8 10 a3 27 5d 8e e8 3f df 3f 41 80 3f fe ed 3f
       0.7673784040603371 0.9372861390092985
000140 65 af 41 12 f0 7f db bf 4d 2e d9 52 68 65 c2 bf
       -0.42968370230550185 -0.14371971173601353
000150 2b b8 3a 24 a9 13 d9 bf 44 c3 a3 9f 28 7a ea 3f
       -0.3918249944498508 0.8274119489634377
000160 00 a1 bd c0 c6 52 e3 3f 09 98 61 48 70 21 e8 3f
       0.6038545383899248 0.7540818608947585
000170 1e ca e8 87 b7 02 d9 3f 9e 42 d0 3c 18 4a e5 bf
       0.3907908274879065 -0.6652947604907984
000180 f5 1e ab f9 49 d1 d2 3f ad 48 57 a3 d8 90 c0 3f
       0.2940239847343798 0.12942035651810127
000190 47 dc f5 7f 1c 6a e6 bf 14 15 96 2d 93 9a d7 bf
       -0.7004530429102339 -0.36880950404914015
0001a0 d6 0b a7 40 e2 2d bf bf 3e 0e 32 75 36 7e d1 3f
       -0.1217938812106206 0.27332841343761405
0001b0 24 3e 99 07 e9 1a d2 3f 71 da 93 24 cd ea da 3f
       0.2828924726681825 0.42058113643671563
0001c0 09 e9 b5 ef 2e 73 ed 3f c7 83 18 db 32 be d5 bf
       0.9203104669425396 -0.3397338046652831
0001d0 cb 95 c7 4e d5 74 ef 3f 3a 17 55 23 91 a3 e0 bf
       0.9830118693031918 -0.5199666681371362
0001e0 d7 0b c3 90 6e e5 ed bf 41 d6 f8 0e 0b 2d e2 3f
       -0.9342568232899521 0.5679984371587993
0001f0 c7 02 66 ff 6d df ec 3f 43 65 5c f3 25 75 dc bf
       0.9022741306544838 -0.44465016141619546

equations.x.layers.2.weight f8 [64, 64]
000000 f8 42 69 86 11 4a ba 3f 0b 4b 81 43 69 dc 91 3f
       0.1026926949646273 0.01744236444967399
000010 af fc 62 ac 06 8e 93 bf bb 21 a1 06 f6 02 b2 bf
       -0.01909647395291064 -0.07035768186427209
000020 32 5a bd 10 47 bc b1 bf 72 bc 86 0c b6 1f bd bf
       -0.06927913817103429 -0.11376512342279613
000030 09 34 92 67 db 53 a1 3f 36 55 87 29 74 97 bb 3f
       0.03384290351196035 0.10777975095637235
000040 76 3f 0b de 95 14 a3 3f b3 a0 91 82 3e d1 87 bf
       0.03726642928597716 -0.011629570350308737
000050 95 1a b8 6c 69 b6 aa bf 8e ac 47 ad 93 8f 72 bf
       -0.0521729417051137 -0.0045314568164755
000060 44 d9 26 1e f5 27 8c bf b9 5d fe 51 00 59 90 3f
       -0.013748087866457433 0.015964512829297315
000070 09 3f ea e6 7d cb bc 3f f6 61 af 5e ae ba 76 3f
       0.11248003852437817 0.005549126751212876
000080 15 44 1c 58 22 ab ab bf 37 9c 3f b5 47 bc 57 3f
       -0.054040025001207116 0.001448698069902011
000090 1e 4b 5e 2b 83 18 bc bf 66 36 4b ed 77 8d be bf
       -0.10974902924344263 -0.11934613745980868
0000a0 b5 92 78 9c 33 b7 a6 bf 08 03 64 cd 6c 67 bd 3f
       -0.044366467333281014 0.11485939039631543
0000b0 ae 8b 37 a7 a7 c6 bd 3f eb b3 8e b4 37 aa be 3f
       0.11631248314328843 0.11978481443539095
0000c0 a8 dc bc 23 0a af a2 3f 0e 39 34 17 db f0 87 3f
       0.03649169622661336 0.01168986477435088
0000d0 9f 61 b5 7d d0 94 b5 bf 92 a4 46 2c a4 16 9b bf
       -0.0843019778161591 -0.026453557207478946
0000e0 bc b9 c5 bc 1c c9 b5 bf f4 4b 43 4a d8 23 b0 3f
       -0.08509997948360754 0.0630469495111326
0000f0 e0 7e cf 38 ab 8a b8 bf 80 c1 94 3d e3 7c 6e 3f
       -0.09586591851211379 0.003721660451127373
000100 8d 38 17 de 42 2a b9 3f cc 09 43 72 5d f6 be bf
       0.09830110475670235 -0.12094673194500344
000110 83 28 92 56 c9 31 b2 bf b0 c6 f7 b9 43 bd bf 3f
       -0.07107218135402786 0.1239816979430326
000120 b2 db 68 a6 d5 ef b5 bf 6b b1 35 da fa 89 b2 bf
       -0.08569083512052947 -0.0724179060686702
000130 c8 25 f4 8a 43 8e 6d 3f 7c 2e 93 28 ba 3c be 3f
       0.0036078757472110846 0.11811412325476484
000140 fc 56 4c 7e 96 e9 8d bf 4b 8a 34 7b 33 20 b7 3f
       -0.014605689744296317 0.09033509977283775
000150 92 83 23 40 d7 ca b3 bf ad 4b 7e 11 c9 cc bc 3f
       -0.07731385532271265 0.11249977757533598
000160 63 2c 44 8e 90 74 86 3f c2 7a 69 d7 da fd b8 3f
       0.010964516965506549 0.09762351759989499
000170 be e9 0e 1b 2f c2 b1 3f 26 b3 0e 7c ba 6e bd bf
       0.06936926279642017 -0.11497083214517242
000180 fa de eb d6 b6 fd ae bf b3 d2 03 7a 4e 12 34 bf
       -0.060529435859221395 -0.00030626693661809783
000190 c6 f9 85 46 5a 5e a1 bf 82 fe 0f 1b 48 fa b4 3f
       -0.033922978504950005 0.08194399510102282
0001a0 c2 f8 ac fc 4e ca be bf 12 b2 3e 6c 08 9a b6 bf
       -0.12027448338355654 -0.08828785555551402
0001b0 9c b4 17 53 13 f6 a5 3f cb 57 a7 16 eb 32 a1 bf
       0.042893031972064594 -0.03359160090955945
0001c0 b2 f3 60 04 0d 3f a1 3f e4 af 46 7b 53 71 57 bf
       0.03368416479540971 -0.0014308276414380866
0001d0 0d 0b 61 50 94 93 63 bf 5e ed b6 0f e6 05 b8 bf
       -0.0023897072560726874 -0.09384000667244183
0001e0 58 a1 02 98 ed 8e 72 3f e8 65 c2 76 16 bd aa 3f
       0.00453083810877105 0.05222387504290876
0001f0 47 a1 4a bb 74 20 aa bf 4e 7d db 51 ef a5 ba 3f
       -0.051028869497999944 0.10409446476432047
000200 cf 14 85 7a 4e 2c a8 bf d7 4f fe f6 6e aa b7 3f
       -0.047213032203708864 0.09244435815918393
000210 9c 11 69 8d ce 4f ad bf 1f e9 07 17 df ce b3 bf
       -0.057249502908720745 -0.07737535774495939
000220 95 4a a2 25 51 e1 b4 bf 8f 5f 8f f9 aa 14 ac 3f
       -0.08156306427762623 0.05484518333804466
000230 2c 1c 49 42 7a 19 b7 3f 82 27 65 64 81 c2 bd 3f
       0.09023250692654078 0.11624916745236472
000240 a6 ef ec 16 2a 90 bb 3f 0f 34 7a d9 cb 1b a1 bf
       0.10766852435784688 -0.03341519384148494
000250 39 b5 bd ed cb e4 84 3f f2 de 2e 43 ce 95 ba bf
       0.010202019875317535 -0.10384835376941817
000260 af b8 ee 0e a3 ca a6 3f c9 b0 94 c3 8c 6d 97 bf
       0.04451474721223413 -0.022878837048822463
000270 d3 af 73 4d 90 b4 bf 3f a3 69 c2 02 2b 8b ae bf
       0.12384893313327376 -0.0596555176609457
000280 2b 14 3e fe 68 34 b9 3f 71 b2 01 77 78 6c be 3f
       0.09845596510975045 0.11884262948451309
000290 e0 ff 2c 30 cb d9 ba bf 0d 66 ed 50 e0 a1 bc bf
       -0.10488576818624962 -0.11184503532185648
0002a0 54 45 d7 60 a2 fd b7 bf 55 e1 41 35 41 ae b8 3f
       -0.09371390213279557 0.09640891599872721
0002b0 3a cf b1 cc 3f 9f a2 3f 89 34 64 9a 8f 51 ba 3f
       0.03637122510636322 0.10280702132532062
0002c0 88 45 37 88 f5 45 7f 3f 81 c5 e5 ba 44 d9 ae bf
       0.0076350775811574526 -0.060251376928941454
0002d0 07 bd cb c6 ac 4e 9c bf f2 ed 6a a1 cf e2 b0 3f
       -0.0276438709578857 0.06596086207257892
0002e0 44 64 e9 8c 0a c5 a9 3f 31 07 9f 59 6a c3 9b 3f
       0.05033143015015942 0.027112638206524046
0002f0 16 81 e3 f2 4f ec b3 bf 05 c9 ba 11 0b bd b9 3f
       -0.07782458953761692 0.10054082091190615
000300 39 60 41 d7 39 8a 4b bf 6c 2c 7b 6f 75 6f be 3f
       -0.0008404524255736296 0.11888822528560333
000310 9d ac 5e 00 f9 6e 76 bf ea 84 fc 1f d6 e6 ba bf
       -0.005476925527470614 -0.10508478432577176
000320 87 f1 73 93 ae 6e bb 3f cd 1e d1 96 ca d5 bb bf
       0.1071576223366205 -0.1087309473233475
000330 82 66 7a 26 6b cb 9e bf ec c6 f2 68 54 b8 b2 3f
       -0.030072855208891365 0.0731251484128525
000340 78 e6 bb 19 1e 8c a8 bf e6 d2 39 fe 3b d7 91 bf
       -0.047944012299876826 -0.0174226163785133
000350 bc b7 d7 61 21 f0 4a 3f 3b a3 53 94 b5 44 a9 bf
       0.0008220828055394073 -0.04935233531597879
000360 27 ca 6f 87 b8 bc a1 3f 04 c4 86 b3 de ed b1 bf
       0.03464295056609883 -0.07003585703820653
000370 77 bf ca ff ea ae af 3f f5 5a 36 bf b7 e7 b3 3f
       0.06188139316998236 0.07775448244352019
000380 a5 34 c6 1b 90 6b b1 bf 42 3a ad f9 73 34 b7 bf
       -0.06804752996522952 -0.090644119697779
000390 04 bd e3 c4 0a c8 8a 3f f0 07 b2 49 5c 9f bc 3f
       0.01307686246261009 0.11180664824681208
0003a0 ef d8 43 d4 63 2c b0 bf ff 86 6d b6 81 a3 b5 bf
       -0.06317733700038607 -0.0845261640911552
0003b0 1b a5 ab 34 9a 45 87 3f 86 9c 97 3d 83 ed b7 bf
       0.011363224727988943 -0.09346790555683712
0003c0 3a d7 f7 3e db 50 b5 bf 74 4a 07 a9 15 92 bd 3f
       -0.08326502120311555 0.11551032425567503
0003d0 2f 2c 6a ec e1 e9 bd bf 05 b4 37 76 cc 62 bb bf
       -0.11685001394123228 -0.1069762982003369
0003e0 dc 09 02 2c d9 38 7c 3f 0a 27 3d 61 dc 76 a4 bf
       0.006890152290113662 -0.039969336385707946
0003f0 4b 63 4d ad ad 37 9a bf 21 e2 6e 77 87 6f 7e bf
       -0.02560302133801721 -0.007430581251292285
000400 8d 54 df f2 d2 e5 bf bf 00 75 71 67 d1 9a 40 bf
       -0.1246005862188488 -0.0005067369919619369
000410 85 90 de 2c d2 97 b4 bf 56 9a 9b 0d ea 80 a9 bf
       -0.08044160457080991 -0.0498116628275979
000420 51 0a 4f 96 38 e7 a3 3f 81 79 83 eb 29 c6 bb bf
       0.0388734515650141 -0.10849248885958752
000430 f6 95 e5 3b 30 7e 57 3f 61 9c 0b 0b f5 62 88 bf
       0.0014338942561037383 -0.011907495879724008
000440 6c 5b 7d 62 de a4 b0 bf 50 e3 62 9d 2d 2b b6 3f
       -0.06501569656880485 0.0865963467830515
000450 22 ff 30 d4 8f 15 90 3f af 62 18 60 78 59 be bf
       0.0157072518597935 -0.1185527071578558
000460 71 74 6b 9e 77 5b 9d 3f 11 e1 92 78 0c 3e a7 3f
       0.02866923241059677 0.04539526912543768
000470 be 52 98 a9 68 39 a1 bf 0c 8d 07 6e 35 4e b1 3f
       -0.033641119673267536 0.06759962021128646
000480 9d eb a3 b0 e7 75 b6 bf 03 06 6c 4c 3c cd 99 bf
       -0.0877365881205336 -0.02519697395746868
000490 6c 7c 12 65 23 7c b5 3f f1 2b c1 2a bf 7a 82 bf
       0.08392544953902509 -0.00902318333841909
0004a0 f2 1f 6c 33 54 05 71 3f e4 31 0e e4 ed 8a b8 bf
       0.004155472669260961 -0.0958698922897337
0004b0 c6 e4 83 d3 a8 4d b0 bf 77 f9 7c c2 36 b4 ba 3f
       -0.06368498958535715 0.10431234596487636
0004c0 9e 26 6f 74 79 a3 a5 3f 9e 6a 7c 69 e1 b8 b9 3f
       0.04226283594432555 0.10047730279294817
0004d0 e9 7e 99 34 69 35 bd bf bc ee 87 29 60 e1 b9 bf
       -0.11409623655481095 -0.10109520925464727
0004e0 3d 85 73 f3 75 f0 be bf f0 11 05 fd b4 e4 bf 3f
       -0.12085663980135038 0.12458354165307362
0004f0 a3 94 d5 ad 11 19 ba bf 63 4a eb a0 59 d3 98 3f
       -0.10194502347947547 0.024243736693117756
000500 c0 90 63 87 4a 50 bb bf ac 68 1d 8b 83 ab b6 bf
       -0.1066938953914045 -0.08855459352835976
000510 2b 24 5f 7f 4b 6b b3 bf 29 ec ab 4d cc 6f ba 3f
       -0.07585594043406789 0.10326840301779384
000520 77 17 d8 f9 41 70 b9 bf 22 01 e1 6b 40 0a a9 bf
       -0.09936916684827489 -0.048906338852704914
000530 88 80 4e 25 e1 ca bb bf 83 65 cd 60 ef 99 b1 bf
       -0.1085644451218305 -0.06875511277521267
000540 f8 f1 19 a3 c9 28 ae bf dd bf af a6 f2 14 a2 bf
       -0.05890493503554589 -0.03531606945750785
000550 8d d2 12 4b c6 9c ae bf 38 e1 bf 23 e7 98 a1 bf
       -0.059789845146416366 -0.034369681467014634
000560 f8 9a c7 67 b1 98 b1 bf b7 77 84 4f e5 5d b2 3f
       -0.06873616012272155 0.07174523536056553
000570 e4 00 dd e8 30 91 b3 bf cb 38 b5 cf ec e6 90 3f
       -0.07643418965472254 0.016505909135326385
000580 67 16 11 38 04 87 bc bf 26 92 df 22 68 b0 b8 3f
       -0.11143518799607365 0.09644175387763507
000590 76 a9 2d 16 3d b0 81 bf 54 1b 2a 5d 16 7a b5 bf
       -0.008636929740266846 -0.08389415525935578
0005a0 75 a2 66 15 46 19 ae bf 3e ce 66 c0 52 e6 96 3f
       -0.05878657351724296 0.022362988465557836
0005b0 63 33 8d 04 63 a6 9d bf 04 5b ef 76 08 af af 3f
       -0.028955027725987913 0.06188227130740212
0005c0 0c b0 73 41 36 86 bd bf c9 ee 7f cd 43 d7 bd bf
       -0.11532916162440204 -0.11656593100627356
0005d0 c8 b6 43 cc 8b e3 af bf d3 72 8f 05 33 40 be bf
       -0.06228291386092405 -0.11816710363150244
0005e0 16 ba a2 22 04 d9 aa 3f f1 7a cb 91 4c bc 6f bf
       0.05243695185469137 -0.0038739676950706394
0005f0 f9 b7 b0 f5 d2 9e b9 bf 77 ad ca bc ae 74 72 bf
       -0.1000797128515102 -0.004505808418496008
000600 50 22 0b ac a6 74 ba 3f 4a be 4d 3e 0e bf bf bf
       0.10334245395927977 -0.1240090276821714
000610 b8 95 a2 e4 ad 9e b1 3f f1 aa 85 14 54 04 ba 3f
       0.06882750350867795 0.10162854672459411
000620 08 96 ef 11 9c f9 bc 3f 67 f4 b3 e5 60 74 b0 3f
       0.11318374097717065 0.06427579505903368
000630 77 0d eb ee d0 24 ab bf 7c 79 e1 30 a3 cd a2 3f
       -0.05301525989991778 0.036725139347924846
000640 88 f9 3d 9a 6c 3f 7f 3f e2 bf 5d 0a bf 48 bc 3f
       0.007628845432803628 0.11048501971322325
000650 41 b0 1a 7c a6 83 b2 bf c7 7c 55 dc 56 4f be bf
       -0.07232132463349307 -0.11839812163588014
000660 dd 23 bb 15 60 8d b2 bf e4 af 62 85 18 23 a7 bf
       -0.07246971636335738 -0.04518963459244654
000670 06 f1 a8 ca a1 7e b4 3f 9b b0 3d a1 c2 d2 a5 bf
       0.08005725095512525 -0.04262359827302583
000680 11 6a 0b ac 2e 6f bd 3f ea 7b 63 86 b6 24 82 3f
       0.11497775745684914 0.008859086967673197
000690 fd 48 95 10 0c 5c b1 bf 7e ef 95 54 9a b8 9a 3f
       -0.06781077771055162 0.02609482899923376
0006a0 dd 64 16 f1 fc 60 af 3f 08 28 85 c3 71 40 58 3f
       0.06128683512651787 0.0014802084898115648
0006b0 11 54 d0 e7 e8 9d b3 3f a8 15 9c 17 ea 59 83 3f
       0.07662826213375264 0.009448841901312857
0006c0 05 fd 71 0c 15 44 b7 bf 30 e6 7f d3 3b 44 75 bf
       -0.09088260225142981 -0.0051920258483675735
0006d0 d3 ea 0d b3 b7 3d b1 bf 68 17 de c6 06 ed b8 3f
       -0.0673479854721493 0.09736673693813958
0006e0 c5 76 88 86 48 84 b4 bf 84 95 fa 1e 46 dc b1 bf
       -0.08014348301409331 -0.06976736313170845
0006f0 c5 b6 77 1d 46 09 77 bf e3 aa 01 bd e1 95 b6 3f
       -0.00562407864297904 0.08822451462189522
000700 a5 4d 03 7a fa 4c bf bf 5d 86 d5 b7 f9 aa bf bf
       -0.1222683475382867 -0.12370262849938159
000710 ad a4 2f 7f 77 3e bc 3f b1 0f 14 06 1a 23 be bf
       0.11032816748742631 -0.11772310875318116
000720 0b 18 8b 88 9c c5 be bf 09 7f 95 30 7d 85 b6 bf
       -0.12020281156137018 -0.08797438083774635
000730 5a 99 ff 5d 69 c5 a7 bf 25 05 90 da 46 f1 b1 bf
       -0.04642800590936487 -0.07008784137726261
000740 e2 18 eb aa cf d8 be bf 62 2d df 0d 85 84 97 3f
       -0.12049577639399758 0.02296646020094551
000750 d0 c8 67 3a 4b aa b7 bf eb 65 ea fd df 88 b8 3f
       -0.09244222808755187 0.0958385462676216
000760 31 e8 5e 53 dc 23 b2 3f e0 42 36 50 71 b8 bb bf
       0.07085969005029892 -0.10828312118816141
000770 c5 8e 3e 6b 2f 31 b8 bf a6 af 69 05 0f 7d 9c 3f
       -0.0945005070521417 0.02782081099068958
000780 a7 a4 2c 85 47 e4 a8 3f 27 3e a3 cc 66 f9 7f 3f
       0.048616633421553694 0.007806207237265584
000790 e6 ea 62 3c 32 b9 b3 bf 33 79 61 de 75 c5 b5 3f
       -0.0770446202686049 0.08504425696580568
0007a0 8a 67 93 6d 00 cb 97 3f 41 62 bc 9b 71 6f 8f 3f
       0.023235327423072806 0.01534928089636012
0007b0 d2 6a 6a 3b cf 82 af 3f 2d 95 d0 21 2a d6 b7 bf
       0.06154487228669371 -0.09311164212757168
0007c0 48 5a 87 b2 71 4b b7 bf 44 d9 f8 1b e4 20 ba bf
       -0.09099493607150422 -0.10206437762176274
0007d0 82 3f f1 df 79 92 a6 3f ac d1 c5 ee fd a0 ad 3f
       0.0440862737528951 0.05786889590936836
0007e0 94 39 af 43 e2 fd 51 bf c8 ce 25 74 0e 4a 85 3f
       -0.0010981282818992343 0.010395157737299057
0007f0 ba fb 41 19 10 af 9c bf 6e 85 46 16 1a 6d b5 3f
       -0.028011561910257866 0.08369601291498949

equations.x.layers.2.bias f8 [64]
000000 38 c2 51 dd 52 b6 86 bf b5 a9 23 4d 11 f8 b6 3f
       -0.011089942340022238 0.08972271092685598
000010 d1 a0 a7 49 be de bd 3f 6a b9 97 ab d0 0a bf bf
       0.11668004320347626 -0.12125877560877077
000020 f6 d0 71 93 25 c1 ba bf df c6 6b 0c 68 23 b7 3f
       -0.10450968599053909 0.09038400939223433
000030 cb b6 f5 7e 55 06 bd 3f 0c 23 ef 1f cf 32 bd 3f
       0.11337789868931762 0.1140565350498372
000040 e4 62 8c 04 46 55 b4 3f 4d f4 79 5b 3a 83 a0 bf
       0.07942617045444994 -0.03225118986754492
000050 05 f7 1f 83 8e b3 a0 bf 61 8a 40 35 e4 a8 b4 3f
       -0.032619908815815925 0.08070207882023218
000060 a2 ac 5b de c7 27 a1 bf 58 5b 9c e4 fd 84 8c 3f
       -0.03350662793476401 0.013925536669871327
000070 9e fd 5c e9 8a a8 9e bf 38 55 50 d5 d6 df bb 3f
       -0.02993981408439838 0.10888426502090887
000080 c8 8f 15 48 cf 02 a3 bf cb 90 3e 34 bf c8 b7 bf
       -0.037130811261505026 -0.09290690446374865
000090 88 86 08 ff 7b 05 bb bf f6 31 6a 54 a5 e9 97 3f
       -0.10555243469618791 0.02335222556807711
0000a0 02 6a ee 23 67 70 81 3f 24 b8 4d b7 a2 68 b4 bf
       0.008515172752415093 -0.07972161269364669
0000b0 19 34 c3 7b 3e e2 b6 3f c7 7b a9 c2 2e c7 b8 3f
       0.0893897106318068 0.09678928616038639
0000c0 f1 42 a9 69 13 ee be bf 2f 9d 08 46 63 9f be bf
       -0.12082024888628574 -0.1196195646267497
0000d0 98 df 94 04 d4 db 9d 3f ca 59 d0 f4 d9 41 b4 bf
       0.02915889051402551 -0.0791298124971497
0000e0 63 bf c7 71 b1 c8 a6 3f 4e 45 c5 88 4d 3a b5 bf
       0.04449991716307868 -0.08292088116765692
0000f0 44 7f f0 d0 2e c8 b6 bf 85 2d 3e 7b 77 6a ad bf
       -0.08899204827366441 -0.057452901644036415
000100 45 96 26 91 9f 90 be 3f de 7e 49 f0 18 1a be 3f
       0.11939427655905728 0.11758571497329792
000110 9b a5 61 6f b6 2f b8 bf 2a 2f 7a 91 54 13 a3 bf
       -0.0944780370642974 -0.03725685382695894
000120 35 21 c3 a6 b8 7d 89 3f 45 ae bd 4a f2 26 b4 bf
       0.012446825589350933 -0.0787192757103919
000130 ea b2 24 36 ef 21 bf 3f 73 8b 8f c6 9e 20 bb bf
       0.12161154815539602 -0.10596649501489512
000140 89 52 01 d6 74 71 9a 3f 39 c2 76 9a 64 7a b6 3f
       0.025823426782454226 0.08780506869403205
000150 72 e0 41 84 91 97 71 bf 7b a9 30 b9 e5 4e 71 bf
       -0.00429493753846809 -0.004225633008028469
000160 87 93 76 8e 9c 46 be bf b1 11 f5 d4 9c 9e b3 3f
       -0.11826494672875586 0.07663898657944547
000170 ce 5d 87 ae 7b d3 bf bf ad 5c 2e 86 c5 e8 87 bf
       -0.12432072649914191 -0.011674445302374126
000180 00 0c f1 79 81 cf bb 3f ce 9d e2 2e ad cb a7 3f
       0.10863503672685226 0.046475803349774844
000190 52 8f 35 68 b9 c8 a2 3f 84 ee 72 76 dc 74 64 3f
       0.03668765446744139 0.002497130004113947
0001a0 38 6e d5 87 50 c2 94 bf 02 87 70 b1 b6 84 80 3f
       -0.020272501268989468 0.008065631189370762
0001b0 23 53 fd 70 65 d4 b5 3f 43 59 99 63 a9 42 ba 3f
       0.08527215965780192 0.10257967645279557
0001c0 f4 8d 1d 55 9e c5 a1 bf b2 ab f8 9d e9 5b b5 bf
       -0.034710834398335694 -0.08343372446749589
0001d0 9e 5a c6 d3 02 a1 bb 3f 20 57 12 1a 3a cf 8a bf
       0.10792558355601975 -0.013090566559451455
0001e0 7d 4e fe e7 f9 2a b8 3f 7e 35 8a 4b a9 da a6 3f
       0.09440576471234326 0.04463700339429531
0001f0 ba 08 2c 01 98 5b b0 3f 24 64 d8 2b 64 49 b3 3f
       0.06389760998357277 0.07533861227456434

equations.x.layers.4.weight f8 [64, 64]
000000 16 31 5d ee cb ad a3 3f 2b c7 c7 e5 d7 c4 99 3f
       0.038435337874576245 0.025164960288697785
000010 83 79 10 cd 8d fb b7 bf 01 6e 63 2c 0f 8e ba 3f
       -0.09368215805486639 0.10373015245152574
000020 f1 f4 0d 4d d3 db b0 bf f1 50 a6 d5 bf 62 92 3f
       -0.0658542693253883 0.01795482388986697
000030 bb c0 2c 15 7d f8 ba 3f 44 92 2b ff 20 54 b9 bf
       0.10535413519824292 -0.09893995504132486
000040 d0 1d ce 90 d2 c3 88 3f 5c a8 ea 7a 16 1a 9f bf
       0.012092251819708105 -0.03037295460914212
000050 2a 22 47 1a 33 3d b0 3f bd fa 38 fe 96 ac ae bf
       0.06343383208798828 -0.05991050580313615
000060 9c 83 a4 54 df 9f a1 bf e1 15 ca 51 45 7a a9 bf
       -0.03442285450206059 -0.04976097701459615
000070 c4 fc 71 70 c9 74 b7 3f c7 a9 11 14 f4 87 b1 3f
       0.09162577624555285 0.06848073472944015
000080 57 71 77 be c8 ef b1 3f 44 71 e0 e1 e9 af 78 bf
       0.0700650658613474 -0.006027139284949638
000090 49 9b 86 ef 24 3f b9 3f 83 3d 48 e5 8a 5e b7 3f
       0.09861975524709722 0.09128635499677355
0000a0 8d 14 ee e0 c9 59 a8 3f 77 0d 84 5b 1f 16 91 bf
       0.04756003256537964 -0.016685953102763187
0000b0 37 a3 88 cf 1b 87 b7 3f 76 e6 10 67 68 dd b5 bf
       0.09190534416906081 -0.08540966526279611
0000c0 ae a2 1f 77 57 ca bc bf f8 9c d8 52 d5 67 b5 bf
       -0.11246248873033934 -0.08361562035189596
0000d0 06 c0 cd c4 bc b6 b6 bf b4 93 d6 b0 93 78 a0 3f
       -0.08872585110452755 0.03216992887181594
0000e0 03 95 e6 06 58 55 b0 3f 56 5c 4e 81 16 78 c1 3f
       0.06380224388574977 0.13647729219221344
0000f0 4f d5 84 d8 70 8a a4 3f b9 4d fc 77 dc 7a ba 3f
       0.040118719511535 0.10343721322379097
000100 b9 41 24 88 61 1d be bf 7e 3a a1 0c 3e 29 b9 3f
       -0.11763581823129855 0.09828555878014275
000110 64 9d 1a 1d 25 a0 94 bf 37 79 54 19 e7 f9 b1 3f
       -0.020142154599537845 0.0702194630470999
000120 fb ee 9a 27 39 79 b7 3f 26 48 03 57 bb 51 8d 3f
       0.09169347016262101 0.014316047280235788
000130 7e 05 01 b0 b8 cf b1 3f 32 55 44 60 be fb 87 3f
       0.06957582756969846 0.011710631668885616
000140 c5 0d 5f 91 e2 57 87 bf d5 36 59 86 a7 24 bb bf
       -0.011398096143131373 -0.10602805166237357
000150 7b 84 53 04 00 8c ac bf ef 59 38 5e 5f 79 8c bf
       -0.05575561573801565 -0.013903374731893485
000160 ca 11 83 b5 a7 cd bc bf bb 2c ff 95 6f ab ae 3f
       -0.1125130479950435 0.05990170198455177
000170 38 41 20 54 02 ff b2 3f 1c ee d4 30 e5 94 be bf
       0.07420363000733665 -0.11945946161443327
000180 91 93 37 a9 2b 0c b4 bf 4d 8f 57 29 c1 82 a8 bf
       -0.07831070786740059 -0.04787257795012909
000190 70 13 07 75 33 fb be 3f c8 40 b1 6b 08 1d b0 bf
       0.12102052313919187 -0.06294300679406029
0001a0 34 f2 ca a5 6a 7e b1 bf 53 a4 cc 8f a7 7e bf bf
       -0.0683352141158558 -0.12302634487845525
0001b0 a7 15 ee 3e 85 b3 b8 3f 58 d8 52 11 b2 1e b4 3f
       0.0964892653119792 0.07859337733211313
0001c0 51 16 61 83 bc 96 9c bf 83 30 0d 9d 54 7f bf 3f
       -0.02791876365542684 0.12303665956750547
0001d0 4d ba a9 2c 3d a0 b6 bf 14 67 91 78 9f 30 a6 bf
       -0.0883825525322461 -0.04333971354271973
0001e0 f9 49 eb 29 a2 d8 b9 bf f1 b7 46 00 db 30 93 bf
       -0.10096181415000406 -0.018741056339130983
0001f0 0e 0b 8c bd c2 f9 b6 bf c9 34 b2 81 17 53 af bf
       -0.08974854591000911 -0.061180815298123976
000200 3f b8 c7 c8 b4 29 b6 bf 37 87 31 b9 00 0d bd 3f
       -0.08657388593539482 0.1134796573765272
000210 7a 16 37 d6 08 30 ab bf ed 0d e9 fa 7a e4 bd bf
       -0.053100849294009 -0.11676758409253525
000220 d0 e4 63 49 7d 75 b8 bf 7a c6 e2 9c 93 98 ba bf
       -0.09554274598839929 -0.10389063434811333
000230 16 e6 2b 49 d4 a1 ba bf 2f ae 4d a0 08 ba 96 3f
       -0.10403181826031757 0.022194037231584026
000240 b5 24 88 5e 86 3d 9a bf c1 5e 01 4b cc 38 b7 3f
       -0.02562532379127865 0.09071041899857858
000250 a1 d2 dd fb 1b 4c 93 bf dc ee ff 2e b1 55 b4 bf
       -0.01884502148409928 -0.0794325580354171
000260 2d 1c 79 38 99 80 a9 3f f3 6a 45 53 7e af 90 3f
       0.04980925382965782 0.01629445441481443
000270 bf 37 f0 6f f8 34 be 3f 10 c7 bf 00 5d f8 b7 3f
       0.11799576504583252 0.09363347309388481
000280 42 40 30 cb 21 82 78 bf f5 15 8f aa 1d 23 a7 bf
       -0.005983478552494205 -0.04518978793161558
000290 dc 60 34 4c a2 90 bf bf fe 42 b6 aa 97 f4 99 bf
       -0.12330068932022037 -0.025347108644896636
0002a0 b9 0b 4b ab c0 a2 81 3f 05 2f 93 55 14 28 60 3f
       0.008611207225276961 0.0019722363618707183
0002b0 38 e0 1e 1a 34 6d a9 bf 58 71 1c 34 21 f9 be bf
       -0.04966128176550949 -0.12098891756290209
0002c0 ca 87 cd 9b c5 14 90 bf 03 de 49 3b a7 bb a7 bf
       -0.015704238542987338 -0.04635355566727741
0002d0 3f fd af e9 53 3d 77 3f c2 60 55 6a 46 78 be 3f
       0.005673721107995632 0.11902275177033331
0002e0 76 90 8f d3 4b 83 89 bf 02 91 18 d6 be 29 b3 3f
       -0.012457458871672804 0.07485573508217061
0002f0 5b d0 df 2a a6 82 a5 bf 2b 8f 32 61 9d d3 b7 3f
       -0.04201239846580115 0.09307273505197304
000300 53 74 8f 44 0d 71 b7 3f 7a 3a 38 4d e2 77 ba bf
       0.09156878398739936 -0.10339178452725575
000310 ee 14 05 66 17 ee a3 bf 0d 86 4e 73 c3 a7 b1 3f
       -0.03892586822852616 0.06896611752610955
000320 4d ac d4 1b 8c b9 b4 bf 50 39 89 79 d1 b4 b0 3f
       -0.08095622710668345 0.06525906769932033
000330 2b 66 c3 90 75 5c b0 3f b1 44 21 79 fe e3 b2 bf
       0.06391081604251585 -0.0737914128997257
000340 b8 07 85 cf bd 0f 79 3f 05 8b 29 1a 28 da b2 bf
       0.006118527839420844 -0.07364130629279593
000350 b0 cd 40 ec f1 4b ad bf f6 ab e7 3f 69 80 8d 3f
       -0.05722003945302434 0.014405081045842021
000360 e2 8d 2a 34 e2 df bc 3f 72 0f 55 34 e8 50 ac bf
       0.11279119275655305 -0.05530477179357164
000370 5a 36 6f ca 96 eb b8 bf ee 00 cf 5f c0 9c b6 3f
       -0.09734480325934083 0.08832933749272673
000380 95 1a 5d e6 ab 3e be bf 36 34 b4 7c f4 6d b0 bf
       -0.11814379095185708 -0.06417778057603205
000390 67 71 2a 66 0b d0 a8 bf d9 06 bf 16 45 87 a8 bf
       -0.04846225378170992 -0.04790702726996949
0003a0 16 45 bd d4 d1 3e bf bf da f2 d9 62 1e 7f b9 3f
       -0.12205230182486945 0.09959592736590697
0003b0 56 45 4b 57 65 fa 81 3f c3 89 d6 01 09 7e 91 3f
       0.008778373457433968 0.01708234857290748
0003c0 15 8c dd b5 dc 03 9a bf 84 b1 9e 2b 76 3c 8c bf
       -0.025405357933220147 -0.01378719635598525
0003d0 0f 4f 8d 80 96 e9 a9 bf 9c da 7a b6 b4 57 a7 3f
       -0.05061025923956041 0.04559101798570461
0003e0 50 76 7a 50 5a 40 b3 bf e0 81 1c da b5 f5 83 bf
       -0.07520069565585996 -0.009745999068003053
0003f0 01 72 73 95 fe 4e bc 3f b0 cd 90 c0 c6 fb a7 bf
       0.11058035992341077 -0.0468427763047673
000400 d4 8d 5f 75 7e f9 b2 bf f8 9f 71 11 97 bc b9 3f
       -0.07411947598989538 0.10053390670657325
000410 d9 e0 4d 90 9d 56 a4 3f 24 ee ac 6f c9 b7 b6 3f
       0.03972332369352367 0.08874186493351793
000420 da e2 3e d6 13 64 b5 3f 3b 3e e5 c0 fc e8 bd 3f
       0.08355831127745308 0.11683635434496235
000430 1e 0c 94 dc e0 a4 9d bf ab 49 22 5c 55 be a7 bf
       -0.02894927355101739 -0.04637400388414233
000440 db 1a 21 18 4c dc b1 bf 99 8d f8 3c 11 20 a8 3f
       -0.06976771916479711 0.04711965436242877
000450 59 c7 30 51 ff 97 97 bf 00 1b 91 7d f5 04 b6 bf
       -0.023040761309125333 -0.08601316753002308
000460 21 e8 6e e8 8f 27 a0 bf f7 88 94 d3 ec dc af 3f
       -0.03155183517760941 0.06223239977613731
000470 35 de 22 52 4c e5 a5 3f 97 d5 d7 6a a0 2a 9b bf
       0.042765030886070234 -0.02652979519003437
000480 a6 9f a3 e5 78 0d b3 3f 0e 0c 0d b5 02 2b b6 bf
       0.07442432028221777 -0.08659378929318981
000490 72 b3 6f a8 0a a3 b0 3f 45 81 2e 68 f3 69 ac 3f
       0.06498781788077482 0.05549584051846294
0004a0 75 16 98 c0 20 a6 9f bf 4f 5f 61 46 8d 10 bc bf
       -0.030907165293703593 -0.10962756126661798
0004b0 c8 0a 32 01 11 dc aa bf 77 0c 8e e3 aa a2 97 3f
       -0.05246022357552743 0.023081464899871364
0004c0 fb 72 bf 3c c2 cf 95 3f 72 dc 14 10 78 1f b6 bf
       0.02130034919524613 -0.08641767876257392
0004d0 89 6a 6a 15 cf 32 aa bf df e2 15 4a 2b af bb bf
       -0.051168891300410975 -0.10814161833503587
0004e0 39 cd 42 28 02 1d 70 3f 1b 9d 48 59 27 16 b7 3f
       0.0039339145916302215 0.0901817887284903
0004f0 cb 77 33 8f 27 84 87 bf 29 c0 c7 2d cd 00 b3 bf
       -0.011482533509873513 -0.07423097961123006
000500 6f 6d e9 18 f4 91 a0 bf 24 98 1d 8c 12 27 b8 bf
       -0.0323635368738121 -0.09434619828024943
000510 a0 0c 2b f1 fe 2c ab bf 59 aa f4 5d f4 34 ae 3f
       -0.0530776662249306 0.05899776122017348
000520 8c ed 9a 6a af c3 bf bf c6 05 22 46 fd a0 b7 3f
       -0.12407966950097754 0.09230025255421656
000530 ad 9f 3b 16 3f ad bd 3f 03 30 cb 73 47 bc aa bf
       0.11592478077693498 -0.052217705616925535
000540 fb 01 d1 cc b0 fe 90 3f 1c 02 cb 97 e6 d7 a2 bf
       0.01659656763172455 -0.036803442029398975
000550 70 71 6b 68 af 31 be 3f 9a 40 78 69 23 1d a5 bf
       0.11794563578900408 -0.04123793280098305
000560 40 3d 8e 3d 06 10 b0 bf e0 2a b7 02 ff 87 9e bf
       -0.06274451258490377 -0.02981565908502659
000570 ba 01 6a 5a 7a 6b a0 bf 5f 11 69 97 02 4f bc 3f
       -0.0320699916237603 0.1105805987982129
000580 0e 4f 1e c0 b8 57 b1 3f f7 cd 1d 34 bf 4d 63 3f
       0.06774477663412545 0.002356408543102036
000590 80 a4 0c f7 43 9b bf 3f 49 46 0d f9 0e 5f b1 3f
       0.12346291333655479 0.06785672741286776
0005a0 f6 d8 e9 b4 2e 42 b9 3f 1a cb f1 9c 73 8d af bf
       0.09866611401398359 -0.06162606516672593
0005b0 11 be 77 8f 17 ed 98 bf 07 2e b8 80 5e 36 b5 bf
       -0.024341934329582374 -0.08286085741581682
0005c0 bf 03 ee 81 40 86 be 3f 5f 4b 23 fb 49 97 bf 3f
       0.1192360226832667 0.12340223676009775
0005d0 c3 ea fa c7 51 1a a3 3f f6 54 cd c2 d2 e0 a1 bf
       0.037310176526678805 -0.03491839054064798
0005e0 1b a3 79 d1 b7 8d a4 bf f3 6d 51 5b 0c 2e af bf
       -0.04014372284001962 -0.06089819540713028
0005f0 04 92 69 38 da ae b5 3f 0a d0 a7 7d ff f4 ac bf
       0.08469928624396778 -0.05655668648606145
000600 6f ec 5a d2 61 9f a3 3f 75 0b 8e 65 9e 57 b5 bf
       0.03832536404430519 -0.08336820582739597
000610 43 eb b8 7c 85 f3 7e bf ae 54 c1 6a 13 c7 b0 3f
       -0.00755645888744533 0.06553765636756978
000620 a3 99 3f e4 37 98 ac bf b4 76 c8 79 5a e6 a0 3f
       -0.055848833668096697 0.03300745712861666
000630 90 3a 72 c4 a0 97 b1 bf 19 33 7b d5 ad d5 7b bf
       -0.06871990963029817 -0.006795577086177195
000640 20 13 2b a2 2b 40 a8 3f 7e 72 14 a5 97 05 9b 3f
       0.047364581628732916 0.02638852067058161
000650 49 bc 17 6b 5e 62 96 bf 58 92 c4 ca cf 5c ba 3f
       -0.021859622274800015 0.1029786939657894
000660 3b 81 31 84 70 c1 a2 bf 77 55 2e 13 5b 2c 44 bf
       -0.03663207639397333 -0.0006156391813073998
000670 72 1f 37 42 6c 5a bd 3f 7d d1 a4 62 b5 9c bc bf
       0.11466099373421715 -0.1117661825017588
000680 ac b9 a5 24 c4 70 b8 3f 7e 50 52 69 fc a1 ad 3f
       0.09547067541800541 0.05787647996581401
000690 e8 30 de dc b6 06 af bf 56 ef 23 77 53 ba b1 bf
       -0.06059810110227365 -0.06924935969067056
0006a0 28 f9 d1 60 ec b3 a6 3f d9 b2 bc da 4f 75 b8 bf
       0.04434145624053293 -0.09554003801595047
0006b0 2b 43 58 7e 6e 63 bd bf 78 b1 d9 af 5a e6 a8 bf
       -0.11479845604504806 -0.048632463422879135
0006c0 ff 14 f7 d0 34 5f ab bf 3e dc 50 6c 4d 57 92 3f
       -0.05346074152797974 0.01791115735633419
0006d0 dc 81 bb c6 3a da ad 3f 16 48 17 48 0e 94 b8 3f
       0.05830558467801314 0.09600915203125768
0006e0 b6 04 d2 f9 e0 33 b2 3f a3 6a 64 5d 5a b1 be bf
       0.07110410784845808 -0.11989369182667046
0006f0 c0 ab c3 f7 ea 35 ba 3f e6 fc 08 15 5a 05 94 3f
       0.10238522099432057 0.01955166581524006
000700 e4 16 3d 9f 2c 26 b1 bf 6b 2d d9 46 5e b6 ac 3f
       -0.06698874366437796 0.056078859470825325
000710 1e da 00 98 c1 b0 b9 3f 98 fb 54 1c 48 46 bb bf
       0.1003533359624744 -0.10654116336534825
000720 77 17 15 4e 9d a2 a2 bf c9 92 fa 46 61 b8 bd 3f
       -0.03639689996866385 0.11609466536408343
000730 8e 29 55 ef ff 5d 97 bf b1 55 e7 f7 28 4f 99 bf
       -0.022819518072802185 -0.024716034060323803
000740 59 dd b4 05 fd b7 b3 bf 8e b0 02 9f 21 05 8e 3f
       -0.07702618970221432 0.014658224740138583
000750 6d d7 11 64 8a c1 b8 3f 5d 9c a3 77 ca f2 49 bf
       0.09670319502933263 -0.0007918823823985889
000760 78 86 d2 bd cf a5 b6 bf e7 e1 13 55 a5 5d b1 bf
       -0.08846758255324427 -0.06783517195788812
000770 74 bb d8 40 04 ed ad bf 3d 47 2e 10 9d aa aa bf
       -0.05844891826233481 -0.05208292791861744
000780 1f c7 bf ce a2 02 a4 3f 53 cc d8 70 fc 0e b0 3f
       0.03908261083405606 0.06272866969156725
000790 22 5d 22 51 d4 23 99 bf c8 25 80 d7 8c a5 b5 3f
       -0.024550740673103928 0.08455734502071899
0007a0 0c 94 e8 8b 68 42 ac 3f d6 67 d1 9c 63 4f a2 3f
       0.055194155768084924 0.03576194085390198
0007b0 f1 05 75 f5 7f d9 ad 3f 73 51 8b 12 6c cd a0 3f
       0.05830001708319433 0.03281724668855448
0007c0 64 45 15 9b 68 26 a3 bf fe 6e c2 88 de ae ba 3f
       -0.03740240948776366 0.10423079336981897
0007d0 2a e9 e6 fc df 82 b7 3f 01 f4 87 9c ab 96 ae bf
       0.09184074329724426 -0.05974327359943033
0007e0 a6 ab 96 2c 90 ee 90 3f d9 88 23 e5 f1 c0 b4 bf
       0.01653504631182625 -0.08106910556992676
0007f0 37 77 4c 87 7a 6b b8 bf f7 0d ac ee 4a 82 ad 3f
       -0.09538999369803212 0.057634679446007135

equations.x.layers.4.bias f8 [64]
000000 da 86 09 e3 b0 98 ab bf ee 12 81 09 77 9c a0 3f
       -0.05389931460810056 0.032443733129673066
000010 73 f5 2f d3 19 77 58 3f 19 40 9d 0e 45 e5 61 bf
       0.001493239612272515 -0.002184519650576544
000020 3a 79 fe dd 87 73 73 bf 34 f7 fa bd 00 d1 b1 bf
       -0.004748850566015423 -0.06959538114730607
000030 7f c7 e7 26 1b 8d b3 bf 6b 95 53 6c 00 ce ba bf
       -0.07637185764158792 -0.10470583576860341
000040 88 7e df 46 92 ac b2 bf f6 b2 0b 53 0d 69 ae 3f
       -0.07294573049829911 0.05939523352376412
000050 aa 7a f3 4e 6c cd ae bf c4 49 ce 3c 2e b5 86 3f
       -0.060161003720840725 0.011087762098928595
000060 4a 5b 5f 8e 7f fd b1 bf 7e a2 71 71 71 69 a0 bf
       -0.0702743265713767 -0.03205446729481752
000070 95 b9 cd d8 f6 15 b9 3f 5b 1b a1 b2 4d 83 b3 3f
       0.09799139779145201 0.07622228251521561
000080 f6 60 36 27 17 d9 a1 bf 0c 9b fe 6f e1 60 7e bf
       -0.03485939363162231 -0.0074166113044274
000090 2d 95 f4 23 13 c6 bc 3f a5 4e ff d7 04 0a b8 3f
       0.11239738109414495 0.09390287659999304
0000a0 a2 65 57 80 b9 58 b4 bf 80 53 67 f0 59 de ba 3f
       -0.07947883017859295 0.10495531195858909
0000b0 03 81 9c 3b 22 91 9a 3f 3f 97 45 94 b6 84 a0 bf
       0.02594426621283309 -0.032262521361913425
0000c0 b6 d9 eb 2d 14 a4 be 3f 65 b9 8c 85 47 0b 75 bf
       0.11969114419102919 -0.005137709981495629
0000d0 2d 13 58 46 b7 fa b6 3f 8c 1e 9d 65 cf c2 b1 bf
       0.08976312129386761 -0.06937881689838771
0000e0 21 61 7d 42 5e cd a7 bf 0e b2 ce ad 0f 3e a9 3f
       -0.04648871003763789 0.049301614729618234
0000f0 11 46 41 90 61 94 ab 3f 93 11 25 8e 89 c6 92 3f
       0.05386643300938599 0.018335484791593592
000100 ff 35 57 7f 2e b2 bc 3f c3 ab e6 c8 df 45 ab bf
       0.11209383591559428 -0.05326747252851007
000110 da 28 20 a9 49 81 58 bf 0a c2 9f 7a 85 0c b0 bf
       -0.001495668348527482 -0.06269106143714268
000120 0b ce fd 2d de 77 81 3f 19 09 8b 17 5d 09 9a 3f
       0.008529411104723847 0.025426344453770875
000130 58 67 3b 0a 2b ca b2 bf 7b 31 53 a9 58 10 bb 3f
       -0.07339734077268412 0.10571817525778286
000140 e8 f0 6b 70 f2 45 a2 3f f5 d4 44 9e 78 26 be 3f
       0.03568990347227602 0.11777452339159196
000150 b6 a8 0f f8 9a 45 b2 3f ae f1 b9 d0 63 d1 ba bf
       0.07137459331684934 -0.10475753637178428
000160 3d 61 85 a7 87 a8 a2 bf 65 e6 6d 51 e2 9d a8 3f
       -0.03644203109678521 0.04807955974588366
000170 a3 67 6d ba ea 0a bb bf 5a 54 de d4 53 d4 88 bf
       -0.10563532878350528 -0.012123732503633789
000180 48 c4 c4 af 94 0f 9f 3f e9 09 81 5e 10 4d b1 bf
       0.030332873561921297 -0.06758215243556943
000190 98 6c eb 84 d1 68 a3 3f 6a 07 fa ef c1 4e b9 3f
       0.03790907619051004 0.0988579951172405
0001a0 3f 1f 35 5a 67 b8 a0 3f b3 39 06 38 16 d5 bd bf
       0.03265688873449201 -0.11653269641667556
0001b0 82 bd 12 2b eb cb ba bf 93 b2 27 cb 16 2e 89 3f
       -0.10467405129997157 0.01229493911247318
0001c0 ab 9b b0 29 43 8e af 3f c4 ee ae 56 cf 48 a1 3f
       0.061632250632377726 0.0337586205782521
0001d0 c8 59 b6 e0 62 72 6d bf 08 6c 7e 75 b4 fd a5 3f
       -0.0035945826727570053 0.04295123991251876
0001e0 c0 ef f0 e7 7e 19 a2 3f 8b b1 ea 7a 0d 9d b2 3f
       0.03535076695740669 0.07270893336198563
0001f0 9c 53 44 00 2f a2 94 bf 08 b1 a3 15 23 ce b5 3f
       -0.02014993132714303 0.08517665174776223
