Kolmogorov-Non-Consecutive-vPreliminary/2025-06-05_03-44-43/model_best.pt (torch, 8292 bytes, 8 tensors)

equations.x.layers.0.weight f8 [16, 1]
0	0x3fdb5abc2dc66150	0.42741302938658965
1	0x3fd0440443e7ffe0	0.2541514075419382
2	0xbfb76e4a4473880c	-0.09152664347814737
3	0xbfcb3c14fbdea3d1	-0.21277105615925376
4	0xbfeafcf88b74f2f7	-0.8433802341238267
5	0xbfce3baca6683a76	-0.23619611859654172
6	0xbfe9df0691c70067	-0.8084748122419229
7	0xbfd0941f0de938bd	-0.259040607056601
8	0xbfd86dc3c6e7e7bf	-0.381699508899711
9	0xbfb0f222bcdae9bc	-0.0661946974823086
10	0xbfedb1b15495e90a	-0.9279410030424355
11	0xbfdabb01c1c7741c	-0.4176639931081938
12	0xbfd16fe5c6c6cbed	-0.2724546853234518
13	0x3fb4c16a90daf524	0.08107629810816214
14	0x3fb32bbaff3e2194	0.07488602382193782
15	0x3fb5aa82760ff1ba	0.08463302023296296

equations.x.layers.0.bias f8 [16]
0	0x3fe7c9d313def57d	0.7433867824653785
1	0xbfd38607d8eb6e61	-0.3050555818897234
2	0xbfe92c874e81b171	-0.7866856129963208
3	0xbfb5582b53be0504	-0.08337660593499058
4	0xbfd12ccff825d1e0	-0.26836013062646025
5	0xbfe261dee7701d06	-0.5744471092483827
6	0xbfc615114954a46b	-0.1725179298457847
7	0x3fde5a117b2178de	0.47424733185279233
8	0x3f9d4d96616dfbd8	0.028616285034782724
9	0x3f820751463a1963	0.00880301948133128
10	0xbfd405b4d2147494	-0.3128482867776452
11	0x3fddc4e53128029e	0.46514253425997676
12	0xbfeee3599db33754	-0.9652526931838374
13	0xbf8b3e890f1589bb	-0.013302870533782199
14	0xbf93425409f65bbc	-0.018807709796955882
15	0x3fe19fa5170f5236	0.5507379007709179

equations.x.layers.2.weight f8 [16, 16]
0	0xbfc9dfba24ae3c69	-0.20214010993047118
1	0xbfb4480681543af8	-0.07922402055212874
2	0xbfc258261ce61d5b	-0.14331509028509512
3	0xbfc08d5c7dfae2c5	-0.12931400443428323
4	0x3f8dcd212dc74f3a	0.014551409921217496
5	0x3fa94e3c60fe4d3c	0.04942501720429468
6	0xbfc3df359a6b2864	-0.1552493099209783
7	0x3fa39263faa2148b	0.0382262462090149
8	0x3fb12f24c3ff12b6	0.06712560448711255
9	0xbfd8252cf7b231d5	-0.3772690218836748
10	0x3fbcc654719182e3	0.1124012734667406
11	0xbfbe79577c9d5c13	-0.11903902809477555
12	0x3fca9865776ea73c	0.20777576762821492
13	0x3fca5be22081df56	0.2059290560462112
14	0x3fd3fb383e5b4ccd	0.3122082337333268
15	0x3fa2ea43393b7dcc	0.036943531738639374
16	0x3fd00e25493d0150	0.25086338188341006
17	0xbfc3ca08b6f4d9f0	-0.15460308965130265
18	0x3fc062960dc240bc	0.12800861045662326
19	0x3fc8cc7be12175f4	0.19374035351476915
20	0x3faec18b2dd7a35d	0.060070371004093494
21	0xbfd2635ee874a98e	-0.2873151083064379
22	0xbfc83d4a0ffa4fdb	-0.18937040119328583
23	0x3fc7f1d9f1d23b52	0.18706821735073703
24	0x3fb4e21bded71eca	0.08157514753758757
25	0x3fd35b4b3fbec541	0.30244713997952394
26	0x3facf942e542bc58	0.05658921288101543
27	0xbfca7d0a2b0f59c0	-0.20694090940987842
28	0xbfb04bd56cd926c6	-0.06365713031223227
29	0x3fbc9ff367d4e37c	0.11181565556479528
30	0xbfc2564dba9f27e7	-0.1432587777365477
31	0xbfc23c76b32ffa2d	-0.14247020482430753
32	0xbfc6b782b00ef54d	-0.177475295988112
33	0xbfc86e82d632c70d	-0.1908725305452709
34	0x3f90830f58b7a0ed	0.016124954023241257
35	0x3fd3e99c79c93842	0.3111334981266546
36	0xbfc659e7fb3b7395	-0.17461871878813598
37	0x3fc5463b2822a660	0.1662057825063128
38	0x3fc9fd76ca911c54	0.20304760828932678
39	0x3fb7dee6ca805f81	0.09324495738871798
40	0xbfba5bf8db17fd58	-0.10296588276832119
41	0xbfe15dadc36b86f6	-0.5426853958890365
42	0xbfacf2a53ef6bc54	-0.05653873818970881
43	0x3fab7107a705a5f4	0.05359672464221524
44	0xbfc3fddfe5dd7156	-0.15618513797643158
45	0x3fe14be1fb72c415	0.5405130301570603
46	0x3fe80dea41084d81	0.7516986150898647
47	0xbfb5d3afe4feda6d	-0.0852613386221976
48	0xbfcaab6a152cf01b	-0.208356151904696
49	0x3fdae1765cc57d0d	0.42001112994871975
50	0xbfcf512c1947aaad	-0.2446646808087584
51	0xbfbb6654f8530d8e	-0.10703021109207198
52	0x3f914543a8994f0f	0.016865784802873537
53	0xbf9e99ecb46fbf03	-0.029884050858469468
54	0x3fc8cbd5100be5e0	0.19372046741027216
55	0xbfd4caf418072e91	-0.32488729807367017
56	0x3fc9806710da2809	0.19923103640422848
57	0xbfc6292c989fd1f9	-0.17313153698309217
58	0xbfc74f403adee45d	-0.18210604548019918
59	0x3fe1fa00e04ff4fa	0.5617679959392767
60	0x3fbab8bf646e2686	0.10438152505789774
61	0x3fc8305dca316e71	0.18897602436742347
62	0x3fe2ac8eae1142af	0.5835641288523074
63	0x3fcd60fcad20f17d	0.22952230886029304
64	0x3fc9b54d5e25acec	0.2008454045966127
65	0xbfb06bc301ab11dd	-0.0641443137238364
66	0x3fbf010567e8d4bf	0.12110933100560127
67	0xbfb7a702b98b2ee0	-0.09239213018298242
68	0x3f82b0f598aae974	0.009126585694833912
69	0xbfb1e152992f66e5	-0.06984440078613437
70	0xbfaf2a40783bda62	-0.06086923091600195
71	0xbfc3a717404ebcc4	-0.1535367073060795
72	0x3fcdf0935d8198f7	0.2339042860578002
73	0xbfd0d49055ff408d	-0.2629738654914114
74	0x3fb74c8db2054607	0.09101186367231416
75	0xbfb609e0a2118bc3	-0.0860882182765144
76	0xbfca166a30c1b085	-0.20380904560750338
77	0xbfc3cfad64072793	-0.15477530845811013
78	0xbfaf108b20d02abc	-0.06067309165526555
79	0xbfc2236bfc213c5f	-0.14170598803545695
80	0x3fbba810bc4684a8	0.10803322407311333
81	0xbfdd6b1839a2b80f	-0.4596615374420034
82	0xbfd49dcba87a30e7	-0.3221310754095285
83	0x3fd0374e076cb9d4	0.25337553715772043
84	0xbfc135481165d118	-0.13443852281091817
85	0x3fc676a9b2fbf2de	0.17549630393468524
86	0x3fc01433dabada8b	0.1256165330903126
87	0x3fe432b939bc60f2	0.6311918380406765
88	0xbfbc80b8abf3fb0d	-0.11133913229057786
89	0xbff153ac326c882b	-1.082927891701284
90	0x3fb2b010620e73ca	0.07299902337986378
91	0xbfcf2e2a00b28276	-0.24359631570861823
92	0x3fca5d187495fee5	0.2059660500781241
93	0x3fec506202d4646f	0.8848123603121517
94	0x3fea29bfcfd8b776	0.8175963458540838
95	0xbfbfd8da5c0acdc8	-0.12440266368030628
96	0xbfb8edf4cf4a3845	-0.09738092480458345
97	0xbfc861b2f0dd3460	-0.1904815364927428
98	0xbfcdced876a3dc96	-0.2328749255463875
99	0xbfa28b7d840e157a	-0.036220476503369306
100	0xbfbc86d5a69f3a7e	-0.11143241231841647
101	0xbfa26ae83ea42dc3	-0.03597188725151625
102	0xbfbd52b9d800a347	-0.11454354785440755
103	0x3fc6a0907f0918a9	0.17677503779322493
104	0x3fc114aa51310719	0.13344315494946882
105	0xbfcda4b1e9ba3421	-0.23158859169453286
106	0x3fcaf4d7e39c4cab	0.21059702504917274
107	0xbfd28f38376ea84e	-0.2899914304094907
108	0x3fccb89101be65fd	0.2243825205339788
109	0x3fcb7bfc612b1e2f	0.21472124809791768
110	0x3fd1555d7b93e879	0.27083527629986964
111	0x3fb4631f22127c59	0.0796374757942301
112	0xbfb7eb166235f04e	-0.09343089959833259
113	0xbfb6562b7fbd84b9	-0.08725234860095811
114	0x3fc13adeee3c57a9	0.13460909493067888
115	0xbfbe53045d1b8db6	-0.11845423958907628
116	0x3fb9a8aae4760bb3	0.10022991254486051
117	0x3fba8071a2af16ed	0.10352239820266691
118	0x3fa53599fc887b59	0.04142457206420742
119	0x3f9265046f69b7b7	0.01796347551356067
120	0xbf9fbc4f2235c731	-0.030991779768960007
121	0xbfd3f7adfa649afb	-0.3119921632045785
122	0x3f8604304b29a35f	0.010750176709920898
123	0xbfbf3c81fc095bea	-0.12201702502476022
124	0xbfa3f2d6bd0e8935	-0.038962088182659484
125	0x3fcea71b6061822b	0.23947469907854332
126	0x3fc6a1e203f4375d	0.17681527321877413
127	0x3fbedd8e6cb250ee	0.1205681815502577
128	0x3fa1f3d09c175dcc	0.0350632849255664
129	0x3fce794a40ddbaaf	0.23807647864619727
130	0xbfcc4809e68ce8b6	-0.22094844586701406
131	0x3fb5f1b6985600fc	0.0857195016778895
132	0x3fcdca98bc98ac1e	0.2327452584152931
133	0xbfc96b0bdf014d5d	-0.19857929600639582
134	0xbf949425e463c864	-0.020096389832311337
135	0xbf96d40b7056e4ea	-0.022293261272101107
136	0xbfb21ebede9dbba8	-0.07078164038624257
137	0xbfc945e0905ad639	-0.19744498299194094
138	0xbf9545cb11717fc1	-0.020774052562387405
139	0x3fccac82b9e69d20	0.22401460721196376
140	0x3fba02b4c7f9a7a8	0.10160379297454247
141	0x3fc50bca37f0d087	0.1644222996852742
142	0x3fbf39e60e046556	0.12197721330848785
143	0x3fb413fe5411f34d	0.0784300761460603
144	0xbfc26e9a63ad77db	-0.14400033824034505
145	0x3fb21d084bba49bf	0.07075549935169699
146	0x3fc814dd23e70b35	0.18813671353390196
147	0xbfc6b97c71281a81	-0.17753558659770266
148	0x3fc79c654ba880b7	0.18446031755684597
149	0x3fcd9f4197eaa814	0.23142261426738797
150	0xbfc638d324792460	-0.17360915451925774
151	0xbfbddc351850abb6	-0.11664134830122816
152	0xbf96d4b7c2cf3a11	-0.022295829072215115
153	0xbfbd87f7ce727faf	-0.11535595693794563
154	0xbfcddece46a32deb	-0.2333619923505091
155	0x3fc4665a4284e562	0.159373552780191
156	0x3fb6bf5c7be5e2a9	0.08885744118550555
157	0xbfcfe09d9970a917	-0.2490422248095647
158	0xbfbdb36aff8bebb1	-0.11601895083360493
159	0x3fb53c116fb5e021	0.08294781663232743
160	0x3f60473db5278f6a	0.001987095377659222
161	0xbfc4892d444e5fe8	-0.16043630442868495
162	0xbfd12975ce7b3b18	-0.2681555286807664
163	0xbfb3136c7ac45734	-0.07451513287773254
164	0x3fc720b08d6c4241	0.18068510919012407
165	0x3fcb88b4af7203e9	0.215109429995237
166	0x3fc900ccd4351d14	0.19533691751187432
167	0xbfb92a0d97fc07d7	-0.09829792938765479
168	0xbfb49ed513cd575d	-0.08054858907175118
169	0xbfdad6419cbc2437	-0.4193271666159179
170	0xbfc0f4e516982990	-0.13247359851113716
171	0xbfaa3978da032966	-0.05121972714694571
172	0x3fb0f797df07cda6	0.06627797312812919
173	0x3fd332ea93cfb01a	0.2999826854199924
174	0x3fd74d5d7119e056	0.36409698529269485
175	0xbf8807b8a3f2994a	-0.011733477118764175
176	0xbf7afd732791baae	-0.006589364836243545
177	0xbfef2ce829da983e	-0.97423179792964
178	0xbfd04c545e065e9b	-0.25465878660313884
179	0x3fe1f8553690f43c	0.5615640702959648
180	0xbf9b622a65c783bb	-0.026741659605139505
181	0x3fb99c2c02cda756	0.10003924435082232
182	0xbfc40bfdb0db5a27	-0.15661593566501716
183	0x3fe434cbc2d0b20a	0.6314448170647335
184	0x3fb79e7eb41c1e48	0.09226219079220599
185	0xbff9a151164ea0f5	-1.6018839713452142
186	0xbf9880a8a96de3ac	-0.023928294507161205
187	0xbfc80d2ed632d28c	-0.18790231188690532
188	0x3fdba3c57ab4fc20	0.4318708132086062
189	0x400000198741b684	2.0000486914566995
190	0x3ff672af253cb01a	1.4029990629742373
191	0x3fd34109f5e8e8b0	0.30084465994481047
192	0xbf65b33a10ad58b5	-0.002648938568579141
193	0xbfccf1443485508b	-0.22611286701669928
194	0xbfc2523c09796826	-0.14313459837541237
195	0x3fd6d17855fdf228	0.3565350379720109
196	0x3fc120f378bd8cc4	0.13381808658150451
197	0x3fbd10d08d40bada	0.11353782127910553
198	0xbfbba09b29834ae6	-0.10791940463540647
199	0x3fc20a5d7bc042dd	0.14094131987123762
200	0xbfae801c6f6eaa08	-0.05957115993745182
201	0xbfdffc78935586de	-0.49978460682005543
202	0xbfaff331b2c31d10	-0.06240229899554539
203	0xbfa0c6e176c3df7f	-0.03276733946580545
204	0x3fb2777557569862	0.07213528997690014
205	0x3fec3cb2a1e5c2c7	0.8824093973217594
206	0x3fd01255d0ef7db3	0.2511190929780824
207	0x3fc33ea9e8aa1880	0.15034984455650502
208	0xbfb231045d596aa5	-0.07106044081721537
209	0x3fdcd9f75cf73d5c	0.4508036048764177
210	0x3fc6339533132d8e	0.1734491824521282
211	0xbfb0e44cd5806f73	-0.0659835835689913
212	0xbfc4e9aa2cb75f23	-0.16338088210499632
213	0x3fd35893e923413f	0.3022813584075443
214	0x3f7a0770ed0fc871	0.006354752652429339
215	0xbfa639e20a51edf3	-0.043410362014551306
216	0xbfbd5114e8608788	-0.11451845811146033
217	0x3fd3342d74cbe3cd	0.30005966573622517
218	0x3f9c607b17f038f7	0.02771179517372332
219	0x3fcb6c1e3ba70347	0.214237002493997
220	0xbfdba3e25cdd70f2	-0.4318776995549022
221	0xbfe71264a66499a7	-0.7209952592718779
222	0x3f90fff64323150e	0.01660141739627812
223	0xbfc44deb88408ee8	-0.15862793114603524
224	0x3fa748d2c0f6641c	0.045477472357738885
225	0x3f9cce8f6f2c3823	0.028131714973874133
226	0xbfc1540a9fdcee61	-0.13537724309741164
227	0x3fcb47b66c7bccf9	0.2131259946541844
228	0xbfc08c7ea2191fce	-0.12928755679081266
229	0x3fcf0cb0bdd764f2	0.24257478017424422
230	0x3f990fcf111685ad	0.024474368494002686
231	0xbf9532ab8deb1566	-0.020701103722577406
232	0xbfb579bab83b5673	-0.08388869283529647
233	0xbfb356ece2de3627	-0.07554512537736767
234	0x3fab6f5716f0bfc8	0.053583833265633596
235	0x3fa9aeafd3cd3c36	0.050160879711818415
236	0xbfb33d3d6de78a3f	-0.07515319760526838
237	0x3fa0dff777573bab	0.03295873004719082
238	0xbfbc0c832edf3206	-0.10956592459042022
239	0x3fba25b2c913149b	0.1021377316383955
240	0xbfa9e1557dd27ac0	-0.050547286614564424
241	0xbfc4dacf9859119f	-0.16292757929671794
242	0x3f9a04f6c037e506	0.025409560663296048
243	0xbfcc7b377fc84da5	-0.22251027812363336
244	0xbf990963766453a8	-0.024449876881664473
245	0x3f8b739087dfb94c	0.01340401568083096
246	0x3fce52a6f95a3475	0.23689734626205775
247	0xbfb43d961cdb07bb	-0.07906473354799363
248	0x3fd9f90c74ac95e9	0.4058257235904806
249	0xbfdadc2a7850ce67	-0.4196878600080027
250	0xbfc0860ed69da512	-0.12909112433707343
251	0xbfc2dd9ba561711b	-0.1473879392168634
252	0xbfd0a16ae5d1893d	-0.2598521465607922
253	0x3fc312d86725ddce	0.1490126136447842
254	0x3fd2cf62784f2965	0.2939077544111995
255	0xbfa241afe738747a	-0.035657402968561194

equations.x.layers.2.bias f8 [16]
0	0x3fcbad4125681458	0.21622480703823288
1	0xbfbe633f612d737c	-0.11870189783571833
2	0x3fb05fb553c276b5	0.06396039290344897
3	0x3fa76bbc9f12445c	0.04574384156979569
4	0xbfca111246fb3db3	-0.20364597764863177
5	0xbfc1bf524e9fb876	-0.13865116919572856
6	0x3fc2cccbf423ae81	0.14687489910953747
7	0x3fcd25aee396b065	0.22771249878622082
8	0xbfc3eef7f1cbd039	-0.15573024088337364
9	0x3fb0e400d449575a	0.0659790533330499
10	0xbfa0664270130332	-0.03203017824262701
11	0xbfc88a8830c95142	-0.19172766096256494
12	0xbfa34e2b317262cd	-0.037705755029667644
13	0x3fb9933e354cb725	0.09990299988995995
14	0x3fc3767ce9fb637b	0.15205346512700743
15	0xbfc6d5fca0b30896	-0.17840535971305788

equations.x.layers.4.weight f8 [16, 16]
0	0x3fa674335287fcd1	0.04385528929196315
1	0xbfbf313d1a8e5130	-0.12184507273042722
2	0xbfca668c10f882f0	-0.20625449017190745
3	0x3fd8012f8a4c3e34	0.3750723696293534
4	0x3fcc2a6b3355314d	0.220044517578922
5	0xbfc319ab948e6a0f	-0.1492208934185588
6	0x3f99e6a0a397b465	0.025293836579227142
7	0x3fbd66e5d94759c0	0.11485134653717122
8	0xbfbf736c6969cf69	-0.12285497258727464
9	0x3fc254f888439c7f	0.14321810391922793
10	0xbfa8f196e435de4b	-0.04871818099757926
11	0xbfb123faa97f74bf	-0.06695524824268072
12	0x3fc8d94a1dfd21f9	0.1941311499051748
13	0xbfc665520d393fdc	-0.17496705671010104
14	0x3fd622b7c8166cbf	0.3458690122585714
15	0xbfd19dc319561775	-0.2752540347504387
16	0x3fc34f5a466fc808	0.1508591503075538
17	0x3f89d9d373bcfe8b	0.012622501344252931
18	0xbf5725c289ec940a	-0.0014128112595213093
19	0x3fbf4a9802067be6	0.12223196076818929
20	0x3fb8eb3f33ceb2b3	0.09733958258466195
21	0xbf9b765b3841ccd4	-0.026818681057602614
22	0xbfa96250b8e889c7	-0.04957821137601886
23	0xbfc0d81819a9bab3	-0.1315946698482172
24	0xbfbcf38d28be7f2c	-0.11309129948358237
25	0xbfb2c089934ed6de	-0.0732503876341428
26	0x3fcbb3d1b019df50	0.21642514322933915
27	0x3fc3fa3a9891de52	0.15607387971589276
28	0xbfd012b9e47fceb1	-0.25114295305614137
29	0x3fd2fa6d47cd7205	0.29653484355893084
30	0x3fc3ed74a360759d	0.1556840703714614
31	0xbfc2ca6b743a7b8d	-0.14680236029832053
32	0x3fc71ef6c07ee949	0.1806324424667969
33	0x3fcc5387698f0744	0.22129910139306663
34	0x3fc53d004bdbf7a5	0.16592410759033985
35	0xbfb920ae9a3b5d57	-0.09815493836810184
36	0x3fc63ba012005495	0.1736946189782073
37	0xbfc5261e32b81afe	-0.16522576786538673
38	0xbfc488a79c3c35df	-0.16042037132903794
39	0xbfc6208a42f29db0	-0.17286804455691884
40	0xbfa50a61dc799faf	-0.04109483543726299
41	0x3fd415ea1821d4d2	0.3138375507035792
42	0xbfaadd8c34b5c812	-0.05247152465280193
43	0xbfcbed26ce9801b9	-0.21817479217135174
44	0x3fc0fa83c8fceb4f	0.1326451045404959
45	0x3fd26901b95f64f9	0.2876591024665483
46	0xbfbe446374cfdcd8	-0.11823102571348743
47	0x3fcb6fb728a1db48	0.21434678539272967
48	0x3fb29e2327519ea6	0.07272548398906994
49	0xbf81d17a6c1f4f3e	-0.008700329231863809
50	0x3fc0e222503761af	0.1319010631257362
51	0xbfbbd8e17bbe52a5	-0.10877808829384124
52	0xbfc3397efc28368b	-0.15019213974339993
53	0xbfa245bbf41ff7dd	-0.035688279676818736
54	0xbfba50cb9e98c9ab	-0.10279533979409076
55	0xbf802edad80fb940	-0.007901868551894453
56	0x3fd112f2c3d7304c	0.2667815124993964
57	0x3fc891bb4da6688a	0.19194737712388515
58	0xbf959a07e39fe9a3	-0.02109539343653356
59	0x3fbd704923352ed4	0.11499459371151072
60	0xbf59901a3fd000eb	-0.0015602356281761386
61	0x3face7eadd69b470	0.05645688965601259
62	0xbfb73e62786458b0	-0.09079566420800478
63	0x3fbac75c4fd0352e	0.10460450123374151
64	0x3fd04b0ac8a795cd	0.2545802077787272
65	0x3fc67af28acf91ef	0.17562705781814666
66	0xbf9d8697713da917	-0.02883373860041968
67	0xbfb17a5e69e27de3	-0.06827344975544451
68	0xbfb91093b535355f	-0.09790919469852132
69	0xbfb2cebaee48b361	-0.07346695249061731
70	0xbfd02aa6a4a67593	-0.2526032073891084
71	0x3fc66e19867dade9	0.17523497645321065
72	0xbfab38349fd6c310	-0.053163189422212764
73	0x3f76785b1f53273e	0.005485874125221999
74	0x3fb2056b7c929a35	0.07039520064663736
75	0x3fcc28702a371c3a	0.21998407422344873
76	0xbfab63c0f3752aae	-0.053495435446696646
77	0x3fc03c9394a93eea	0.12684864767879073
78	0xbfc1285fd5fe42d8	-0.13404462765585978
79	0x3fd02815dab7fab6	0.25244661673779534
80	0x3fbc6025d4a4f85b	0.11084209863199261
81	0xbfc3b58d4476ca03	-0.15397802203149533
82	0x3fc9281c1a125ed9	0.19653655312571663
83	0xbfabbeb1effcf415	-0.05418926291029195
84	0x3fadd4dcaffb0c11	0.05826463363839463
85	0x3f9d29fd70288c14	0.028480491610150052
86	0xbfc9e5a0dfff8961	-0.20232020318423863
87	0xbfca9e640d5953b9	-0.20795870448878676
88	0x3fc34aa0cb66349f	0.15071496898273026
89	0xbfc3916219c74437	-0.15287424334249675
90	0x3fc98ba99be51f97	0.19957466232358165
91	0x3fb7ebd5ea54e5f9	0.09344231577860986
92	0xbfcc4715f26ca068	-0.2209193643295777
93	0x3f84a88893b85c7c	0.010087077148496208
94	0x3fc103bd7637f1e8	0.13292663833989526
95	0xbfc748a973f62640	-0.1819049659937253
96	0xbfaadbb99eb36786	-0.05245761930718999
97	0x3fc739e61d3872e2	0.1814544336965787
98	0x3fcd6ccaaa32a56e	0.22988255796853302
99	0x3fd5897b7d2b81eb	0.33651625846508065
100	0xbfb81c6eee427034	-0.09418385807879376
101	0x3fc61feb8ad951ec	0.17284912376147987
102	0x3fb52ef0ec68afe6	0.08274751445486536
103	0xbfc6df00a3429e38	-0.17868049594584234
104	0x3f8ae0d9bde52dae	0.01312418089641806
105	0x3fbea8066db71bff	0.1197513597354458
106	0xbfd23b45d9d9e896	-0.28486772799045335
107	0x3fb4f169e668e9d9	0.0818086802982302
108	0x3fd86160c5e0ca37	0.38094348262817185
109	0xbfb945273af005e6	-0.09871144474893576
110	0x3fb1058b861cf3e2	0.06649086021657483
111	0xbfd566d657aca5b4	-0.33440168916657886
112	0xbfca2b526a32c0d1	-0.20444708047353413
113	0xbfc41ba76f142f75	-0.15709393428584986
114	0xbfc75831f2b3ca54	-0.18237900114725625
115	0xbfc5e5484d9864c0	-0.17105964459259404
116	0x3fbb14a676dbcabd	0.10578384782619828
117	0xbfb14e4000efe396	-0.0676002504623184
118	0xbfb69462a23371b0	-0.08820167980179039
119	0xbfa6d932b38e4b81	-0.04462583963245149
120	0x3fca4915bdb76c58	0.20535537494183376
121	0x3fa8d43cdd9094b2	0.04849424557350214
122	0xbfbc3da163666270	-0.11031540562397324
123	0xbfd00445c7e4ad2c	-0.25026077767207044
124	0xbfb61614dc0b1316	-0.08627443668508436
125	0xbfcb403f7df95936	-0.21289819384646486
126	0x3fc6ae93b15acef7	0.17720266494654144
127	0xbf9e808dfef40ed7	-0.029787272153966562
128	0x3fbefefaaf27f022	0.1210781743647549
129	0x3fc444c7796686fc	0.1583489744926324
130	0xbf95090b4395f47e	-0.02054231262217287
131	0xbfa9f20caeab067a	-0.05067481643847045
132	0xbfb4ab36fa155d0d	-0.08073752980759626
133	0xbf7784a7622b64fc	-0.0057417429367998506
134	0xbfa5f455a386fa64	-0.04287974950010634
135	0xbfa6a0c1aa771f1a	-0.04419522481799572
136	0xbfa61d33ca174fe6	-0.04319154588634415
137	0xbfad47f9ee6e7b60	-0.05718976054708125
138	0xbf757354d04d799b	-0.005236941626974102
139	0xbf7b8dec02f37b64	-0.006727144165067898
140	0x3fb53a8e05d345fa	0.08292472498148831
141	0xbfbad4dcbb98a186	-0.10481051998124799
142	0x3fd07e6ccd3f55bb	0.25771637004558173
143	0x3fb5b5af7f05a53d	0.08480355120777446
144	0x3fd38a0d72986840	0.3053010577292561
145	0xbfd079f02aa50d68	-0.2574425140812395
146	0x3fe3af73e8b2687c	0.6151675743924581
147	0xbf81b65076a2e3e0	-0.008648518200390087
148	0x3fcb5cd199158bd1	0.2137701032143853
149	0x3fe01796ae4df0b3	0.5028794674285763
150	0x3faef6919bce74ff	0.06047492052969438
151	0x3fc6962108d8dc8d	0.1764565747450643
152	0x3fb19b90cada91c8	0.06877999260411294
153	0xbfbe2e53c5988b08	-0.11789439748876529
154	0x3fc48f525b767c96	0.1606238314243213
155	0x3fe8d783c6737ad6	0.7763079524991905
156	0x3fdea12bdc730f86	0.47858711746470595
157	0xbfd906f4f7f570ad	-0.39104961600038274
158	0xbfc7f904f0c53a0c	-0.18728696590774552
159	0x3fc7f2acdf3f1898	0.18709336186129089
160	0xbfbdd104f4058bf4	-0.11647063214836334
161	0xbfc52ca2b615a4ff	-0.16542467013213266
162	0x3fc96bb2ee199b20	0.19859921098687838
163	0xbfc3a7627f3d8582	-0.15354567730814145
164	0x3fbde8d76c47c612	0.11683412927211403
165	0x3fa25b221ed94e7c	0.03585154177258418
166	0x3fadf861583e9ab6	0.058535615942039085
167	0x3fc45b8362054d0e	0.15904276167075476
168	0xbf9b5a01bd19d820	-0.026710536162191656
169	0xbfc47d92235a1b74	-0.16008211828394858
170	0xbfd21ff1261dfd74	-0.2831995842206745
171	0xbfbb4e82789b197a	-0.10666671223143523
172	0x3f934256196ff4fd	0.018807740500041515
173	0xbfc631adf9f32183	-0.17339110092713036
174	0x3fb8ddd8ba33a96a	0.09713511033956981
175	0x3fa93a4e2819141f	0.04927295913197604
176	0x3f86a69bbc93327a	0.011059967701293905
177	0xbfb31b0b9075afc4	-0.07463142659042804
178	0xbf96a57743248a91	-0.022115577195231998
179	0x3fb9ebf695d7e450	0.10125676306042064
180	0x3fb1582103dadc50	0.06775099128832207
181	0x3fa75f9c959f01db	0.04565133406095231
182	0xbfb15f2a3bd01680	-0.06785835228228088
183	0x3fa561245c63017b	0.04175675990836943
184	0xbfc51cc06d795dcf	-0.16493993134893833
185	0xbfd3e79161ae3ae9	-0.31100878275985494
186	0xbfb20b1a946d5b92	-0.07048193095884717
187	0xbfa16a616d4b7ccf	-0.03401474436918194
188	0x3fae8962b8efaa55	0.05964191920778165
189	0xbf77f87f338d8d0a	-0.00585221946753057
190	0xbfaad6d3ebd907f2	-0.05242025617600622
191	0xbfca747354346acb	-0.20667878734169273
192	0xbfb7913d98de2aaa	-0.09205994588971103
193	0x3f6a267fabec7e27	0.0031921857438559523
194	0xbfb30631cdc020d1	-0.07431327126699051
195	0x3f90082a776238a7	0.015656150375939728
196	0x3fb389ff274c4c19	0.07632441243576728
197	0x3fd890360d341670	0.3838019493999587
198	0x3fc164873a73399f	0.13588037828453722
199	0x3f78bd7d24821a63	0.006040085638352541
200	0xbfae5f32936a6249	-0.05932004975801825
201	0x3fb72ad8fc2abba3	0.09049755245608408
202	0x3f9a43f69a67501a	0.025649884389920975
203	0xbf8b6a4226bdb57c	-0.013386265570910487
204	0xbfbe4f712d36479f	-0.11839969018754325
205	0x3fb2d5c315c1d458	0.07357425004177409
206	0x3fbc3cfd81dc6472	0.11030563755447689
207	0x3fb900c92d4fd0f3	0.09766824108357124
208	0xbf945caab6b52679	-0.019884745980823546
209	0xbfa1a6d6064a1ebc	-0.0344759829213763
210	0xbfc24b54741a8c3c	-0.14292388600469674
211	0x3fd04cdb64a0a368	0.25469097926047946
212	0x3fcab74f4d91d605	0.2087191704519428
213	0xbfc5c9b74dcc7d71	-0.17021838473099707
214	0xbfa1b186a9b7dd79	-0.03455754110103277
215	0x3fb2fbf4fb1f3756	0.07415705805689518
216	0x3fd59a0c9b58d4c6	0.3375274197636141
217	0x3fad28df8f711063	0.05695246339794904
218	0x3fb077690e9d6045	0.06432205778890061
219	0xbfc3320a0553a668	-0.14996457347961045
220	0xbfb3325bf89a39c7	-0.07498717135806664
221	0xbfc925eba3abc8ce	-0.19646974078893326
222	0xbfbc5ab59cb7c55d	-0.11075911594504846
223	0x3fc44c574b7fdbf5	0.158579742302862
224	0xbfb1f012d3b7ba1d	-0.0700694815529705
225	0xbfd19b2719a9a864	-0.2750947714436107
226	0xbfbfa8cee1648fec	-0.12366955759767934
227	0x3fb5c053b71e92b4	0.08496592732133018
228	0x3fa3967049a5a0ba	0.038257130613432236
229	0x3fb9374e415bdd20	0.09850014777827143
230	0xbfb448a62ecf492c	-0.07923353808226768
231	0xbfb4d90bfc2edf09	-0.08143687159360637
232	0x3fbf3db9bef9bade	0.12203560745704631
233	0x3f9b5aa4fa28fa32	0.026712968605574434
234	0xbfb70d16571831e9	-0.09004344583826875
235	0xbfb197870d72458d	-0.06871837690621004
236	0xbfa68e3d916b586d	-0.04405395889413986
237	0xbfa9b9e38cda4c4a	-0.05024634451287875
238	0xbf865526254fc769	-0.010904596341763289
239	0xbfce33f3044b4d66	-0.23596036634135514
240	0xbfb945eadaca46cf	-0.09872310487323975
241	0xbfc5645029aedc15	-0.16712381396584478
242	0xbfbbd04994d71948	-0.10864696391863504
243	0xbfc838220f7b3b48	-0.18921304469992095
244	0xbfcafb0b926f89be	-0.21078629160099455
245	0x3fd319de626aa567	0.2984538994883991
246	0x3fc4081d9fc1dcad	0.1564976720871746
247	0x3fb4e9f0131116b9	0.08169460740563296
248	0xbf9edb20c6f7c4f2	-0.03013278211978316
249	0xbfc57d685b089185	-0.16788963742250132
250	0x3fa20c32a9eb9165	0.035249312631807674
251	0x3fd5f670deef4e31	0.34316655894255904
252	0x3fc24da795b94f2a	0.14299483118758732
253	0xbfd425d86873148f	-0.3148098964705434
254	0x3fc95c812c540a64	0.19813551582781763
255	0xbfb379c64a0c2019	-0.07607688243672363

equations.x.layers.4.bias f8 [16]
0	0xbfac626e33ed9036	-0.05543846496473785
1	0x3fa0b7af41b808f2	0.03265140225632192
2	0x3fcb38af6fa9cd8f	0.21266739799794407
3	0x3fabeb5a2ae08916	0.05452996991540908
4	0x3f914111fa6acb0d	0.016849785718203104
5	0xbfc92030f3a7dad3	-0.19629489800691732
6	0xbfa0f69139dee75c	-0.03313115912847195
7	0x3fc5de2ae6aa6fdf	0.1708425165460303
8	0xbfb3cbb4917c8d15	-0.07732704688946897
9	0x3f7876555d00244b	0.005972226572347482
10	0x3fa45a509976225f	0.039751547558869
11	0xbfb3153b1de49acc	-0.07454270820435765
12	0x3f88a3c306380630	0.012031100871357031
13	0xbfb5f75d209834ed	-0.08580572171941343
14	0x3f9cce1a843286f0	0.028129972761809563
15	0x3fd0eff8fba15c8b	0.2646467645003631

equations.x.layers.6.weight f8 [1, 16]
0	0xbf641c8c47290cb4	-0.002455018978510271
1	0xbf96cea0ce0b2cef	-0.022272598815828933
2	0xbfb9c5cb672efe86	-0.1006743552124992
3	0x3f47cc325861fdc5	0.0007262464357750622
4	0xbf46ea76033d9e9e	-0.0006993366464315869
5	0xbfb0a2dc97ecfbc5	-0.06498507222293799
6	0xbf817ce8d2ea2b83	-0.008539027153593675
7	0x3fc8591747f8e4ab	0.19021883978147022
8	0x3f8f808045793b4a	0.015381815071263145
9	0x3fb57ca324a17f2e	0.08393306392963204
10	0xbfb9921cecfee07f	-0.09988575731301984
11	0x3f732094590a8b65	0.004669742091809014
12	0xbf6b8d267d98a550	-0.0033632041711554664
13	0xbfc0bcab6e23e177	-0.13075774076402144
14	0xbf872a712e72f03c	-0.011311420660028763
15	0xbfca40fef1de77f2	-0.20510851678858405

equations.x.layers.6.bias f8 [1]
0	0x3fa13ef420eab300	0.033683423059619244
