inverted-double-well-vFinal2/2025-06-03_14-47-58/model.pt (torch, 138642 bytes, 12 tensors)

equations.x.layers.0.weight f8 [64, 1]
0	0xbfd4450ac72ba362	-0.31671399545898826
1	0x3fe299c208759cb8	0.5812692799780939
2	0xbfdcf173309b76c0	-0.4522369360619045
3	0xbfdef7fd6207464b	-0.4838860947903398
4	0x3fe9b78f9de2d0d8	0.8036573489867136
5	0x3f7874500c3bd928	0.005970299421951965
6	0x3fdc8677798ef87c	0.4457071959585688
7	0xbfeb16c45ec0e03a	-0.8465291834500086
8	0x3fe4ae8139e5c770	0.6463018542110444
9	0x3fd7d7ccc7b0a102	0.3725463819596514
10	0xbfbef0f5158aaf32	-0.12086421752854618
11	0xbfc5f7bef66be0da	-0.17162310631079586
12	0xbfdf5988d9936782	-0.4898397564662603
13	0x3fe02a87e51cb9b8	0.5051917528961019
14	0xbfda4307fc66fc83	-0.41034125946675476
15	0xbfe751b9f29e67f8	-0.72872636209945
16	0xbfb4750822dcbca1	-0.07991076327447157
17	0x3fc317cb44c17a33	0.14916363579955458
18	0xbfe56ef71b67d38c	-0.6697955641999314
19	0xbfe026bd8430b657	-0.5047290403214885
20	0x3fedad210831b73a	0.9273839149516114
21	0x3fa723eb7b493af3	0.045195921706740715
22	0xbfe353e53da08d0c	-0.6039911464362446
23	0xbfd11ab62807f9a8	-0.26725534352581315
24	0xbfb077cb9dc9b597	-0.06432793237919153
25	0x3fbe229d883beeb5	0.11771568847683052
26	0x3fae67ddfbe84119	0.05938619327582923
27	0xbfd6e91ba8168bfa	-0.357977785252103
28	0x3fe653d6a88fa911	0.6977341930590076
29	0x3febc016387f545e	0.8671980956520533
30	0xbf9e43da2b698f16	-0.029555710696867875
31	0xbfe04b7af35b631f	-0.5092139008585014
32	0x3fca2b49be4d5d27	0.20444604675388087
33	0x3fd0068bffd49f34	0.25039958938076556
34	0x3fe5eac91403e3c5	0.6849103346750033
35	0x3fb9b12803ad227d	0.10035944070581056
36	0x3fcd51bc18ac3ee0	0.22905684666374437
37	0xbfca4935a1938fe4	-0.2053591765353523
38	0x3fead1d78a7ead8a	0.8381154732682472
39	0xbfe337cf688ee390	-0.6005627672339973
40	0x3fd01c21479ef809	0.2517169188903386
41	0xbfd5b6be83f0ce2e	-0.3392788208468315
42	0x3fdee69f5ccb3b7e	0.48282608091260915
43	0x3fc12aaf4998e73f	0.13411513417832485
44	0xbfe7d622591afc0b	-0.7448894253101356
45	0xbfe6eb170920c627	-0.7161975076944075
46	0xbfe48e2d22810025	-0.6423555063156569
47	0x3fdae5442a0642d1	0.42024330238295443
48	0xbfde99ce8a12a4bb	-0.4781376217238848
49	0xbfba4a8c034dc242	-0.10269999581010672
50	0x3fdecbc8c37f45b1	0.48118800250548605
51	0x3fed406f99396c0f	0.9141157143270692
52	0xbfd374afb2b207d6	-0.30399696779943264
53	0x3fe6e5799c8a6185	0.7155120904381397
54	0x3fddd8c22bf5559d	0.46635488789373786
55	0x3fdce394e59ad9a1	0.45139048025466805
56	0xbfe8749052f7169f	-0.764228975335488
57	0x3fda62f88e154194	0.41229070544525226
58	0xbfdde7bc0a2cd5c0	-0.4672689532629555
59	0xbfeab5fd72a2c5a4	-0.8347155798893948
60	0xbfdcf27175e466a4	-0.4522975589075975
61	0x3fc8d10b6f73d640	0.19387953702941907
62	0xbfe3d6812e0a15b4	-0.6199346446234615
63	0x3fe0d704eacdaffd	0.5262474618916709

equations.x.layers.0.bias f8 [64]
0	0xbfd045aff53bc5ac	-0.2542533774240734
1	0xbfe841a809499811	-0.7580146962543514
2	0x3ff037c46a9454a4	1.013615051580282
3	0x3fef0fe5f9d5cb98	0.9706907157509361
4	0xbff16ccdb23cf912	-1.0890633547238093
5	0xbfe531d7e3356084	-0.6623343885103314
6	0xbfd5158cd66bb83c	-0.32944031657723705
7	0xbf974b7cf89b7b0c	-0.022748902009762026
8	0x3fdfa2e0d705dffd	0.49431630132994525
9	0x3fe79f6ed4b23ba8	0.73821202795249
10	0x3fca5664ad0ab6cd	0.20576151322659655
11	0x3fb69db7e9c2f529	0.08834409195965932
12	0xbfe06efcffed3d57	-0.5135483740395256
13	0x3fe08551f1338d84	0.5162744246448914
14	0xbfe699786f9c750e	-0.7062341861634722
15	0xbfe6c7503c22ce76	-0.7118302511721157
16	0xbf7424b4870da796	-0.00491781729292908
17	0x3fe3d9e66aa9c3b4	0.6203491290344716
18	0xbfe29d1e862e5ed5	-0.5816795941090854
19	0xbfd128dae2187c35	-0.2681185920682226
20	0x3fc2dcda08704a86	0.1473648587421687
21	0x3fe5f54a0619dcdc	0.6861925238762541
22	0x3feba53fe8bf89b9	0.8639220758307636
23	0x3fcafcb356a27dbe	0.21083680849277003
24	0xbfde52d36dd4f518	-0.47380529142158556
25	0xbfea60a3881e5c4f	-0.8242967279974297
26	0xbfc51c5a9e0adb82	-0.16492779461779256
27	0x3fc4f3ee2de48bfd	0.16369416466577028
28	0x3fd15da79bcfacdd	0.2713412305444772
29	0x3fd4539366b4e71c	0.317601061152901
30	0xbfe7b783cee1997b	-0.741151718201578
31	0x3fd0b1c7466f2d06	0.2608507335505269
32	0x3fcb6522b866fad4	0.21402391437546575
33	0xbfe892b0310d7973	-0.7679062803324953
34	0x3fb79b4067fb7475	0.09221270121220633
35	0xbfc9a8a6d743f48c	-0.2004593421078521
36	0x3fa612d39df7ee03	0.04311238578153722
37	0x3f93f42e57dd7cdd	0.0194861642006544
38	0x3fe797cba9cbd9b5	0.7372797314008525
39	0x3fef4174f9ef89e6	0.9767403489643669
40	0xbfdc7aee063e6ac1	-0.44500303849933337
41	0xbfc24c219a551a88	-0.14294834171069604
42	0xbfd916b22f730dce	-0.3920102561353048
43	0x3fea8c2645df6236	0.8296080937098569
44	0x3fe38a8f1f7a68ee	0.6106639494712718
45	0x3fe943648066269b	0.7894766338151443
46	0x3fd92ebb0dc9f79f	0.3934772143037381
47	0xbfe6345b64163e11	-0.6938912348577465
48	0x3fd2866c091b7d92	0.28945446862595603
49	0x3fc21ab1859b7cd8	0.14143961929128213
50	0xbfe88fffb03bcd0e	-0.7675779764234976
51	0xbfd6831844081270	-0.35175139087394935
52	0xbfbfc531fada576b	-0.12410271047914782
53	0x3fd30136c6c49e6f	0.2969490948766866
54	0x3fd273596a1dcfd3	0.2882903610509377
55	0x3fdc1103057ed813	0.4385383180300561
56	0x3ff13499f0e991ac	1.0753421221389585
57	0xbfd500fae72caaa3	-0.3281848199427861
58	0x3ff1b8f273b103ee	1.107653095168867
59	0xbfe1c073e2714c84	-0.554742758055355
60	0xbfec63e11e58ef2d	-0.8871923058245322
61	0x3fe2327b522ae978	0.568662319644587
62	0x3feeafcbae152d1a	0.9589594268849482
63	0xbfdd216b3b427a41	-0.4551647261340897

equations.x.layers.2.weight f8 [64, 64]
0	0x3fbacfde3682e514	0.10473431425898055
1	0x3f901707a0cd6aa6	0.015712851705169804
2	0xbf8a517a76a6e915	-0.012850720163318155
3	0xbfb17b27309ea9c5	-0.06828541695600794
4	0xbfb2cdae19b3020c	-0.07345092894957633
5	0xbfbcc36e1b609f03	-0.11235702675241659
6	0x3fa070e844c120dd	0.032111414330360445
7	0x3fbbbc263e0e86ce	0.10833968176896322
8	0x3fa29f775e8ab930	0.03637288121295723
9	0xbf95999dcf7be44e	-0.021093812741103606
10	0xbfa49b444a6102e6	-0.04024709136911557
11	0xbf741f53facd2546	-0.00491268925254335
12	0xbf89382541483a29	-0.012314120344879846
13	0x3f8dd86aca7c1063	0.014572939209308971
14	0x3fbf403d6d7b6a77	0.12207397387411754
15	0x3f78f468acffc0a0	0.0060924614808614275
16	0xbfa520a97473e841	-0.041264815774369364
17	0xbf274ea733219a0a	-0.00017782011997553886
18	0xbfbbe9c33a206bda	-0.10903568429095803
19	0xbfbe48a420e5ef58	-0.11829591563394837
20	0xbfa6a593cded6049	-0.044232005012134375
21	0x3fbd48d0bd5234e4	0.1143923246583714
22	0x3fbe4465759a4131	0.11823114510685141
23	0x3fbe53e1cb7f9390	0.1184674379179127
24	0x3fa41b1813499e45	0.03926921115344987
25	0xbf607bba687ce529	-0.002012123182706067
26	0xbfbaa366c3af90d9	-0.10405580785260628
27	0xbf9a0fe2c6d6bcd4	-0.025451224695356725
28	0xbfb5dc6cae78bf8a	-0.08539466151773759
29	0x3fb028c74f2b6932	0.06312223131991315
30	0xbfb850bd8c5df577	-0.09498200108460773
31	0x3f74e7694506ef9c	0.0051035034270475975
32	0x3fb8a6ff0072fe7d	0.09629815827337924
33	0xbfbc5f3d1fe56f8c	-0.11082822827068933
34	0xbfb24cfe99ca3e4b	-0.07148734335555067
35	0x3fbb968cd4ea1203	0.10776596258262576
36	0xbfb5ef4c9c28d2ff	-0.08568266689765024
37	0xbfb2eb7ef61a0e84	-0.07390588291496597
38	0x3f716f84449d5d5f	0.0042567412109158756
39	0x3fbe8195ead7534d	0.11916481955934195
40	0xbf843bc8f9d8feb7	-0.009879655956978579
41	0x3fb77d3cfe55cc26	0.09175473412851484
42	0xbfb43f7956100e4b	-0.07909353591099337
43	0x3fbca717f3a28232	0.11192464540591443
44	0x3f8557dc8907e7c6	0.01042148869690952
45	0x3fb964631ea5acd4	0.09918803690168271
46	0x3fb1f6018ef20291	0.07016000499607801
47	0xbfbe26f6232873af	-0.11778200491285305
48	0xbfae59d26fb9529d	-0.0592790376073584
49	0x3f83cb53a0d43d86	0.009665158601392287
50	0xbfa260388b5f632c	-0.03589035703016061
51	0x3fb4c289a77c081f	0.08109340990998291
52	0xbfbe7673f5b82fa7	-0.11899494885454819
53	0xbfb6ab460576eef2	-0.08855092652714427
54	0x3fa5577fd2e400cc	0.04168319177006338
55	0xbfa1f47fd1c8db89	-0.03506850658270994
56	0x3fa4f0d51d71d503	0.04089990600997775
57	0xbf6a484b366fd0f8	-0.0032083004948565384
58	0x3f73491c4a87e412	0.004708395492792243
59	0xbfb81351e27707cc	-0.09404479769639734
60	0x3f843c3327f94126	0.009880447060965535
61	0x3fa8e9956fe0f4bf	0.0486571024962159
62	0xbfa944460f66feaf	-0.049349011783758605
63	0x3fba3a7cfdbc7d7c	0.1024549598191608
64	0xbfa08a19578635ec	-0.03230361169253712
65	0x3fb6316dd6671bcf	0.08669172748987751
66	0xbfac82aee7370a79	-0.05568453381012701
67	0xbfb34167a148f1a8	-0.07521674811955015
68	0xbfb604445d3c22ff	-0.0860026099800386
69	0x3faeb049881781e2	0.05993871485020798
70	0x3fb536e583e1c391	0.08286890477917398
71	0x3fc070f59f7d2c02	0.128447249293771
72	0x3fb8554a0dfb0e13	0.09505141106915742
73	0xbfa9ad5955ce9e05	-0.050150672649859764
74	0x3f9c6763b26058fe	0.027738149416188122
75	0xbfb6679557668b5b	-0.08751805671503858
76	0x3fad3de5e047af4a	0.05711286890786356
77	0xbfa229c1e422272f	-0.035474833582226466
78	0x3fc510798f2c63f3	0.16456527224434545
79	0xbfa8eb8f8b6be41e	-0.04867218567773811
80	0x3fc24bcd7554e883	0.14293831090055073
81	0x3fbc043862efa4a4	0.10943939605171465
82	0xbfb7cdaa6192308b	-0.09298195726495544
83	0xbfb8d0be209ac450	-0.09693516059884755
84	0xbfbbbf4594b5a679	-0.10838732605557223
85	0x3fb76ae92157154f	0.09147507728547065
86	0x3fa56ff5ca69e6f6	0.041869812926007485
87	0x3fbc265c2a3cae7b	0.10996032744577093
88	0x3f8fff424f2630ca	0.015623586693230957
89	0xbfb21612b2ee6301	-0.070649307903647
90	0xbfa76f67b4bbf39a	-0.04577182847240309
91	0x3fb32c878b9847fb	0.07489821584775307
92	0x3fa1c2035e22f350	0.034683327904963535
93	0x3f84641d6ab29345	0.009956579035426247
94	0xbfb2a4e19568c111	-0.07282838723836373
95	0x3fbbfea0f77a0a87	0.1093540767852038
96	0xbf939b751d873baf	-0.019147710730802178
97	0x3fbdf6b8b55148ca	0.11704592158028784
98	0xbf94e579edb70003	-0.02040663255115761
99	0xbfbf9dea911b74c0	-0.12350336115510441
100	0x3fb748b91a5eaa9b	0.0909534158114788
101	0xbfb7da1c28ab940f	-0.09317184441495406
102	0xbfa4f37e60709034	-0.040920209190773355
103	0x3fb3e852bc253394	0.07776372044936714
104	0xbfaa695c96f4f082	-0.05158509581312477
105	0xbf60e6ec967db377	-0.0020632382256082177
106	0xbf798cada0d6437a	-0.00623767684500442
107	0xbfacec88d2e2289a	-0.056492114775282334
108	0x3fa4fcd0a59500be	0.040991325581218416
109	0xbfb0820a16806848	-0.06448424386363272
110	0x3fb1e467ab5b6efd	0.06989143308186026
111	0x3fb32072ac00a192	0.07471386622694912
112	0xbfae6756824d7616	-0.05938215580566124
113	0xbfb19f4ef05f3bf5	-0.06883710258919946
114	0x3f82f217b127fe94	0.009250817388419187
115	0x3fba133ca6836e63	0.10185603204029685
116	0xbfa84f7be3875727	-0.0474814143414462
117	0xbfb99e625ee4f108	-0.1000730020213646
118	0xbf695edc33903bf7	-0.0030969906624771465
119	0xbfbb445cebc80da1	-0.10651188618071795
120	0xbfb35db31150b0ad	-0.07564849064573549
121	0x3fbbc64b82662e63	0.10849449094365009
122	0xbfbdb540a6110b70	-0.11604694418296702
123	0xbfb7ca4c8e019733	-0.09293058840702599
124	0x3f9618725d8896cf	0.02157763191112033
125	0xbfaa5a057b008b1a	-0.05146805883875612
126	0xbf94afe6e11c0c88	-0.02020226239166026
127	0xbf8d5f78e9ab867e	-0.01434225524048149
128	0xbfbe79def460b420	-0.11904710260633111
129	0xbf80d83c0a963d8f	-0.008224934647641983
130	0xbfafdf03ed8a7ad7	-0.06224834704084053
131	0xbfa24445b8597f66	-0.035677126649487786
132	0x3fa1bc985dac8ef2	0.034641992029973326
133	0xbfbc566d82d58edd	-0.11069378322786912
134	0xbf7f7f44a9cee63f	-0.007689731803958432
135	0xbf724376351d5ca5	-0.004458867786374975
136	0xbfb17897ce80e556	-0.06824635306920376
137	0x3fb02b50df0ea107	0.06316094823580808
138	0x3f670635d0fa31eb	0.002810578451152281
139	0xbfbf8007455faac6	-0.12304730838483655
140	0x3fa03a1d4313bc9a	0.03169337695896353
141	0x3fa5ac8eb03e5c10	0.042332133306608566
142	0xbf95ce8263e66608	-0.021295583102618948
143	0x3fb18cf46cb654a8	0.0685570493136135
144	0xbfbafba63929a84a	-0.10540236373495407
145	0xbf9b5f01cdbaeaa5	-0.026729610616465966
146	0x3fb610e8c2f03399	0.0861955142901948
147	0xbf70b2eeaa281826	-0.004076893123516034
148	0xbf61e61bc16cedd4	-0.0021849195576615164
149	0xbfb71edea74df4f3	-0.09031478485663395
150	0xbfad5076ce1e9169	-0.057254517231998765
151	0x3fbc87f7c0a01514	0.11144970371977464
152	0x3fa2b32ba0128e4a	0.03652321175584612
153	0x3fbc234ac6ba6c78	0.1099135146309197
154	0xbfb8bf617f1889eb	-0.09667023995329031
155	0xbfb7aff4202bfd1f	-0.09252858910985083
156	0xbfc01a15a5f298ec	-0.12579603770172498
157	0x3fbea9196a1489d3	0.11976775016640966
158	0xbfbb6a2c3a7d6e0a	-0.10708881786325022
159	0x3fa08084837e1b27	0.032230511714308734
160	0xbfbc7ec2342c2e39	-0.11130918287033688
161	0xbfb5c6091f6d2cf2	-0.08505303399322253
162	0xbfb50bb1eaef0c00	-0.08220970140159523
163	0x3fbe1a561bf678d9	0.1175893610256681
164	0xbfbaaf286090a520	-0.10423519475502419
165	0xbfa8ba6fe945b086	-0.048297402597058656
166	0xbfbbb49916334834	-0.10822445671081554
167	0xbfafc169c5fb0eb1	-0.06202250043636804
168	0xbfb0587ce7a0c8d2	-0.06385021834356344
169	0xbf9dc2ab73f8b4bc	-0.0290629186185256
170	0xbfb18e9eda69f02e	-0.06858246643418006
171	0xbfa1b0d31a9f67e2	-0.03455218982681153
172	0xbfaeed8de180283f	-0.06040614488308948
173	0x3fb4255a5bc98f98	0.07869496098424944
174	0xbfb1992aefc52992	-0.06874340394748504
175	0x3f6a145983c89ee8	0.0031835316024347755
176	0xbfba7e22623b03f9	-0.10348715685087474
177	0x3fb537549fdead35	0.08287552741119415
178	0xbf9422ac51650aef	-0.019663517444551578
179	0xbfb7cd8a937bd6f3	-0.09298006153752762
180	0xbfaaee0b614d8560	-0.05259738505152245
181	0x3f92072ce360ceed	0.01760549676710259
182	0xbfa141cd3abae75a	-0.033705151957703364
183	0x3fade37bddd0f788	0.05837618906706071
184	0xbfbc3f4d24881e50	-0.11034090177428735
185	0xbfc0270e1d2f0a13	-0.12619186806667013
186	0xbfa6497f78bea3be	-0.04352949475225597
187	0xbfbda46cb7a85d45	-0.11579017146902
188	0x3fafb9ca6ae2435b	0.06196434550032023
189	0xbf833dfb2f6a69c9	-0.009395563492309205
190	0xbfb809a2ee25f673	-0.09389704050223617
191	0xbf8a1d0c9be472dd	-0.012750719554384055
192	0x3fbb4065c97c2ef2	0.10645137948102582
193	0xbfc0c3a6e4451e2e	-0.13097082277293864
194	0x3fb41e5f9ea7db66	0.07858846305303543
195	0x3fbcf96d332adb23	0.11318094729618315
196	0x3fbed01ff582261d	0.12036323303086545
197	0x3fb0a6fd75961d1b	0.06504806633721609
198	0xbfad704acc957922	-0.05749734637605487
199	0x3f9c75bc095388d9	0.027792871541245077
200	0x3f81dcce4f1cf7ad	0.008721935071317544
201	0x3fbb330b55919e65	0.1062476238163242
202	0xbfb29e83f8261864	-0.07273125465698765
203	0xbfbc5de45a220b08	-0.11080767822754123
204	0xbfb20cb215dc11f3	-0.07050622018511614
205	0xbfa805a9dcc2acb1	-0.04691820926503832
206	0x3fb61ce5133ba706	0.08637840003543937
207	0xbfa50aa6db0bfb66	-0.04109689163123313
208	0x3fbd1ee2783eb2e1	0.11375251231829565
209	0x3f7f264b8e4b98d4	0.007604880466464976
210	0xbfb18f39f1c983ce	-0.06859171059615152
211	0x3f9958fb873ea164	0.02475350392310939
212	0x3fb1b035f2fa6919	0.06909501249393592
213	0xbf27ab94b2da52ee	-0.00018058958214752597
214	0x3fb5eb35d95b3caa	0.08562027508308981
215	0x3f91986707236bda	0.017182931719485463
216	0xbfb6fcbce9c0ce1e	-0.089793974941863
217	0x3f62e88f50b7e251	0.002308158791262373
218	0xbfafa9ab7a914613	-0.06184135314164165
219	0x3fba5834ad439189	0.10290841322018286
220	0xbfb32ca68c0ed0a8	-0.07490006369954705
221	0xbfb0074bd2cc7de0	-0.06261133095221494
222	0xbf718973d6050271	-0.0042814755291265974
223	0x3fb6fa1e9bd17f18	0.08975402168425395
224	0xbfc034b1830dfebd	-0.126608075133836
225	0xbfc14de8aba001d3	-0.13519008998993218
226	0x3fbdaab9c1993282	0.1158863160755548
227	0xbfbd4acd234b1bef	-0.11442262756018783
228	0xbfc01eb9375dc119	-0.12593760684422575
229	0xbfb48acf0cf64158	-0.08024305407002907
230	0xbfa8a395019c3a65	-0.048123032042089155
231	0xbfac6780e0333652	-0.05547716843430507
232	0xbfc0b4039ba72239	-0.13049359417188258
233	0x3f9a506e13aa505d	0.025697441053651782
234	0xbfb8c8094d829610	-0.09680231230102998
235	0x3fb82e4704620ac9	0.09445613724714542
236	0x3fb186bf54d542b4	0.06846233197326052
237	0xbfbc81a1c8f29fdf	-0.11135302692366576
238	0xbfb87d7085f54fdb	-0.09566405554261286
239	0x3f929a34c29f1759	0.0181663745677477
240	0x3fa8f4039e6565b7	0.048736680112323176
241	0x3f8302545f7b2026	0.009281787074897418
242	0xbfb6af8d2a0425bd	-0.08861620212350992
243	0x3fb7831a11aea7ce	0.09184420520492084
244	0x3f9b990995ef6483	0.026950979019464427
245	0x3f94d22aeaf160ca	0.020332975950027067
246	0x3fafac69480e1ff8	0.06186226849155213
247	0xbfb847f7aa056243	-0.09484813595680301
248	0xbfb985b2f6dad8d6	-0.09969633604746106
249	0xbfbb81e811844ce0	-0.10745096614509775
250	0x3fabe30b03acc716	0.05446657581195617
251	0x3fab8b14ae18389e	0.05379547715357201
252	0x3f6e1a0ccb701468	0.0036745309730599647
253	0x3f84c715656a681a	0.010145346791706134
254	0xbf92f4480a0a7be7	-0.01850998460087885
255	0x3fb4a2ccf3364d1b	0.08060913980289224

equations.x.layers.2.bias f8 [64]
0	0xbf894b31382fb0f0	-0.01235044911114655
1	0x3fb5c760d443d46b	0.0850735204911232
2	0x3fbecb92b8c58c51	0.1202937794783321
3	0xbfbf4350bae1a0f3	-0.12212090075047737
4	0xbfb9fefe96417337	-0.10154715698577098
5	0x3fb7e81e4e73146f	0.09338559546729795
6	0x3fbcc0cceb9fe1c5	0.11231690170814719
7	0x3fbd1529a3f5ba67	0.11360416653563164
8	0x3fb46f6b36fadb9d	0.07982511608393712
9	0xbfa016b090d2e041	-0.031423108748129376
10	0xbfa0f8bc2e79d7c2	-0.03314769809087138
11	0x3fb4b327403c6eed	0.0808586627794587
12	0xbf9fd34b799e1d00	-0.031079463289214182
13	0x3f88577c39857742	0.011885614877140353
14	0xbf9d7f3a2694782e	-0.028805645565732778
15	0x3fbcb136c4f4b119	0.11207907017223241
16	0xbfa4e350491e8cdb	-0.04079676525659589
17	0xbfb7665eff95f259	-0.09140580882917372
18	0xbfbbe5f19a249862	-0.10897741330390567
19	0x3f99bd5fcaaa3e59	0.025136467690172946
20	0x3f7ea899dc23e5c8	0.007485009208033806
21	0xbfb3fc3e82b0de9b	-0.07806769076057167
22	0x3fb8be70c29ee52e	0.09665589095574909
23	0x3fb990921604f4a6	0.09986222302991851
24	0xbfbf31960cc63db3	-0.12185037433504568
25	0xbfbedb24736d6854	-0.120531347446929
26	0x3fa037a06d8627fc	0.03167439782107803
27	0xbfb46c601074220f	-0.07977867509556112
28	0x3fa66083f1592ded	0.04370510407587944
29	0xbfb45d00b924f661	-0.0795441104900987
30	0xbfb6cb700e3c96f4	-0.08904171321463733
31	0xbfacc5a07a824fb1	-0.05619527335616626
32	0x3fbf2ec505193cd1	0.1218073975990024
33	0x3fbd6cc83d8600b2	0.1149411344722491
34	0xbfb67a5ac839b509	-0.08780448330226788
35	0xbfa0f0ddef928bcb	-0.03308766889065103
36	0x3f848a18b9821fba	0.010029023324264464
37	0xbfb419c68e4e1753	-0.07851830457920288
38	0x3fbf2ea0a35ee3ca	0.12180522907773575
39	0xbfbbfbfb34955d6d	-0.10931367906356622
40	0x3f99aecd68833037	0.025080880645689
41	0x3fb73504903dcf72	0.09065273782272046
42	0xbf48b76165640acf	-0.0007542825285614343
43	0xbf702ee231fd806a	-0.003950961661615885
44	0xbfbf14815a7a56c8	-0.12140663584645062
45	0x3fb3083d5af8a3e5	0.07434447737672618
46	0xbfc2e3130381a56b	-0.14755475684368533
47	0xbf8c7ef450a80605	-0.013914021216808523
48	0x3fba4416e55247d2	0.10260146235148618
49	0x3fa5d0ff43a0fcb5	0.0426101465277439
50	0x3fa484097bc6ae86	0.040069862708461065
51	0x3f60ce70c2ee6086	0.002051563489157418
52	0xbf987d80c7318212	-0.023916256101417295
53	0x3f80fe18abbcfffe	0.008297150364910518
54	0x3fb59a0e31afc06b	0.08438194954919857
55	0x3fba7dc00927ceed	0.10348129485629061
56	0xbf9baab934022a42	-0.02701844577726776
57	0xbfb4b98fec9944d6	-0.08095645452819453
58	0x3fbb3cf8f9d76bcf	0.10639911746640894
59	0xbf78e5521b181d03	-0.0060780722865339
60	0x3fb9156c221ec694	0.09798312981618046
61	0x3fa9d1da94864c70	0.05042918265385132
62	0x3fb2001dbf37da8d	0.07031427305615008
63	0x3fb3019e3560278e	0.07424343875041314

equations.x.layers.4.weight f8 [64, 64]
0	0x3fa3d74a1b472564	0.03875190337164261
1	0x3f99a32ede7ae6d9	0.025036556557757137
2	0xbfba6a9e108b4426	-0.10318935302645169
3	0x3fba41805a2a6387	0.10256197167690405
4	0xbfade749a74f059f	-0.05840521018354682
5	0x3f99c071a00eff89	0.025148177522850843
6	0x3fbc1d4afab4bbd0	0.10982197399856308
7	0xbfba731ae35d63e1	-0.10331886340044562
8	0x3f907055209c55b9	0.016053514590643057
9	0xbf96b09577e2c9e1	-0.022157988970045287
10	0x3fb1296df588d547	0.0670384144257997
11	0xbfb1e77cca3922d8	-0.06993846833314465
12	0xbfa3ad99909e6ad6	-0.03843383684507777
13	0xbfaa7b4d40b225f4	-0.051721967837760646
14	0x3fbc113f1f4f573f	0.10963816179659334
15	0x3fb384ef0cf47785	0.07624715868266037
16	0x3fb2fb316ea0569b	0.07414540243947913
17	0xbfa173afb90dc49d	-0.034085742320607106
18	0x3fb87b791f43ce18	0.09563405049612361
19	0x3fb4d959f0ac9faa	0.08144151807630232
20	0x3fa6fc7404d02b08	0.04489481505159715
21	0xbf904fe0c1c432e4	-0.015929710222780794
22	0x3fb6b99ea07c5b4c	0.08876983087644169
23	0xbfb5e7dc3bdecc44	-0.08556915723492958
24	0xbfbc1e7cdabd712e	-0.10984020557720406
25	0xbfb50b6083713741	-0.08220484932936946
26	0xbfb5929b8593b379	-0.08426830302387413
27	0x3fa9088225ddd690	0.04889303886640761
28	0x3fb032d1fe95d319	0.06327545609913122
29	0x3fbfe4237f3b3c44	0.12457486969218318
30	0x3fa5b0095cc2d300	0.042358677457206895
31	0x3fbabe5d668f35bd	0.10446723703281342
32	0xbfbdc8a70b75c21f	-0.11634296445641511
33	0x3fb51f0b687a5734	0.08250495243768513
34	0xbf90903376f7a0e3	-0.016175083290279068
35	0x3fb1c9836d098690	0.06948110019723175
36	0x3fb864a8e68cb315	0.09528594616558579
37	0x3f808c088b6ad860	0.008079592470817853
38	0x3fb1f99184e75ecc	0.07021436209412996
39	0x3f94e328fc2a9882	0.020397797003760328
40	0xbf8e055843b910a1	-0.014658631865252682
41	0xbfbbbffa73ae3584	-0.10839810680609757
42	0xbf9f6ed685b3365f	-0.030696250830081314
43	0xbf89bd3f048b37d1	-0.012567989660421748
44	0xbfbb94589dd76f76	-0.10773233274033864
45	0x3faa8ea2625213e5	0.05186946344569047
46	0x3fb82777b06b97c3	0.09435222680221415
47	0xbfbee62d8148e892	-0.1206997337948528
48	0xbfb31c19db3b6af4	-0.0746475372538205
49	0xbfa90b90a4c7789e	-0.04891635905708934
50	0x3fbe28a6185e1ecc	0.11780775160707008
51	0xbfad00d900722616	-0.05664709215586698
52	0xbfb1449ae7243323	-0.06745308058834758
53	0xbfbe0e0967c9c718	-0.11740168365375003
54	0x3fb949383460bbd0	0.09877349165684213
55	0x3fb0f79be054c6a9	0.0662782118495452
56	0xbf999fa2f3540e5c	-0.025023027516921523
57	0x3fc0f531a9b8487c	0.13248272692777963
58	0xbfb751b5e345dfed	-0.09109055327087363
59	0xbfa5d6a2eefd8833	-0.04265317122805392
60	0xbfbbe3d9f3eb9316	-0.10894548611720398
61	0xbf984b1cf701884e	-0.023724033905075985
62	0xbfb7b63335a6dbce	-0.09262390193803968
63	0xbfadb810bbd9dd98	-0.05804493229964719
64	0xbfb6636ae0ceea26	-0.08745449055178564
65	0x3fbd44464f54348d	0.11432303845158938
66	0xbfb0757042605edd	-0.06429196949499834
67	0xbfbef48c15725754	-0.12091899417495472
68	0xbfb6333bef4091e7	-0.08671927062147909
69	0xbfb7fa556cf3c771	-0.0936635390278562
70	0xbfb90140d003c609	-0.09767537191853405
71	0x3f93f518c083f214	0.019489657163818633
72	0xbf94953af5fd9923	-0.020100518478465845
73	0x3fbb1f4e9b57932c	0.10594645779162865
74	0xbf8f79e17d6d51b8	-0.015369187965611583
75	0xbfb7435ac6f189b2	-0.09087149960536214
76	0x3fa7901ec3c59e75	0.04602142467302609
77	0x3f90111ee104e68f	0.015690309986189418
78	0x3fc232938acb0165	0.14216846730233637
79	0x3fbb218598930e15	0.10598025298082121
80	0xbf568a29d6950d62	-0.0013757141662871998
81	0xbfbe71bbe6a4f0ff	-0.11892294293369686
82	0xbfc0a87cf3680a88	-0.13014184842184684
83	0xbfa12e7dee54c08f	-0.03355783018412339
84	0x3f7b442ec83b9728	0.006656821005639725
85	0x3f4b4416097d39d8	0.0008320911028734624
86	0xbfaad254947dd556	-0.052385943533333076
87	0xbfbfad96d24e4dff	-0.12374251017018166
88	0xbf8c433a8c270077	-0.013800103571043316
89	0xbfa72bd61575ac00	-0.04525631916006745
90	0x3f8c8c84fb3f8f6d	0.013939894597519953
91	0x3fbec4c502de22a2	0.1201899654389629
92	0xbf85eda0678de34b	-0.01070714298269739
93	0x3fafc30708a71e67	0.06203481655716985
94	0xbfa1b7f00f2b7976	-0.03460645852259152
95	0x3fb84b85015c669c	0.09490233691431132
96	0x3fb8346c2a357db7	0.09454990416042262
97	0xbfbf9bd9044e90ae	-0.12347179751538093
98	0xbf9f7d18d470d36c	-0.030750644651749523
99	0x3fb14cc0284e3c82	0.06757737144492817
100	0xbfb4c283977df163	-0.08109304855856218
101	0x3fae4d41eab3d05f	0.059183177852816675
102	0x3fb08026d7d3dc20	0.06445544022777527
103	0xbfb0c2bf5b5632a4	-0.06547161083126213
104	0xbf477f59f7053050	-0.0007170857698297704
105	0xbfb33ecfa921724d	-0.07517717246214169
106	0xbf86d5184511ffa5	-0.011148633582933895
107	0x3f8f3cab5dd40779	0.015252436448011985
108	0x3fbe423ec925bce7	0.11819832239938287
109	0xbfb06944bb7a90c4	-0.06410626961821025
110	0xbfb5618948a85e50	-0.08351953529233325
111	0x3fb69ed57a885e2c	0.08836111299057653
112	0xbfbd5d4d1d37f6d2	-0.11470491374344796
113	0xbfb09e6932abd6dc	-0.06491715895739553
114	0xbfaa5ac83d83c3e5	-0.05147386313354455
115	0xbfa1f0efa48dead7	-0.035041321599199975
116	0xbfbfb35b3ec1641c	-0.1238305118762501
117	0x3fad5d52f7a4ddf6	0.05735263131139938
118	0x3f86b08bb6c95d69	0.011078921809867652
119	0x3f691de5d5d5e726	0.003066014191685523
120	0xbf97980fe5e0086b	-0.023041008382286437
121	0xbf64ecdcde0150d4	-0.002554351216568754
122	0xbfab7050d4d4dbac	-0.0535912761501359
123	0x3fa78d326bbcca9c	0.04599912228731748
124	0xbfb59e63b5099a3a	-0.08444808168278764
125	0xbf8ea42971707a72	-0.014961551451105868
126	0x3fbb4468330e3108	0.10651255842657659
127	0xbfa6e7bdc5b8c671	-0.04473679579349444
128	0xbfb32d02887a7ad1	-0.07490554649346427
129	0x3fb9b079059c2c80	0.10034901034321031
130	0x3fa01a53834ee8af	0.03145085313686146
131	0x3fb66423ddd7d100	0.08746551672067326
132	0x3fb7103c15085852	0.09009147180071977
133	0x3fbf1bd950fd98f2	0.12151869036970078
134	0xbf98343225b376ab	-0.023636611510360932
135	0xbfaa041a08b357f6	-0.05081254345138568
136	0xbfb0ffce6d51185a	-0.06640329522005697
137	0x3fac8747f6582e6e	0.05571961290487769
138	0xbf9507f78ebebe8b	-0.02053820427653234
139	0xbfb7f309e768380f	-0.09355222606265577
140	0xbfa1d2375c761d60	-0.0348069477432158
141	0x3faf53590350af6a	0.061182767538723606
142	0x3faf090c08b86d4d	0.06061589819384015
143	0xbf9368413cb543cb	-0.018952388124777102
144	0x3fb3ac30bc3fb502	0.07684616657180146
145	0xbfbce554e2bdf998	-0.11287432227798033
146	0x3fb05297e9c8a173	0.06376027543649858
147	0x3fa7cd8af667f950	0.046490042284846766
148	0xbfa0f0e438ca89ac	-0.033087856228365936
149	0xbfbbdceff9dd9da4	-0.10883998728023997
150	0xbfaba402c68ac9f4	-0.05398567842111737
151	0x3f96beab44a1e2a2	0.022211719573962292
152	0x3f9843c353023501	0.023695995274967355
153	0xbfb5df05586e4e64	-0.08543427857358094
154	0xbfa7ec7cc796a277	-0.046726130832500816
155	0xbfb5504cc0d4dc85	-0.08325652797508283
156	0x3f713ed65d77340e	0.0042103170048451
157	0x3fb40c39276c7f3d	0.07831151211257477
158	0xbf84c352056c5edd	-0.010138169088846844
159	0xbfb2a2ea86c802d5	-0.07279840269621769
160	0xbfa0467e7fa39532	-0.031787827568943064
161	0xbfbc0fbe5ec9c63a	-0.109615228788038
162	0xbfa94cee8d46b13b	-0.04941506838381079
163	0x3fad952c83b7c48a	0.05777873142131636
164	0xbfbf358c973a3d39	-0.12191084568097645
165	0x3fb59e1e38e7665f	0.08444394006019128
166	0x3fbd9392460798ec	0.11553301057537951
167	0xbfa6a2ee7a3491a5	-0.04421181909336561
168	0x3f8b571538b85d84	0.013349691194021636
169	0xbfa40f2df1dd882a	-0.0391783101793098
170	0x3fc2a62e013fa17b	0.14569640217747434
171	0xbfa4a7f84428844b	-0.040344007797337676
172	0xbfadc20948327302	-0.05812100416480882
173	0xbfa30a081957500c	-0.03718591031397986
174	0xbf8740b9478376b3	-0.011353919501228082
175	0x3fbc33354308b33c	0.11015637289592645
176	0x3fb2064e91c6f89e	0.07040873583807403
177	0x3f637c43286ecdc2	0.0023785888365297223
178	0x3fbf1b064aeeb3ca	0.12150611237912226
179	0x3fb27f9b4277526b	0.07225962040622284
180	0x3fb9e52b5c743301	0.10115309722113965
181	0xbfaa69909ebe0211	-0.051586646440231594
182	0xbf97d6514a144b6c	-0.02327849402088182
183	0xbfb810e11e90eb55	-0.09400755878679708
184	0x3fbef648357ff455	0.12094546610019681
185	0x3fc10aad5d44b437	0.1331383424198138
186	0x3fa1ed02994ffc37	0.03501136895646833
187	0xbfa2209f73d0ae11	-0.03540514267691831
188	0xbfa8dee9b8163a33	-0.04857569095758087
189	0xbfb0a91568730b87	-0.06508001136812257
190	0x3fb52084a043277f	0.0825274363770898
191	0xbfabadbfc6a1b110	-0.05405997562124487
192	0x3fa2ef5be488268f	0.03698241390891354
193	0xbfb518a781118a8b	-0.08240744496428414
194	0xbf91c35c948f0558	-0.017346808020879706
195	0x3fb035e490f2dca9	0.06332233942781564
196	0xbfa90738de7577d5	-0.04888322558939221
197	0x3fa53bb0a844b87e	0.041471024075108595
198	0xbfb141d835081491	-0.06741095823970712
199	0xbf829ff31e3e3c7f	-0.009094142303892603
200	0x3fa9b51ea7a9a2e1	0.05020995899832826
201	0x3fa008f5456176fb	0.031318344802214036
202	0xbf95ed46c06e0642	-0.021412950034124252
203	0x3fb7bdfa86e5b362	0.09274259370222418
204	0xbfa1de349d2d7950	-0.03489841860458631
205	0xbf647d2662eefeaa	-0.002501082395127548
206	0x3fc09fe56bb51190	0.12987964400430174
207	0xbfbebe8fb0e94ae9	-0.12009523457644956
208	0x3fb8fce8f721dbf6	0.09760910066130166
209	0x3fb0b24d4a54f15e	0.0652206713174954
210	0xbfb01fe0fcb4490c	-0.06298643273865795
211	0xbfb494df12cce335	-0.08039659699433062
212	0x3fa55fc61b51b899	0.04174632152067765
213	0xbfb896d0930405d5	-0.0960512503552516
214	0xbfbddcb3c6bec987	-0.1166488990991522
215	0xbfa94e2c61e422d9	-0.049424540471653074
216	0xbfaa9cbcb1c4d712	-0.05197705907850837
217	0x3f92a09d3ffd91d5	0.018190819769545136
218	0x3fb033862a6de9c3	0.06328619514343985
219	0x3fbb73c0e7852bb2	0.10723500873898109
220	0x3fb247e1aa48be66	0.07140932471588143
221	0xbfbc06bd627ecec8	-0.1094778409449716
222	0x3fbb3d3a8eb3c8a0	0.10640302642767319
223	0x3f96300001486451	0.021667480543417664
224	0xbfb119018d75b48c	-0.06678781226738034
225	0x3fa9af1c9c410d2c	0.050164121698367786
226	0x3fb9c80d6be1fd07	0.10070880779129619
227	0xbfbb97f057b3c747	-0.10778715268295712
228	0xbfa08b5e81e06dab	-0.032313302377782925
229	0x3fbfd9b01737ca6d	0.12441540304988914
230	0xbf9a52adcf80d3ba	-0.025706020154945476
231	0xbf9077a3bf92a665	-0.01608138901489155
232	0xbfb40a8e412bb230	-0.07828606692391626
233	0x3f852eab99e9f4a2	0.01034292281587518
234	0x3fc05261b90d52fb	0.12751409087891105
235	0xbf1f6393783d2923	-0.00011973941405788286
236	0xbfb57fdb2b8511b7	-0.08398217976088672
237	0xbfb379b65d283e05	-0.0760759332117616
238	0xbfa4c73ac562a42d	-0.04058250102509251
239	0xbfab03f905b39fdf	-0.05276468462562866
240	0x3fa5780b50387a02	0.04193148950820459
241	0x3fb00472691137df	0.06256785454863188
242	0xbf9ba439d743687e	-0.02699365974772449
243	0x3fb6281998c7746d	0.0865493772502803
244	0x3faf876809975ea0	0.061579943819819905
245	0x3fa719ac38e7063f	0.04511774248704769
246	0x3fad8735b8938758	0.05767219427231279
247	0x3f952d0352167c7f	0.020679523358577697
248	0xbfa1daf47317116a	-0.03487361817272723
249	0x3fbcc5da4c3e647e	0.11239399300974814
250	0x3fb6f91b8a28352d	0.08973857996916897
251	0xbfaed6db0f7e9d28	-0.060232968942097564
252	0x3f896d4c47478efa	0.012415500569609151
253	0xbfb6094d697c3b84	-0.08607944321941657
254	0xbfb9410c083992fe	-0.09864878845980837
255	0x3faeb1121f7ea75b	0.059944692940304654

equations.x.layers.4.bias f8 [64]
0	0xbfac1d466035f412	-0.05491084980437945
1	0x3f9f254ea3571ab3	0.030415753097055197
2	0xbf455984ab626ba1	-0.0006515405464314513
3	0xbf50657cc8691d0c	-0.0010007589895780237
4	0xbf61dd3e7361b7d3	-0.002180692647974583
5	0xbfb187fba814f5b6	-0.06848118642388709
6	0xbfb3edcc5085e38e	-0.0778472611035694
7	0xbfba3a921acb7094	-0.10245621828238632
8	0xbfb28f40c631b2ee	-0.0724983676788715
9	0x3fab73072bc347fb	0.0536119690820129
10	0xbfaf618560b80660	-0.061290901237964546
11	0x3f87d89a9b873f38	0.011643607970568945
12	0xbfac1f60c7246ca8	-0.05492689543663093
13	0xbf9dfca4f777b9b5	-0.029284074405887945
14	0x3fb93ee6f1a33374	0.0986160602507889
15	0x3fb40850c3529370	0.07825188416115991
16	0xbfa0e185fa44bad0	-0.032970606613493936
17	0xbf82e64fdd31d302	-0.009228347719024924
18	0x3fbbdc8c3081779f	0.10883403953763925
19	0x3fb8dfb468e03caf	0.09716346321532641
20	0xbfb459109d76bafd	-0.07948402256327465
21	0x3fbb0daeeb7c5e95	0.10567754029431804
22	0x3f9c38a6abb4b80c	0.027559856634233923
23	0xbf9ca158a86fc194	-0.027959237366248127
24	0x3fb9d484806033fc	0.10089901098417892
25	0xbf6e986c4668b945	-0.0037347903010164518
26	0x3fb657814967b315	0.0872727207385647
27	0xbfaf43287d1cec5b	-0.061059251091557264
28	0xbfa8e6e04027bbe6	-0.04863644393105186
29	0x3fa95271a3d45017	0.049457122086238474
30	0x3fac24e83460eb88	0.054969078439589814
31	0x3f94d4e1e66e1a15	0.020343331994377396
32	0x3fbcfa315f8f3041	0.11319264014235932
33	0xbfaa15e0863eec7e	-0.05094815863363865
34	0xbf72f77b44dc92cf	-0.00463054801892744
35	0xbfb0722a58cb0e1a	-0.06424202602197973
36	0x3f840ec95d52c2f8	0.009793828163624493
37	0x3f9721c967945af2	0.022589823672286742
38	0xbfb34ea3ce49f45b	-0.07541869913434722
39	0x3fba6630f083933f	0.10312181350634562
40	0x3fa2b998cf67b0a7	0.03657224208640857
41	0x3fbce37f1f4d3877	0.11284632219505562
42	0x3fafeda153752000	0.062359849393544664
43	0xbfb99edd690ec557	-0.10008033575902196
44	0xbfa3754878e2ae08	-0.038004174000288826
45	0x3fa73045720e97aa	0.04529015557572731
46	0xbfb99d963ce020ce	-0.10006083475321079
47	0xbf90a843f2f77e31	-0.016266881660952307
48	0x3f9ea45063c97785	0.0299236832528247
49	0xbfb1e971696371f1	-0.06996830771408448
50	0x3fa5ba08ef73f2da	0.042434958677380855
51	0x3fb9957fe528e4a1	0.09993743271560841
52	0x3f9b00e150550006	0.026370544937208272
53	0xbfbe2856f362d831	-0.11780303422969564
54	0xbfb6bb56300d97ab	-0.08879603074237134
55	0x3f86533e512df083	0.01090096173515343
56	0x3fb0894f738d9713	0.06459518977279925
57	0x3fa0133b992e91da	0.031396734665836326
58	0xbf76a0322d99aef2	-0.005523868568711997
59	0x3fa6df7b76f9ddc8	0.044673784516756465
60	0x3fa386601fd60d0c	0.038134578596350804
61	0x3fb2602efeec41e8	0.07178014491751805
62	0xbf92c563cb590024	-0.018331107412677863
63	0x3fb644d717ca5acb	0.086987918194022

equations.x.layers.6.weight f8 [64, 64]
0	0xbf9e2fcff51bfd40	-0.029479264579092446
1	0x3fa10dbc5d9ef0b6	0.03330792086441774
2	0xbfb2a4aacfbbc8b4	-0.0728251225625936
3	0xbfa9dc50edd97c32	-0.05050900367199808
4	0xbf8d2d46b9ead137	-0.014246513890022612
5	0xbfb876a535e51b41	-0.09556038442415817
6	0xbfb7fa44fbc92843	-0.09366255900491276
7	0xbfa288077f9b486d	-0.03619407112786708
8	0x3fb004404850503b	0.06256486669036658
9	0xbf8d5a85ff63f9ee	-0.01433281598701527
10	0x3fb887ae673ffa5c	0.09582033177137234
11	0x3f3f80e555b7c00b	0.0004807052516460081
12	0x3fbbdb393763f2a2	0.10881383516602708
13	0x3f906d431705ea23	0.016041801719874137
14	0xbfbc85cc9fb6dfed	-0.1114166154792426
15	0xbfb183409bc59041	-0.06840900233288584
16	0xbf8d6cc4090c44a1	-0.01436761047946994
17	0xbf72614d38cce493	-0.004487325332598452
18	0xbfbf22e0ba5a4c59	-0.12162594365718017
19	0xbf88aea7c142aa15	-0.012051878533687202
20	0x3fa330ffbde34324	0.0374832076355516
21	0x3f69cd83b7c33b70	0.0031497547734952655
22	0xbfaec557e943c7d0	-0.060099360680296976
23	0xbfb7135edeb56d75	-0.09013932168220669
24	0xbf9bdc14535cece9	-0.02720672377402603
25	0x3fb6713772c5f418	0.08766504814225617
26	0x3f8cbbd32602b35c	0.014030122373094471
27	0x3fb12d66bd153f25	0.06709901920589496
28	0x3fa7771052ad89e9	0.04583025941134961
29	0xbf9e3640ec322540	-0.0295038360750699
30	0xbfa531dfc263789b	-0.04139613387973037
31	0x3fb5cf32fefcb53d	0.08519285893699631
32	0xbfaba8087358460b	-0.0540163651277333
33	0x3fb7a3e306d6b919	0.09234446446382484
34	0xbfb66799d3095fa9	-0.08751832391987925
35	0xbf9596b182479123	-0.021082662178643418
36	0x3fbeef46f17af165	0.12083857913507286
37	0x3f968f6befa81f5b	0.022031485083089702
38	0xbfb5c366b766e079	-0.08501283624252833
39	0x3fb7472d276c4a80	0.0909298154113376
40	0x3f861f49dc788971	0.01080186561654692
41	0x3fb94c28cec350db	0.09881835029529233
42	0xbfbb527c7996eb09	-0.10672738998884425
43	0x3f83bb23596e8648	0.009634281317462925
44	0xbfb2dcf248aa5d3c	-0.07368387483653732
45	0x3fbaf974158876f9	0.10536885762891392
46	0xbfb5e193592027a7	-0.08547326017301647
47	0x3f79ee04174e7b42	0.006330505352621087
48	0x3fb1f2bf014a3870	0.07011026174061086
49	0xbfb43d7f6fdac83e	-0.07906338196588167
50	0x3fb80bcfce4f89a3	0.09393023287660766
51	0xbf9fec66f93ea3b7	-0.031175240481079416
52	0xbfb6eb55256e4516	-0.08952839053951708
53	0xbfb2b729ad13b6ab	-0.07310734248650401
54	0xbfba721333b776f7	-0.10330314648259874
55	0xbfc015111e7263cc	-0.12564290987645987
56	0xbf88a5577e36f01a	-0.012034114398254348
57	0x3fa03f7165d38279	0.03173403137202952
58	0xbfa42f5d0c3ef953	-0.03942385458457189
59	0xbfb0d33cb1b4732a	-0.06572322214601614
60	0xbfb97078623ee0ba	-0.09937240980696319
61	0xbfb87e6cc85205a7	-0.09567909136423812
62	0xbfb9f0b118571952	-0.10132891506427669
63	0x3f9e8e1efd7bfda1	0.029839023801285006
64	0x3f649e979997df93	0.0025170288979516424
65	0xbfb62a553c53ccb9	-0.08658344958148491
66	0x3f9b34836abdd870	0.02656751002310681
67	0x3fb6da289c29dede	0.08926633656107749
68	0xbf51b6d453038412	-0.0010811875800345078
69	0xbf9814daee9cd1d8	-0.023517056287532728
70	0x3f9771e37c70f08b	0.02289538809803608
71	0x3fb5e24024e03fbc	0.08548355961124704
72	0x3fb6f491be7e1892	0.08966933155724835
73	0x3faed085570f1e68	0.060184637906385785
74	0x3fb7d99235aa0483	0.09316362199935395
75	0xbfa98c24de96466f	-0.04989733903051962
76	0x3fac25d0a562f727	0.05497600573424526
77	0xbfbd19e196b9536a	-0.11367616586478638
78	0x3f9c9f132e70c005	0.02795057269048586
79	0xbfb723aae2396011	-0.09038799307870728
80	0x3fb4cbb04fe20bf5	0.0812330431963771
81	0x3fb0fd3d5cb7b686	0.066364131103649
82	0xbfbc7f8fdfdb2cff	-0.11132144179571311
83	0xbf84c3fe01100a9e	-0.010139450461797591
84	0xbf9f5c4aee931582	-0.030625506221232175
85	0xbfb3b06ede2d314f	-0.07691090511543063
86	0x3fb6360a04f9b8a5	0.0867620718142655
87	0xbfbe1bf2523f5219	-0.11761393077842576
88	0x3f9b7761f8ccd74a	0.02682259636932053
89	0x3fa754d48f22ed99	0.04556907889624568
90	0xbfb039193bda8a82	-0.06337125502845178
91	0xbfa5cb45d2592d30	-0.04256647293785887
92	0xbf911272b67496e6	-0.016671936403461006
93	0x3fb431c6f1156057	0.0788845385153548
94	0xbf7c1abbfeb314e3	-0.006861433367878453
95	0xbfa17ae8a7e0f1f4	-0.03414084481525839
96	0x3fa4a4438264f923	0.040315732638634104
97	0xbfbea4f568d52132	-0.11970456895244722
98	0xbfb5773cc449664c	-0.08385066787868672
99	0x3fb84c025f97c31b	0.09490980943497755
100	0x3faa9e4f205dc212	0.05198905248733267
101	0x3fada69502c3e0a4	0.057911545360128686
102	0x3fbdd8647b3ec6bf	0.11658313759724147
103	0x3fb0963a5e1d9b5d	0.06479229734177978
104	0x3fb855c3522757c6	0.09505863910393861
105	0x3f8a5b9365b98a7e	0.01286997942151413
106	0x3fbab9a85e6424ef	0.10439541153404595
107	0xbf995e851a753ddf	-0.024774627437464388
108	0xbfb356ea7c3a8387	-0.07554498227047023
109	0x3fa429a2658ab16c	0.03938014497302586
110	0xbfbbd3a78e959d6a	-0.10869834166589035
111	0xbfb1fcbcb716c8d0	-0.07026271314569787
112	0xbfaeeb6b5b00e07a	-0.06038985715753227
113	0xbfba2dadc1a7b0be	-0.1022595022001864
114	0xbfa4e3e7fed1d0db	-0.04080128655997025
115	0x3fbea56cf810937f	0.1197116952540238
116	0x3fba9c878ce5c719	0.10395095052606641
117	0xbfbc949f5aefd097	-0.11164279909263751
118	0xbfa6230666ea71ae	-0.04323596960350372
119	0xbfb54a6a341cb546	-0.08316673061627453
120	0xbf5e7953580b2eec	-0.0018599809556460413
121	0xbfbe7ec615860dfc	-0.11912191415290602
122	0x3fa95775b0d77461	0.04949538978301216
123	0x3fa5cc804e6cc8ba	0.042575845311505
124	0xbfa02eff8f14d1d1	-0.03160856839750504
125	0xbf80c5a468759444	-0.008189472616047529
126	0xbf84ba3b62b30451	-0.010120834302485589
127	0x3f6c10e09678e36d	0.0034260164718741743
128	0xbfb1e02b19ed35c3	-0.06982678778623268
129	0xbfa92c2ae7abaab3	-0.049165097026919645
130	0xbf99c6cf0969bf8e	-0.025172457646874195
131	0x3fbdc1cd497b23d4	0.11623843234987358
132	0xbfb5e1c088c863e8	-0.08547595347808079
133	0x3fa1952330d1d3d9	0.03434095354979378
134	0x3fbc6d8b9875225c	0.11104652855022706
135	0xbfc19583dc8ba8ea	-0.1373753382570791
136	0x3fae54bb3f81cd7c	0.059240199568104196
137	0x3f9b862043efb62d	0.026878837725169347
138	0xbf6f8dbf7df16e40	-0.0038517704083867177
139	0xbfb997b9d9abb62b	-0.0999714046881414
140	0x3fa7f04bcb549fa1	0.04675518853247174
141	0xbf8641933c490788	-0.010867262151012871
142	0x3f9567abeae77a48	0.020903288090148103
143	0x3fad556ffff98aeb	0.05729246139232721
144	0xbfa7dbad15633692	-0.046597870693955504
145	0xbfbddcb51b3b82cd	-0.11664897837500661
146	0xbfbc1608e431d090	-0.10971122332722616
147	0xbfb44459d527ad93	-0.07916795209864906
148	0x3f9a946b389fa66b	0.025956797915489476
149	0xbf90c8583b1e0a99	-0.016389254196392675
150	0xbf82a8b5bbddde31	-0.009110851093040303
151	0xbfb0caddce97473d	-0.06559549611781974
152	0xbf8d51aadd8b3d37	-0.014315924535735476
153	0x3fbacddfdc81f63a	0.1047038949345386
154	0xbfbe279cc01d3c53	-0.1177919358280957
155	0xbfa72c8be74aba5b	-0.04526173780810857
156	0x3fb6e99627cd7f26	0.08950174781557205
157	0xbf95ea927f94dd80	-0.021402634655911523
158	0xbfb0c3eb8e4790c5	-0.06548950408574956
159	0x3fb3365fd27a0e9a	0.07504843605607406
160	0xbfad2cf4e838ea47	-0.05698361716027427
161	0xbfb12d47d4859341	-0.06709717691917395
162	0x3fa2452c0059404d	0.035683989565428044
163	0xbfabf54752b6aa1f	-0.05460570225416838
164	0x3f98dd71efec47a4	0.024282245892272805
165	0x3fbaf92482f56eb5	0.1053641147349776
166	0x3fbeb2e32b6a0857	0.11991710481564276
167	0x3f61dc359f90a774	0.0021801993684861746
168	0xbfb6ac7646d1f91f	-0.088569061555948
169	0x3f4b107bef18a54b	0.0008259396692597369
170	0x3fbbb7767a36831c	0.10826817020143803
171	0xbfa578a6af0ba068	-0.04193611990723484
172	0xbf91bb1fcd33202c	-0.017315384768864003
173	0x3fb63ea502aa8142	0.08689338030899754
174	0x3fbfddebf08ba0d8	0.12448000548068039
175	0xbf8f2a9a97779cfd	-0.0152179791902669
176	0x3fa13d0bfb971521	0.033668875180902676
177	0x3faae2b37bc2dfe1	0.05251084218747316
178	0x3fa4609b283cb896	0.0397995459191957
179	0xbfaa619ee9851635	-0.05152603722175934
180	0xbfb17cbb4a485586	-0.06830950320757809
181	0xbfb40c18aacc6452	-0.07830957574732736
182	0x3fba85358b6c8849	0.10359511045365467
183	0xbfadf8adf52716ed	-0.05853789918505279
184	0xbfa8f51bbc3f2040	-0.04874502823764759
185	0x3fbb1ab9ca41d95e	0.10587655246658786
186	0x3faeded7f4046474	0.06029391149258681
187	0x3fa7726126339874	0.04579452124907926
188	0x3fb44fd26278d20e	0.07934298423862904
189	0xbfa2c7fbba2c5e36	-0.03668200156806416
190	0xbf99a78e62f9df07	-0.025053238669413804
191	0xbfb494cfbe12fc1c	-0.08039568319780738
192	0x3faf544a3a90d856	0.061189956330438264
193	0x3fa81d1aaa09748a	0.04709704709669278
194	0x3f8aa4c5b4e69a0b	0.013009590705064708
195	0x3fb1c0de610f8d7c	0.06934919232985765
196	0x3fae0ceb15887c0f	0.05869230878692388
197	0xbfbd03a5734f6a93	-0.11333688798132817
198	0x3fbc3c79c8e47169	0.11029778627966426
199	0xbfb52138defe56bd	-0.08253817981889262
200	0xbfb6193adde97cd1	-0.08632247846388742
201	0x3fb8a863c8c6ccec	0.09631942416926947
202	0x3fbd98aca83b079f	0.11561087710563676
203	0x3fa570b71ddb4bad	0.04187557448826538
204	0x3fa2e7fd1e4e86d5	0.036926183652452295
205	0x3fb947d24966d73d	0.09875215808901046
206	0x3f66cf5959b31c7a	0.0027844185948172036
207	0xbf976bc2d7cad452	-0.02287201349345864
208	0xbf7b8fd7341c4e16	-0.006728973997968809
209	0x3f9f8cc28a5e9867	0.0308103939966248
210	0xbf95cec3b80cf1c0	-0.02129655657630436
211	0x3faf07cccde1f3e1	0.060606384403378184
212	0x3fb6151f0f873ba8	0.08625978592975392
213	0xbfb78dc5f2b9dbf2	-0.09200703788688694
214	0x3f932f3d862ae6b1	0.01873489505189835
215	0xbf85baa469341d8d	-0.010609898052748057
216	0x3fbbdd1918069c67	0.10884243809287995
217	0xbfa4ad7a5f3f7af1	-0.04038603222556059
218	0x3fb5ac26a276f0cd	0.08465806452199161
219	0x3f90553ddf8f0476	0.01595017125123773
220	0xbf8f5d7fbcbd424f	-0.015315053889623757
221	0x3f8544e155185b82	0.010385284814260268
222	0xbf8d02b6541f8cc1	-0.014165329401242823
223	0x3fbe9a33405a58c4	0.11954040833583962
224	0x3fb566a6217e1564	0.08359754865349128
225	0x3fbedc5911f72114	0.12054974259001866
226	0xbfb6619333070474	-0.08742637630258959
227	0x3f985715924397c3	0.023769700100181767
228	0xbf8298817ca4899b	-0.00907994424466523
229	0x3f93f408dbd7fe53	0.019485605638691016
230	0x3f9b09bdebe18825	0.026404349824936574
231	0x3fb12131c99824f4	0.06691275760399035
232	0xbfb1813f4b36d155	-0.06837840639383803
233	0xbfaf980ec549f2c9	-0.06170698316870966
234	0x3fb78026fbd1fc8b	0.09179919860797463
235	0x3fa216418f6a6ce0	0.03532605052643034
236	0x3f9b217b135242a9	0.026494906477241873
237	0xbf6ae074e8bf4c92	-0.003280857408734025
238	0xbf83b3e636580ca5	-0.009620474370427632
239	0xbfb6b51801549756	-0.08870077164155296
240	0x3fb60028fd04290b	0.08593994309572765
241	0x3fb335ee51a24b0f	0.07504167073265598
242	0x3fbc4d707f0c19fa	0.11055663205852531
243	0x3faf0f47c54af7a1	0.06066345485076786
244	0xbfb83ce563869ba6	-0.09467919998006255
245	0xbfbedd4ae00969c6	-0.12056415528915129
246	0x3fce4f9a727aebc2	0.23680430021144444
247	0x3fb5015c574b027d	0.08205201274086878
248	0x3fbb0ed87fc4b56d	0.10569527739854374
249	0xbfb31c229d21959a	-0.07464805923662823
250	0xbf8a2a353c6b95cf	-0.01277581778181061
251	0x3fb2e0f314fb80df	0.0737449575640343
252	0xbfb9a94ddc28a4f4	-0.10023962616891763
253	0xbfb99b6e2d11561c	-0.10002792930875909
254	0x3fbde27e2f11fd79	0.11673725747276888
255	0xbfc0244a8383f845	-0.12610751554160707

equations.x.layers.6.bias f8 [64]
0	0xbfaedd789c396341	-0.06028344065697989
1	0x3faed4a3e65c0d59	0.06021606623655868
2	0x3f927cf780193cfe	0.01805483550407149
3	0xbf6861762490ad15	-0.0029761607625197286
4	0xbfab5ea3c3c45f62	-0.053456418654774365
5	0x3fa4c7668d6d7560	0.040583805812938634
6	0xbf966debfb2cf669	-0.021903693395179866
7	0xbf83d42034853cea	-0.009681941607281936
8	0x3fb71ebd0346adce	0.09031277971251159
9	0x3fa4cd0ead5f998a	0.04062696329474409
10	0xbfb38b30d01d4359	-0.07634263115802521
11	0x3fb0a9d149db5e8c	0.06509120991847278
12	0xbfbe5fc5af36d76c	-0.11864886787119894
13	0x3fb8b7085b328e36	0.09654285646916425
14	0x3faf937527920571	0.06167188747441344
15	0x3f9d8e5e8a02e040	0.0288634082541821
16	0x3f5a9133316cf90d	0.001621532433730591
17	0x3fab9eeed3ebf5d6	0.053946936959601
18	0x3faee28299659bff	0.06032188532372373
19	0xbfb57a2ba592a3e1	-0.08389542381577499
20	0x3fbccb27fdf898ee	0.11247491789308459
21	0xbfa487a295e050b1	-0.04009731368583525
22	0x3f95a3b01dba40ca	0.021132232489038207
23	0x3fa6ea07ca0e5803	0.044754260458987026
24	0xbfbe0fc3de4e6131	-0.11742805650135747
25	0xbfb254d8343eca6d	-0.07160712504882279
26	0xbfb689b3cc8c2bf1	-0.08803867095791397
27	0xbfb961af466de0a6	-0.09914679974997628
28	0xbf8745a92e44c8b8	-0.011363336300380986
29	0xbfb7004424189064	-0.08984781152008875
30	0xbfb373a0d5a9a9b4	-0.07598309723258617
31	0x3fb3f46e22424118	0.07794845901867509
32	0x3fb6640224bd0407	0.08746350666935153
33	0x3fa70627f0ffff10	0.044968841713851515
34	0xbf927013239d499f	-0.01800565628884387
35	0xbfb073caa74e2ab0	-0.06426683983424186
36	0x3fb9ddf3d8ae5ba1	0.10104297676148956
37	0xbfa789a345bd099a	-0.045971967947951956
38	0xbfb4c78fa0d8fc8a	-0.08117005993789142
39	0xbf7cd671ef7f3a82	-0.007040448246654509
40	0xbfab3984a5653e70	-0.05317320364940492
41	0x3f72d1bbaf74d8cf	0.004594548364641861
42	0x3fb0d3ac475bf1b5	0.0657298731056873
43	0xbf99b090989e4b68	-0.025087603869518388
44	0x3fb975957a21e167	0.09945043784853667
45	0x3fad1ae624cd6b22	0.05684584807632677
46	0x3fb9ad972dbf1c67	0.10030503146036694
47	0xbfab0f11b5f6f932	-0.0528493437409331
48	0x3fb096345c5c83f3	0.06479193930546483
49	0x3f9b154dc7aa9fc0	0.026448455154109984
50	0x3f8e0d9c2eb189f0	0.01467439668175971
51	0xbfa298f780d1b559	-0.03632329413890529
52	0x3fa43f508dee4758	0.039545552564176745
53	0x3f69bfff7e0c9216	0.0031433096013577895
54	0x3f8bfee5e1f9878a	0.013669773062421137
55	0x3f6699a2029684f2	0.002758804727549185
56	0xbf7a878f6f69b517	-0.006476936620498883
57	0x3f85f7d94470cb4c	0.010726640130177899
58	0xbf9ad5ce5a5bf3a6	-0.026206230416380948
59	0x3f8c9a00baae2eeb	0.013965612122567935
60	0xbf6da8666e1719d8	-0.0036203384958952527
61	0x3fbd24a1e11a6d50	0.11384021516498888
62	0xbfb46068c26e972c	-0.079596087902783
63	0xbf7bb05a66168344	-0.006759980316389417
