Kolmogorov-Non-Consecutive-vPreliminary/2025-06-05_04-46-30/model.pt (torch, 7784 bytes, 8 tensors)

equations.x.layers.0.weight f8 [16, 1]
0.5058326647373969 0.28206175442284304 -0.08427381128923107 -0.21770334830173768 -0.8473321543081274 -0.24337144088250795 -0.8080010420540498 -0.2981577208700094
-0.740433419008528 0.06901718311905818 -0.9620027466137634 -0.500498887123937 -0.4069894050277548 0.07318762281997951 0.20034740393485953 0.08066014749663515
00000000: fb75 09fc c72f e03f 21b4 acbe 4c0d d23f
00000010: 8982 65ef f792 b5bf b9c3 970c b4dd cbbf
00000020: c448 7352 581d ebbf 5c75 af9d cb26 cfbf
00000030: ae31 5800 25db e9bf 0bf1 0b1f 0415 d3bf
00000040: 1a3a f06c a1b1 e7bf fbbf 5b30 1cab b13f
00000050: 05c9 ebfb b9c8 eebf ed36 fc3d 1604 e0bf
00000060: c269 1a4a 1d0c dabf 02da 7b8e 6cbc b23f
00000070: 7d8e ded5 fba4 c93f 75ad 96b7 24a6 b43f

equations.x.layers.0.bias f8 [16]
0.6140254422220617 -0.33709376314590594 -0.7979896027620978 -0.07950025279378971 -0.29897105625436404 -0.5821680195670578 -0.15595681181956925 0.5359017384288933
-0.0005225478318149813 0.09079092500412794 -0.32685961395558055 0.537475939855554 -0.8308115682738949 -0.03127440385221285 -0.012160419813618088 0.5959271247361734
00000000: a22e 28af 18a6 e33f 516c 19b8 f192 d5bf
00000010: e428 cd7d 2189 e9bf 39e7 c5e9 205a b4bf
00000020: 5609 447f 5722 d3bf ca29 9ad3 1ea1 e2bf
00000030: b53e 2d8f 64f6 c3bf 1a7e 0d67 1b26 e13f
00000040: af29 93ec 721f 41bf d493 aaf5 123e b73f
00000050: 43a2 1496 44eb d4bf 8020 02be 0033 e13f
00000060: c5fe 5b24 0296 eabf 868a 7edb 3203 a0bf
00000070: 9caf 3deb 8fe7 88bf 5351 f1c2 d511 e33f

equations.x.layers.2.weight f8 [16, 16]
-0.18471360791389507 -0.07281421383467387 -0.07556335544570995 -0.21859435219242487 -0.019850362138646886 -0.05733802995643746 -0.18620982330991354 0.052544250369770666
-0.03182572667130241 -0.1943852964593212 0.07124681888112167 -0.1979422165251357 0.20418934395331637 0.016508655156979052 0.2299803002855481 -0.05126120983894697
0.18737423588811356 -0.1183194583761492 0.18064184071576633 0.23871506892309152 0.1502384662466678 -0.2275035894138512 -0.10779812345375592 0.14028669756542303
0.22186972374078243 0.1051931957553547 0.1282361107145405 -0.2304264699290273 -0.0006866678893765271 0.15665172491830068 -0.07263488729801756 -0.19297412930784688
-0.21658104704990114 -0.14179381399090732 0.05547954840589319 0.18640758609966368 -0.18890307647875884 0.007354027272406773 0.212083501272834 0.0068796853296134485
-0.10389768700847321 -0.039244532701134295 -0.10237445921710106 0.01685440528469876 -0.19776607575336758 9.908775773581093e-05 0.34038926692541926 -0.14738089138862182
-0.1543197422501845 0.04630918339509384 -0.2580294686095863 -0.007784552667664229 0.045351459936694274 -0.05061094448869397 0.23679147934926106 -0.006157025581779702
0.1770278560309854 0.16496972392337733 -0.15134925452635117 0.029929423734830343 0.14828590153080734 -0.07468084780787897 0.0022399721069137433 0.20020834563268927
0.2346867057888641 0.03571395012904333 0.10609935046266634 -0.18236068440407166 -0.038924120777906246 -0.10226987164677478 -0.13213125069347592 -0.23775261625893374
0.09830924893702929 -0.24576097841731018 0.03494095314574344 -0.18008405182864745 -0.22668555009128077 -0.11037504168054181 -0.21978638252179508 -0.12542938879726834
0.028262848485071143 0.033818492957345465 -0.24661747308101117 -0.0955925861997466 -0.048345227899007984 0.13317182655790707 0.13419857936574 0.10759603152233675
-0.14959645803537064 -0.13445875501121024 0.20997308525021724 0.04618115918360683 0.032457590651431764 -0.056048583689294114 -0.07152956907948795 -0.1867257437732722
-0.08829171580280097 -0.24927898008391408 -0.24935852009685847 -0.022152023982157893 -0.1321663584620047 -0.04685933591641819 -0.12564029537655913 0.23165999084030242
0.09925340340138929 -0.11189456798785835 0.19887165307878005 -0.22728328307068554 0.2107367273352552 0.16594272060554768 0.1702831842688122 0.09714324214522913
-0.20743273116817187 -0.03377955458614096 0.20856110445443693 -0.05582514141970203 0.18033559541298289 0.15569846646920396 0.14537614729073042 -0.046237789962278016
-0.00442039860125306 -0.08173469216077836 0.007217936090652287 -0.12363135138308817 -0.078862554918435 0.005943538722059669 -0.05874205447162134 0.034686784323724525
0.14219888831966815 0.24281027122017929 -0.21390820102731115 0.03234714067632167 0.18091633994803222 -0.1525895363906399 -0.10437462225744727 0.03730044697705618
-0.18861920428258255 -0.1463863826775911 -0.05411538210921276 -0.010718499135220848 -0.01591487614327548 0.1809622283127124 0.01887557464749119 0.07201319251316941
-0.16907455375312805 0.09938993770715257 0.2144813200445309 -0.1647503685413995 0.2430296856294072 0.2532461131564501 -0.11309526005662267 -0.14470206383317835
0.08625242347174177 -0.11797732866309926 -0.19442512260234418 0.12829680192743767 0.11406615591896567 -0.24374797305328125 -0.03303705329613216 0.0576011898986803
-0.019338400573962626 -0.0838102564785895 -0.2536352360377916 -0.09356354999648626 0.24903239149640896 0.21427868074509887 0.24594717572618338 -0.1560384654563801
-0.23615067045531926 0.05871946048878509 -0.048793884986572195 -0.18379194136789667 0.05640785610467963 0.15468698911001846 0.06216473957406882 -0.0331348929766343
0.21490280738965567 -0.2137101583406566 -0.054061614381577146 0.03198815894190334 0.0038219426162796957 -0.06135345436586573 -0.11752718002394334 -0.1086858382718928
-0.05503684913165982 0.07822235423596853 0.04985177297784922 0.07197154905635673 0.09525878569038042 0.1944342107754593 0.20121306913561476 0.06719878448747676
0.07680425415267107 -0.09151821885716258 -0.10844574233883662 0.13610168508771672 0.12283474468761231 -0.076337955014537 -0.08967256465965429 -0.025647757936019863
-0.01656631350807998 0.14726516039969761 -0.10561225874297155 0.10239589416470132 -0.17382749176117834 0.17333303493539043 -0.3135391260275871 0.10107023475023544
-0.0981880020102095 0.17020380612437486 0.0805148726132816 0.1078596192172468 -0.1259635288223994 0.2588732957847389 0.09900198148615053 0.20199776414481505
-0.010832042069052543 -0.2347168925665152 0.06403755486631098 0.1686610980402252 -0.22094444896151896 -0.21240048565967473 0.4527447769233989 -0.06398104691442469
0.0714976932808422 0.025635734048147493 -0.151328700497725 0.19733863536132942 -0.1987518473941673 0.22273409787628218 -0.04105306881350518 -0.01730080219629507
-0.23238537418950891 -0.1705626159025091 0.0065591213905126676 0.055299687827812735 -0.09505682123061171 0.08137300941658145 -0.06531178494353905 0.11854635305279665
-0.0802646608200644 -0.1125110934185185 0.04297119029192318 -0.2734798068933621 -0.0003766698594030489 0.026629945150974454 0.2385468192470945 -0.12271846776877396
0.21377625976671713 -0.10184062787039641 -0.08650803582935075 -0.22818741812406024 -0.25254973138638986 0.1452400280435674 0.20065642766976502 -0.05763908804825039
00000000: 6ee4 8e0c b2a4 c7bf 8e97 1acb f3a3 b2bf
00000010: 3b54 6abc 1e58 b3bf dddd e054 e6fa cbbf
00000020: e106 cc40 a753 94bf 43be f506 695b adbf
00000030: a4ae a736 b9d5 c7bf 27ac dc79 14e7 aa3f
00000040: 1909 732e 764b a0bf b3da 8e0d 9ee1 c8bf
00000050: 0cd8 0945 3b3d b23f 1992 3ca9 2b56 c9bf
00000060: ed4f 3c5d e022 ca3f b82b 0018 a5e7 903f
00000070: 2ab0 3996 fe6f cd3f 4c93 9fc7 e83e aabf
00000080: dd4f a003 e1fb c73f 07bc 341c 2f4a bebf
00000090: 2eec 1497 451f c73f ea24 0b23 378e ce3f
000000a0: c0b8 9099 033b c33f 35a7 206e d61e cdbf
000000b0: 5ed6 cd66 a898 bbbf 25bd 0d1d eaf4 c13f
000000c0: 3538 b823 3a66 cc3f f1ed 87f7 f0ed ba3f
000000d0: 32b4 d776 0a6a c03f d12b 3d54 9d7e cdbf
000000e0: 4d1b 6510 3080 46bf 636b b1e9 290d c43f
000000f0: 9e5e 7e31 3398 b2bf a9f6 2c53 60b3 c8bf
00000100: 35a2 0181 edb8 cbbf ddda eeb8 4c26 c2bf
00000110: ff14 00bc d067 ac3f 381e 032b 34dc c73f
00000120: f586 cbdb f92d c8bf 9ce3 0faa 411f 7e3f
00000130: ab76 fe5a 8d25 cb3f 6599 f577 df2d 7c3f
00000140: 06d9 d4ef 0999 babf b510 ff00 dc17 a4bf
00000150: 867b 486a 3635 babf 2a1a f7fd 4742 913f
00000160: 7c3a cf15 6650 c9bf 78fe 33b7 aaf9 193f
00000170: 6aa9 5610 f0c8 d53f 06e4 4886 60dd c2bf
00000180: 8fbc 0bd3 bfc0 c3bf 136f 5f58 d6b5 a73f
00000190: 9046 4508 8e83 d0bf 9f1a f2f1 b1e2 7fbf
000001a0: 8a06 827a 4e38 a73f e116 cc7e ade9 a9bf
000001b0: 8565 e3e5 2e4f ce3f ade5 3af8 1b38 79bf
000001c0: 7d29 114a d9a8 c63f fe5f 8a58 ba1d c53f
000001d0: ec79 3b91 695f c3bf e752 84a0 d1a5 9e3f
000001e0: 502f c44c 08fb c23f c7ee f8b6 481e b3bf
000001f0: 1442 2ede 8f59 623f 1778 7054 6da0 c93f
00000200: 8da6 15c7 360a ce3f 0164 a14f 1949 a23f
00000210: bd2e 5db8 5329 bb3f aebb cb4b 9857 c7bf
00000220: d887 88c3 dced a3bf b6c9 16ba 5b2e babf
00000230: fe07 4144 ade9 c0bf 746e af7f ad6e cebf
00000240: 6730 1481 cb2a b93f 35b8 7782 1875 cfbf
00000250: 84a4 1ad6 c7e3 a13f 8e4e 9184 fe0c c7bf
00000260: c014 0f38 0804 cdbf 3104 50ea 8941 bcbf
00000270: cdc4 84ce f521 ccbf 76b7 6bf9 110e c0bf
00000280: cca0 bda7 eff0 9c3f 99ec 8052 a850 a13f
00000290: 3aa7 c04e 2991 cfbf 0dcd 7777 c178 b8bf
000002a0: 42e1 7ca9 b4c0 a8bf 354b e83f c60b c13f
000002b0: 65d3 c546 6b2d c13f bf5c 91dc 698b bb3f
000002c0: 4aff 6d0b fa25 c3bf 1a8e b7c9 f135 c1bf
000002d0: be4e 18e7 65e0 ca3f a919 c590 0ea5 a73f
000002e0: 86af b504 489e a03f a182 dd63 66b2 acbf
000002f0: 21b4 e407 c34f b2bf dbea 6911 a1e6 c7bf
00000300: 4379 e12f 499a b6bf e633 85a5 5fe8 cfbf
00000310: 71c1 65e0 faea cfbf 259f 2c2a 05af 96bf
00000320: 7ee4 9cc5 d3ea c0bf 3ced 8b66 f2fd a7bf
00000330: 76de d92f fb14 c0bf 74b2 39da 08a7 cd3f
00000340: 652b a0c9 ab68 b93f 589f 1b56 1fa5 bcbf
00000350: a393 0957 a074 c93f 53a9 db5d 9e17 cdbf
00000360: 6949 fccb 6bf9 ca3f b74a 016f 9c3d c53f
00000370: 2124 bfe1 d6cb c53f fc89 0a28 61de b83f
00000380: 795e 3ede 278d cabf b81c 71c4 8d4b a1bf
00000390: aaba 6c59 21b2 ca3f 6a67 62e9 1c95 acbf
000003a0: d23d 4d9e 3c15 c73f 05e4 c266 eded c33f
000003b0: 9fb7 1d83 af9b c23f d160 74c7 7aac a7bf
000003c0: 58b8 d7b6 1f1b 72bf ba77 c795 90ec b4bf
000003d0: b275 43f7 8d90 7d3f ac5d f3e2 4da6 bfbf
000003e0: 52f1 401e 5630 b4bf 0aaa f086 4058 783f
000003f0: 68ff b545 7013 aebf d12f 8c58 77c2 a13f
00000400: e225 6ebb 9233 c23f 0404 032f 6814 cf3f
00000410: 5d16 e10b 5861 cbbf e9d7 a5ee cd8f a03f
00000420: bfc4 b141 4428 c73f 953a 41ce 0d88 c3bf
00000430: 7dca 2095 4bb8 babf e507 c94f 0b19 a33f
00000440: 3247 e590 ac24 c8bf 110a 17fb c9bc c2bf
00000450: d33d bde8 02b5 abbf ccdb fb99 94f3 85bf
00000460: c395 3842 fd4b 90bf 910a 3532 c529 c73f
00000470: 537b 375f 1e54 933f 5980 b9e2 746f b23f
00000480: 234d 7a27 3ca4 c5bf 52f2 0074 9e71 b93f
00000490: 8cda 98b7 1f74 cb3f 35d3 7142 8a16 c5bf
000004a0: b823 dec3 981b cf3f fd25 762f 2f35 d03f
000004b0: 739b 469b cff3 bcbf dee1 e9e3 9885 c2bf
000004c0: 270a 038a a314 b63f 4607 4720 c333 bebf
000004d0: a286 8c23 ece2 c8bf 95d8 3a94 076c c03f
000004e0: eb9c 4089 7033 bd3f f974 5d32 2233 cfbf
000004f0: 001b ed8e 3bea a0bf 39aa a635 e77d ad3f
00000500: dea5 1618 72cd 93bf 1619 a5c6 9674 b5bf
00000510: c850 f948 8f3b d0bf 4523 55e3 c7f3 b7bf
00000520: 5795 8f1c 4be0 cf3f 66de 03db 7b6d cb3f
00000530: 8bcd 2472 327b cf3f 8bce 0685 11f9 c3bf
00000540: 655c 4467 2f3a cebf 234e e024 7a10 ae3f
00000550: ac33 8618 83fb a8bf 7cc3 b88c 7e86 c7bf
00000560: 7805 6a92 7de1 ac3f f90f ac83 c8cc c33f
00000570: 08b6 de86 0ed4 af3f 70d8 6183 0ef7 a0bf
00000580: f650 c768 ef81 cb3f 76b3 72be da5a cbbf
00000590: c9c5 79c3 f6ad abbf 038a 0781 c060 a03f
000005a0: 5059 69d1 314f 6f3f b4fc fe4f b869 afbf
000005b0: 870c 98e2 4216 bebf 2787 eac8 d5d2 bbbf
000005c0: acd3 3036 ca2d acbf ed75 4255 6106 b43f
000005d0: 0aca 2ced 2b86 a93f d983 7039 ba6c b23f
000005e0: 3365 3239 e162 b83f 9888 4060 38e3 c83f
000005f0: 648d bb8f 59c1 c93f ea64 b485 f033 b13f
00000600: 6586 c78f 71a9 b33f 8ecc faec bc6d b7bf
00000610: d759 bca4 19c3 bbbf 0ded 30af c76b c13f
00000620: 0ded 3e0b 1972 bf3f e81f 3b5c e28a b3bf
00000630: fcc8 8ffc c7f4 b6bf ef26 34e6 6743 9abf
00000640: f410 ee7a c2f6 90bf f4e1 e0b3 95d9 c23f
00000650: b195 5bad 6709 bbbf 1a9c ae08 9e36 ba3f
00000660: b646 21b0 fa3f c6bf 2c95 2ee2 c62f c63f
00000670: a183 1369 0611 d4bf 0eef d928 bddf b93f
00000680: 9051 7e51 d922 b9bf b6bd 7a02 3dc9 c53f
00000690: df34 b768 9f9c b43f c4da 1821 b09c bb3f
000006a0: 75f6 63aa 921f c0bf 0901 cd4c 6191 d03f
000006b0: 04e3 b8a0 3158 b93f 33fd 6e0f 10db c93f
000006c0: 49db 7b13 1c2f 86bf b52a b200 340b cebf
000006d0: 3dda dde3 c364 b03f 0759 18d6 af96 c53f
000006e0: 23e0 425f e847 ccbf 7c0a c869 f02f cbbf
000006f0: 3688 943a c5f9 dc3f 14b1 0fd8 0f61 b0bf
00000700: af72 613e ac4d b23f 8c0b 62fd 4040 9a3f
00000710: 7ebd ca25 bd5e c3bf 6b9d 8e74 6442 c93f
00000720: 8cec 4956 b370 c9bf c095 0a09 8d82 cc3f
00000730: a8ac e867 e804 a5bf 49b7 822e 4db7 91bf
00000740: 8d38 1bcf cdbe cdbf a859 9cec fed4 c5bf
00000750: b3ce cdbd bcdd 7a3f 4620 669d 3d50 ac3f
00000760: 6c7b 72d2 a455 b8bf 41a8 388e dcd4 b43f
00000770: 073a 60ec 45b8 b0bf 24fd 6bc5 0d59 be3f
00000780: 5528 3f8d 398c b4bf f073 abea 86cd bcbf
00000790: 7db0 f2e1 5100 a63f f34b ae72 b180 d1bf
000007a0: 4a14 3fba 78af 38bf 5322 125e e144 9b3f
000007b0: 7f94 9dc1 b388 ce3f 0a9f ae3d 7a6a bfbf
000007c0: edfb 2d3e 055d cb3f 6a82 1b36 3a12 babf
000007d0: 196f ba00 6425 b6bf 4acb 19cd 3e35 cdbf
000007e0: a1c2 3a59 c629 d0bf 1435 42a9 3997 c23f
000007f0: 4573 491d 1caf c93f 75e9 46dc de82 adbf

equations.x.layers.2.bias f8 [16]
0.17874428680446633 -0.17443978576072566 0.14179723043530337 0.006635161792040594 -0.19768109675997764 -0.014413983100591351 0.1670730649409569 0.2422279585294232
-0.2270226720685294 0.04064362663514325 -0.053400906799426925 -0.1288079635755193 0.1719157578818533 0.11107025110546836 0.16229814087906178 -0.21136829729541395
00000000: fd04 16c1 17e1 c63f 0a56 7bfb 0a54 c6bf
00000010: 4506 b161 6926 c23f f960 68ae 782d 7b3f
00000020: d28d cf3a 9d4d c9bf eb55 2d10 1485 8dbf
00000030: e160 fb72 a662 c53f 92c5 0764 5301 cf3f
00000040: 1b10 fe33 140f cdbf 17a7 60ce 3dcf a43f
00000050: 3681 8f18 5d57 abbf 29b7 8283 c77c c0bf
00000060: b782 e2e6 5501 c63f 6c76 0e98 196f bc3f
00000070: 577a a37b 2fc6 c43f d4c2 25ca 1d0e cbbf

equations.x.layers.4.weight f8 [16, 16]
0.026646073653688925 -0.07923396945160062 -0.050292219509121876 0.24227152405494035 0.23876976207244807 -0.10641586506480961 0.011970600900643419 0.021042828838876423
-0.25167232794536476 0.20853925306064203 -0.12221605657567175 0.09859856939621889 0.23628647401069983 -0.08983358274991306 0.2412517562729291 -0.18729193010013742
0.10358804431413844 -0.08272385649674356 -0.04343932771311567 0.03840000267603523 0.04656536756588937 -0.040521003914767234 0.0011091221736655263 -0.14272476389635066
-0.1504853817644361 -0.12730808932466237 0.24332861562640717 0.10316290312670348 -0.23214328479857352 0.2437215329604485 0.23198706487410956 -0.12899563780519052
0.19893384935203537 0.11421301049522131 0.09158006569239961 -0.23080205876851162 0.13614999007895212 -0.20838183208603905 -0.10891709084471152 -0.22918807619085163
0.06389944177303428 0.2545288935122009 -0.04507923144629702 -0.20477834955506002 0.16243583554918023 0.17416527362458353 -0.03310272794919175 0.22095230168080396
-0.18308698932225334 -0.05528103899762455 0.01194523101389135 -0.240009854944718 -0.12388998509918593 -0.1923707209645684 -0.13456935799977515 -0.1667929117973865
-0.15277165914750127 0.20636811958343965 -0.03678443059746565 0.10049261309220599 -0.2356391971542617 0.19585843496706745 -0.05859589201761349 0.047275621023841155
0.11286909754566897 -0.01029768034871656 -0.029671368709235903 -0.14242009079892834 -0.11444400794246502 0.03883079208474442 -0.17178210310465203 0.06336409526996821
-0.1688871436112785 -0.14844637201702968 -0.07670701728800797 0.21091665654399944 -0.05460584552461137 0.05903561366886549 0.051481459647125555 0.13120273614502057
0.054409214749447266 -0.20657142905161088 0.053871055492601634 -0.18726846626712665 0.03530605650654125 0.06686218648720825 -0.18615358883861852 -0.20905581397859616
0.18000509733910772 -0.1705507098668853 0.24409852620865102 0.033947439296814985 -0.23815122366560904 -0.04152422681925984 0.1650045429467566 -0.1362555184613872
0.0690109501794695 0.24817501037954523 0.12509664536117915 0.11843619723859931 -0.005512177587898899 0.09469198151978103 -0.025012965810276743 -0.08208094039198377
-0.005062502380981017 0.2575872053111484 -0.11580173888706835 -0.12202907805289132 0.237362634983509 -0.12277863978273353 -0.051399527390370396 -0.1400374464455302
-0.19151569858374054 -0.0875355822641181 -0.1421579150440325 -0.0917368880526462 0.13005262079030105 0.04885336527350147 -0.109064179049114 -0.08574002056521067
0.24658470397412122 0.061259345020983666 -0.1715090859975139 -0.08085297313115859 -0.07989927444925017 -0.18836341181956287 0.1406482755134105 -0.0856929527958072
0.13538787490484575 0.1838957299740807 -0.14127101810414314 -0.1359210608203606 -0.09614323566859256 0.024156341889573937 -0.06655893844941871 -0.16305697871589517
-0.008239777954417826 -0.05016203412333055 0.048199706782747036 -0.058372870849361415 0.17435675704525322 -0.21679300156947542 0.2321597532714121 0.08848952740584794
0.13197210783840074 -0.17169258124961567 0.23858778196564118 -0.05506585337998258 0.23592278597140967 0.06791269909702871 0.02285895169960909 0.07712116606886575
-0.1875222492353022 -0.08554977923367618 0.07996836361230732 0.2327347575031122 0.23281228776822813 -0.14224751872617802 -0.24076724484766443 0.13670413743930993
-0.11821472697541088 -0.24484718377768364 0.131824180167657 -0.2041121390536285 0.08529234813864896 -0.057184090650560675 0.09230141845325003 0.18989370776381972
-0.009686844360894706 -0.18968130795408866 -0.2358110619777025 -0.2208830203091604 0.03450027156197553 -0.23975956975956408 0.15128735069116986 0.09381687630797304
-0.0013112489348846004 -0.021034416566928574 0.18779813129147818 0.23400716849601821 0.1372533579453452 -0.03377589524058979 -0.17711144270913332 0.1392267426420206
0.21359807668303782 -0.24417994531385115 0.13143702741150118 -0.21334136512055074 0.14988743036041355 0.07683950660225967 -0.13942652311898465 0.07461072596588568
-0.2350752405994269 0.08684002039531317 0.1091168864909656 0.24369288648996856 -0.2256065117947971 0.12347480921214538 0.23943120248152194 -0.05417658550349206
-0.09335519972781192 0.08134411969368974 -0.056539444469090795 0.221601482330993 0.022653947775785534 0.16943101248755077 0.08176423723308664 0.20149738067516015
-0.12007296895670841 -0.1019410496648076 -0.20854130494517617 -0.011233425248742273 0.19038532112567597 -0.03661315887277878 -0.013086998170122837 0.06027114979244539
0.23278783610882597 0.041123158961493975 0.11905517428981614 -0.1725239663280259 -0.08133468721086547 -0.22551991496070434 -0.07289705724120274 0.20532283629012127
0.011779209530572743 -0.19981606268378602 -0.17756448720144274 0.21694481354138392 -0.012634115392455776 0.09457712841792547 -0.10583538468817034 0.06653906404676967
0.20284363489633736 0.15610980707670571 0.04290230390296841 -0.2048713242084429 -0.18796730749103957 -0.02428734106299482 -0.16697404933607646 -0.1512219462638394
-0.12936437103003054 -0.231792412457562 -0.11188099586074268 -0.14887128511845227 -0.24466097933552833 0.13373372658512114 0.1784346449467377 0.12116531746889533
0.021438698813029424 -0.18275424048879454 0.07283620671750987 0.16744624741796105 0.17323248151542245 -0.17611698511421822 0.23502606270406273 -0.03620548022757438
00000000: 0f3a a3bb 1b49 9b3f 1de2 866b ad48 b4bf
00000010: 8fe2 11dc e6bf a9bf bcb5 48d8 c002 cf3f
00000020: 99fb afef 0190 ce3f 9999 3af4 113e bbbf
00000030: 50c9 0ddb 0a84 883f 3f94 b656 408c 953f
00000040: 8858 7540 661b d0bf e8f2 e90b 6ab1 ca3f
00000050: 6ce1 092e 8d49 bfbf b638 fd7e c13d b93f
00000060: 617a 2e9b a23e ce3f 914e fe6b 55ff b6bf
00000070: cabb a569 56e1 ce3f ffda 4a95 2ef9 c7bf
00000080: 85f8 95fe be84 ba3f 8ba4 4002 642d b5bf
00000090: 93af c6f7 ad3d a6bf 4adc 5147 2aa9 a33f
000000a0: b2b7 a475 6ad7 a73f 04e3 3a45 2bbf a4bf
000000b0: ad71 a4dd fe2b 523f 97cf a118 ce44 c2bf
000000c0: 6a27 9ae0 1a43 c3bf ba34 15a8 a14b c0bf
000000d0: 90ef 255f 6425 cf3f 86f0 164f e268 ba3f
000000e0: d512 1904 dfb6 cdbf cfb3 b266 4432 cf3f
000000f0: b75a 5d8c c0b1 cd3f 1c98 d9d6 ed82 c0bf
00000100: a766 8414 aa76 c93f 54cc da58 103d bd3f
00000110: 8748 1d8b ca71 b73f 224f 21ff eb8a cdbf
00000120: 8cb2 5ee5 5c6d c13f d6ee f180 41ac cabf
00000130: 944b 278f fde1 bbbf 02ba efed 0856 cdbf
00000140: bed8 a5bc b65b b03f f367 618e 334a d03f
00000150: 73d1 9401 a014 a7bf 8c48 224d 2d36 cabf
00000160: baea b08c b2ca c43f 5782 2835 0c4b c63f
00000170: dc7b e63b d7f2 a0bf 11f5 d83e 2a48 cc3f
00000180: b128 bbfb 646f c7bf 79da 2add cb4d acbf
00000190: caf3 61c4 bd76 883f 3646 da96 a4b8 cebf
000001a0: e18c 4d0a 41b7 bfbf ff18 a091 9a9f c8bf
000001b0: 528d d397 9139 c1bf efeb af5a 7859 c5bf
000001c0: 99a7 e58f 058e c3bf 4621 4642 456a ca3f
000001d0: c610 d6ac 68d5 a2bf a579 b846 e2b9 b93f
000001e0: bf74 b7da 6c29 cebf 6c26 6aa2 e311 c93f
000001f0: be8b cadf 4700 aebf fa16 649c 8234 a83f
00000200: ef0b b03a fde4 bc3f 3146 9442 f316 85bf
00000210: da55 efd8 2b62 9ebf ef2a 2350 d23a c2bf
00000220: 7907 56d7 334c bdbf 86db 292c a1e1 a33f
00000230: b8b0 6fb9 f4fc c5bf 17d6 ec1c a138 b03f
00000240: ea3c 430b 189e c5bf 67f1 826c 4a00 c3bf
00000250: ee2d a032 12a3 b3bf d6e1 0427 51ff ca3f
00000260: 54b3 6521 4cf5 abbf 669e 037c ea39 ae3f
00000270: 7cca 1123 c75b aa3f 01bd 7152 40cb c03f
00000280: 805b e64b 86db ab3f 8d46 08be ee70 cabf
00000290: 015d 15ab fc94 ab3f df3d 18c1 69f8 c7bf
000002a0: 9bb7 17ac a213 a23f 7b36 4d58 e11d b13f
000002b0: 9725 0c7c e1d3 c7bf 4bd2 0946 57c2 cabf
000002c0: 5ba6 1733 680a c73f b20b 980c 9bd4 c5bf
000002d0: c0b2 88d9 9e3e cf3f d022 200b 8f61 a13f
000002e0: c4b5 9242 bd7b cebf 525e 5cd8 a942 a5bf
000002f0: 60e9 d26d de1e c53f a978 d821 d270 c1bf
00000300: 6b32 169e b3aa b13f a7de a1e0 32c4 cf3f
00000310: 8c31 55b8 2a03 c03f 6769 cda9 d551 be3f
00000320: 7b2d 84e7 ef93 76bf 3c26 d2d3 bb3d b83f
00000330: 5340 86b8 ff9c 99bf 60c6 9baa 4103 b5bf
00000340: 5b84 9822 6bbc 74bf 9e7b ab0b 4f7c d03f
00000350: 0803 57c9 2ea5 bdbf 68f0 6533 4c3d bfbf
00000360: 92f5 4519 e661 ce3f f1a2 83c2 6b6e bfbf
00000370: 77ce 57f2 0951 aabf ad75 593e bfec c1bf
00000380: b13b 0b1f 9683 c8bf 5b8a 0f5f bb68 b6bf
00000390: 3ba7 fd05 3b32 c2bf a5de 0596 117c b7bf
000003a0: e2d6 8674 90a5 c03f fe67 4cec 4e03 a93f
000003b0: 2e58 2e4a a1eb bbbf d733 49d8 0ef3 b5bf
000003c0: e39f a16b 1690 cf3f d606 e186 625d af3f
000003d0: 10c0 a97d 02f4 c5bf 29f8 61cb c7b2 b4bf
000003e0: 01d1 bb62 4774 b4bf 9595 c3d2 4a1c c8bf
000003f0: 93d1 c83f c300 c23f 2d73 c12d f9ef b5bf
00000400: 55e1 7ecf 6354 c13f ba6d 0e31 e589 c73f
00000410: 2da1 5031 2b15 c2bf 54d1 877f dc65 c1bf
00000420: 34a0 edd4 d79c b8bf df79 a0a9 70bc 983f
00000430: 1e90 e5af 010a b1bf 4313 7c13 0ddf c4bf
00000440: e065 b946 04e0 80bf 32ff 1e90 d6ae a9bf
00000450: 570c 9ec8 a1ad a83f 4514 8b86 0ce3 adbf
00000460: 1449 ac7c 5251 c63f a70c df81 dfbf cbbf
00000470: 2fc3 df29 69b7 cd3f 0122 3fea 3fa7 b63f
00000480: 0437 9347 76e4 c03f fe69 b7c2 05fa c5bf
00000490: f640 6260 0b8a ce3f fd65 c96e 9731 acbf
000004a0: cf6f 10c5 b732 ce3f f2d5 9a05 ba62 b13f
000004b0: eaf5 e147 5668 973f 9f5c 1876 36be b33f
000004c0: 4276 dea3 ba00 c8bf c418 fd1f 97e6 b5bf
000004d0: 79f3 6d82 ce78 b43f 5726 0fa6 40ca cd3f
000004e0: 4726 0905 cbcc cd3f c8db 6eac 2a35 c2bf
000004f0: 94cc 4809 76d1 cebf 0ace c36b 857f c13f
00000500: 56d4 4302 5243 bebf 9be2 6b0b 2757 cfbf
00000510: 4a30 525f 9ddf c03f 21d9 f9b8 5820 cabf
00000520: 61c3 da25 b8d5 b53f 372d 64ae 3b47 adbf
00000530: 1191 a1d5 10a1 b73f a3e8 47e0 6f4e c83f
00000540: b214 da3d b2d6 83bf f0a3 2923 7a47 c8bf
00000550: 6f58 9d8f 0e2f cebf 241a 3c12 e545 ccbf
00000560: bda4 1f04 05aa a13f 1a9b 820b 71b0 cebf
00000570: f12e c247 625d c33f 353d 8eff 6104 b83f
00000580: fc20 b4d2 c67b 55bf d449 fbcc 0b8a 95bf
00000590: c5ca 12e8 c409 c83f a427 dc67 f2f3 cd3f
000005a0: b01a d29d 8491 c13f 2325 e7fa 124b a1bf
000005b0: fe6f 1777 96ab c6bf 9f23 3091 2ed2 c13f
000005c0: 7ecb eb88 2e57 cb3f c124 bbd7 4941 cfbf
000005d0: 13a1 1bb3 edd2 c03f 4ad3 0915 c54e cbbf
000005e0: bd5e bde5 822f c33f 57c1 e5ff c0ab b33f
000005f0: f9d9 7e72 bad8 c1bf cf4c f443 b019 b33f
00000600: c5a7 3c0b f216 cebf abf3 94c7 253b b63f
00000610: d687 eb92 15ef bb3f 3802 df18 5431 cf3f
00000620: 6d2e f696 ace0 ccbf 502d 728b 0b9c bf3f
00000630: 6069 2680 aea5 ce3f 9594 e48d 08bd abbf
00000640: 8014 be59 20e6 b7bf 226a cedd f7d2 b43f
00000650: 8585 dbf1 bcf2 acbf 8da9 adf7 6f5d cc3f
00000660: 9a06 4ab3 9832 973f 1cf6 c758 eaaf c53f
00000670: 9d03 e644 80ee b43f 725f 1d8a aaca c93f
00000680: d27c cd22 1abd bebf 8c25 6e02 cf18 babf
00000690: a366 4d42 7bb1 cabf 03f5 85d0 8c01 87bf
000006a0: 34c6 efd3 8b5e c83f e975 ecbf f5be a2bf
000006b0: c9dd 2529 5bcd 8abf 0d72 8032 dcdb ae3f
000006c0: e63b 7fe7 fdcb cd3f 3e16 b23d 180e a53f
000006d0: 178d fe5f 667a be3f 8cd9 93ec 4315 c6bf
000006e0: d9de 999d 59d2 b4bf b02c ad29 d6dd ccbf
000006f0: e65a d3ac 61a9 b2bf dc77 7ec9 0448 ca3f
00000700: 33ff a6bd b21f 883f d39e 389f 9293 c9bf
00000710: d608 bbe0 6eba c6bf 5339 99ff d8c4 cb3f
00000720: d759 6543 eadf 89bf 4b2c 81e9 3436 b83f
00000730: 11ca fe1b 0718 bbbf 57c1 fc3f b408 b13f
00000740: af6f 0abd c7f6 c93f 5f5a fdf9 67fb c33f
00000750: 0a63 5f70 4af7 a53f 5c86 ae3a 3939 cabf
00000760: 8a12 320f 500f c8bf e818 4ade c7de 98bf
00000770: 06ee 96d8 675f c5bf 2201 d2a0 3d5b c3bf
00000780: 41b9 6bff 028f c0bf 84ab 7baf 5fab cdbf
00000790: 8c0b 44a2 3ba4 bcbf e4d8 72da 360e c3bf
000007a0: 103d 6d0c 0d51 cfbf 1b14 07cf 2f1e c13f
000007b0: 9582 424a f2d6 c63f 8e38 f0b3 b004 bf3f
000007c0: e740 15b9 06f4 953f 8966 0daf 7d64 c7bf
000007d0: 9eff d0c5 64a5 b23f aac0 3fee e06e c53f
000007e0: 5759 5b61 7b2c c63f c3f7 aa59 008b c6bf
000007f0: 9ec3 8282 5515 ce3f 3bdd 0653 8689 a2bf

equations.x.layers.4.bias f8 [16]
-0.16522735933569807 0.056119285988909584 0.2385440709597223 0.08340011922386786 0.1981758928122034 -0.2181461695246433 -0.20261881402171544 0.19177899825267722
-0.07938941098731635 0.009399486145563024 0.037277493277280443 -0.16534648165036772 -0.031038721941667614 -0.10490888238880794 -0.13414284927338443 0.24628604287914774
00000000: 6729 608c 2b26 c5bf f095 fec3 aabb ac3f
00000010: 749e b6b3 9c88 ce3f 248c 8cd0 b559 b53f
00000020: 35f4 3de1 d35d c93f e591 edb3 36ec cbbf
00000030: 8c87 e3cd 69ef c9bf a106 c7d6 368c c83f
00000040: 91d7 d64b dd52 b4bf e353 c1ac 0940 833f
00000050: 4c6c 011d 0916 a33f 1537 99d1 122a c5bf
00000060: adad 985e 9dc8 9fbf aa7a ebfa 4edb babf
00000070: 768b 4fc7 972b c1bf de47 d011 4d86 cf3f

equations.x.layers.6.weight f8 [1, 16]
-0.04012262680141334 -0.09596647827943146 0.015309640857249856 0.08679099849193588 0.0180256669159526 -0.14339941519432667 0.014512440675452232 0.2156556921655975
-0.1606991888951445 0.20825475531880136 -0.15692917694123312 -0.026079820920853522 -0.23864166677827933 -0.17166730145015183 -0.013055442150358795 -0.22355627476462792
00000000: 5324 e2f3 f38a a4bf a5f2 b855 4291 b8bf
00000010: 49f7 5c36 a95a 8f3f 3b2c 1c54 ef37 b63f
00000020: 3407 9207 5275 923f 6538 437b e95a c2bf
00000030: 8d8d b0d0 b2b8 8d3f fa13 8610 9b9a cb3f
00000040: 0e31 6680 ca91 c4bf 7d55 aa81 17a8 ca3f
00000050: 011a 6059 4116 c4bf 4c2d c327 abb4 9abf
00000060: 2748 2365 cf8b cebf 53af c2b2 31f9 c5bf
00000070: 789c 90c8 cfbc 8abf 54ff 76f4 7d9d ccbf

equations.x.layers.6.bias f8 [1]
0.04503231469305411
00000000: ad5c bdbd 790e a73f
