simple-pendulum-2ndorder/2025-06-01_01-38-44/model_best.pt (torch, 139426 bytes, 12 tensors)

equations.x.layers.0.weight f8 [64, 1]
00000000: cd5b d830 4e24 fbbf c374 c6f5 77c8 f43f
00000010: 86c8 71ec 6a4b 08c0 8106 89ec 143d 1ec0
00000020: ace7 bf16 64f9 0240 ecde 54b5 bfa7 b1bf
00000030: 50b6 7b7d 75a0 fe3f 8749 9dbc 8d5a 15c0
00000040: 6823 96cd b3a4 0240 50c9 75bd a337 fc3f
00000050: 95e8 bf3b 7676 98bf beb6 ea33 7eee bbbf
00000060: ca6e 6ce3 3530 d5bf cb4e 7b5c 7958 1a40
00000070: 3220 fb79 9128 fcbf 24b5 c31a 4bfa 05c0
00000080: aa77 21da bac5 a4bf 9e4d 1f31 e6f1 883f
00000090: 4bcb d3e8 ac9e dcbf ea95 a048 4ff7 d8bf
000000a0: e729 d004 6c0a 0740 ef25 8a76 670d b0bf
000000b0: 235f 7388 b165 16c0 6f28 9d47 7479 e5bf
000000c0: 70a8 d97a ad9f 8d3f 36ee ae4b ae5b bc3f
000000d0: 307a 2fe1 005d c13f 83dc ed38 28d0 f6bf
000000e0: 1c0f 3817 4c07 e13f 3b4a 17ab 0f1e 0c40
000000f0: 11cd 3564 8ce1 ae3f 9d34 4649 8c12 e0bf
00000100: d470 d112 5a2e c63f 47fd 474d f163 d03f
00000110: ba27 f940 0a77 0440 d477 da50 5168 ae3f
00000120: 2e07 2a38 c3e2 d03f cc77 448f 6f67 c2bf
00000130: d0e7 f09e cfd5 d93f 03c0 38ba ae93 03c0
00000140: c8e7 a78a a3f2 d73f 98d7 aa93 6102 f5bf
00000150: dd3d cb39 d8b4 f93f dfba 6db0 3ebd b53f
00000160: 0d18 4515 7fc0 02c0 9cc4 f909 a2fe 07c0
00000170: 928c 3fed cce4 00c0 a4aa 2421 06ae 0140
00000180: 462b 1d08 d5fe edbf 4493 4dc8 a6d0 a8bf
00000190: f55d aaae f199 0b40 de50 0759 d6c0 0640
000001a0: f6a5 4226 c741 c9bf a6b8 9a64 10a8 0040
000001b0: ab49 e69b a699 cf3f 9a32 b99f 8cce d33f
000001c0: 807b d498 22a2 07c0 5a09 7112 19b7 d23f
000001d0: cf2e e6be a568 07c0 1208 0985 030f c5bf
000001e0: 3213 2902 cf03 d5bf 1bed 3d81 7977 c13f
000001f0: 78a1 5233 3374 01c0 f29a a649 fdce fa3f
-1.696363631059046 1.2989425278276918 -3.0368250343536287 -7.559650131095283 2.371772935611224 -0.06896589448012563 1.9141745473565557 -5.3384313078880785
2.3304210721438956 1.763583889082458 -0.023889396092251564 -0.10910786406995052 -0.33106753548939294 6.586400456453428 -1.7599043621903658 -2.7472135630583967
-0.04057105934837975 0.012180136083691558 -0.4471847795204453 -0.3900945863009314 2.8800888420130266 -0.06270453113588535 -5.599310047189451 -0.6710759543141317
0.014464717208472616 0.11077393863427507 0.13565073962577534 -1.4258196090502515 0.5321407750602449 3.5146783224566014 0.06031454776066359 -0.5022641593110567
0.17328954619268322 0.2561000113200475 2.5581250263248565 0.05938963043193693 0.2638404892423861 -0.1437816094921217 0.4036749889525 -2.447110609871744
0.3741844991742451 -1.313081337762446 1.606651521451446 0.08491889769878068 -2.3439923917494583 -2.9993325023029467 -2.1117189917582175 2.209972628528094
-0.9373574408030911 -0.048466884566357865 3.4501680036298645 2.8441588359220153 -0.19731988304310705 2.0820625171391667 0.24687655079158097 0.30948176954260875
-2.9541675510258187 0.2924254112332584 -2.92609738483393 -0.1645206832491231 -0.3283574601266991 0.1364585763038598 -2.181738282164755 1.6755345227226681

equations.x.layers.0.bias f8 [64]
00000000: 54a2 ee27 e02c 05c0 f865 ce58 d621 f2bf
00000010: b583 2c10 9672 e63f ae54 c243 189f 0640
00000020: 0cd1 00e3 42ba 0d40 6141 8559 748f e4bf
00000030: 2999 e940 fae4 f0bf c28a 7e67 0afe 0040
00000040: a0ec a796 fa16 1240 d248 7210 6173 1440
00000050: 37a9 9db3 fb85 d13f b0e2 6a64 37a4 c13f
00000060: fb29 6820 2c72 d03f b250 71c7 5056 04c0
00000070: 37f1 68c6 f42f db3f 5a52 0c52 b210 14c0
00000080: 720d 8519 488b a83f b8bc ea66 5fb5 e13f
00000090: a5e7 e48b 391b da3f 3bc5 a9b9 8d3d d23f
000000a0: 33a5 a89a 45c3 1340 e98c 5225 ae87 e43f
000000b0: e5f7 022b 7306 0140 d888 8c50 18ca 05c0
000000c0: 8803 442e 90fe ddbf 49ff a67d 4b6e eabf
000000d0: 922b cf0e bd33 ccbf 9eb4 9b09 1496 e33f
000000e0: d294 a661 deed e3bf 68f6 be3a 0cb6 cc3f
000000f0: c232 679b 6438 e6bf b43d 5f6c 4a0e e33f
00000100: d8ca 5a9f 6f35 a33f c126 e9c0 dd95 e9bf
00000110: bb95 6bd7 77b7 1240 be8d bc11 957b ccbf
00000120: 65d1 202b f19d b4bf 628b 954e 7507 c53f
00000130: dd5a 16cf 20d3 e2bf 7a98 27da 4cd8 f63f
00000140: 8d05 c909 55e7 e2bf 073d 9018 d201 06c0
00000150: a87f 8647 05a2 1040 d923 d656 6f39 eb3f
00000160: a520 e41b 13ff 0cc0 8da4 4a1f e2ac f73f
00000170: c443 ed09 c975 f83f f275 12c4 82cb f0bf
00000180: 9931 542e 5e4c f03f df9d 6622 9509 cc3f
00000190: 79d0 359c fa8b f5bf f789 fce9 f2ee 1040
000001a0: 783b eebb b5b1 c43f e537 a63e 197d 1040
000001b0: cd94 284d 2d9e ccbf 6403 4b80 2d8d ed3f
000001c0: 39d5 7558 7eb3 10c0 50b1 27ac 87b7 e6bf
000001d0: 21fe 475e fd85 ee3f a5db 1e4c 041f c73f
000001e0: 593c a1ee 8f56 07c0 d993 17da 8caf d83f
000001f0: 8335 0cbf f630 10c0 ad46 9fa3 1ccd 0e40
-2.6469119186115595 -1.133261057757748 0.7014875713249383 2.8276829999618576 3.715947888815327 -0.6425115345428304 -1.055902722896983 2.124043282078987
4.522440294265067 5.1126749582055755 0.2738026861249127 0.1378239860839776 0.25696852841124923 -2.5421462613540706 0.4248020112606982 -5.016305238725716
0.04793763457794399 0.5533902177902723 0.4079116693643477 0.28500693446320086 4.940695206206601 0.6415625313715313 2.128149353054129 -2.723679189003729
-0.4686623050511618 -0.8259637312075735 -0.2203289339361985 0.6120701015148773 -0.6227867038002393 0.22430565708593808 -0.6943839106766847 0.5954944721833528
0.03751705951926504 -0.7995442168987311 4.6791680964865305 -0.2225214325527371 -0.0805350046437688 0.16429010712735265 -0.588272480456762 1.427807666937524
-0.5907387915723789 -2.7508890074747145 4.158223264297625 0.8507610984826172 -3.624548166179084 1.4797078344657024 1.5287561786428663 -1.0496852549616702
1.018644505474276 0.2190424364064105 -1.34667454738249 4.2333485184085395 0.16167327572153645 4.122166613478815 -0.22357717769151578 0.9234836106989914
-4.175286657516431 -0.709903560867625 0.9538561669759852 0.1806340572054214 -2.9172667162852517 0.38571473405892004 -4.047816262359791 3.8501522810919

equations.x.layers.2.weight f8 [64, 64]
00000000: f0da 1227 358a b63f 428a 64ef b568 943f
00000010: 07c6 1e8c e0ee 8fbf 9621 06cd a9ca a6bf
00000020: 9ca1 a446 45af adbf c40e 0993 908f c0bf
00000030: ce36 a4cd 8aa0 9f3f 87c5 1e98 e7b0 c03f
00000040: c68c 15c2 a66e aa3f 723d c683 d927 6a3f
00000050: 20ae 79ad c2cb b2bf c937 aa3d 0745 94bf
00000060: 6709 d8a7 7d3c 9abf e0f3 698b 292b 4abf
00000070: 2af9 ffc2 c66d bc3f 3cfa c6d0 904a 83bf
00000080: 2f02 ea73 b5f9 b1bf 3db9 cc55 724a 923f
00000090: e51a a890 0a26 bfbf 4fc5 601f 3cc3 c0bf
000000a0: be33 365e a860 9ebf b02b c9e7 4fce c13f
000000b0: 7839 e7e5 3b31 c23f fcef 1173 d3f3 ba3f
000000c0: ebff d986 70e9 963f 8c8e a22f 0a6d a8bf
000000d0: 62eb 102f 1a81 b0bf a2cd 2444 118f 9ebf
000000e0: 12af 9a9c 0ce2 b2bf 74f8 13a6 8012 b13f
000000f0: 12ed 7ed1 d089 bcbf 6b97 cc48 1dd6 7fbf
00000100: 43e5 92e5 c017 bd3f 97b1 2f30 454a b7bf
00000110: eba5 021c 0d04 adbf 920d 4155 8390 c13f
00000120: 6752 c8ff 8f16 b2bf 63ae 758b 2fb5 b6bf
00000130: 8999 0d8c 1726 913f 472e c0b3 3949 c13f
00000140: f319 8001 612f 723f 62fd 9cc3 6b92 b33f
00000150: cb07 f728 7e8c b0bf daa3 8bbf 4163 c03f
00000160: 79bd 6896 ec6e 4ebf b609 630f 1edb bd3f
00000170: 9d39 27a2 23d3 b23f 574b eabf a57f bebf
00000180: 7ee2 6419 e9e2 b0bf d6cc 1c66 97eb 98bf
00000190: 8f5c 654c 8a39 abbf 49eb 6690 457b b83f
000001a0: 5adb 9ee3 b43f c1bf 4601 1e09 35fc b2bf
000001b0: c9b6 88e7 123b ac3f 2e8d 36df a54b 95bf
000001c0: 5c9b 2169 8ca9 953f 7fda 8970 1e91 8d3f
000001d0: e3da b7cd d075 823f 00a9 cef2 2bee b9bf
000001e0: 9714 e2fe 2af3 83bf 1b58 8b1f 3e55 b13f
000001f0: b06f 5c69 efc1 afbf 09fb 369f dcb3 bd3f
00000200: 5a48 5ef2 f6cc 98bf 6d65 4e85 d20a b73f
00000210: e607 43ae 57bc acbf a068 8b04 3f09 b0bf
00000220: ce8e f236 9625 bbbf ef45 3370 f042 b33f
00000230: 80cb 94d6 f9ef b53f 214a e454 6a9e c03f
00000240: d426 bb5e 0a0c b53f 0ee0 2536 bc2b aebf
00000250: 24f7 518c 4801 84bf bc99 971d 3e63 b9bf
00000260: 7ceb 5d08 c952 ae3f 4408 c34b 7a08 a5bf
00000270: b3cf 83a0 4b1b c23f fad9 57fe 0217 a1bf
00000280: 2a08 0d8d 4190 bb3f 6b3d d9d8 cf65 b93f
00000290: 6368 cf28 5f3e b7bf 09dd 077e 9178 b9bf
000002a0: b326 c9b7 f1bc bebf 7271 93a0 3d02 833f
000002b0: 2880 587e 2ac9 a43f 8a5d bfa8 6746 be3f
000002c0: 7b48 d456 44df 9f3f 0c86 9354 95a8 aebf
000002d0: b274 72c5 0cfc a0bf ec77 f718 fa81 b23f
000002e0: b1c9 25e6 b195 a43f 5cea 8df2 e4fb 6f3f
000002f0: c830 fbec cea5 a0bf 87d1 451a 5ec1 ba3f
00000300: 631e b645 30d3 82bf f17c d8c3 fd75 c13f
00000310: 6e00 a288 3f17 a0bf 0ed4 c719 f1c0 bdbf
00000320: 2f26 7b0e 0462 ba3f 419f 9c2e 27dc bbbf
00000330: 980d 3c17 0f8c a7bf 2fab 4c5e c46b b23f
00000340: 9042 7b77 5394 a5bf df5e 75e1 1c06 733f
00000350: c97d 99b8 023e 94bf 7026 149d 390c b2bf
00000360: 83c6 3ae9 821f ae3f 5314 8f5f 3c3d b1bf
00000370: f4db a930 052f b03f e112 cad3 d33a b33f
00000380: 1a69 dc34 21aa b1bf 518d fb80 47a7 b5bf
00000390: b80c 77ab a84b 8a3f 3038 c1cb 260a b63f
000003a0: 31f8 6a8c fe9b aebf a5e7 9c39 ba38 bcbf
000003b0: f6de 976e b2da 623f 61a6 5af1 06dc bcbf
000003c0: 65da 229f 6275 adbf f4b0 d32e 88f2 be3f
000003d0: bf21 a5d3 ff4c bdbf 2d79 3872 7955 b7bf
000003e0: 281b fab2 94f6 9f3f 7585 42a7 704d acbf
000003f0: 392d fd13 b023 76bf 3050 0b7e 88d6 9dbf
00000400: 7c75 fc11 d148 c0bf e62b f42e 39f5 9bbf
00000410: 09de 0056 a149 b3bf dc00 a60e 90b4 a9bf
00000420: 4ba0 76e3 4b17 a63f e66b ef57 26cb babf
00000430: 361e cbf9 c6b5 8fbf cc79 efbc db82 5dbf
00000440: 9295 c410 820b b0bf 4bd0 c464 7fda b63f
00000450: 8054 3fbe b8a1 613f 233c bf5f 281e babf
00000460: 50f9 8690 47f1 a43f 3874 bc22 a665 a63f
00000470: 7b9b bb30 6fe2 98bf 54bf de17 b9aa b03f
00000480: 71ff bc5f 31c8 b2bf 2991 4567 f43c 9dbf
00000490: 0385 9e27 f37d b93f 3bc9 00b5 dff0 743f
000004a0: 2433 579b 276b 7b3f f46e 9ea9 2348 bbbf
000004b0: a539 7bb2 2fe8 abbf 050c 7422 5dd5 ba3f
000004c0: f6da 87c1 1f71 a83f 9985 6730 28c6 b33f
000004d0: 4128 f412 2b0a c1bf 6680 29c5 cbd3 b5bf
000004e0: d6ea 71ac ba0c c2bf 0b7d dcbe f5cf bf3f
000004f0: 9627 9863 3701 b8bf 10af f844 c4e0 a63f
00000500: 5573 3b1e e156 bebf f753 0c0a 100f c0bf
00000510: 01f0 32e1 27b5 b2bf 6e2a 3e5b dcc4 b43f
00000520: 8792 1662 d2a5 bdbf 7a1d 2569 c789 a0bf
00000530: 7166 f087 db74 bfbf ca96 823e 2958 abbf
00000540: 448d 86a1 056b b5bf 91e5 8308 f74a a3bf
00000550: 8dd7 a7c7 0181 acbf b9fc 7028 a3ba a2bf
00000560: 70fd 224d d544 b2bf 4b79 33fa 179f b73f
00000570: 0f92 623f f62b abbf 488f 06c3 3704 803f
00000580: d680 d03f 3280 b5bf 157e 6130 73a5 ba3f
00000590: f3de a136 e051 97bf 97a2 7760 17d9 b4bf
000005a0: 1299 cdc3 abc3 a6bf 469a 4399 2766 993f
000005b0: 54bd 76a6 5830 a6bf a373 c00c 90d4 ad3f
000005c0: cebb 8677 1e62 bebf 2b5c ece7 abc3 c1bf
000005d0: 136c 6a47 3b6f acbf 6160 f0b8 5e39 bcbf
000005e0: b9d6 a756 ca49 aa3f 6a0f 5a8d 9910 85bf
000005f0: b7da 5002 c82e bbbf 9e8c 9ee9 26ef 38bf
00000600: b083 e336 60c9 b93f 9d49 c9d3 1115 c4bf
00000610: 7b5e 891f a7ea b93f b124 617c e91c c23f
00000620: 78a0 bb9c 6958 be3f 190a 509b a564 b23f
00000630: 2c8d 40b7 8d7e b5bf abfe 0fd8 6b1c b33f
00000640: cd54 0b2e ffbf 8a3f c14d 61fb 32b3 bd3f
00000650: dd48 69ec bb58 97bf 25fa 5766 e232 b3bf
00000660: f7b3 7994 2763 adbf fb99 17db f735 b3bf
00000670: 7895 5583 5d67 b83f 848c 21f6 5d05 a9bf
00000680: 40d5 2e18 e3fc c23f 3555 89d8 661e 6e3f
00000690: ca94 f238 7db0 aabf 7e50 205e ec9c a63f
000006a0: 91b9 e009 345e b13f f25b bdbb 7aeb be3f
000006b0: 6e43 ca2e 4f97 bf3f 9733 7457 2d8a 903f
000006c0: e9d2 6cc9 b0e8 b6bf e766 406d 3091 cebf
000006d0: 7183 7998 725f bbbf 8442 7c47 1fed bf3f
000006e0: d302 555e 723c babf e1db ecf2 d72a b4bf
000006f0: 4353 b508 3b9b a8bf 9ae2 4712 68d7 bd3f
00000700: 2a01 ae84 35b3 c2bf 9be5 fce4 3da7 c7bf
00000710: 1796 cbfd 2ed4 bd3f 8bc1 2098 88d4 c5bf
00000720: c434 3e8d a05f c3bf 0f01 5dae c606 a9bf
00000730: 4db3 2792 22ad aebf 68b0 3efb 06fa 9cbf
00000740: 6052 a80b 8981 c4bf fef5 60cb 91d8 953f
00000750: 8a58 b055 3152 b7bf ce36 8692 8a7e b73f
00000760: 977a 2c3f f3e1 b03f 2e6d 8317 da44 b1bf
00000770: 7ab6 fb58 d681 aebf af67 a31f 1a2b 5fbf
00000780: dd63 2f40 0ef9 b53f c38d e505 2c18 a73f
00000790: 8ad9 4e51 7eb8 bebf eea6 b6aa e648 b73f
000007a0: 1c68 1054 c180 aa3f 0a0f 28fc acb7 953f
000007b0: b999 57e7 f8d4 a43f a281 082d d311 b9bf
000007c0: 497a a64a 04ed b8bf 250f dd91 eafd c1bf
000007d0: 4c4b 04cd 9b16 b43f 0d4a 984b d780 b33f
000007e0: ce44 6548 78f7 71bf 50ba a17d 525b 4ebf
000007f0: a63e 9b23 fcb3 9ebf bcbd 170a 3111 b63f
0.08804638103434193 0.01993068956029221 -0.015592340732697897 -0.04451494815572514 -0.05797783362715167 -0.12938124827825537 0.030885857392653197 0.1303987019323751
0.05162545317832605 0.0031928299269520727 -0.07342163787114275 -0.01979457200882687 -0.02562137925088717 -0.0007986023764058291 0.11105005512942925 -0.009419566508651937
-0.07021650390562038 0.01786211632423228 -0.1216742137113261 -0.1309580949032729 -0.029665594816424827 0.13910864656130917 0.14212750173323818 0.10528298911407313
0.022374876242338287 -0.04770690757257254 -0.06446994446825507 -0.029842633995213703 -0.07376173804612687 0.06668857626570618 -0.11147790064471888 -0.007772554771497168
0.1136436996920525 -0.09097702433036257 -0.056671533269149275 0.1372226873664713 -0.0706567763775837 -0.08870217470910684 0.01674687187496596 0.1350471618355746
0.004439715317863679 0.07645295644487285 -0.06464375019189032 0.12802907803350544 -0.0009287505352570245 0.11662471652656489 0.07353422840899389 -0.1191352456610678
-0.06596238012287789 -0.024336209876491953 -0.05317337210242911 0.09563097739639405 -0.13475667108806527 -0.07416087601268825 0.0551381976732564 -0.020796386479230815
0.021154588619903478 0.01443694859447686 0.009013777997990363 -0.10129046132957242 -0.009741149810233813 0.0677069499027713 -0.062026483165225854 0.116025723334115
-0.024219378035532514 0.09000888590380436 -0.05612443926067083 -0.06264108525229739 -0.10604227868548863 0.07524016131653587 0.08569299210357251 0.12983445305924682
0.08221497357149171 -0.05892742310510367 -0.009768072874290441 -0.09917057249513211 0.05922535159239481 -0.04108030485942085 0.14145799005166068 -0.03337869028830549
0.10766992276788359 0.09920977634577859 -0.09079546686499067 -0.09949597670480527 -0.12007055985409458 0.009281617606057255 0.0405972747068975 0.1182617938023808
0.03112513332332199 -0.059879938673258776 -0.03317298803561054 0.07229579076326303 0.04020458158892682 0.003904292262118232 -0.032515016964312304 0.10451305524276765
-0.00919187271826089 0.13641330778862185 -0.03142736952668278 -0.11622530822189978 0.10305810311833662 -0.1088280190275528 -0.045990439974072206 0.07195689489587374
-0.04214726289285864 0.0046445015098794664 -0.019767801777900638 -0.0704990395062397 0.05883416268387711 -0.06734063466054012 0.06321747243951831 0.07511638565672342
-0.06900222340155829 -0.08458372973432417 0.01283962033529061 0.08609240030747922 -0.059783892289019376 -0.11024059206547905 0.0023015484809966137 -0.11273234741624939
-0.05753620331363577 0.12088824408755611 -0.11445616643062005 -0.0911479858263859 0.03121406881703162 -0.05527832071062281 -0.005405128293044564 -0.02913869160950372
-0.1272221887419781 -0.027302640429336743 -0.07534225797359552 -0.05020570925535292 0.04314648772862081 -0.10466231963020753 -0.015483431337442882 -0.001801218593520215
-0.06267559918759094 0.0892715092675768 0.0021523102059100574 -0.1020226701505043 0.04090331687210613 0.0437442700769925 -0.024301278447548463 0.06510502655760081
-0.07336720073089766 -0.028552836230475585 0.09957809178606074 0.0051125277096153955 0.006693987573680702 -0.10656950846754026 -0.05450581601836583 0.10481817332406258
0.047738067983962226 0.0772423856901895 -0.1331228106067233 -0.08526300014045915 -0.14101346416631227 0.12426696691226284 -0.0937685602331427 0.04468358365951819
-0.1185131739434387 -0.12545967569954516 -0.07307671783468096 0.08112885692222857 -0.11581149000864786 -0.032301169953423206 -0.12287685459923538 -0.05340699089110286
-0.08366427606101917 -0.03768131236024453 -0.055671744939828384 -0.036580179869355196 -0.07136281140536993 0.0922713266222434 -0.05306977771514109 0.00782054485245677
-0.08398737009020193 0.10408706599400148 -0.022773269018641917 -0.08143755059394163 -0.04446160092520492 0.02480375168752349 -0.04333760292081004 0.058262349659549593
-0.11868467729685436 -0.13878392052058194 -0.05553612944387267 -0.11025039687263095 0.05134422595794547 -0.010285567880835084 -0.10618257576502797 -0.00038046550764132294
0.10072900142723884 -0.1568929943192189 0.10123676795898888 0.14150732587066764 0.11853656841742743 0.07184824983418316 -0.08396230434350532 0.07465242409670718
0.013061517326983818 0.11601561200341505 -0.022799431137465177 -0.07499518393158462 -0.05739711463397861 -0.07504223917894841 0.095327229084054 -0.048869072242063744
0.14834250145728767 0.003676606055061394 -0.052127755357369646 0.044165979852693646 0.06784367791326519 0.12078063090790161 0.12340254680954185 0.01615210386539764
-0.08948807637791457 -0.23880582174825024 -0.10692516539121556 0.12471194739578989 -0.10248484423665198 -0.07877874069968939 -0.04805931550314437 0.1165680927878249
-0.14609402636052354 -0.18479131394432788 0.11651891418622316 -0.17054850986597744 -0.1513558091795969 -0.048879822525579646 -0.05991466554755807 -0.02829752834775015
-0.16020310467924315 0.02133395961594963 -0.09109791128170933 0.09177461697819497 0.06594772617652676 -0.06745684694344753 -0.059584329950536266 -0.0019023661721377751
0.08583153788585159 0.04510629245740063 -0.12000264630373728 0.09095613162812885 0.05176357413456875 0.02120847977677357 0.040687349548352576 -0.09792823647922558
-0.0973665888072698 -0.1405614101623708 0.07846997981350262 0.07618470759943126 -0.004386396269482519 -0.0009264138018475008 -0.02998346297573442 0.08619982239155538

equations.x.layers.2.bias f8 [64]
00000000: 053c 00f4 2919 713f 7009 7615 7c34 b03f
00000010: e442 5d7a e082 be3f 5628 e46d d16c bdbf
00000020: 7fb9 6794 3f6d b3bf 7eb4 c6cc e580 b33f
00000030: 1295 8255 bbe4 bc3f 77e0 647d 3451 be3f
00000040: 5d4e f415 b488 b33f c93d 8b8c 77cd 98bf
00000050: 142b 35ab 143d 97bf b74d 9537 65fc b13f
00000060: 74c9 d490 f524 aabf daad 8fcf 919f 853f
00000070: 47f6 c0fc 7a29 9bbf 581d da36 3f2e bf3f
00000080: 7bfe e887 d55c 96bf a576 9280 748c bdbf
00000090: d5d3 29b6 b20c bbbf 1205 1b93 172e a03f
000000a0: b419 be12 5272 95bf f9f3 2d44 e59f cabf
000000b0: 093c 160f 66f3 b23f 93bf 6aca cc3d bf3f
000000c0: 2209 46ac 5237 b9bf ef9d 1e01 34ee bdbf
000000d0: 0d58 09c1 7f96 9d3f 7dee 9a4b 240f b2bf
000000e0: ffa9 41b6 6422 973f 2006 972f 2a70 b7bf
000000f0: c776 6b0f 3dfb babf c3de 6461 b915 aabf
00000100: e80b c753 0cf7 b83f 00fd 64e7 fc41 bd3f
00000110: 9130 cfe5 b261 b7bf d0f1 206e 34fa a2bf
00000120: 60d2 fa3b 992a 923f da59 0e7f e2b6 aabf
00000130: c79d 6d5a d622 c03f bedd b1ad 54a5 b4bf
00000140: d643 a9e3 0843 55bf edb1 cb97 97a9 b13f
00000150: 3fa5 a579 ecb1 95bf 5f02 976c d91f 6fbf
00000160: f3de 6857 43f1 bebf 6849 ac63 7e05 b23f
00000170: bfb4 1c69 08c2 c1bf a4c7 c57c 45b3 a0bf
00000180: fc57 c197 8d77 c03f 6b11 ff38 fe50 713f
00000190: 27ff 834e b83d 913f a2fe 90e9 3da6 49bf
000001a0: 55f4 aa1a 26b9 9dbf 8b3f 9a51 4a25 963f
000001b0: 86e8 d576 4724 b93f 7d21 d3d9 062d bd3f
000001c0: 247a 0536 aae9 a1bf 6dec 1c45 0562 b6bf
000001d0: 4af9 1507 e86a ba3f 558c 912c 5787 90bf
000001e0: 045d 537b 94af b43f 3193 3afb 71d6 a93f
000001f0: 27ee d6bf 4b3f b03f 259d 8ead 66ce b43f
0.004174388770493036 0.06330085300399957 0.11918452250871386 -0.11494168217555631 -0.07588574765370558 0.07618557214182606 0.11286516988419162 0.1184265905511682
0.0763046792601982 -0.024221294358367538 -0.022693942022026084 0.07025749785434852 -0.05106322663268062 0.01055826105763107 -0.02652542274176131 0.1217994221607247
-0.02183850900678273 -0.11542442454307407 -0.10566250750873903 0.03160165472719191 -0.02094391097446087 -0.20800462559773772 0.07402646892863642 0.12203674260922374
-0.09850041108987687 -0.1169159414990799 0.028894420773518493 -0.07054354520635715 0.022592137931875197 -0.09155524885047628 -0.10539609552821637 -0.05094699205295463
0.09751965566014997 0.11428814553527289 -0.09133451567248786 -0.03706516117424352 0.017740625654101172 -0.05217654992081906 0.12606315055312065 -0.08064774742694333
-0.001297720604856991 0.06899402099561032 -0.021186537670847768 -0.0037993666234970437 -0.12086888202690797 0.0703963273374818 -0.13873391277721756 -0.03261773250677827
0.12864847097324617 0.0042276316234545015 0.016837005417072917 -0.0007827570253837355 -0.02902659929053571 0.021626626234648987 0.09820982600459346 0.11396830385195318
-0.03498584660950524 -0.0874331754429691 0.10319376156801244 -0.016141283126114143 0.08080413828735195 0.0504642123389999 0.06346581872542655 0.08127443063004998

equations.x.layers.4.weight f8 [64, 64]
00000000: 749b 329f 8ef6 b53f 64ef fc85 de16 b03f
00000010: a45d ad75 2551 87bf e454 a7fd f82b b43f
00000020: b080 c2c8 b5b3 b33f 7fcc 11ef fddd b83f
00000030: 9682 1438 4824 57bf 10e0 4f0a 9deb b5bf
00000040: 9284 7b6b df54 9e3f 0eb9 240a 492f afbf
00000050: 3609 7b93 de3a 993f 51ac 3668 a87d a3bf
00000060: 1961 8251 7fed 1bbf fe63 00f4 0715 9abf
00000070: 5971 e947 5c72 903f f44e 70ae fe25 943f
00000080: e7bd c370 1a33 b03f cde5 7bed f155 ac3f
00000090: 0905 7f8a c359 b33f a323 aecc 0f04 a73f
000000a0: fdc8 29eb dab6 b23f a620 ac3f 1db0 aabf
000000b0: 1d0d 4ea3 60a7 8d3f 3381 9961 18a8 bdbf
000000c0: d2f3 bae8 0564 babf 3bd8 d93e 5060 c6bf
000000d0: 5db5 723d 4c0f bbbf b948 445c 8f7c bbbf
000000e0: 73da 1256 a0bd 983f 4f3a d6a8 102d bb3f
000000f0: 3a36 f390 fcfb ac3f b777 af66 b0fd aa3f
00000100: 7279 0627 d897 c4bf 7965 bd6d 8222 943f
00000110: 97ea 9f33 a5a5 b7bf c6de 6350 068d 9f3f
00000120: bf9b 77f7 0ab5 a83f dfe3 6e70 b353 aabf
00000130: 8bcb b4f5 5a91 be3f 8630 c266 c715 8b3f
00000140: 1cd7 6bbc 06ef b7bf f15c 5141 b28d a7bf
00000150: 1412 603e c08c 85bf db6b e948 2dbc 623f
00000160: 60d0 c29e 23b1 bcbf 1e6c 7c89 7473 a13f
00000170: afa5 98c9 bdec b43f fee8 0970 816b b6bf
00000180: ee6e de31 cd76 a3bf 3004 45c0 bc68 b2bf
00000190: b20a ae8a f650 883f 3ac8 de66 3136 a5bf
000001a0: 72d5 e6ba d5ec c2bf f7f1 6483 8330 aebf
000001b0: 66b8 1487 7c0e 653f af14 8440 796f b83f
000001c0: 6128 7ca8 382d b6bf 2d1f 2b4c 4ce9 9f3f
000001d0: c0a8 f9ab ae40 b3bf 478e 0332 5d72 a3bf
000001e0: e647 da92 62eb a9bf 9422 b361 e5fe 60bf
000001f0: a614 23ca f14c 943f 7a7a b342 82d3 b4bf
00000200: fb0d 6414 eaf1 a1bf 6f62 4c3f 78ab c03f
00000210: 63e8 aebd 7ae9 b9bf 9270 a5d4 d4fc bcbf
00000220: a04b cea3 308e b2bf 2492 6584 87fa b3bf
00000230: 6b91 49a6 8781 c1bf 59a1 8b2a 580f a7bf
00000240: 5f7c 7177 274d 94bf f9e6 67a1 5fb4 b73f
00000250: 9bc9 a90b c72e 9abf d293 dc65 deb6 72bf
00000260: 4722 166e 1655 b53f a82b d2c6 065e 913f
00000270: 5c4d 14e0 5819 ab3f 69a3 a266 6d15 bd3f
00000280: 7603 8815 a957 943f 7ecc d4c8 8916 b9bf
00000290: 52cb bf09 47ab b1bf 760d c50b 7f32 91bf
000002a0: a9c2 1bd2 7095 a63f d669 e9a8 edd3 a83f
000002b0: c493 feb5 3fde aabf 8fd2 4739 d948 b7bf
000002c0: 5009 c9bb 712f 82bf f6d8 7cea 50db 7c3f
000002d0: 53a9 c323 d431 9dbf 1613 c773 de88 ba3f
000002e0: cfbc 7911 ec83 a2bf afca 87aa b9f4 b73f
000002f0: 9da6 3393 9179 423f ea76 535a 669e af3f
00000300: 854d 363b 41d4 ae3f 8e40 4231 f44d bcbf
00000310: 492a 6611 7152 93bf b6fe 37d0 1862 b83f
00000320: d194 e043 de0b b9bf 5909 4ee9 5183 aa3f
00000330: b551 4823 79cd b43f 9ec3 e4c8 1d78 a6bf
00000340: a14c b3bb 8cfe 893f 33ec 1aa8 a285 a0bf
00000350: 80ef 72b7 ecaa 90bf 724c 8227 e6bd 803f
00000360: 2a3e d17c d248 bf3f 6950 d34e 0eb7 91bf
00000370: 21cd 14ee ae8d b3bf aee7 459c 671f bb3f
00000380: f9c5 92dc 588d babf 3614 c0df f5c7 a9bf
00000390: a8f1 c78f c932 6b3f 9527 5f8e 72ea acbf
000003a0: 7bbe 6aa8 4f2e babf ec65 fa7b c5fc a43f
000003b0: 21fa d773 411d 9abf 0252 9bb2 ae23 97bf
000003c0: adfc 8c11 140e 9d3f d79e 08e8 035a a4bf
000003d0: a702 44f6 4e39 b6bf 806c 0007 625c 943f
000003e0: 19e4 51e8 c6b9 9ebf 8063 c1c3 a408 b2bf
000003f0: 3c64 27b6 0e4e bf3f c199 534a 6ed4 a6bf
00000400: 3784 77af f1b2 c0bf b1bd 37f4 b3e4 643f
00000410: ab8e 990c f13f b63f e62b c760 e603 c13f
00000420: 7e76 7984 676e 863f 2403 63f0 5e4f b33f
00000430: 50f7 f476 a47f ad3f ea2d 5dfa 88fa 923f
00000440: e8c9 3e3f 2b0a a9bf 9d05 eaa6 098a 9e3f
00000450: 3c3f ebb4 dc26 793f 05d8 7f91 6b29 b0bf
00000460: bd7f 3c73 8ea2 aebf 39f1 ffdd c4f8 8b3f
00000470: 1e66 2e2d dd32 ba3f 5831 dce0 a1d0 a7bf
00000480: 8f95 8472 4505 c43f 72af 03e3 ef81 abbf
00000490: a1db 2444 55ea 763f bfad 0d2d 836a bb3f
000004a0: 0e9d e269 09ab bfbf 43e5 32b3 0b35 b9bf
000004b0: 1c9e e199 ea50 a2bf 8fe4 b05a 8d33 883f
000004c0: b2ce 24a1 9904 b03f 89ee 68ff 4e93 adbf
000004d0: dd8c f640 f921 933f 969a f2bd 25db b1bf
000004e0: 03fb fe51 7998 a03f 2e6f 698a 0eb2 963f
000004f0: 211f ca5d da49 a7bf 58be 393d 33fb 98bf
00000500: 4764 ce05 4af1 8dbf a547 28da f9fa a8bf
00000510: 35f4 9b4e 5240 803f f12f 095a 63b8 a33f
00000520: 4a80 8a06 1e0c a4bf 9258 7241 5353 c03f
00000530: 7488 bc6c c596 953f c860 31f1 aaf4 953f
00000540: 3f01 68b8 4e26 b13f 8163 2bf1 4fda b2bf
00000550: c7ab 6189 2bfe a93f 0f89 79ef 907f 99bf
00000560: 35ad fb77 22d4 a3bf a8d3 fd1c 5dc3 acbf
00000570: e9c2 49ea 49ef 73bf 06dc 1948 3e85 83bf
00000580: 1d0a 9ca0 0c68 be3f e94f 76ca 6535 9fbf
00000590: c83d 6035 4ee1 bc3f ee6c 1231 fae8 a83f
000005a0: e147 53bc 2a11 ce3f b95c 3f11 716b aabf
000005b0: 5a5d ca49 2848 abbf f671 c746 2dc0 823f
000005c0: a818 bb20 0a46 b73f 94fc 2e2f 6f24 b33f
000005d0: a8df 3f8f 42e1 ae3f 5b12 266d 2ce9 adbf
000005e0: b59f a44d 41b8 abbf 62b2 507f 012d 9ebf
000005f0: 9d82 c90e c6fe 9f3f fe14 1d94 2be0 89bf
00000600: adbf 350c 75bd 943f 4188 5aa1 6dcf b9bf
00000610: 0774 715c 144b 7abf fc41 2dae 99f8 b33f
00000620: 1ef2 4d5d a046 afbf 4c9f 4f8f aeb2 893f
00000630: 76a0 ed1c ac49 b4bf 274f fc50 7415 83bf
00000640: caf2 ddcd c7b7 9f3f 42a7 efb1 707c a03f
00000650: a0ba f3e9 baa8 a6bf 4c6b 1f72 aab4 b13f
00000660: 2a4d 3f18 99ad 8bbf 6247 2193 4883 93bf
00000670: b3a3 a9aa bdc3 bd3f 1399 6589 b332 b8bf
00000680: 3918 60e1 4145 b43f a0ea cfa8 121c 9a3f
00000690: f45b 05f1 251d a8bf b104 4161 23ee 9dbf
000006a0: f3d6 bb17 1521 833f c5e9 5656 6f02 c0bf
000006b0: 9d96 7319 b91d b8bf d688 bec4 3626 9cbf
000006c0: 4e12 0e50 6bb3 a1bf b6ce 93ab 2795 8d3f
000006d0: 58f4 ee32 b3d5 ac3f 367b 209d 7a13 bd3f
000006e0: f829 41d4 14c2 a03f cb56 fda3 d590 bbbf
000006f0: 726c ace0 5094 b13f 1f87 447a 0857 943f
00000700: c0f1 4287 12a4 9abf 3f67 d2fa 2096 b13f
00000710: 462c 0cf3 1b32 b63f 5b07 a743 8f57 b4bf
00000720: cf78 76f4 b37f a1bf f23a 108f 3340 b43f
00000730: be80 d690 f9f1 a1bf 90e7 dd48 b79a adbf
00000740: ad6c e935 b247 b4bf 21a7 6f7d e344 8a3f
00000750: 7000 8122 5bd6 b03f 5ca4 dec2 fbb2 95bf
00000760: ce31 fbb2 b99b b4bf 1d4b 3a68 18f0 b3bf
00000770: 8f05 d5ec 8a7b a0bf f1e6 fdfe fb7f 18bf
00000780: 17e6 a1dd d1c2 a13f 7fe2 0305 f33c b13f
00000790: 0ee5 ca5b 131a 97bf 8afe 349b c110 ab3f
000007a0: 5a67 2139 7ccf 813f 0f84 fe43 f3b7 993f
000007b0: f31f 98f4 3e74 a33f db24 7202 0575 a13f
000007c0: 04b3 482f 7dd0 91bf 1c73 6b10 5e8e b43f
000007d0: 6475 af9d dabb b63f 07fc 846e 43b9 a2bf
000007e0: 2319 aca9 a83b 54bf 992e af2e 8d23 a4bf
000007f0: bf10 76d1 982b b2bf 7c53 3d41 726c b23f
0.08579341303503246 0.0628489567870339 -0.01138524308559747 0.07879596893993185 0.07696090842591974 0.09713732802065243 -0.0014124589218413078 -0.08562642575986978
0.029620638785563154 -0.0609076332933559 0.02463863158369258 -0.038068068238623305 -0.00010653581228082069 -0.025470852153464556 0.016061250580933748 0.019676188847440337
0.06327977421800988 0.05534320854162509 0.07558843737844624 0.04495286344087581 0.07310264817514063 -0.05212489511728906 0.014479403480214753 -0.11584617979815874
-0.10308873111621544 -0.17481425351042099 -0.10570217609593642 -0.1073693847904761 0.024160866979139727 0.10615638849251606 0.056610005086991724 0.05271674397930275
-0.16088392167598503 0.01966289324568524 -0.09237129698150635 0.030811403900741018 0.048256247242356214 -0.05141983745074418 0.11940544604003216 0.013225133727495352
-0.09349100208404731 -0.04600293204628681 -0.010522367385427812 0.0022869953602770838 -0.1120779287910536 0.03408397844597054 0.08173738643440374 -0.08757790551490882
-0.03801575883627871 -0.07191066450197137 0.011873174769566706 -0.04142908459415691 -0.14785262704905794 -0.0589638803380445 0.002570384233556533 0.0954509527692433
-0.08662752259638885 0.031163398884728345 -0.07520572374929468 -0.037981903414927624 -0.05062397043833737 -0.002074668894781981 0.01982476993795914 -0.08135236862606546
-0.03504878519927598 0.1302328404497248 -0.10121886378229443 -0.1132329005390054 -0.07248214720884372 -0.0780415247186928 -0.13676543826580753 -0.04503894347527888
-0.019825569787255023 0.09259603205273582 -0.02556906708418581 -0.004568928472314009 0.08332958400399902 0.01696024502284002 0.05292775855391582 0.11360820537323736
0.019865648211637908 -0.09800015595537734 -0.06901973712937817 -0.01679419049584171 0.04410889210510522 0.048491885060417836 -0.05247687431918949 -0.09095533035708513
-0.008879555266621125 0.007045093610761768 -0.02851039379394511 0.10365095450022141 -0.03616273606609754 0.09357796109524473 0.0005638085189307477 0.06175536968815527
0.06021312568477825 -0.11056448176009523 -0.018869177519756062 0.09524684031930061 -0.09783734471473628 0.05178314183196404 0.08126027213467675 -0.04388516499819349
0.012692546346818214 -0.03226955701890013 -0.016277025887333263 0.00817470367500148 0.12220492884920789 -0.017299865304110904 -0.07638066589861527 0.105947948124508
-0.1037192858227839 -0.050353702128667896 0.00332011573322984 -0.05647619235931171 -0.10226915227644355 0.04099099291233785 -0.02550222653916923 -0.022597055102624004
0.028374017306529598 -0.03974926192705446 -0.08681195747704838 0.01988366286978449 -0.030005557946854198 -0.07044439105210465 0.1222848124229054 -0.044589468548838614
-0.1304609400531562 0.0025504603124699367 0.08691317136395564 0.13293151593674607 0.010952767114925207 0.075429853141952 0.057614459534745976 0.018533840447430373
-0.04890570780789344 0.029823447048789132 0.0061405774456060845 -0.06313202192527008 -0.05983395725911531 0.013658082985778296 0.10233862259919888 -0.04651361341356858
0.15641086665816004 -0.05372571607753586 0.005594571181339798 0.10709400033891024 -0.12370356402481184 -0.09846566319437948 -0.03577359322008197 0.011817077951592729
0.0625701921861104 -0.057764500310864504 0.018684286680252227 -0.06975017440218276 0.03241328359535169 0.022163607786168153 -0.04548532862560096 -0.024395752536689436
-0.014620378782455158 -0.048789794807944355 0.007935183547937633 0.03851614450522323 -0.03915494756552158 0.1275428838313855 0.021082958947893762 0.021441145869489003
0.06699077608209779 -0.07364368093420916 0.05076728870411489 -0.024900688759211195 -0.03872783388745874 -0.056178006924631874 -0.004866875392153893 -0.009531485152576746
0.11877516671305739 -0.030477133257207276 0.11281288912891008 0.048652475824576644 0.234898893314095 -0.05160096488514782 -0.05328489208948879 0.009155610773569283
0.09091246890156646 0.07477469350759441 0.060312347399246236 -0.05841959793454939 -0.05414012978354724 -0.029468558688835585 0.0312453218961105 -0.012634602029388816
0.020253971929775783 -0.10082135381029024 -0.006419257674761709 0.07801208975184432 -0.061085711850840094 0.012547839878564247 -0.0792491503358422 -0.009318264695628976
0.03097450441372266 0.03219940349647611 -0.044256058748819216 0.06916299139213072 -0.013514705707996361 -0.01905549428949572 0.11626801888054565 -0.09452364067474077
0.07918178322151527 0.025497714570500762 -0.04709738318586423 -0.0292287376507871 0.009340443407818344 -0.12507430759235497 -0.09420353766798902 -0.02748952461082229
-0.03457198478921396 0.014444646762491114 0.05631790158029365 0.11357847534280271 0.03273072329519161 -0.10767874959614258 0.06866937146371457 0.01986325498831498
-0.026016511445719592 0.06869703410702942 0.08670210536745157 -0.07946105386420525 -0.03417742118038946 0.07910463564642692 -0.035049246721656754 -0.05782101406562312
-0.07921899620252999 0.012826707139499018 0.06577081291561782 -0.02119058014765006 -0.08050118083628563 -0.0778823141538791 -0.03219255581872026 -9.345984994793187e-05
0.0346894820258507 0.0673362624401168 -0.022560408093999 0.05286221522919472 0.008696527951702105 0.025115777039562966 0.03799626098412991 0.0340959134565055
-0.017396884928689196 0.08029735470649907 0.08880392408123822 -0.03656969761004097 -0.0012349269006236084 -0.03933373637081878 -0.07097773660467775 0.071967259338022

equations.x.layers.4.bias f8 [64]
00000000: 68ea ecb2 5b2e 95bf 9cb4 bbe4 6b5e 93bf
00000010: ab43 45c1 0bb9 8cbf 7420 2b8a d300 a13f
00000020: fbca a1b4 d96d 943f 1130 d66c 031b 9fbf
00000030: 11c4 bb42 ac89 a3bf c08c 2414 77f3 b4bf
00000040: d5e9 34d5 1a56 a9bf c605 1ecd 705c ad3f
00000050: 7380 f093 9146 9cbf bf60 6cc8 ddd4 96bf
00000060: 6b01 2693 e9f3 bfbf 2bc4 b89e 5202 a6bf
00000070: 28db 8ce9 94be bc3f e900 a120 3db1 b93f
00000080: 7457 24f1 5b24 83bf c57f e276 78ac 9abf
00000090: 3667 5680 b35f bd3f e974 8b28 b483 be3f
000000a0: 686e f99c 7522 bdbf bb78 5470 6c36 c03f
000000b0: 772b ecb4 d5ff 7dbf 0be2 b21d 04b9 95bf
000000c0: 8c34 1f96 dd82 b73f 9e68 5eeb 2e34 a8bf
000000d0: 72f3 9b9b bc56 b73f 6bdc 00a5 83b5 a3bf
000000e0: 255d bfb7 d494 afbf 0f80 7835 837f 9c3f
000000f0: 4020 29ab 1ec6 b73f 0dcd af0b 3dbf ab3f
00000100: 6605 301d f8eb c13f 1f63 b46c dac3 52bf
00000110: b6b0 e613 4b30 9b3f 0a27 6adc 03ba b7bf
00000120: 4712 a89d d81c 9e3f ee41 f2af 5937 b23f
00000130: 59a7 d8ad 6b19 a2bf 753b c327 10f7 bd3f
00000140: ff1b ac88 9ebb ab3f eecb daf0 0731 bc3f
00000150: e351 054d 8f59 b93f 348e db42 2305 c1bf
00000160: 2703 7594 606d 89bf 433f d153 38f6 953f
00000170: 6cc3 995d 3198 b9bf 5b4c 49d3 a7f2 973f
00000180: c8b0 e346 f387 a93f d6d7 bf4d 1053 b9bf
00000190: 96b8 0015 8951 ac3f ce1e 97ab 9b56 c03f
000001a0: 1464 5f14 fa94 b13f f2db 4a79 7e1f bcbf
000001b0: ccba 3085 7f39 bfbf 6703 a8ad f00b a7bf
000001c0: 2bff abcd 1fec bb3f 9c6d 26a8 1ce6 b13f
000001d0: a5ef 3c16 6927 703f a9a0 35b5 8132 aa3f
000001e0: 40fe a916 e950 953f 8033 8083 b589 ba3f
000001f0: 837b ce3e f27f a8bf 06e1 bce3 6e7b a83f
-0.020684654994719415 -0.01891487678124247 -0.0140248220783706 0.03320942937495 0.0199502960680986 -0.030376485364783493 -0.03815973581902921 -0.0818399833847705
-0.04948505261059536 0.05734589103577607 -0.02761294808817678 -0.022296395643110808 -0.12481555788509062 -0.04298647105714112 0.11228304578694959 0.10036069914440628
-0.009346693321770273 -0.026048547989034682 0.1147415340732579 0.11919713964330793 -0.11380705912000055 0.12666087612973861 -0.007324061195286605 -0.021213592827480848
0.09184060015759793 -0.04727312682298755 0.09116724776317911 -0.03849421872330868 -0.06168236487399729 0.027830171717255377 0.09286681822516218 0.05419340865764797
0.14001370835471078 -0.0011453278592112382 0.026551411714237992 -0.09268211489884606 0.029406914351073146 0.0711570791775171 -0.035350193950150106 0.11705113383071171
0.05416579645503105 0.11012315397492475 0.09902282362356334 -0.13296929134877333 -0.012415651827383535 0.021447067371183747 -0.09997852835819082 0.02338659503068317
0.04986534347867316 -0.09892370126894376 0.05530956632024801 0.12764306906159678 0.06867945668581427 -0.10985556088677109 -0.12197110177724396 -0.04501297111347107
0.10907171984945012 0.06991747956492705 0.003943834777427134 0.05116658532171076 0.020816461571028677 0.10366377315967945 -0.04785115257913388 0.047816720294976675

equations.x.layers.6.weight f8 [64, 64]
00000000: 6966 1631 65fe b1bf 9d2f 8256 7877 a33f
00000010: cbfc 0e8e 0227 a5bf 25ef 0ddc 4bd7 adbf
00000020: 0cfa c2ef f6f8 8bbf 5522 fb12 60b2 c0bf
00000030: 7774 1385 4768 b8bf 14cf 8c83 05b0 abbf
00000040: 40bb afe3 c493 b73f 9331 ca07 6108 9abf
00000050: 2900 bdc0 563f bd3f 2052 5da1 496b 5a3f
00000060: eb54 6d1c 0175 c23f f5a8 ea52 6da2 943f
00000070: b2ab 00d0 85c4 c7bf 9778 0d7f 571d abbf
00000080: 784d 3458 87e3 a1bf 2521 6a42 910f b33f
00000090: bc4c 4b8b fe2a babf 23b9 1a81 bcae b0bf
000000a0: ae90 c922 ee3c aa3f 28db 38f8 e6ef 813f
000000b0: 7f52 a90f 724b 70bf a54e 6069 2de7 b4bf
000000c0: eba1 1a90 7928 95bf fef6 8f4f b0a7 b13f
000000d0: 6ea6 3d94 832e 853f e8ed e7ca c5d7 b03f
000000e0: 00f6 64f7 f1a4 b13f 9864 dce6 543f 95bf
000000f0: f0e9 b229 b107 b0bf 4c03 8996 c472 ae3f
00000100: 1d8e 8bd9 1f17 a8bf 3d36 450f f3e8 b43f
00000110: f602 7371 6f87 bdbf da58 64fc 3c9d 83bf
00000120: 2ca5 0242 5dc6 ab3f 7a44 8044 c265 8d3f
00000130: 9a8d f239 9f99 b3bf 1f99 985a 0e26 af3f
00000140: 0fc2 6b78 b517 943f 2493 92b6 d143 b73f
00000150: 087a 8f22 edc5 bbbf add3 4e94 7f36 b23f
00000160: 43a8 d779 96a0 a6bf d8c9 f8ab a979 b83f
00000170: b1ff 9f4b 22fd b8bf dd9a 6cb1 2062 95bf
00000180: 9cea d454 b24a b43f 3c4e 10b9 512d a9bf
00000190: d220 710b 8e09 b73f 180e a8f5 00aa a8bf
000001a0: c245 5111 fe96 c5bf e9fe b8a2 0797 b2bf
000001b0: f663 f9cc c43a a8bf d0c9 26ec 2689 bcbf
000001c0: 7bbd d31e 0b8f b1bf b722 f376 9108 a23f
000001d0: f86a 70d0 6a2d b1bf 7afb 353c 8b65 b7bf
000001e0: b006 944f d86c b7bf cafe 64d3 133b b7bf
000001f0: 9294 cc02 3c74 843f fd51 6657 b034 b23f
00000200: cc9f bcad 2637 a7bf d516 6dd0 9a8c bdbf
00000210: 3bba 4ada 8239 933f 5b1c 123e b795 c23f
00000220: 8267 b9ff cfcb a2bf d286 d216 b521 8bbf
00000230: 65a8 fe99 d8f3 833f e624 caa0 0c3e b43f
00000240: 320e ae4f 9d23 953f 3279 e530 4004 a13f
00000250: b809 e761 2468 b93f 406d 2098 2412 bbbf
00000260: 6b3a dc9d 2745 ac3f 235b f112 09b9 b2bf
00000270: 034b 9fcf f2b8 c13f e209 c983 cbc8 abbf
00000280: 5200 c4ce fafb bc3f 7f73 c3c0 ae2c 913f
00000290: 2fbc 4bde 44dd b7bf 8391 23f7 6c75 a33f
000002a0: e4e7 40d0 29f1 a13f 8e5a dc68 5a80 833f
000002b0: e834 e6ba fa82 ad3f 913b d711 d5b0 adbf
000002c0: 329a aa95 799b 843f 3872 7232 6249 b03f
000002d0: 8a3f 8412 a7d8 973f 9157 45c6 072c 6e3f
000002e0: 5ab8 628e 09ad af3f efc8 2901 39ea bb3f
000002f0: 4fa2 83c9 11b2 9cbf 4985 6fd6 6744 a0bf
00000300: 9ea9 cf7b 577c 72bf 7cde a029 4235 b9bf
00000310: d551 95aa d26d 9cbf a2b9 e453 110a a63f
00000320: a257 4c0f a05b b03f 0629 22c3 4187 c73f
00000330: 02e4 2938 6e80 bf3f 7283 d9c8 a462 b93f
00000340: 6400 2d1e 73a9 bd3f c311 708c e44d 8b3f
00000350: db64 3105 2719 af3f 4149 f6aa 064b a0bf
00000360: 2fe9 8c90 a660 9ebf 9dbe a768 5407 913f
00000370: 8901 22e2 8b8d adbf 91d3 97a8 36ce abbf
00000380: 7f5d 3987 c5b8 b1bf a0df 2ede 5b2d 523f
00000390: 6853 9d25 b13e 953f 5665 b37e b77a c23f
000003a0: 3161 8f95 5338 c33f c862 e6fe 70d2 b5bf
000003b0: 43c7 3944 f86c 963f 0b87 6117 8e51 bebf
000003c0: 5f69 90de be8a 9a3f 4670 e5a3 0e39 a9bf
000003d0: 4309 e727 821a c03f d74b eec3 8ff7 9d3f
000003e0: 18c2 f23c aa09 90bf 6f1a ca56 3b88 8a3f
000003f0: 0536 36f3 1f5f 86bf 4b55 a0a8 cc97 a0bf
00000400: 3eff c3e8 c92d 82bf 07db b4ff b874 87bf
00000410: 1f07 d4cf 1994 a1bf 884e 6962 0262 9d3f
00000420: 6351 29f2 5efd b2bf 7b0d 1767 ca6a 633f
00000430: 1595 5b5d 517b 5f3f 3555 072a b307 c1bf
00000440: 1c09 895a 0b12 b03f af30 2ea6 1a8e 813f
00000450: 76ac 526d b384 203f 849c 434f 0e11 c1bf
00000460: 4b1f 75fc 3023 b53f 8dbc 6de9 2550 a53f
00000470: 7dec d25b a006 b0bf cde1 2874 c785 b13f
00000480: 0397 7af1 2785 a2bf 34f5 078f 9211 8a3f
00000490: 963e a3a8 829e a8bf 2330 8406 4ecc c0bf
000004a0: b82a b60e d198 893f 4f12 7992 5e0a b0bf
000004b0: 9f7f a6a3 c9ec 933f 58ec 2758 32b6 aebf
000004c0: 1ba7 702a cd53 b2bf 002c 170d a054 b93f
000004d0: 2558 9fe7 7fce b6bf fee6 ebbd 3c69 52bf
000004e0: cf50 9a08 b71c bbbf 8f85 c6e6 3537 aebf
000004f0: e73b 9272 4c87 65bf deca e1dc d9c0 bc3f
00000500: 9aab 0dfb 1180 b4bf 7532 a449 db00 c3bf
00000510: d3e9 16ea 62d0 aa3f 8403 aa7b 33e6 b4bf
00000520: a4b1 df5b 8cf1 963f abf7 67e9 e8fe b13f
00000530: f59f cd5c 31b1 b53f c2ac 0342 37df abbf
00000540: dfe6 d2eb 7fe1 8ebf 1094 820b c0ac a23f
00000550: bcfb 940f f361 ae3f 5cbb 24a3 3374 98bf
00000560: 980a 0a87 3093 72bf fb0a 7a87 90c2 923f
00000570: a2c9 18ee 4ac4 bb3f 7f8e d9bc 52e3 92bf
00000580: 08a9 8bcc fc6d 873f 5fde ed60 de6f a13f
00000590: 3d7a 7b48 4f39 bc3f bf8c 41b4 22ae c6bf
000005a0: 1548 b5fa 4b24 c6bf c336 55e1 9278 93bf
000005b0: d895 e1d7 6ec3 52bf 70df a77b 21ac b7bf
000005c0: aaee c46b 918a b0bf e2fa 34a5 cd95 66bf
000005d0: 8fae bc94 0d2b a4bf 90ec ced6 82f8 a83f
000005e0: d3ab 7808 f4a6 8cbf 65b0 4daf c8ce a83f
000005f0: b0fd 33c5 4144 b13f 91d8 4584 fe28 8bbf
00000600: 8b24 714a a036 9fbf cadf b613 f6a3 ac3f
00000610: 952c 3f3a e792 ad3f 9792 8013 c2de a33f
00000620: 3115 ff49 8c90 b63f 81da 929e 9e9c a3bf
00000630: 14c9 8602 ad22 ba3f 23e1 0ee5 61cc b4bf
00000640: 35db 7c14 bad2 a0bf e64f 447b 85a2 ad3f
00000650: 8a8e d9ce 9802 ab3f 7162 9ee7 4989 953f
00000660: e77c 5303 f118 80bf 520c 1b0e 7a50 bb3f
00000670: 81f8 dfee fc8a bd3f d385 9cfd a179 afbf
00000680: a039 da74 d5d3 623f cd1d e61d af4a aebf
00000690: 3daa da3a dba2 82bf 3ce9 c917 d784 c03f
000006a0: df41 fcd3 e04b a23f 6462 d7e4 7cef c1bf
000006b0: 675e 6a6b 5324 9dbf 5a5b 5452 f40b 93bf
000006c0: f859 dc86 a739 b93f 6d16 c0ab 2cf5 8abf
000006d0: 12e8 cad8 e380 b43f 069f e0e4 f033 9abf
000006e0: 6b12 d9fd 630d 93bf ca88 3228 4d13 b43f
000006f0: 218f b941 c1ba 9e3f 8806 f550 c939 c03f
00000700: f666 e65c 6186 b03f 3f99 3fd6 b55d c33f
00000710: 5c2a 08fa b386 a7bf 9783 e0c7 9260 823f
00000720: c5af 142c e2ea ac3f 9366 a2fc 759e 76bf
00000730: 4c14 3705 3bcb b13f ad9a e72e 4b1f b03f
00000740: cb93 9dfc 3b1e b4bf bd27 6712 da66 aebf
00000750: 5a57 e1c9 8729 b73f 528a 8c7e 5746 a2bf
00000760: 8e47 46c1 9dae b53f 0e9d 730c 4eb3 813f
00000770: 77c9 cf3a a207 b0bf eea9 4afc bab3 b0bf
00000780: ec52 5728 7329 a13f ba85 1883 2fea b73f
00000790: e08a a7a7 00dc b73f 780e f6b4 19e1 c03f
000007a0: ce7b b61e c7e3 8e3f 2d78 3e4d ad8d c1bf
000007b0: 9c19 169a 4e62 bb3f 2e28 75ff 1480 b53f
000007c0: f92e cff2 993f c53f 509f 6b7d 8978 a13f
000007d0: e4c1 a3b5 826b 6a3f 3fff f91a 7f7c b63f
000007e0: 07e8 0a7b 1fc9 b8bf 2697 0337 2efb aebf
000007f0: 0b79 6b61 6011 90bf ff50 815d 06c5 c0bf
-0.07028801392007157 0.038020859298824684 -0.04131324752915474 -0.05828320561610515 -0.013658456031746112 -0.13044358183676033 -0.09534117697644882 -0.05407731276355157
0.0920985275149464 -0.025422588444187943 0.11424772458576683 0.0016124934240525704 0.14419568908730382 0.02015086000998508 -0.18568489700677798 -0.05295823503432578
-0.034939031140448884 0.0744562899727766 -0.10221854115234214 -0.0651662650295504 0.051246110674385434 0.008758358430993221 -0.0039782004847280774 -0.08165248701726087
-0.020662211819088155 0.06896497671547405 0.010342624627543286 0.06579242900618676 0.06892311372663329 -0.020749403563148222 -0.0626173712543403 0.059469359756355006
-0.04705142527179993 0.0816795265465879 -0.11534782905347271 -0.009577251865760795 0.054247774417783695 0.014354245868192662 -0.07656283535702926 0.06083721977147349
0.019621692156706113 0.09087858874643168 -0.10848886579285744 0.07114407892988935 -0.04419393765768167 0.09560642670184138 -0.0976125177985512 -0.020882139996639338
0.07926477976881546 -0.04917388328626912 0.08998954562514719 -0.04817202566848894 -0.16867042394237158 -0.07261703226776785 -0.0473233700001358 -0.11146777406137365
-0.06858891966452589 0.035221620340569464 -0.06709926213117601 -0.09139318675987154 -0.09150459235027131 -0.0907452002620587 0.00998732455770782 0.07111646779805621
-0.04534264441309652 -0.11542670811203533 0.018774075101356962 0.1451939633445559 -0.036711215940797196 -0.013247885474189234 0.009742443275019672 0.07907179761436431
0.02064367102458515 0.03323555561904569 0.09924533262441215 -0.10574558939008671 0.055215108890583085 -0.07313591682882907 0.13845667970471007 -0.054266319119523634
0.11321990535725604 0.016772013202046573 -0.09322004725594078 0.03800526158173325 0.035043055221151836 0.00952215797910341 0.057639918627595155 -0.05798974840910554
0.010062169914204142 0.06361974460237085 0.023287401681102028 0.0036831046910874095 0.06186704505067615 0.10904270437621098 -0.0280230311626915 -0.03177189343092352
-0.0045131127671801646 -0.09846890941923364 -0.027762691175057547 0.04304556035127695 0.06389809010974415 0.18381521251678395 0.12305344458754067 0.09916143325382423
0.11586684691155963 0.013332162414379739 0.060738772758392755 -0.03182240330638076 -0.029665567944200773 0.016629523170137096 -0.05772053847704501 -0.05430765922566317
-0.06922564078683101 0.0011094472072112685 0.02074696342545526 0.14437001883087913 0.1501564483903706 -0.08524233077185805 0.021900061763921796 -0.11843193121742616
0.0259198973982192 -0.04926343680082872 0.12580897281993417 0.029264684995336267 -0.015661869020450053 0.012955154024223618 -0.010923623666509572 -0.032408137878670994
-0.008876397529547494 -0.011453099540273749 -0.0343330446430754 0.028694188362648393 -0.07417863285201558 0.002370257680668506 0.0019214911057415286 -0.13304748108081701
0.0627753349336086 0.008571823307441965 0.000126025107112102 -0.1333330046684048 0.08256822741998097 0.041627106423100725 -0.0626011108569617 0.06844755731515946
-0.03617214987506936 0.012728829374277419 -0.04808433826985696 -0.13123488729650132 0.012498505841695859 -0.06265822483062176 0.019457960713793573 -0.05998380018351018
-0.07159120832571057 0.09894752807228713 -0.08908843426556297 -0.001123723333590509 -0.10590690574673832 -0.05901497308810654 -0.0026279919735041515 0.1123176731360149
-0.08007919673188582 -0.14846364112635838 0.0523711119416991 -0.0816375901140543 0.022405808551342013 0.07029586504356071 0.0847349978990904 -0.054437376793282435
-0.015078544029495542 0.036474229245222145 0.059341045047851065 -0.023880774338233976 -0.004534902153525387 0.01832032992252673 0.10846393883620079 -0.018445294167021672
0.011440253250345936 0.034056615192579846 0.11024947661960822 -0.17718919564786081 -0.1729826902542874 -0.019014639857508408 -0.0011452276662792162 -0.09247025746287618
-0.06461438065610517 -0.002756978655866647 -0.039390968710305 0.048770989152637445 -0.013990313061261894 0.048452636145925244 0.06744776787308271 -0.013261783992430306
-0.030481819671227355 0.055938424974953785 0.057761407718851 0.038808884506839884 0.08814312750390198 -0.03830428777421436 0.10209161101991909 -0.08124362795104338
-0.03285771846861111 0.057880564973089396 0.0527541878225551 0.02103152729213992 -0.007860072053914325 0.10669672817589174 0.11540203887850177 -0.0614748594364404
0.002298275859011059 -0.05916354408241951 -0.00909968636854785 0.12905396138723713 0.03573515498840484 -0.14012108968633463 -0.028458884650346763 -0.018600289845461894
0.09853598635195471 -0.013162945739178167 0.08009170573032545 -0.02558876416165303 -0.018605768555305973 0.07841951590902166 0.030009288441205876 0.1267635007189265
0.064550481014887 0.1512973114142344 -0.04594957759043858 0.008973261570703701 0.056479518776853456 -0.005522213827271155 0.06950730206797678 0.06297750373014806
-0.07858633916255468 -0.05937844729085338 0.0904774539825132 -0.035692915151476115 0.0846956822263378 0.008642778162949696 -0.0626164811690496 -0.06524246844734424
0.033519362139179026 0.09341713858204673 0.09320072262884649 0.13186951957696968 0.015082889199048124 -0.13713613769226765 0.10696879636643647 0.08398562657126327
0.16600345951007237 0.034122749862773305 0.0032250931663997274 0.0878371659146042 -0.09681889299363898 -0.06051010533864902 -0.015691286035569834 -0.13101272168808717

equations.x.layers.6.bias f8 [64]
00000000: 6bab 86b5 0b93 b2bf 1f07 9033 fbd8 aa3f
00000010: b153 e2b9 b353 a0bf b042 aa40 c03a 933f
00000020: 2176 a773 088b b2bf 942d d21f b133 ae3f
00000030: 2bc4 a03f 5c71 acbf 16ae ce5d 674c aabf
00000040: a500 ccfb a446 b73f 0f0a 9c1a e8e5 b13f
00000050: 3f5a ba44 182b b8bf e755 96ac cb98 973f
00000060: a48d 28d1 e256 bcbf 86a9 d427 4f47 953f
00000070: 3483 4b9f fb50 7cbf 54dd 0ed2 0655 ae3f
00000080: 4876 8be0 2705 97bf c6da b8ed 63cc 8fbf
00000090: 6cb6 1123 18b1 b53f ad2f a176 fcce b9bf
000000a0: 73d7 e663 2ac9 b73f 7618 2f02 fb9a 9a3f
000000b0: e54b d2df 0950 a53f 33ca bd9f 9de2 9bbf
000000c0: bb8d 1701 c947 bdbf 0095 2097 c9ac b3bf
000000d0: abe0 0b46 e029 b9bf 7b4f 1de9 f8ac b1bf
000000e0: afef 45c1 2950 963f 8a76 69b2 da11 bcbf
000000f0: 2313 b938 aab7 b9bf 8326 5788 d80f b83f
00000100: b7de 9c44 9238 833f 9331 a791 a48a a93f
00000110: 91d0 0f6c 4927 a9bf 68d3 243a b5ce b1bf
00000120: 817e de55 7ada ba3f 4eef c295 fa2b aebf
00000130: 4ece 06d9 a5cb 8dbf daaa 4727 8604 983f
00000140: 9e65 7913 e66e b2bf ce0a 5ac1 9bbb 9ebf
00000150: 8d02 3873 81d1 9f3f b629 b808 6311 83bf
00000160: 822a 6631 7589 b63f bee0 5559 1aba b43f
00000170: d5e0 1d58 aa14 b83f 0c04 b202 f102 983f
00000180: 4bd8 bfeb e26e b53f 4d1f f903 0bcc ab3f
00000190: bd27 524a db0d 99bf 73a1 a6be fcbd 7d3f
000001a0: eee4 37c0 317a 5cbf 7b59 7e70 f919 a5bf
000001b0: fc7c 8f49 5b35 9bbf 377a 7c0e 3ee6 a0bf
000001c0: 10f0 cb58 dcb2 a7bf 3fbf 8136 6f1c a03f
000001d0: e5d0 8fc4 1fc0 aabf 56af c438 9afe a83f
000001e0: 0135 624c 8b6a a6bf 7909 7b20 1286 bc3f
000001f0: f320 8fbd 3a43 8f3f ed08 f851 9845 a1bf
-0.07255623990810782 0.05243668560434699 -0.03188859600155725 0.018778804728358522 -0.07243397544467502 0.058988127836609255 -0.055552370802964234 -0.051364164544193056
0.09092169902214893 0.06991434716841403 -0.09440757444313251 0.023043806465997376 -0.11070077520758176 0.02077983551604625 -0.006913168811224325 0.05924245180306778
-0.022480605201840725 -0.015526562397196197 0.08473349434071914 -0.10081460853797237 0.092913293256826 0.025981828697489516 0.041626270839650016 -0.027231657862509983
-0.1143766048112899 -0.07685527743941023 -0.09829522810093987 -0.06904559794685199 0.02179017297883917 -0.10964743476639618 -0.10045875439488987 0.09399178818343938
0.009385245055099174 0.049885885982436616 -0.04912785953629951 -0.06956036252524955 0.10489620777524956 -0.0589292819799697 -0.014548583684564378 0.02345475783105653
-0.07200468039936544 -0.030012544323208705 0.031072638184925828 -0.009310506538004453 0.08803493934662224 0.08096470528642194 0.09406532908713257 0.023448720731270398
0.08372324233627741 0.05429109977245492 -0.02446692124480142 0.0072612641182917435 -0.001738117775742783 -0.041213793737528946 -0.026570726742531456 -0.03300661017259581
-0.04628647407477626 0.03146693745008954 -0.05224704050479704 0.04881746237728517 -0.04378161723534824 0.11142075818046306 0.015264948758968866 -0.033734092718093446
