inverted-double-well-vFinal2/2025-06-03_13-08-08/model.pt (torch, 138642 bytes, 12 tensors)

equations.x.layers.0.weight f8 [64, 1]
0	0xbfd14195aab63ba6	-0.2696279685123336
1	0x3fe7b81efaf8c908	0.7412257100861845
2	0xbfd7373d3dc5a82b	-0.3627465346568239
3	0xbfe62450854c881c	-0.6919329265113023
4	0x3fec9f31fb034617	0.8944330122560044
5	0xbfb0078912083cc6	-0.06261498155821518
6	0x3fdcd210e375340a	0.4503214093463731
7	0xbfea5e9ddda87d0c	-0.8240498856793308
8	0x3fe0df186c93112d	0.5272333260150269
9	0x3fd9d6edf737acb1	0.4037432588799659
10	0xbfad5d89467f2459	-0.05735424981646337
11	0xbfc1c46faf924b70	-0.13880725930047388
12	0xbfdb15a83c2d18c8	-0.42319684864595475
13	0x3fdcf29015d45314	0.4523048604180968
14	0xbfd89dc4fa533c56	-0.3846294827062072
15	0xbfe715a4101b2e1d	-0.7213917078565292
16	0xbfae49f8ab440713	-0.05915810671468882
17	0x3fc4dff041dd02b0	0.16308406082136662
18	0xbfe407d50b81aff0	-0.6259560799348929
19	0xbfdeb50b84aa5272	-0.479800109439828
20	0x3fea757e3edc2e6e	0.8268424251304631
21	0xbf35e399e363a6fa	-0.00033400065457432594
22	0xbfe67ce21db042c0	-0.7027445392469289
23	0xbfd0c8193b3ab076	-0.2622130468760199
24	0xbf530efcfc892699	-0.001163241440865914
25	0x3fac6a0245db7830	0.05549628355741765
26	0x3fb0834a4a2ed351	0.06450332938295601
27	0xbfd13f394b3cad84	-0.2694838747726964
28	0x3fe490ea564c07b0	0.6426898656356936
29	0x3fe9d3bd89a08922	0.8070972145108366
30	0x3f52c99387bf8685	0.001146692345166762
31	0xbfdf523a0a58c7ce	-0.48939372072629517
32	0x3fc0ecc4f29a683f	0.13222562642914856
33	0x3fc83c0c09f742a3	0.18933248983969006
34	0x3fe38158fd9c9f63	0.6095395043712241
35	0x3faaad74185616ba	0.05210459515641959
36	0x3fc84553b0ad6dc4	0.18961568953350938
37	0xbfc3647e5fa24cf4	-0.15150432271602876
38	0x3fe980ce5da756bb	0.7969734028981387
39	0xbfe22f66feea1022	-0.5682864168925372
40	0x3fcd944bd7e38484	0.23108814279024525
41	0xbfd10f8f2fc3e464	-0.266574665685374
42	0x3fdd0b458155e847	0.4538129580538492
43	0x3fc7df9581ff9f58	0.18651074264129863
44	0xbfe87c6ece55735f	-0.7651895551640385
45	0xbfe70cc08e9b4501	-0.7203066621097208
46	0xbfe374f6104cda75	-0.6080274885524221
47	0x3fd6b4cfc3515219	0.35478586267461903
48	0xbfe147feb0cea17e	-0.540038438154667
49	0xbfaad9b7cbfcf39a	-0.052442306185617585
50	0x3fe1c72faae21964	0.555564721828699
51	0x3fea6871f2d314df	0.8252496473948233
52	0xbfd1343e24cdca20	-0.268813644353175
53	0x3fe5551910167a0b	0.6666379274573172
54	0x3fdcdcc79d9bb183	0.45097532645629473
55	0x3fde60cdf0d95555	0.47465847511678777
56	0xbff304b8248b571b	-1.188652174712337
57	0x3fd7bb15c72c0c91	0.37079376650235313
58	0xbfe0b22a137289e4	-0.5217485790092806
59	0xbfe96117a4e4c29b	-0.7931020947053925
60	0xbfdd0fd2e6167e9b	-0.4540908095313882
61	0x3fca24b1c96683fd	0.204244826641144
62	0xbfe4ecc7c8bee581	-0.6539038582624671
63	0x3fe36309ca76ece5	0.6058396295915399

equations.x.layers.0.bias f8 [64]
0	0xbfd3fe0aae4252ec	-0.312380476164704
1	0xbfe41da3c12e5c0b	-0.628618123347111
2	0x3fef9ca3b67f1301	0.987871033132791
3	0x3febe10d2e0a1b30	0.8712221049507658
4	0xbfee5be00232f64c	-0.9487152140570259
5	0xbfe50ec79691c89b	-0.6580541554269702
6	0xbfcc274af8012e17	-0.2199491225204475
7	0x3f949bb8915ecddb	0.020125278351498337
8	0x3fe1bf951b30720c	0.5546365290679787
9	0x3fe995b0e41cc267	0.7995228247946898
10	0x3fca43dc648e53ce	0.20519595060309687
11	0x3f43cd02d0f3ffc6	0.0006042732001389987
12	0xbfe24ded31b4fe3c	-0.5720125170555046
13	0x3fe253340cd30286	0.5726566553567671
14	0xbfe7ca14c247fadd	-0.743418101745046
15	0xbfe9c6a4447a4486	-0.8054982507184298
16	0xbf9dfa5e9b5ed01b	-0.029275396569303874
17	0x3fe1b6038931dbaf	0.5534684829316258
18	0xbfe3afb9a99fdcbb	-0.6152008355119486
19	0xbfd2aec46890dd53	-0.2919169446135658
20	0x3fc99730983873d7	0.1999264472259756
21	0x3fe6d1a8406e9a14	0.7130929239691022
22	0x3fe5441d837a0c9e	0.6645648544221279
23	0x3fbe3c4b9215551c	0.11810753170478389
24	0xbfdb6f87c667ce89	-0.42868227363144534
25	0xbfe9f6e5a3532086	-0.8113887968002167
26	0xbfbc6880ca0a5eca	-0.11096959049825297
27	0x3fbfb7d55cc2ce73	0.1238988257853693
28	0x3fd61883416da77f	0.3452461375187496
29	0x3fdaa0dd9f4b8370	0.41606846386098706
30	0xbfe7fafc2c505304	-0.7493878236296898
31	0x3fd45beb6300d8d8	0.3181103197888553
32	0x3fd2d832148fec6d	0.29444553382899735
33	0xbfe7284f603a4d53	-0.7236706618736356
34	0x3fbfe6d218db32a7	0.12461579424707257
35	0xbfc00bfbc20cb77a	-0.12536570525247354
36	0x3fb767c05c8f614f	0.09142687091605704
37	0xbf47619e333be40b	-0.0007135412656388297
38	0x3fea3881fef79bf2	0.8193979244068699
39	0x3fed1c17fcfe5f93	0.9096794072420259
40	0xbfdaa90278f749d7	-0.41656553090174725
41	0xbfce424843d17c74	-0.23639777480545698
42	0xbfd357ef3e152a94	-0.3022420984531575
43	0x3fe98869df7a61a9	0.7979020466619221
44	0x3fe3359044910264	0.6002885188282332
45	0x3fe97ea5d841f011	0.7967099403172161
46	0x3fdbe4fc60ac07f9	0.4358511871397464
47	0xbfe33579cafa99ab	-0.6002778019363196
48	0x3fcf1ee9b06c2396	0.2431308852613056
49	0x3fbf7593d90d61ab	0.12288784073951457
50	0xbfe78251ab106b2b	-0.7346580830665962
51	0xbfd353e938a358a0	-0.3019965222459948
52	0xbfc49a1125e4c76b	-0.16095175123478653
53	0x3fd856798effe41a	0.380278005264303
54	0x3fd5b53f01d53ecc	0.33918738535883786
55	0x3fdb3f593cd8d903	0.42574149076553186
56	0x3fe0f819322052f5	0.530285451796401
57	0xbfd2dbdaee4b7ad3	-0.29466889639836075
58	0x3ff0aad4cfc13416	1.0417068591516503
59	0xbfe2f8c3660f9212	-0.5928666108489458
60	0xbfef27d2867d07a4	-0.9736111284948845
61	0x3fe2137b5bc4ffb0	0.5648781578420223
62	0x3fea255b0136e8b5	0.8170599960060573
63	0xbfd75b98ce880da0	-0.36496563119018255

equations.x.layers.2.weight f8 [64, 64]
0	0x3fb633bd176849ed	0.08672696897000494
1	0x3f9f98c61cbb9bb3	0.030856223586763053
2	0xbfa0463e72e1154f	-0.03178591873487823
3	0xbfb5ec565d84b9f2	-0.08563747199216445
4	0xbfabc4f602e9a51a	-0.05423706803851243
5	0xbfc11b2d73fa2fdc	-0.13364189303354024
6	0x3fa82f5802d944a5	0.04723620447897162
7	0x3fb9408ace0d35c2	0.09864108591610601
8	0x3fa8836fda5569ed	0.04787778415876063
9	0xbf8cf5ef5192f195	-0.014140958477917557
10	0xbfb185dbb549282a	-0.06844876457140062
11	0xbf958600b7fee22a	-0.021018992643549485
12	0xbf9837a8c68e315f	-0.023649823302137715
13	0x3f9b6bbc4e770d0f	0.026778166092992935
14	0x3fba3e1dc5a72d94	0.10251031947625783
15	0xbf7ea06ecf25b235	-0.0074772194369470595
16	0xbfb6920db5555433	-0.08816610028345977
17	0x3fa20ce57d55ad6b	0.03525464205707859
18	0xbfbef8d164f8b1a7	-0.12098416056750826
19	0xbfc0bb25722dad23	-0.13071125102155987
20	0xbfa2584aae7d3207	-0.03582986240380497
21	0x3fc0d21a04e979af	0.13141179313511261
22	0x3fb9c748b7f6c01d	0.10069708339028734
23	0x3fbb5abe71f681f1	0.1068533924321924
24	0x3f8f1cf9d9c25c25	0.01519198604391476
25	0xbf75cfa2104b0568	-0.005324967442619545
26	0xbfb12271d0602e29	-0.06693183266923398
27	0xbfa3d7a82f987568	-0.03875470715523016
28	0xbfb31851f6a60d64	-0.07458984634108884
29	0x3fb25d96af641728	0.07174054891592319
30	0xbfbcf35a24114d92	-0.11308825855785745
31	0xbf8201e2458b8aa4	-0.008792655703876058
32	0x3fc08b0b501e1cd7	0.12924329196923764
33	0xbfc02a84f7f0ed2d	-0.12629758936405136
34	0xbfaef725d1330486	-0.06047933748914951
35	0x3fc009099780b121	0.12527580163567456
36	0xbfb1fdc88c2cdf18	-0.07027867719886804
37	0xbfb669327f42bd3b	-0.08754268271399195
38	0x3f91344aa3a478d0	0.01680103896898616
39	0x3fba4042405abae7	0.1025430113902349
40	0xbf63b0e90cefa691	-0.0024036933677862933
41	0x3fb3c0eec770ce94	0.07716266984135195
42	0xbfb04a8585525231	-0.0636371088497263
43	0x3fc241eef9f62bcd	0.14263713078648124
44	0xbf626fce468f1ed5	-0.002250578767846049
45	0x3fb554eaa0ef26af	0.08332697323853709
46	0x3facd5d3ff1e0203	0.056318879024733114
47	0xbfb9f0c7f547e23a	-0.10133027780819584
48	0xbfb2bd7334654a5b	-0.07320327786627827
49	0xbf941caa23d4d767	-0.01964059680650312
50	0xbf93a1e95a871c28	-0.019172330999733728
51	0x3fb7ed7c21295849	0.09346748170477882
52	0xbfc14d8edf049be9	-0.13517938508559205
53	0xbfb3de27a9560606	-0.07760856517963796
54	0x3faacb6a0e5d0a40	0.05233317780814106
55	0xbf9ac098d28ce2f6	-0.026125324107144153
56	0x3f969645ee4e0d28	0.022057621641136255
57	0x3f87ee4303db0161	0.01168491702571889
58	0xbf917efcedfa5531	-0.01708598330022432
59	0xbfba81c67767bdfd	-0.10354271330992755
60	0x3f65dba75e98123e	0.002668215650148547
61	0x3fb9f709dbc239e8	0.10142575850679914
62	0xbfb10ba6b2ae4e9a	-0.06658403265310611
63	0x3fbe1cede002486d	0.11762892455070224
64	0xbfafbe7aa4271f05	-0.06200011495417183
65	0x3fb962692fe449d0	0.0991578809664937
66	0xbfac24707225735f	-0.0549655093516097
67	0xbfb5f4fe8abbe261	-0.08576956641253154
68	0xbfb33512ce0db877	-0.07502858667950983
69	0x3f80a6524b159f2d	0.008129733005901219
70	0x3fb98a412d70065e	0.09976584777180039
71	0x3fba1744dac122c3	0.10191755619701852
72	0x3fbf769a2b86f4e3	0.12290347635913039
73	0xbf86ec7c68801ace	-0.011193248690699955
74	0x3f898b06ef562265	0.01247220437905234
75	0xbfbcaae31a8565c3	-0.11198253056991007
76	0x3f9bc6a7ee465b53	0.02712499992193369
77	0xbf7808369dc91632	-0.005867207856288513
78	0x3fbaebd7d5354b53	0.10516118006971213
79	0xbfb31a4e99fb38ce	-0.07462016352949094
80	0x3fb596e6129b42c2	0.08433378175983378
81	0x3fc53c50c95cbf87	0.16590318519729072
82	0xbfbeae0f60d08dc6	-0.119843445907967
83	0xbfc04ac2ab3b2ee0	-0.12728150711915642
84	0xbfb3eeaa626645d6	-0.07786049749690646
85	0x3fc00630b920ee2a	0.1251889137218865
86	0x3f9c91aa2233436e	0.027899416291634997
87	0x3fb7fe56f4d1fd4d	0.09372466542298703
88	0xbfa4ae2a8d7a3a64	-0.04039128281612106
89	0xbfb643444497e9e6	-0.08696390795368067
90	0xbf96fa06e2cbb968	-0.02243815192462631
91	0x3fab26d1175046c1	0.0530305233916244
92	0x3fb0e316a0b6d4cb	0.06596509383855957
93	0x3fa6c94de87faea1	0.04450458014602288
94	0xbfbba08f6981725b	-0.10791870427915155
95	0x3fb6ba94cd5cdbba	0.08878450406778784
96	0x3f81a6886f3fab99	0.008618417639771713
97	0x3fbb4217a9aa7f5c	0.10647724048840018
98	0x3f83994674267ca1	0.009569693011881876
99	0xbfbdceb1e1410e78	-0.11643516301506363
100	0x3fbf3fed3beb99e7	0.12206919396303527
101	0xbfbf92883eff52ca	-0.12332965410252963
102	0xbf8c689c0ad5d151	-0.013871401863732176
103	0x3fb0f5b676b8883e	0.06624927900750863
104	0xbfa64f6c6b23dba1	-0.04357470329153235
105	0xbfa0d2503da7b580	-0.03285456421495336
106	0x3f8404dea28e51de	0.009774913154424188
107	0xbf66827e0d4aa240	-0.002747770495563878
108	0x3f9d3aae33ae79f0	0.028544160751716008
109	0xbfb397f486208aab	-0.07653740191066542
110	0x3fab00fdd6b8ac12	0.05274193998442213
111	0x3fb57bbaeac89e12	0.08391922218344686
112	0xbfb47cf5fddb70e2	-0.0800317520874532
113	0xbfb8045be5c2f5eb	-0.0938165126744576
114	0x3f95cc83d7f9bef4	0.021287975365736636
115	0x3fbef7fd714d530a	0.12097152725375451
116	0xbfb42f5650c3ebae	-0.07884730789002845
117	0xbfb190cdc806d6eb	-0.0686157811495282
118	0x3f9b39f3cef60bda	0.02658825827303333
119	0xbfb3ee118c413460	-0.07785138773142952
120	0xbfb67c01fccb7748	-0.08782970830676817
121	0x3fc0032bace1bf43	0.1250967592381987
122	0xbfbf140d2128f7bb	-0.12139970836230322
123	0xbfbfd9d5b3eca19b	-0.12441764490779976
124	0xbf93d20b83bebd0e	-0.019355945507126875
125	0x3f763249cb5d3717	0.005419052371349562
126	0xbfa0df270e7ddb70	-0.032952518958089594
127	0x3f63e83d2319b83b	0.002430076034946741
128	0xbfc3181658f1720f	-0.14917258589675028
129	0x3f9cbbfcd3b6c727	0.02806086580466807
130	0xbfbc76f4e3f319ec	-0.11119013371635561
131	0xbfb3a255511c3a49	-0.07669575910788597
132	0x3fb12692ecaeae2e	0.066994841369415
133	0xbfbe7582aa49e4a5	-0.11898056657254814
134	0x3f9c7c9742840875	0.027819026408004228
135	0xbfa49249150ce97f	-0.0401785696216903
136	0xbfa4c89db58b01d8	-0.040593079005251276
137	0x3fbbb7d6501e2515	0.10827388244628751
138	0xbf855411f300e7b5	-0.010414257267360097
139	0xbfc22a36af366b63	-0.14191325717259948
140	0x3f7300deb0ddcc19	0.004639501463191053
141	0x3fb1c69548d48cba	0.06943638828356571
142	0xbfad3f4c954d5f7f	-0.05712355921303835
143	0x3fa721d0f449a62f	0.045179872341418174
144	0xbfba02b6b0b6485a	-0.10160390676745248
145	0x3f77fbe9e9193d27	0.005855478013088423
146	0x3faee1f99efb451c	0.06031780305569098
147	0xbfa192b77fba56da	-0.03432248529604261
148	0x3f9f4d628b3c6bac	0.03056863760785304
149	0xbfba633de7e95da1	-0.10307680999664239
150	0xbfb72f760c3a7956	-0.09056794928117048
151	0x3fb406c9a0dda119	0.0782285707224485
152	0x3fa13fd6139c3200	0.033690156835380236
153	0x3fbd6639aa0dc177	0.11484108354284737
154	0xbfb72b658d8259ed	-0.09050593094648436
155	0xbfc03c5c6e9dab8f	-0.1268420734516806
156	0xbfb89fe3808e7c19	-0.09618970764721303
157	0x3fc3020c9ed952db	0.14850003963751743
158	0xbfb8c65b90aab274	-0.09677669793991034
159	0xbf6319723dd87a6f	-0.002331469657988187
160	0xbfb563bf06084414	-0.08355325600884128
161	0xbfa73b8fe790e420	-0.04537629796727338
162	0xbfa978840373c221	-0.04974758665219193
163	0x3fc245b42c30d62c	0.14275219114067406
164	0xbfb2ce3299a55d1e	-0.0734588265525997
165	0xbfb2b87cc596014a	-0.07312755416751773
166	0xbfb6592fb8154a6e	-0.08729837650506919
167	0xbfb8b77f36a917dc	-0.0965499409149681
168	0xbf9fc37a0df8da4c	-0.031019122221744674
169	0xbfaf2673e6fa4852	-0.06084024614860141
170	0xbfa0ee7f848c9fd2	-0.033069596224151745
171	0xbf89761126259f1a	-0.012432226158764648
172	0xbfb900d7684eb745	-0.09766908928460534
173	0x3fa674dda09a6133	0.043860364775527926
174	0xbfba84a3778a3a91	-0.10358640354591332
175	0x3fa6be404b24f026	0.044420251057516943
176	0xbfc1b0e578b69061	-0.13821094888874355
177	0x3fb295b784c13093	0.0725969981296564
178	0x3f930d79ad37e88a	0.018606091687595007
179	0xbfab7302f8df85b6	-0.053611843948384516
180	0xbfb578c98b756314	-0.0838743176913222
181	0x3fa7f37509d663aa	0.04677930588804398
182	0xbf67218e3a33af20	-0.0028236177328063855
183	0x3fb69dcc188c3ece	0.08834529494583451
184	0xbfc3062dc24747ed	-0.14862606035472883
185	0xbfb70e6396f8b479	-0.09006330905750017
186	0xbfb77069aa53bd11	-0.0915590325200706
187	0xbfc1fcd9e58fbc28	-0.14052890500121973
188	0x3fa12b897ac88bd4	0.03353528617687798
189	0x3fa1d76b262faa61	0.03484663811817224
190	0xbfc04ba65567834d	-0.1273086468709387
191	0x3f96f0e2e5227ff7	0.02240328334357852
192	0x3fb4e977dcb885c4	0.08168744219485463
193	0xbfbd3ed658e4a917	-0.1142400710129191
194	0x3fb1a7a648a3d609	0.0689643790572846
195	0x3fb79df5c8c1e090	0.09225402976324149
196	0x3fbf8de2fbd5e698	0.1232587685425649
197	0x3f90ff8af00897af	0.016599818134771457
198	0xbfa58ccb92d9c038	-0.04208980720147831
199	0x3f9e6a98e0550675	0.029703510944506257
200	0x3f98e1e8f7d26ba5	0.024299278379298923
201	0x3fc275ea2be0626f	0.14422347204596828
202	0xbfb24891f31f4914	-0.0714198320922928
203	0xbfc056e24b9c43f2	-0.12765148822703015
204	0xbfb82da1a8f1df6c	-0.09444628119115145
205	0xbf9812eac9f85cf3	-0.02350966317871168
206	0x3faa138492b44b57	0.050930159481274266
207	0xbfad430f65e6adc4	-0.05715225333127763
208	0x3fb8d212a3844858	0.09695545665843619
209	0x3fad9e496169b814	0.05784825624583348
210	0xbfb533fef406589b	-0.08282464463840926
211	0x3f8619cd9dbeacdc	0.010791403175821328
212	0x3fb1e745b86c087b	0.06993518593302099
213	0x3fa5040af2876e7a	0.0410464688354439
214	0x3fb122e426a8c9a7	0.06693864768820977
215	0xbf603974e7f8d749	-0.001980522472673583
216	0xbfc1fb883526186e	-0.14048864932209731
217	0xbf9dae0d73e81ada	-0.028984270285969817
218	0xbfaf53bc3b09a897	-0.061185724455598826
219	0x3fb676ce72868d58	0.08775034233126655
220	0xbfb1a3ab3542bb85	-0.06890363741216106
221	0xbfae2bd23942e110	-0.05892807911863163
222	0xbfa80d12326ee7a6	-0.04697472444190902
223	0x3fb44419086f90bc	0.07916408973648265
224	0xbfb99cca6a212b58	-0.10004868594221017
225	0xbfbf757cbbe91738	-0.12288646304758977
226	0x3fbea1f6fde1eef7	0.11965888689331537
227	0xbfbd72e813b0fb4c	-0.11503458481545897
228	0xbfbb1afde148c00c	-0.1058806109438139
229	0xbfb8fc4a1929efef	-0.09759963144637117
230	0xbfa0aac76c24f20f	-0.032552940322123296
231	0xbfb3ae589e97135f	-0.07687906143025945
232	0xbfbd72b5d0f7eee3	-0.11503158904809711
233	0x3f7b025840b12b72	0.006594032990572584
234	0xbfb4f53661749292	-0.08186664466172491
235	0x3fc23ff03ce05648	0.14257624599911112
236	0x3faf70053f9284b3	0.06140152359990605
237	0xbfbe21d3686d1b7b	-0.1177036409327296
238	0xbfbac8e074c4c2cd	-0.10462763644023738
239	0x3fa1773a97f7ae4a	0.03411276917526303
240	0x3fa4a93f4c637704	0.040353754114887536
241	0x3f621805054cc654	0.002208719068584478
242	0xbfb19836f4971fc1	-0.06872886153644144
243	0x3fb71d76c88ffcf2	0.09029333492798111
244	0x3f77170324b95e77	0.005637180594554195
245	0x3f9bca77ee54b552	0.02713954345852205
246	0x3fb3c3d66daff8e9	0.07720699479975547
247	0xbfb348cb76778996	-0.07532951013812403
248	0xbfb896f81c106242	-0.09605360684543832
249	0xbfb75a0fd930fff3	-0.09121798565411136
250	0x3fa4e67226684e4c	0.040820662678154734
251	0x3fa71d68e6e5fbbf	0.045146253763042925
252	0xbfa43c0048201435	-0.03952027206836598
253	0x3fb072263d95621e	0.06424178126815902
254	0xbfa28414df1fc00c	-0.03616395209962783
255	0x3fb81d19fc54f4ad	0.0941940537495209

equations.x.layers.2.bias f8 [64]
0	0x3f7ba40a6720baef	0.006748238216501375
1	0x3fc12128ed751563	0.13382445902440585
2	0x3fbea14d84d4ca3d	0.11964878552388654
3	0xbfb33f6fe727a35e	-0.07518672364643694
4	0xbfbbc408eb0a27c9	-0.10846000421784575
5	0x3fb73db3f3e11b4c	0.09078526214680699
6	0x3fab5d2c53331b93	0.05344522967930412
7	0x3fb2876ba7716632	0.07237885320628193
8	0x3fc1d99a26a3dd26	0.13945319067691136
9	0xbfad78e231a67570	-0.05756289344865706
10	0x3f6519b5101ac743	0.0025757347474034977
11	0x3fb2070998f98735	0.07041988358244285
12	0xbfad6c16b0b1f508	-0.057465275830489715
13	0x3fa68bfcb4a7e6dc	0.044036767056196274
14	0x3f692102dfe5172d	0.003067498793060694
15	0x3fb8731219890f36	0.09550583957121436
16	0xbfb2474862cd9d9c	-0.07140018856227076
17	0xbfc2356ea1e93a53	-0.1422556200581818
18	0xbfbf3e2344ea5ed5	-0.12204189713008458
19	0x3f924dfddb8297d6	0.017875639460406344
20	0x3f9ce39ff43067e2	0.028212069777602163
21	0xbfc31e8a2ac0ede2	-0.1493694981344183
22	0x3fbb1972f2fcc229	0.10585707123096512
23	0x3fa22dc58d56e81c	0.035505460265497585
24	0xbfbb73d8f0be0fc1	-0.10723644139767342
25	0xbfc5e97d1f2a305f	-0.17118801137656
26	0x3fa2eca10c9b0496	0.036961586750757267
27	0xbfb6156d97e4d708	-0.08626446684214895
28	0x3fb104e289faaede	0.06648078793176235
29	0xbfaaec3cce7e6766	-0.0525835992877564
30	0xbfbf2f94fa602a60	-0.12181979286848721
31	0xbfb3587a75683c16	-0.07556882254014882
32	0x3fc224b44239aea9	0.14174512132318753
33	0x3fab4a0b78c85469	0.0532992920817968
34	0xbfbee62f1a584c6a	-0.12069982903658319
35	0xbfb2cf41d23fb0d6	-0.07347499259020948
36	0x3f8f45f690d3b987	0.015270162863512805
37	0xbfb722382f3775b8	-0.0903658976817131
38	0x3fc048a757aacded	0.12721721439957837
39	0xbfb352e8d571079f	-0.07548384867643997
40	0x3fa0016668e60401	0.03126068144320727
41	0x3fb4ed1609d8a552	0.08174264660251154
42	0x3f8629e93b7ca9a6	0.0108221265105229
43	0x3f9ce648dd479594	0.028222216134869152
44	0xbfc2b8d5002049a8	-0.14626562601240534
45	0x3fa0700cdfb39fb1	0.032104875857668864
46	0xbfc04505d257468a	-0.12710640688469638
47	0xbf92167ee4e21d65	-0.01766393920891342
48	0x3fc1f3b85c3e2542	0.14025024894753285
49	0x3f923911245b0ab2	0.017795818180057217
50	0x3fad25e00f24c628	0.05692959008082382
51	0xbf6f4a7347c58b61	-0.0038196803636067343
52	0xbfb013a11cb91ef5	-0.06279952002762086
53	0xbf99943726f9b11a	-0.02497945952784262
54	0x3fad23aa13b61d7d	0.05691272249810717
55	0x3fc2dc7ad813e173	0.14735351133982597
56	0xbfc0d7dee9e2f185	-0.13158785267104292
57	0xbfbfb2ef1f9b350c	-0.12382406732213641
58	0x3fc4404cf40e2384	0.15821229855307817
59	0x3f7192605fd89979	0.004289986097808168
60	0x3fb3d70ea0f75a2d	0.0775002615913329
61	0x3fb56a9cc813d2c2	0.08365802654936785
62	0x3fbcdd7e76def84d	0.11275473024486012
63	0x3fa231b7ea9e7560	0.03553557147027209

equations.x.layers.4.weight f8 [64, 64]
0	0x3f64153bafaced01	0.0024515310045934995
1	0x3faae8b278c60f47	0.05255658840454074
2	0xbfbc986d3fb29a77	-0.1117008476745499
3	0x3fb28b8441c7be70	0.0724413548084557
4	0xbfb8a477c97392f0	-0.09625958126305156
5	0x3fa507374429f27f	0.04107067782476736
6	0x3fb22bd4205490f2	0.07098127164187298
7	0xbfafdbcbf77cba9b	-0.06222379108509309
8	0x3fb0cac9e1c86c39	0.0655943084934031
9	0xbfb6055e8b639a36	-0.0860194292359687
10	0x3fa85a7c1b8dc262	0.04756534420346693
11	0xbfb216f1b0bf216e	-0.0706625992307914
12	0xbf7c15ccb7338e0c	-0.006856727285796459
13	0xbf9d971c939fd374	-0.02889675761248918
14	0x3f9b8a3ba5976a40	0.02689450452985853
15	0x3f95ecdecc3da41e	0.02141140100085092
16	0x3fb7f3f0db79d483	0.0935659919576484
17	0xbf8e46ccd6d7922a	-0.014783478075465945
18	0x3fb6c73d6d410e63	0.08897766034447722
19	0x3fb4635b4fa96f38	0.07964106268758264
20	0x3fa497fabc0dc7eb	0.04022201104716302
21	0xbfb293df97b5d39a	-0.0725688691507699
22	0x3fb579f70b598432	0.08389228846637378
23	0xbfad391ad7b9a966	-0.057076300462386695
24	0xbfc297fa9222f839	-0.14526302466942
25	0xbfa8079f86b23ee9	-0.0469331600116883
26	0xbfa636777441225a	-0.043384297314848566
27	0x3fa6a57565219bcd	0.044231098742606535
28	0x3f9679de7bfe485e	0.02194926864428514
29	0x3fb65c23ea9c5036	0.0873434493808539
30	0x3f829553eb4c2329	0.009073882692534578
31	0x3fac5cd36b14858c	0.05539570505267041
32	0xbfc0758de6f7bde2	-0.12858747270318732
33	0x3fbbd7efbed6e2d3	0.10876367959179882
34	0xbfb0b77b81843961	-0.06529971992515506
35	0x3facc83947264d96	0.05621508592153217
36	0x3fb07fe5fb7d6a63	0.06445157422914742
37	0x3f9bf821919bb6a2	0.02731373263571036
38	0x3f8d4fb58d438cdb	0.014312189458399896
39	0xbfab97afac10aa23	-0.05389164901165013
40	0x3f968faab41acb06	0.02203242038985833
41	0xbfb38e6dd8bea7ac	-0.07639204541797423
42	0xbfb2f78c26de5c30	-0.07408977459850585
43	0xbfa55d8c8eab6f48	-0.0417293476254757
44	0xbfb887673abfdbee	-0.09581608948052153
45	0x3fb71f8cf3eb6e58	0.09032517390317574
46	0x3f83f2c3d739613d	0.009740381246203906
47	0xbfb6eb6b3071451c	-0.08952970440556779
48	0xbfb467aa3680c98e	-0.07970680075303546
49	0xbf923bff5f777453	-0.017806997491664877
50	0x3fb58191d55ae271	0.08400832613814103
51	0xbf987727f010291d	-0.02389204409340905
52	0xbf8f1b1e0232f451	-0.015188440744504346
53	0xbfb92869ded619d8	-0.09827291193332799
54	0x3fa9fa9440fe54c7	0.0507398919427629
55	0x3fbfa3ebd11a0e84	0.12359498839401267
56	0xbfac79dbd2c331f5	-0.055617207982866214
57	0x3fb4c410bc53aa2d	0.08111672017882006
58	0xbfb6463b819a350b	-0.08700916208382041
59	0xbfb250c7e5c5a79c	-0.07154511794729362
60	0xbfc078504b65905d	-0.1286716812275043
61	0x3f91894f455f55e8	0.01712535725513034
62	0xbfbe694d97c419cf	-0.11879429774499005
63	0xbfb8d577a9321fcd	-0.09700725441700726
64	0xbfba34a6a3f0b56d	-0.10236588957260091
65	0x3fbccfd86edc5a30	0.11254646975098903
66	0xbfab9a8fc8af66c7	-0.05391358685274166
67	0xbfc054d6f99b7b76	-0.127589103582945
68	0xbfbc4d78da7f506f	-0.11055713018805745
69	0xbfb261be253b495d	-0.07180393609022447
70	0xbfb9ce51882cbecf	-0.100804420228765
71	0x3fad42b56feb4381	0.057149572288500934
72	0xbf9b1e44ea148261	-0.02648265532218586
73	0x3fa757b3c22c3dee	0.045590989544617475
74	0xbf98268e246063c3	-0.02358457657837555
75	0xbfa750e26d30b3fb	-0.04553897459877728
76	0x3faf58283c09fa1a	0.06121946080110181
77	0x3f95ddd0f0e01ea1	0.021353974058028972
78	0x3fb11d1205b8bf86	0.06684982909859913
79	0x3fb15c0db971bd43	0.06781087663124645
80	0x3f8cb6b033824fe2	0.014020325252467051
81	0x3fa7a51b54c605e9	0.046181539629298225
82	0xbfbbc57e7f406f68	-0.1084822712586494
83	0xbfa27d030768c84c	-0.03611001458593019
84	0x3f9a3b5d576435a4	0.025617083033514412
85	0xbf8ea8046134f00a	-0.014968904701724756
86	0xbf9f8e05b4e92c37	-0.03081520954792102
87	0xbfba16e188becd37	-0.10191163624295006
88	0xbfa0971b486676b9	-0.03240285166542151
89	0xbfa34aaf9871cf7e	-0.037679183348614295
90	0x3f8f6b0bc63a91a8	0.015340892779314455
91	0x3fc3d32d40aeae3b	0.1548821035224693
92	0x3f98687e1cb79d9f	0.02383610773349931
93	0x3fa28c8ba6160b17	0.036228527092154454
94	0xbfac126651d9f74f	-0.054827878467206596
95	0x3fb9071e887631fe	0.09776488143524628
96	0x3fbd4e3e203883c7	0.11447513853683154
97	0xbfb1ba5ace4faae6	-0.06924979721922461
98	0xbfa9f05cb99f0dd0	-0.05066194311032357
99	0x3fb603033f8c9246	0.0859834699773013
100	0xbfb7124c7850bfb0	-0.09012296616924576
101	0x3fb436d9d5683ed5	0.07896195850502903
102	0x3fad596fe9e27eb6	0.057322976398834255
103	0xbfc01a7ec00fdda7	-0.12580856683756034
104	0x3f9c497bcfc9e18d	0.027624067838105715
105	0xbfa3a14c33b2335e	-0.0383399785142504
106	0xbfa3d61dcaa721a3	-0.03874295328893431
107	0x3f55103fd669f2d5	0.0012856124318709101
108	0x3fbc480b7132b1ef	0.11047431481956214
109	0xbfa38f288bc1a420	-0.038201586780651775
110	0xbfc09558dda7ab83	-0.12955771277423986
111	0x3fba7ea487655deb	0.10349491410794769
112	0xbfc31dcf50cb8ed0	-0.1493472237117346
113	0xbfaab36f98301b88	-0.05215023739588448
114	0xbfb143d307be4524	-0.06744116725009924
115	0xbfa6574c7443bd53	-0.04363478583570193
116	0xbfc24b9c5b1e8960	-0.14293245743926786
117	0x3fc05ecaf85b926d	0.12789284827080696
118	0xbf70673300ab6bdf	-0.004004668454139242
119	0x3f9c1e936dddec65	0.027460387783758828
120	0x3f6f443368dc6322	0.003816700372123797
121	0xbf91654c369cd94c	-0.01698798259095584
122	0xbfb2b2ca68e1b779	-0.0730406290110447
123	0x3fa1f691d3bb011a	0.03508430204010633
124	0xbfaec834b52583bd	-0.06012119971524708
125	0xbf756813592623f4	-0.005226207331710409
126	0x3fb81935831227ff	0.09413465929006291
127	0xbfa9d947d5e764e3	-0.050485844479860174
128	0xbfb380515fae5e8f	-0.07617672525372597
129	0x3fb9af6add4ac308	0.10033290770185144
130	0x3fa9fda26bdda286	0.050763202349860356
131	0x3fb6917c0f39f065	0.08815741893516955
132	0x3fb22306e5c84570	0.07084696874541918
133	0x3fc03fcbc8c16528	0.12694690039169498
134	0xbf9d6cdbabd23df2	-0.02873557316030246
135	0xbf8e60744c797b1e	-0.01483240946180114
136	0xbfb86ff645af39c7	-0.0954584045532335
137	0x3fa27e43bc534b1b	0.03611957239049542
138	0xbfa463e8964b50aa	-0.03982474169393531
139	0xbfb0c1986da572ed	-0.06545403172408344
140	0xbf9eeaa23a7049f3	-0.030191931549845518
141	0x3fad1260cbc408ce	0.05678083884596817
142	0xbf4f6449daba1b5b	-0.0009580002419661103
143	0xbfa479c4b7e5c4a3	-0.03999151940195957
144	0x3fb3d07513b07639	0.07739955645271203
145	0xbfb4168659b2e201	-0.07846870126639517
146	0x3fb3d717b39439e7	0.07750080236676347
147	0x3fb5cc151f49e738	0.0851453019512548
148	0xbf816fcf57c5af47	-0.008514041772933146
149	0xbfb864db3daf9266	-0.09528894668580676
150	0xbf9e2207b4e0c129	-0.029426689543641835
151	0x3fac6a68ee65ca3c	0.05549934301497614
152	0x3f9f46431d006264	0.030541466374503293
153	0xbfb66c364e25816b	-0.08758868606446917
154	0xbf850ace93a2f687	-0.010274518852720916
155	0xbfb9e4cd7ab4bf73	-0.10114750142815669
156	0xbf8f4ab665ca12ef	-0.01527922151695679
157	0x3fb23e5407f3b0ee	0.07126355356348643
158	0x3f7340e1430c589b	0.00470054619724727
159	0xbfb362c4cc7e764e	-0.07572584145096892
160	0xbf870e597ed46de8	-0.011257838423765557
161	0xbfa4d2099ec04416	-0.040664959553517274
162	0xbfac1c725c74de92	-0.05490453127498286
163	0x3fb42bffec3184eb	0.07879638210717459
164	0xbfc26ee25ce5e61f	-0.1440089181522106
165	0x3fb76ac169c49202	0.09147270996306392
166	0x3fb797e0582aa5a8	0.09216119911675114
167	0xbfb83d2a03b66a6d	-0.09468329039229113
168	0x3f9579e6e2109676	0.02097283129491819
169	0xbf8d24a2ec78c26e	-0.014230034677070704
170	0x3fbd79e681c2eb79	0.11514130275729241
171	0xbfa9961bf4527e57	-0.0499733672852442
172	0xbfb14f8263fbe2c1	-0.06761946621908078
173	0xbf9ba4aaf92b447b	-0.026995345552510912
174	0xbfac64c406b294ce	-0.05545628148801428
175	0x3fc01e5049091ad1	0.12592509809674948
176	0x3fa771be31ff145c	0.04578966484363242
177	0x3f750ff8d885a76c	0.0051421852625511515
178	0x3fbbfa316518711e	0.10928639143134375
179	0x3fb2ebec2906af5e	0.07391239167799088
180	0x3fc27c6aed1f141a	0.14442192629044898
181	0xbf95026c9ca01b8c	-0.020517060336739543
182	0xbf9e8357c30165fd	-0.029797908093632575
183	0xbfb54ef20cc35147	-0.08323586284251859
184	0x3fc16428a5d06c26	0.13586910339731267
185	0x3fbfe46aed2600e1	0.12457912721402266
186	0x3f98454f519c9476	0.023701896053485126
187	0xbfa5e3eb17ba85fb	-0.042754503866728265
188	0xbfa44258443caba7	-0.03956867058726426
189	0xbfb14d968e6b004b	-0.06759015061379718
190	0x3fb3e25e6e0ed399	0.07767286478958936
191	0xbfaec0fc3421566d	-0.06006611000399862
192	0x3fb8d9bb33be4c2c	0.09707231534257293
193	0xbfb35529bde2a782	-0.07551823507188085
194	0x3f9203291379cfa0	0.017590181173048003
195	0x3fb3e7dd0b75087d	0.07775670556751098
196	0xbf9ab2521cd75f3a	-0.02607086468728357
197	0xbf986a5ba84a1458	-0.023843223711555644
198	0xbfc1b96005ba4f35	-0.13846969871212314
199	0xbfa10a3d9af43471	-0.03328125492598922
200	0x3fa3d01e6eede41f	0.03869719604603738
201	0x3faa0f7118302c85	0.05089906139627324
202	0x3f9be932bbcf9a6c	0.027256767952986413
203	0x3fb8ee4987208a98	0.09738597439767671
204	0xbfb8ab510a6b5535	-0.09636408333183939
205	0x3f733a66c0c25a64	0.0046943677699774235
206	0x3fc677c101e34cdc	0.1755296000688763
207	0xbfacdbefdd83affa	-0.05636548594506503
208	0x3f9a51179982e919	0.025699967140760813
209	0x3fa0eea1dd28dbdc	0.033070619818708485
210	0xbfb490cd304394a9	-0.08033449581451414
211	0xbfa023d1bcf2ccf8	-0.03152327949046624
212	0x3f928d7de9adfb6f	0.018117873561546313
213	0xbfaf31c61f5e5b40	-0.060926619843647334
214	0xbfc0e4632c1a7075	-0.13196983006935495
215	0xbfbc0959d97df456	-0.10951768455375208
216	0xbfa0b64c981e85bf	-0.032640832490197884
217	0xbfa0fc848ee91058	-0.03317655796539104
218	0x3f80dec035389a20	0.008237363456896907
219	0x3f946b1a3a422525	0.0199398134286969
220	0x3fc0e6575509a41f	0.1320294537756874
221	0xbfb2e1e730d56909	-0.07375950758197204
222	0x3fbcc1bd8022b9d3	0.11233124140083044
223	0x3fb3346217272ded	0.07501805367717625
224	0xbfaf580fc03a979a	-0.06121873113197225
225	0x3f826791d157edac	0.00898660583606311
226	0x3fc25ff6e152383c	0.14355360033045084
227	0xbfbd0dce2670bac4	-0.11349190176472762
228	0x3f94997857e80c1b	0.02011669193781183
229	0x3fc0ffef5955d0e0	0.13281051504203045
230	0x3f23d0dc34da703b	0.00015118301455607934
231	0x3fad5166c055d625	0.05726166818469051
232	0xbfc0e9a29fcb0696	-0.13212998201747855
233	0x3fa423238d97e612	0.039330588373513234
234	0x3fc34b668ba86759	0.15073854274015266
235	0x3fa88cec64a19f0a	0.04795016029748751
236	0xbfc1c022e55db1f5	-0.13867603492271
237	0xbfbb8ab68200ca55	-0.10758534120467662
238	0xbfae32c6470cb591	-0.05898112885766261
239	0xbfbbbc1f5a19a788	-0.10833927106582852
240	0x3fb100770d29deb4	0.06641334601760712
241	0x3facb48b47b8bafe	0.05606494188793042
242	0x3fa63c3360f4df9a	0.04342804487754322
243	0x3fa6e40e79e697d9	0.044708683376753995
244	0xbf96e57442c8139d	-0.022359673095724387
245	0xbf78678dbd9949cf	-0.005958131479547337
246	0x3fb10d7fd3d1769d	0.06661223336547058
247	0x3f842eafeb592ec9	0.0098546737382529
248	0xbfb0c567c2dc2e9b	-0.06551216609312364
249	0x3fb9c5ce811747f9	0.10067454005846334
250	0x3fbfebe3eb94f022	0.12469315053471111
251	0xbf72cd0ab764d8de	-0.004590074406499249
252	0x3f995b6b55075128	0.02476279932473449
253	0xbfb5860e7268fef6	-0.08407678883758848
254	0xbfa1d05c26eb4379	-0.03479278540692738
255	0x3fb7fee3d8b1d60b	0.09373306312939904

equations.x.layers.4.bias f8 [64]
0	0xbf9318d187841fb8	-0.018649362465140235
1	0x3fbbc9f5e4cfbc0e	0.10855042301385273
2	0x3fab24ee381727e1	0.05301613268564132
3	0xbf9d4a248bbe8954	-0.028603144673647066
4	0x3f8b707a6ffd524a	0.013398129027032319
5	0xbf982b0ecd40621b	-0.023601752545888127
6	0xbfb70289821cae7a	-0.08988246370852862
7	0xbfb5a226aeeb5718	-0.08450547953119913
8	0xbfbdbdce30d98966	-0.11617745106335561
9	0x3fa45709361fd9f9	0.03972653184603198
10	0xbfae3a1251dbac60	-0.059036800854152416
11	0x3fa8523a2b8d00a9	0.047502343956240374
12	0xbf9e15caef5446ba	-0.029380007607932447
13	0x3f6df0525bec73af	0.0036546333862034967
14	0x3fbdbb485562c12b	0.11613895496953279
15	0x3faed91b65ca512f	0.0602501451259364
16	0xbfc0650e215e8d1d	-0.12808395985948887
17	0x3f7f91c1d2c3bf4d	0.007707364198935651
18	0x3fb8cb80431749eb	0.09685517919505286
19	0x3fbbe10e3a1d5cb9	0.10890282553497145
20	0xbfbb2c02efb08a1b	-0.1061403117351251
21	0x3fb4d15ca2d9217f	0.08131960845742546
22	0xbf9b5d22c186eb50	-0.026722472249939344
23	0x3f8d98f00fed6ce2	0.014451861845080353
24	0x3fb4459fe7e61db0	0.07918738757699972
25	0x3f9f67e055fbe8eb	0.03066969418339564
26	0x3fb17c638481087e	0.06830427155458271
27	0xbfb483394f8fb749	-0.08012731735626945
28	0xbf9975a42b58a1ff	-0.0248628283935961
29	0x3f98dbb03767bbb3	0.02427554453054954
30	0x3fb0f910518667df	0.06630041113240236
31	0x3f995989367f367c	0.02475561518786272
32	0x3faa4d1cb8f2abf4	0.05136956937470663
33	0xbf93bf6a4703bbf5	-0.019284878334413908
34	0x3f58e7583aaa2c04	0.0015200006115800866
35	0xbfb895e51d116a94	-0.09603721580189478
36	0x3fb51def702e6bb4	0.0824880265121653
37	0x3fa02aa48379a584	0.031575337456909686
38	0xbfbc9265b49e74d8	-0.11160884532587845
39	0x3fa7183b1d350422	0.04510674220592416
40	0x3f81418803d03baf	0.008425772301078853
41	0x3fbfd1f5b61051bd	0.12429748244205192
42	0x3fabf860d283b2e9	0.054629350373806514
43	0xbf9628b28ec4b513	-0.02163962360753142
44	0xbf989e7e8abc637a	-0.024042107789770985
45	0x3f7bdf98fc127d4d	0.006805036159817601
46	0xbfb1c7e37efb267f	-0.06945630884288255
47	0xbf9992ab64868c91	-0.02497356225070441
48	0x3faec52fcda151d1	0.060098165370309105
49	0xbfae2b2a4d6451a0	-0.058923074671983544
50	0x3fb19b5e05633be7	0.0687769663957024
51	0x3f8cbf6854a96368	0.014036955913228247
52	0x3f8fef37a0ad89e9	0.015592989531516959
53	0xbfb9d4181cbaec31	-0.10089255048198777
54	0xbfb952df9cee6937	-0.09892079907732386
55	0x3f927bd1d4162f67	0.018050459451429825
56	0x3fbe8bc5bcda2378	0.11932025776526511
57	0x3fab835a63eb3a02	0.053736519524694173
58	0xbf87e6a24f0cbd4f	-0.011670368230254495
59	0x3fa202844ae3794c	0.035175451413794606
60	0x3fa210e75e0c08b9	0.03528521559748427
61	0x3fc0cec81efe61c0	0.13131047738421664
62	0x3f96597ffffec72b	0.021825790404995587
63	0x3fb0e1996b38c05e	0.06594237201420713

equations.x.layers.6.weight f8 [64, 64]
0	0xbfaf25b825f41d10	-0.06083465064335247
1	0xbfa25b36c9697ed3	-0.03585215767520613
2	0xbfb96506720774bd	-0.09919777187265573
3	0x3f857eb98e1b23d0	0.01049561467097418
4	0xbfb6147487ba33ee	-0.08624962152153134
5	0xbfc5812e5acc1ebb	-0.16800479348625239
6	0xbfb646248628c338	-0.08700779223796651
7	0xbfa5f85ea263642f	-0.04291053516653453
8	0x3fadfb3299eaa72c	0.05855711106171521
9	0xbf9bc9031b620bb4	-0.027133987947774066
10	0x3fba8c28caf57448	0.10370116190957035
11	0xbf90d42347063933	-0.016434241495113255
12	0x3fbba36352b03662	0.10796185272939732
13	0xbfa0ba603625d834	-0.0326719347093988
14	0xbfc05907e91d07f0	-0.1277170074700389
15	0xbfa1e0a60127869d	-0.03491705669490595
16	0x3f7dcd37951c28ec	0.007275788420665768
17	0xbf895e8d5722f256	-0.012387375089354762
18	0xbfb985b59d66b01d	-0.09969649403382204
19	0xbf96e636e37b4688	-0.02236257327496685
20	0x3fa498632939b519	0.04022512319793687
21	0x3f7fa17b7b5fc9eb	0.00772236094597865
22	0xbfb3436671ddae8d	-0.07524719505243578
23	0xbfb8cbbcb7b1f1d6	-0.0968587826227528
24	0x3f704e6671bfeb64	0.003981018231565912
25	0x3fadc51af89642c1	0.058144419522368825
26	0x3f5189af126e25d8	0.001070424050086385
27	0x3fb84201e94fca1e	0.09475719400487789
28	0x3f705d789c7fa432	0.003995391023615945
29	0xbfa50c026b95e9ab	-0.041107249863631644
30	0xbfb4b27d0d132c75	-0.08084851807795863
31	0x3fae28e593afff46	0.058905767706163334
32	0xbf9e8bf138b29c0d	-0.02983071240000972
33	0x3f8ebebef895b581	0.015012256585317687
34	0xbfb7dc0fb60f8c31	-0.09320162005273926
35	0x3fa36301acdef275	0.037864734985736094
36	0x3fb2825326e75ef5	0.07230109882163645
37	0xbf85c2220b4e1197	-0.01062418553352344
38	0xbfb2be00ad987c97	-0.07321171034026218
39	0x3fc47d6ea50128bf	0.1600778871236965
40	0x3fb0584ee720602c	0.06384747641311667
41	0x3fbae4f39f20dcdd	0.10505602488489126
42	0xbfb7cda4a36cb274	-0.09298161496981
43	0xbf9cfee215b99c79	-0.028316052032462544
44	0xbfaeb9dac6fe5f1b	-0.06001170806047026
45	0x3fc0dd7a4b78323a	0.13175896344218235
46	0xbfba6fee1cdad7f5	-0.10327041820968914
47	0x3f8acf3a609baa58	0.01309056861233164
48	0x3fb04376bf110b56	0.06352941670142562
49	0xbfb1f87a7f52ea86	-0.0701977310990661
50	0x3facf81480607bae	0.05658020083523439
51	0xbfa98ff0e6ead0bf	-0.049926307857647505
52	0xbf9c5343d7f722cb	-0.02766138082168616
53	0xbfb347f5aa2a435c	-0.07531676678105498
54	0xbfa66c356c3dcc17	-0.04379431673341843
55	0xbfc151867379429b	-0.13530045164454382
56	0xbfa1edd5ad6e397b	-0.03501765958854982
57	0x3f92f685688bf3be	0.018518528467200694
58	0xbf44a7d3de4fa44f	-0.0006303581727681392
59	0xbfb7b90a829c7f5d	-0.09266725243332759
60	0xbfbae4cec6dceb1b	-0.10505382876446527
61	0xbfb9db238608155b	-0.10100004217391272
62	0xbfb4cde72961369e	-0.08126683006522703
63	0x3fa41016a70f11e9	0.0391852454118043
64	0x3fab7ecbbb4ef5aa	0.053701750387954064
65	0xbf9fb4a6604a6bba	-0.03096256220542746
66	0x3fa9806bb455774d	0.04980789734211886
67	0x3fad5032532dd9be	0.057252476361941515
68	0x3f94814f8e25739f	0.020024531413003307
69	0x3fa11e523124ad9e	0.03343445634740337
70	0x3f96e971829c3289	0.022374890896616626
71	0x3f91734fedd8ae3d	0.017041443721764294
72	0x3fb4d7ee7671b011	0.08141985313130841
73	0x3fa8528efd757de0	0.047504871787847014
74	0x3fb9a109f0625789	0.10011350744966142
75	0xbfa7fafa113ad823	-0.04683667621922918
76	0x3fb1d388d17898d9	0.06963400949516386
77	0xbfb3d7e053c6e5c2	-0.07751276059470683
78	0x3fa0d7b9dfc55a63	0.03289585930422303
79	0xbfc149a402c11d77	-0.13505983480920822
80	0x3fab1c44f9340e3e	0.05295005361588466
81	0x3fa80de1e95a7c75	0.04698091481736181
82	0xbfc29257c2e91ac2	-0.1450910283767453
83	0x3fa0cdd098b2078d	0.03282024253805025
84	0xbf6974b3032e6c17	-0.0031074043594805467
85	0xbfae356d701e3f58	-0.059001369415567495
86	0x3fadacc648f656ee	0.0579587902131332
87	0xbfc0498323b21d7f	-0.1272434162421909
88	0x3fa2d8e7256d9880	0.03681108791242682
89	0x3fa7308471079e0d	0.04529203300245053
90	0xbfb31b8ab5ffad95	-0.07463900512055084
91	0xbfb1b439f04f14b3	-0.0691562854472803
92	0xbf7516cecc40c01c	-0.005148704342033763
93	0x3fba17670fc33ac0	0.10191959509686921
94	0x3f9494d05806b55f	0.020098929760640313
95	0xbf9615e5f331c4e1	-0.021567910164269292
96	0x3fac312cacaf5dbc	0.055062671737398955
97	0xbfbaaa426da6ce7e	-0.10416045357743006
98	0xbfb2c92e7f36e2cb	-0.07338228803463236
99	0x3fb6aea9136f1578	0.08860260700665445
100	0x3fa760bb5344a1d2	0.04565987960296848
101	0x3fb7cdfba087dda4	0.09298679990012332
102	0x3fc06f124ac746bc	0.12838963176050366
103	0x3f95dbc36bbc6e25	0.021346143198668472
104	0x3fb0e57f369465f2	0.06600184519302113
105	0x3f80cdc813883744	0.008204997154304679
106	0x3fbab782be9bd954	0.10436265138182438
107	0x3f90450c6ae8cd09	0.01588839914820731
108	0xbfacf0b589d39875	-0.05652396495297377
109	0x3f9cc44172e69e30	0.02809240592764989
110	0xbfb5f57f25e55ff3	-0.08577723193354796
111	0xbfb4b4468d52fcef	-0.0808757872609822
112	0xbf91183bf60722dc	-0.0166940087235926
113	0xbfae7d552278fedd	-0.059549961526952556
114	0xbf9aa0f70390554a	-0.026004657356755424
115	0x3fc3c5050b178dae	0.15445006410219037
116	0x3fad50c2a34093a8	0.05725677721810679
117	0xbfbbcffd2ea9d2b5	-0.10864241017572847
118	0x3fb6f421f67870f0	0.08966266887040653
119	0xbfb112e2323775dc	-0.06669439054481735
120	0xbf8b7211a9820e41	-0.013401163087343739
121	0xbfb689d8bba680fd	-0.08804087239559873
122	0x3f9fbb2b6d533cbc	0.030987433002164208
123	0x3fb213fd3ae63cd4	0.07061751068089289
124	0xbf904f9c0dc94132	-0.01592868646759022
125	0x3fa215a6b7b138cb	0.03532143585526767
126	0x3f703b3e608b5a25	0.003962749157571587
127	0x3f83a36199b63346	0.009588968757066173
128	0xbfb20cf87c1ccd1d	-0.07051041631784867
129	0xbfa8e1f4db114925	-0.048598911039009964
130	0xbfb55b1df436cb63	-0.08342158519989833
131	0x3fb516c711111f6d	0.0823788086573793
132	0xbfb4bfb25f5335e2	-0.08105006053229816
133	0x3fa1b905a848a8c9	0.03461473159070889
134	0x3fc045e19523cb79	0.12713260442941612
135	0xbfb9c8961142f7bc	-0.10071695252824403
136	0x3faaf2d081ac314f	0.05263377745549979
137	0x3faf8c9634c86066	0.0616194667274506
138	0xbf4293cc43b23347	-0.000566935289855055
139	0xbfba169a9711e0cb	-0.10190740764835764
140	0x3f9add074bef9a13	0.026233781823885204
141	0xbf99ab7b37ac785f	-0.02506821181588525
142	0x3f6e2f672f461762	0.003684712917848041
143	0x3facfe9f38762fd4	0.05663011135320031
144	0xbf9ab3039e4337b1	-0.02607350972612438
145	0xbfc0a6da2ed90664	-0.1300919274090574
146	0xbfb8cf18cc1dd8ef	-0.09691004737200946
147	0xbfb6136ea42be755	-0.08623401172726848
148	0xbf722619a840e3d4	-0.004430866454691224
149	0xbf79cbfbb2275e04	-0.006298049151574062
150	0x3f7a9839c3a15817	0.006492829934435582
151	0xbfb5488c405ded38	-0.08313824244935553
152	0x3fa371f8dbc4c402	0.03797891314241754
153	0x3fb621f3e8e30e99	0.0864555781909594
154	0xbfbb4321f34c8d46	-0.106493112467935
155	0xbf9cad9c4c405256	-0.02800602164650664
156	0x3fa3786fec2a11b1	0.0380282378946818
157	0xbfa155905553c8aa	-0.033855925002982915
158	0xbf86e55e0389a483	-0.01117967079444982
159	0x3fba8eb149b2ba51	0.10373981522818922
160	0x3f843285a8eaf12d	0.009861988275013356
161	0xbfb423228cd71b13	-0.07866111696703752
162	0x3fa4ee18d7593897	0.040879036224042035
163	0xbfb9432174aac819	-0.09868058298414474
164	0xbf700dfb64160bc1	-0.003919584270422883
165	0x3fc365bc76107745	0.15154224171504374
166	0x3fbf64a0d673e23e	0.12262921558056747
167	0x3f876d9e365d0566	0.011439548524892994
168	0xbfaeb642ec36742b	-0.05998429425674375
169	0x3f95c554391b3e4c	0.0212605628828995
170	0x3fb5cc0d3ebb3dd5	0.08514483243492717
171	0xbfb880811a9e1846	-0.09571082019655916
172	0xbfabb2220ba40066	-0.054093421860671495
173	0x3fb8b911849e41c9	0.09657392013310252
174	0x3fb68564f776510e	0.08797293702656736
175	0x3f860385524af086	0.010748902868151566
176	0x3fa8ccb17fd3130d	0.048436686376169026
177	0x3f856783b21ed692	0.0104513443692256
178	0x3fb0f2dfd61aeb7e	0.06620596863915115
179	0xbf96cc631ae09c22	-0.022264050021615252
180	0xbfb2652faba194f6	-0.07185647907461487
181	0xbfb266856b5d5ba1	-0.07187684889991754
182	0x3f96fedd472884c9	0.0224566054040494
183	0xbfb46d575ddc25f6	-0.07979341546538152
184	0xbf99850785727456	-0.02492152931209931
185	0x3fbe59efd0a21e97	0.11855982631288452
186	0x3f8f8f37becc016b	0.01540988493934555
187	0x3fa59b5525f55ab2	0.04220071876868782
188	0x3face89b4e567da8	0.05646214801094668
189	0xbfa8efdfa7193ed8	-0.04870509066370027
190	0xbfb14013739fe6ef	-0.06738397190920485
191	0xbfaf91e68f67de2c	-0.061660008435805075
192	0x3f94a9c52c38531a	0.020178871940589628
193	0xbfa2be94655859a4	-0.036610257502775384
194	0xbf8886ff5c1fdf95	-0.011976237296025075
195	0x3fb2ad516dfd579a	0.07295712409299285
196	0x3f752ec980f75627	0.005171572803609282
197	0xbfc4d358629e26e7	-0.16269974532433837
198	0x3fbd5dd693a08916	0.11471310714890523
199	0xbf75422bcdf1ca8d	-0.005190058814252507
200	0xbfb6193df11f6f98	-0.08632266175066972
201	0x3fb4b4cca33acd1b	0.08088377938365847
202	0x3fbf38b285146f01	0.12195888279932988
203	0x3f913e2129e300a7	0.016838567906916648
204	0x3f9ad36948b3c0a3	0.0261970949767948
205	0x3faa39ec6ae16658	0.05122317127888881
206	0xbf8cdd1563da6310	-0.014093558416151036
207	0x3fa60df7a4db2630	0.043075312494306295
208	0xbf611b9bf0b5a602	-0.0020883603771622026
209	0x3fa2758fc21f7c89	0.03605317349114851
210	0x3f976dc22cabca63	0.022879632927422466
211	0x3f6443b626c7c0e5	0.0024736936231804945
212	0x3fb4ab5a722aa574	0.08073964392919725
213	0xbfb955650c81a9cb	-0.09895927005133058
214	0x3faa217fb3b16793	0.05103682583349136
215	0xbf645f7b5aa973c5	-0.0024869355450349595
216	0x3fc0db0440335eb5	0.13168385634229698
217	0xbfa63eb9d134ecd7	-0.04344731024544906
218	0x3fb8bb390f85d80e	0.09660679463362973
219	0x3fab6ab2d54d7636	0.05354842046538659
220	0xbfae6e09516cfde6	-0.059433261098543785
221	0xbfadf14f6319ca1f	-0.05848167500234446
222	0xbfa786b668833682	-0.04594965005672426
223	0x3fb664c2b8c9f33a	0.08747498523184741
224	0x3fba515fcb96a0a3	0.10280417175693173
225	0x3fac80673080188b	0.05566713778539264
226	0xbfb678a8f48add2b	-0.08777862520479533
227	0x3fb4fd59e8ab11c4	0.08199083261849355
228	0xbf73e2e52f9092ee	-0.004855056054144253
229	0xbf9a33c1d0c43c91	-0.025588062636469792
230	0x3f9140dddeb27881	0.016849009244304106
231	0x3fc2e0f22aaf1a2c	0.14748980602435446
232	0x3f59994695d639ad	0.001562422686535929
233	0xbf9eecd68e4aae40	-0.03020034068565125
234	0x3fba1ee40c841252	0.1020338564449699
235	0xbfab8490b39a2135	-0.053745767520981515
236	0x3f90c117d8c4fcea	0.016361591916617714
237	0x3f97ec8b5c56308f	0.023363282690795514
238	0xbfaaa015ba3fc28f	-0.05200260065601469
239	0xbfb27f143f9a6ae6	-0.07225157311260552
240	0x3fa8fab311b7e923	0.04878768531121327
241	0x3fa83739c4f5aafe	0.04729633836071477
242	0x3fb3cb211513d045	0.07731825604042893
243	0x3fa2fd408dda2eb0	0.037088410678817296
244	0xbfa2c81fb2ecdc67	-0.03668307360788319
245	0xbfbbb4d08aea2dc1	-0.10822776214097642
246	0x3f9774bdd4e7efce	0.02290627109503856
247	0x3fa33c583f092ecd	0.03756976861458625
248	0x3fb64ac55c1bde32	0.08707841395141072
249	0xbfb6a3d44217f0ce	-0.08843733419047625
250	0x3f7415bb067eb969	0.004903536384445275
251	0xbf8acc2aa3d172df	-0.013084729313214747
252	0xbfbeb1a14695a97f	-0.11989791844613328
253	0xbfc4d5674d40becf	-0.16276255867113895
254	0x3fc161bc9e9e21dc	0.13579519028668485
255	0xbfc4c6fbd54f61d8	-0.16232250133067683

equations.x.layers.6.bias f8 [64]
0	0xbf915a3cb9799dd2	-0.016945790119647537
1	0x3fad6b6094894b5f	0.05745984852969487
2	0x3fa9ae5b0347cdc8	0.05015835204167335
3	0x3f914812bf128908	0.016876500045904158
4	0xbf860fe935228776	-0.010772535261199794
5	0x3fa15784c79dd8a6	0.03387083946920315
6	0x3f87ed368a8dc0ac	0.011682916739772807
7	0xbfa4c4cac2630c98	-0.04056390402686211
8	0x3fb3d2cbbe5e901d	0.0774352397698412
9	0x3f982825678a04b7	0.02359064526036
10	0xbfbc2ad92927f9ad	-0.11002881293095497
11	0x3f97c245ae9712d9	0.02320202711213679
12	0xbfbed0e0eae75932	-0.12037473425821046
13	0x3fa8a6c162f65480	0.048147242861127815
14	0x3f93ca815f7112f0	0.01932718415288809
15	0x3f8a1476f708f4b7	0.01273434583083098
16	0xbfa8843312d48eaf	-0.04788360218870246
17	0x3f82f4a4dd588ca4	0.009255683903637575
18	0xbf8c4ef755bcbe6f	-0.013822490982050099
19	0xbf9933902f66e1e3	-0.024610760586911595
20	0x3fbd2370693eef65	0.1138220078418591
21	0xbfa58bffa78f7bac	-0.042083729938659914
22	0xbf87e41f1972c3e3	-0.011665575946922807
23	0x3f84d053fbf8445f	0.010162979247100688
24	0xbfb6b5769fd11ddf	-0.08870641137865885
25	0xbf818d381027611a	-0.008570135109878186
26	0xbfab369352a96de9	-0.05315075286918242
27	0xbfa0b2574bffd45b	-0.03261063387609716
28	0xbf898182edc35d11	-0.012454054718928494
29	0xbfa2ec41abcfe95f	-0.036958744261897485
30	0xbfa9038a0b427b58	-0.04885512721488422
31	0x3fa1b5c55744b60e	0.03458992662704584
32	0x3fc175fcee59e26f	0.13641320837247714
33	0x3f6af4174cea3dcb	0.003290219792070314
34	0xbf962912bf4b9776	-0.0216410569436429
35	0xbfb34199a078e571	-0.07521972816257062
36	0x3fb7ef9deceda43a	0.09350001367933283
37	0xbfa2cd39b6c2035d	-0.03672199588709788
38	0xbfafaf8c997eb67d	-0.0618862092372696
39	0xbf81508d6c9d1db1	-0.008454422833564875
40	0xbf986cb065767fa7	-0.02385211581497484
41	0x3f96bf734776fd84	0.022214699971070853
42	0x3fb4195b3ac91410	0.0785119074362941
43	0xbfbb468ac0c02199	-0.10654513555357993
44	0x3fb1606712ac106e	0.06787723737585491
45	0x3f9f6fd77dffa76e	0.03070007998022766
46	0x3fc221925a6f31f0	0.14164952674617792
47	0xbfab4f91ddd6481e	-0.05334144432994513
48	0x3f87fc73f78519ff	0.011711984626015413
49	0xbfa05e73529cafdc	-0.03197059997032145
50	0xbfa03ce4384b139c	-0.0317145651547783
51	0xbf8aef56f143a10c	-0.0131518165948852
52	0xbf8d340009d58984	-0.01425933866511709
53	0x3f9beed3e11cfb55	0.027278242697544048
54	0xbfa974b69c89db4c	-0.0497185770117797
55	0xbf8861e5fbf692b5	-0.011905476333433066
56	0x3f9ee13a73dbd9d5	0.030156052895984182
57	0xbf8289763608aa6e	-0.009051250003797775
58	0xbf8cec2504a58f2f	-0.014122285084063073
59	0xbf987e78258d60de	-0.02391994218064119
60	0xbfa1f801b996b1a0	-0.035095266251434554
61	0x3fb65b75f030fb68	0.08733307947202962
62	0xbfb3c8134ee96adb	-0.07727165867383283
63	0x3fb569d2ab485141	0.08364597970677769
