simple-pendulum-2ndorder/2025-06-01_07-35-01/model_best.pt (torch, 139426 bytes, 12 tensors)

equations.x.layers.0.weight f8 [64, 1]
0	0xbfd3a4b8f7d7c348	-0.3069288654651712
1	0x3fe866580a687669	0.7624931529314384
2	0xbfd86fb5b48ee65f	-0.3818182242644976
3	0xbfe19817d813db88	-0.5498160572304736
4	0x3feb9b45623f5d84	0.8627039832016838
5	0xbfb2576bbdb16714	-0.07164643651176689
6	0x3fd7a6de666c4625	0.3695598602508617
7	0xbfec0ebd309dc10d	-0.8767991971526797
8	0x3fe39a9ef72656a4	0.6126246287482968
9	0x3fd6f8eff2a05f13	0.358943926753896
10	0xbfbabab5c002cffa	-0.1044114679123708
11	0xbfc4f9ced967b55d	-0.16387353530391638
12	0xbfe03929641169eb	-0.5069777445272029
13	0x3fe05470515f4bde	0.5103074635793481
14	0xbfdb737c7b0ab0d1	-0.42892372146412777
15	0xbfe70f59e0fe71c1	-0.7206239122784198
16	0xbfb65c4d778a52a3	-0.08734592598404815
17	0x3fc2e740e21a1ef4	0.14768229522837084
18	0xbfe263aef2ccc2f7	-0.57466838285299
19	0xbfe05e518065ee5f	-0.5115134723450402
20	0x3fec3686279bd50d	0.8816557668311887
21	0xbfa83592384cd8ff	-0.04728371560342914
22	0xbfe3d2c1c33f7155	-0.6194771588739437
23	0xbfd09a7abe25c109	-0.259428678217788
24	0xbf88734b1cb94742	-0.01193865472228917
25	0x3fbb1b9946626353	0.10588987320296654
26	0x3fc4289f87c99ad9	0.1574897206330295
27	0xbfd290a2c3e9f748	-0.29007786876887964
28	0x3fe4a5e426c9b53b	0.6452503926827043
29	0x3feb67be39687976	0.8564139481784838
30	0x3fa0d5d582a9f1cc	0.032881424141098486
31	0xbfe143bf6d6904a3	-0.5395199906271454
32	0x3fca0f59d034457e	0.203593470251274
33	0x3fceab287c1d5f4d	0.2395983320263845
34	0x3fe4f7e9563c720e	0.6552626308726432
35	0x3fb2587b5007589d	0.07166262344194015
36	0x3fcf82eda4428df6	0.24618311424738665
37	0xbfc987f4378b7f58	-0.19946148597864055
38	0x3fec786e2a4dfbdf	0.889700968385906
39	0xbfdb80bb09dfa5fc	-0.4297320934698232
40	0x3fce8ce3c01d4995	0.23867461090646871
41	0xbfd6806d08d38419	-0.3515884958451934
42	0x3fdc03e877ca5fdc	0.4377385301427219
43	0x3fc24da5d01bb562	0.14299461995635016
44	0xbfe8d83fe0bedbc9	-0.7763976468621588
45	0xbfe6540a40c92a87	-0.6977587952945478
46	0xbfe31d6a1c8e818f	-0.597340636992202
47	0x3fd74a92b4cddfae	0.3639265790620766
48	0xbfe03c9ffbdc794f	-0.5074005049862452
49	0xbfbe02f6fcd04f84	-0.11723273918351934
50	0x3fe0e5eee5d8bfda	0.5280680169289511
51	0x3fe671f12373ea37	0.7014089291035991
52	0xbfd3fadd0f1e8225	-0.3121864936493089
53	0x3fe7fe52c3559b0c	0.7497953238606399
54	0x3fdae71c441a45aa	0.42035586023947735
55	0x3fdcbe503707fd0a	0.4491158044256315
56	0xbfee22305dfba1bd	-0.9416734538654549
57	0x3fdd40713eaea230	0.45705824967675124
58	0xbfda7e69036d2b1f	-0.41396546682942587
59	0xbfec5359a18310f6	-0.8851745752840816
60	0xbfe133ab5ca0ffb4	-0.5375572976263272
61	0x3fc6b1598d76885d	0.1772872868287462
62	0xbfde3112ea9f2f92	-0.47174523269927093
63	0x3fdc08bf174e4719	0.4380338409038003

equations.x.layers.0.bias f8 [64]
0	0xbfd1668cc27cad42	-0.2718841456687252
1	0xbfe1abf8ae2cb4e4	-0.5522426034782737
2	0x3ff0f0360d8b24cf	1.0586452988666684
3	0x3feddbcc90fa909b	0.9330809432617743
4	0xbfeca6f27b62c6d0	-0.895379296291333
5	0xbfe4abb6b9a8210e	-0.6459611536129459
6	0xbfda9a2942c5326f	-0.4156592514089316
7	0x3f9145f3045a0b92	0.01686839784680278
8	0x3fe07a7c4ab5a7f3	0.51495184509008
9	0x3fe4b36e03f6f4aa	0.6469030454096771
10	0x3fcaeda4984f75ec	0.21037728726416505
11	0x3fbb83b88b06ec13	0.10747865099158131
12	0xbfe1262fd1c4e4d4	-0.5359114739468631
13	0x3fe0e4656340934f	0.5278803766746963
14	0xbfe5d3c889a7527d	-0.6821024597689554
15	0xbfe51eca0ac695a4	-0.6600084505523012
16	0xbf88c0ec986922b2	-0.01208672371025563
17	0x3fe3c1424097b7f0	0.6173411618781284
18	0xbfe164b797878f33	-0.543544574695693
19	0xbfd39273acdc67c3	-0.3058137119384094
20	0x3fb2c124aac2569c	0.0732596318142335
21	0x3fe65086f56d4b82	0.6973299783224862
22	0x3fed3951113473ef	0.9132466636689268
23	0x3fcd1a51e85fd1b9	0.22736572119141643
24	0xbfdf366a771944c5	-0.4876962817261979
25	0xbfea86b752bacb95	-0.8289448371709677
26	0xbfc42b177da58e68	-0.1575650561818407
27	0x3fc3a7a2e03a9c34	0.15355335186652186
28	0x3fd2f61a6e30d6e0	0.2962709499437164
29	0x3fceb6ebd08b0aa8	0.23995731051225744
30	0xbfe7c92a6f38e776	-0.7433063671407882
31	0x3fd2ce7f1fcdf2cf	0.2938535509672819
32	0x3fc95f7cf998503e	0.19822656810049638
33	0xbfe93df0922e824e	-0.7888110022650581
34	0x3fbcb0aff090282b	0.11207103369830011
35	0xbfcc6c95395dd0de	-0.22206368733498655
36	0x3fb088e699b88554	0.06458894017170752
37	0x3facd6e40c89ee0d	0.05632698681889901
38	0x3fe6bea8c616807c	0.7107738369850405
39	0x3ff182f1ffcf3cd2	1.0944690697249837
40	0xbfddd52c3eb6d943	-0.4661360371059297
41	0xbfb8525e82a6a6c7	-0.0950068539592862
42	0xbfd99fc947e5fa02	-0.4003775789387022
43	0x3fea595d7f892d9b	0.8234088412222492
44	0x3fe3853b0aadde0c	0.6100135048463371
45	0x3fec5f2602372460	0.8866148036260135
46	0x3fdde85c998a6710	0.46730723375513694
47	0xbfe77468d73e0d79	-0.7329601482346525
48	0x3fd1a30983ccacd4	0.2755759989838229
49	0x3fbff3b1eb3a27fb	0.12481224053240673
50	0xbfe85505d6877ef4	-0.7603787603402155
51	0xbfd9f44378590cbb	-0.4055336642524698
52	0xbfc04d7b574b420c	-0.12736455690766524
53	0x3fd0609baae4f0ea	0.2558964890374812
54	0x3fcd5fa311b9c707	0.22948110929024088
55	0x3fdabed28328012a	0.4178968697379043
56	0x3fee9f88739c8b20	0.9569742448842113
57	0xbfd3131a93fb49c9	-0.29804100467040634
58	0x3ff2690fcf03a7c8	1.1506498419280309
59	0xbfe35c4507d84915	-0.605013385126116
60	0xbfebd62f66dd2c7a	-0.8698956498204915
61	0x3fe230e62fa24c58	0.5684691362715837
62	0x3fefa93d2bcb70db	0.9894090514531187
63	0xbfe0c21e21e6050c	-0.5236960088806497

equations.x.layers.2.weight f8 [64, 64]
0	0x3fba22105fcfb4e4	0.10208227481026061
1	0x3f936c011a807703	0.01896669124845741
2	0xbf93871d32a9e4f9	-0.019070106713546562
3	0xbfb2fd648393ab37	-0.07417896473240836
4	0xbfb16c06d98ee7c7	-0.06805460750084001
5	0xbfbdbb74cc0cff14	-0.1161416052027529
6	0x3fa2fb515d5b756a	0.03707365288367266
7	0x3fbb4028ddeb514c	0.10644774835538334
8	0x3fa4024cebfa7da0	0.03908005123707459
9	0xbf8404874ab0c71e	-0.009774262396692598
10	0xbfac8a648bdfac6c	-0.055743352960995945
11	0xbf4909f906b32e97	-0.0007641282985785977
12	0xbf90164cf1bb940a	-0.015710069898791125
13	0x3f92582e431acc6f	0.017914507718796487
14	0x3fbc4e80784244a5	0.11057284294135401
15	0x3f6f427d48ad01be	0.0038158842993711575
16	0xbfadaaceba2224fc	-0.05794378301750133
17	0x3f597f75116ce07a	0.0015562670939300014
18	0xbfbc8b67337ff919	-0.11150212294885299
19	0xbfbf15248b623500	-0.12141636279030266
20	0xbfa5fe4cfcfaaf1a	-0.042955785638097946
21	0x3fbbd0442400b50f	0.10864663962339115
22	0x3fbca4de8623b3b9	0.1118907048691672
23	0x3fbf99f260a8fdfe	0.1234427915560374
24	0x3fa08ae340854b8b	0.03230962908369069
25	0x3f93c701ba2c1e88	0.019313837993677058
26	0xbfb6424a27256750	-0.08694899993625183
27	0xbf996b7a3f3f6c87	-0.024824056730591095
28	0xbfb56102836606bd	-0.08351150234195877
29	0x3fb087c969adefcf	0.06457194166244949
30	0xbfb79ed5df393651	-0.09226738643447986
31	0x3f47706f46e9e19b	0.0007153075546986633
32	0x3fb8896888f83309	0.09584668487532268
33	0xbfc0aee72ab509df	-0.13033761582671752
34	0xbfb1cb18d2daeb90	-0.06950526378470401
35	0x3fc0bf5ac2120789	0.13083967662901966
36	0xbfb6942824826094	-0.08819819346752161
37	0xbfb16797776a9a3d	-0.06798693337859958
38	0x3f75d963c3d53999	0.005334272105143611
39	0x3fbc4bcc15d56df1	0.11053157361077816
40	0xbf95f9519e1f4ab9	-0.021458888317122702
41	0x3fb6d39fcf9bb6e9	0.08916662996827153
42	0xbfb2db30a5df8c21	-0.07365707444800808
43	0x3fbcfde3f47b8429	0.11324906081019094
44	0x3f84bc8786a04073	0.010125216289481131
45	0x3fb8c247364c4c81	0.0967144496501522
46	0x3fb11f37ea087d55	0.06688260520649199
47	0xbfbd693498b2026e	-0.11488655784524734
48	0xbfb0359cb1bf4d46	-0.0633180555299094
49	0xbf5a64e462153080	-0.001610968618780212
50	0xbf9d90f6b23f5f7d	-0.02887330496727668
51	0x3fb52ff973864494	0.08276328154012652
52	0xbfbed53775bbb366	-0.12044092773767331
53	0xbfb62e610b87f85b	-0.08664518863221941
54	0x3fa707a484545088	0.04498018374775464
55	0xbfa02b5afb5c06d4	-0.03158077543595331
56	0x3fa12d74402e3769	0.033549912294900626
57	0x3f50f24e36f110f0	0.00103433263918001
58	0xbf860c257da6625b	-0.010765355011970337
59	0xbfb87291e02c511a	-0.09549819682098751
60	0x3f6590c6f1cdf047	0.0026325116763797093
61	0x3faa7ca8254c6e79	0.05173230605416008
62	0xbfad0421074f6ea5	-0.05667212690579263
63	0x3fbb97565f20b6ce	0.10777797529655261
64	0xbfa580882494914d	-0.041996244874357026
65	0x3fb779a6729f94f5	0.09169998453542745
66	0xbfa79cb930d77cb6	-0.04611757966244438
67	0xbfb3748c384ece24	-0.07599712729170754
68	0xbfb4a4f37d78ca6c	-0.08064195454861939
69	0x3fb01cdd30c15852	0.06294043007196251
70	0x3fb5adf844e7a0c3	0.08468581850286498
71	0x3fbe746de760031e	0.11896407030873177
72	0x3fbab50080780cec	0.10432437073182016
73	0xbfa31a86fe6ea9da	-0.03731176238882812
74	0x3f99b66a6766d4bc	0.025109922944200433
75	0xbfb84d1871458bb2	-0.09492638364240127
76	0x3fa8a3a71897d1e5	0.04812357115943992
77	0xbf9b16b9f176269e	-0.026453881609575285
78	0x3fc057c34208063d	0.1276783058565786
79	0xbfacc5767c9726d7	-0.05619402190093375
80	0x3fbcc9706a24afc7	0.11244871703519187
81	0x3fbcbc83979cd25b	0.11225149585227127
82	0xbfb9fe34a85f7b71	-0.101535121065792
83	0xbfbbba5f7722b49e	-0.10831257494528976
84	0xbfb8b88f2a031f3b	-0.09656615043342935
85	0x3fbb41d209c0af28	0.10647309053518639
86	0x3fa3fda833a2f110	0.03904462461784608
87	0x3fbc29f75d7bdafb	0.1100153544647177
88	0x3f8d88be1c243056	0.01442097209339736
89	0xbfb39ebe068f2b91	-0.07664096508157871
90	0xbfa372e692d481d0	-0.03798599760398569
91	0x3fb2b49f233ff66f	0.07306856737701549
92	0x3fa840e853871d1c	0.04737020511270826
93	0x3f9894f700e326a8	0.02400575583377554
94	0xbfb51e5bb8942af6	-0.08249448067014584
95	0x3fbabf6131039fab	0.10448272177347799
96	0xbf7f3bb3eef6e6c1	-0.0076252964640219365
97	0x3fbd57e4361ee09b	0.11462236710838385
98	0xbf80a33827394b8f	-0.008123816201224958
99	0xbfbf0128efa8c1bd	-0.12111144877486076
100	0x3fb9b2abd56acf59	0.10038255653745178
101	0xbfb9e1dcf3cc744e	-0.10110264732470961
102	0xbfa13194d7cd06b4	-0.033581401198273936
103	0x3fb445c495dbb6b1	0.07918957384728277
104	0xbfaba5c3762acab9	-0.05399905030698932
105	0xbf88eecdf5346571	-0.012174233480026971
106	0xbf71b8862bb2262a	-0.004326366523977701
107	0xbfac32d03c14be2e	-0.055075175603971224
108	0x3fa207644d4c30d8	0.03521264499258486
109	0xbfb1ff9e8a4c4c34	-0.07030669094483316
110	0x3fb072e9813fd995	0.06425341992858187
111	0x3fb17406d89f80bf	0.06817667759560474
112	0xbfb0a08f7b8fb25f	-0.0649499584830635
113	0xbfb3d077623af85a	-0.07739969394876436
114	0x3f81911e0b63df82	0.00857757065067211
115	0x3fbc4554e4f983a5	0.11043291654779226
116	0xbfad5ec69f936eb0	-0.057363707522850915
117	0xbfb66b95afa94e11	-0.08757911242110362
118	0x3f7f3d1e9b329d4e	0.007626647525433695
119	0xbfb8e4ce79a4270d	-0.09724131078487748
120	0xbfb58cd1b226a2f3	-0.08417997931850234
121	0x3fbbf3f604a8c8a6	0.10919129956963278
122	0xbfbbe779b8d7a740	-0.1090007854724293
123	0xbfba84749b98757d	-0.10358361052245431
124	0x3f85ababdb64f68d	0.010581343300710056
125	0xbfa781d003545490	-0.04591226616518285
126	0xbf96ba07ab30f4b9	-0.022194022964175917
127	0xbf86caccabdf184d	-0.011128996844387862
128	0xbfbc4ad856640bed	-0.11051704510832368
129	0xbf6de78ee1bcb6bb	-0.0036504545841101444
130	0xbfb317cc32e41bc7	-0.07458187334496734
131	0xbfadb78ef279bea0	-0.05804106435686873
132	0x3fa522c79a5533b2	0.04128097304292257
133	0xbfb9bd800dd46ad9	-0.1005477937473346
134	0x3f5f21d8b1bc5981	0.0019001594691353265
135	0x3f6bb22bf6c9830b	0.0033808573410144586
136	0xbfb43f1aa12c500f	-0.07908789095773748
137	0x3fb2a5f0d1aea457	0.07284455413049905
138	0x3f6faaade5963ac8	0.0038655659124694243
139	0xbfba5edbdf3bf00f	-0.10300993156482739
140	0x3fa59a765fe5f789	0.042194079595886676
141	0x3fa046de49d97f68	0.031790682329982556
142	0xbf9469dd70f2df68	-0.01993509294399534
143	0x3fb4fdec0985e799	0.08199954254624088
144	0xbfb90968a328ca0e	-0.09779981597311169
145	0xbfa426fe332304c9	-0.039359992735180045
146	0x3fb925726e4fbc56	0.09822764580870688
147	0x3f6e449f583ed27c	0.0036948311044063247
148	0xbf8668c780ef6650	-0.010942038175858176
149	0xbfbe6b32489fe082	-0.11882318757113988
150	0xbfb299ddbb9122ae	-0.07266031102438816
151	0x3fbf0554269b7209	0.1211750597244149
152	0x3fa7a7c3ee7d334b	0.04620182310336548
153	0x3fbe5001857e9628	0.11840829381125018
154	0xbfc02efad86a0fd0	-0.12643371169190099
155	0xbfb61d2419569a64	-0.08638215654955556
156	0xbfc15695daee3a7e	-0.1354548758503888
157	0x3fbc185e50687a8d	0.10974683249558322
158	0xbfb4a8ec0645cad7	-0.08070254471912662
159	0x3f9971a18b33d593	0.02484753048061845
160	0xbfbf83ddf520a17c	-0.1231058810668681
161	0xbfbc991c2a557a94	-0.11171127351324578
162	0xbfb7197e24f154be	-0.09023273851319666
163	0x3fbecd8b96b8987b	0.12032387189592157
164	0xbfbd9b55436e57fb	-0.11565144439950352
165	0xbfa02c7b9d859517	-0.03158937738298045
166	0xbfbf7c5f06b04f17	-0.12299150384233958
167	0xbfb4e03380038702	-0.08154603839241406
168	0xbfb4340bcaa90060	-0.07891915986783848
169	0xbf974570d07476ba	-0.022725832675056103
170	0xbfacf84b59887c07	-0.056581835440958676
171	0xbfa8da1e9f99842e	-0.048539120657331444
172	0xbfad3960ed271114	-0.057078389119427225
173	0x3fb32d0a2abdb559	0.07490600150568606
174	0xbfb34e1b03dd7490	-0.07541054577218831
175	0x3f8520f3360fab03	0.010316753470723144
176	0xbfbc0e7eee89c332	-0.10959618877110414
177	0x3fb792d17f45cea6	0.0920840202068641
178	0x3f41a962c953d5e5	0.0005389911990777955
179	0xbfb96ec1a19da4b4	-0.09934625812242609
180	0xbfa703a3471df089	-0.044949629241245743
181	0x3f80238080ee7988	0.00788021462886658
182	0xbfa5401bc318216f	-0.04150473362466555
183	0x3fa8f1e74905d046	0.048720576919465006
184	0xbfbb7a34e89e1781	-0.10733347586764631
185	0xbfbe7a93927020da	-0.11905786824366107
186	0xbfb36c6d8a95d002	-0.07587322839191304
187	0xbfba83dbe07ea366	-0.10357450705363433
188	0x3fb0fdee8b12d0e7	0.06637469191884159
189	0xbf939d2ae99d4090	-0.01915423441761327
190	0xbfbc58361d0ee79e	-0.11072099885396233
191	0x3f29410df28dff2a	0.00019267363793672973
192	0x3fb76bf53d7aae1e	0.09149105788190368
193	0xbfbcdf665ce262fa	-0.11278381126102124
194	0x3fa9fbf749cc37b2	0.0507504727921594
195	0x3fb68d320c0d6d9b	0.08809197229623182
196	0x3fbfa03ca85a9aba	0.12353877172663888
197	0x3fa9fd5128d201d0	0.05076078055663269
198	0xbfa2f8a17cae00f5	-0.037053152532282065
199	0x3f9ba9f334250191	0.027015495355273315
200	0x3f929b0c2a62aca5	0.01816958435726392
201	0x3fbf1540a2a5004d	0.12141803713621009
202	0xbfb57ce094ca8a5e	-0.08393672592732446
203	0xbfbaf14ab408b0e8	-0.10524432082519619
204	0xbfb56973ca388d3a	-0.08364032446893513
205	0xbfa1799f659746ea	-0.03413103213428122
206	0x3fb1b24cbde8dfd2	0.06912688862291752
207	0xbfaae486be3c4ae1	-0.05252476761065395
208	0x3fb863fcc53ec057	0.0952756864123797
209	0x3f923a4102292a81	0.017800346142659244
210	0xbfb3f788c348479c	-0.07799582259784049
211	0x3f8d460bcd56217a	0.01429375858676062
212	0x3fb22ed60d4d74a6	0.07102716278810081
213	0xbf708cbbc5fd8c4b	-0.004040463914722524
214	0x3fafb8846fff1cea	0.061954630538417835
215	0x3f597a25434a4e9e	0.0015550006766361989
216	0xbfbb0b9edd2fb548	-0.10564606571252455
217	0x3f7e190dcffaaa69	0.007348112063179182
218	0xbfb38aac5a4c47fb	-0.07633473591366162
219	0x3fb590d62ef62400	0.08424128195305514
220	0xbfb1e6f7f55347ce	-0.06993055095088538
221	0xbfaebcf5c58690c6	-0.0600354007358717
222	0xbf713556d466b245	-0.00420125882957884
223	0x3fb2eb9d42ddee89	0.0739076889275855
224	0xbfbdffa67c06bbb7	-0.1171821644590939
225	0xbfc25542c6e7b063	-0.1432269545761101
226	0x3fbef3bb265472a4	0.1209065407351298
227	0xbfba282a5ea7edc9	-0.10217537699639147
228	0xbfbcac0998b138bb	-0.11200008371199292
229	0xbfb3b44dd50129de	-0.07696997118288304
230	0xbfa2c5517521b121	-0.036661668346683614
231	0xbfb6b5fab80ea18c	-0.08871428483565164
232	0xbfc1c30ed978f5c7	-0.13876519793295314
233	0x3f8454729ccc7b44	0.009926696214788706
234	0xbfb39679c960b2d2	-0.07651482740829899
235	0x3fbaf1ae5ed3e784	0.10525026145105981
236	0x3faf0f123c5881a9	0.06066185938493913
237	0xbfbe58b080ad4a47	-0.11854079381490933
238	0xbfbb7a9dfb63d7a2	-0.10733973872615235
239	0x3fa8c91c37a33ba6	0.04840934924288058
240	0x3fa20256c97b9ae8	0.03517409524447662
241	0xbf4c5036ec0e0b4e	-0.0008640545057548661
242	0xbfaf12f9c0ee48c1	-0.06069164733993793
243	0x3fb847de54ecf14b	0.0948466260278497
244	0x3f85f4ce3f4bcc2b	0.010720835978167717
245	0x3f9a3e2f6f00047e	0.025627843046099212
246	0x3fb2d4305f915855	0.07355024655530092
247	0xbfb4e11f39388225	-0.0815600886057913
248	0xbfb9a88f2505bd3c	-0.10022825864665647
249	0xbfb5f9c1bdfd9625	-0.08584223640863138
250	0x3f9844102fd85b97	0.023697140617595727
251	0x3fa8a0b5dd3a7a9e	0.048101123099731455
252	0xbf87a290adf4a0f6	-0.01154053717489532
253	0x3f92f4589b6d1360	0.01851023148198594
254	0xbfa66fceb12a63f6	-0.043821772696169534
255	0x3fb93ad68829fe41	0.09855404686276704

equations.x.layers.2.bias f8 [64]
0	0xbf82e23e4d47b05d	-0.009220587476157666
1	0x3fb5ff1afb2f22fd	0.08592384941506377
2	0x3fba43e958303efc	0.10259874728239632
3	0xbfbc8c436c834dad	-0.11151524924507923
4	0xbfb8f2d388331113	-0.09745523524458503
5	0x3fb7d956eb86a472	0.09316008806367096
6	0x3fbc10833946d3da	0.10962696216922954
7	0x3fbb0f823d71bf6d	0.10570539474588055
8	0x3fb44a4ba3ca1df8	0.07925865887420247
9	0xbf9d4a07741521c9	-0.028602711162678127
10	0xbfa03ae356e19c95	-0.03169928012430848
11	0x3fb3e64b64653af2	0.0777327652078659
12	0xbfa1fa8e0eaf4d90	-0.03511470727212462
13	0x3f73acfedb79c6bf	0.0048036532749493035
14	0xbf9c7061fbdbdec2	-0.027772456166501376
15	0x3fbc847610654181	0.11139619732171548
16	0xbfa2c71e2b1e3fbb	-0.03667539860100485
17	0xbfb82f02f74b8b56	-0.09446733987310316
18	0xbfba5567bd5e5631	-0.10286568043951473
19	0x3f8fa6c8d487c9e6	0.0154548349246157
20	0x3f83d948f9b1be69	0.009691782112184204
21	0xbfb47ad356c716fd	-0.07999916905017908
22	0x3fb635e2c926ccee	0.08675973330427997
23	0x3fb9406060353e76	0.09863855694606535
24	0xbfbda9c55c71007d	-0.1158717489897771
25	0xbfbceb5a958bb73f	-0.11296621466655397
26	0x3f9e87b66945ba22	0.029814577269855154
27	0xbfb4b36fd6ab5cbe	-0.08086298933936839
28	0x3fa40dca46bd3f06	0.039167710433160294
29	0xbfb596ae303296ab	-0.08433045078944683
30	0xbfb4d7c5af4979e4	-0.08141742257564705
31	0xbfaecf52981886ce	-0.060175496164686856
32	0x3fbdc1701ba1892d	0.11623287844262072
33	0x3fbdef4ec4bacccf	0.11693279555292978
34	0xbfb8462d53bddc44	-0.09482081694101036
35	0xbfa082012ab363f6	-0.032241856062405747
36	0x3f88cf0acdb419a0	0.012113651659558411
37	0xbfb44d5e4432bb48	-0.07930554547304525
38	0x3fbf6600880204db	0.12265017815117878
39	0xbfbb0c644b79b229	-0.10565783350620762
40	0x3f994cba70e5cfd5	0.02470675767968074
41	0x3fb642241028c1c6	0.08694672960769542
42	0xbf7404bc8ebefd96	-0.004887329629070255
43	0x3f409d44cb79c2a6	0.0005070291435470178
44	0xbfbc8f2bd995d009	-0.11155962049616631
45	0x3fb4007e9c645701	0.07813254659808068
46	0xbfc039b5d7ff95e5	-0.12676117941661783
47	0xbf80e697a53680b9	-0.00825232003154529
48	0x3fbb62c21312cde9	0.1069756790700961
49	0x3faad73e42c152be	0.052423425339531246
50	0x3fa163b4f3546951	0.033963827803932596
51	0x3f7ef054e01d261b	0.007553416771608502
52	0xbf9526c803a0e0ba	-0.020655751439534888
53	0x3f83e5bdeb097462	0.009715541587121904
54	0x3fb61a6692b84224	0.08634034235024807
55	0x3fbadb14c3eba203	0.10490541251386536
56	0xbf9996345add7c41	-0.024987047239275254
57	0xbfb40b22af40e214	-0.07829491404198335
58	0x3fbbff8bcf40f685	0.10936807451158799
59	0xbf8275822c4c878a	-0.009013192154785594
60	0x3fb8f798c51e014e	0.09752802669936964
61	0x3fa61f59cfda690f	0.04320793783445442
62	0x3fb0a665287fa761	0.06503898848282354
63	0x3fb35c262b4b2809	0.07562483365032348

equations.x.layers.4.weight f8 [64, 64]
0	0x3faa4712f2b1709b	0.05132350170671992
1	0x3f936f7de255da3e	0.018979994716085573
2	0xbfb0edfe6239b936	-0.06613149545748773
3	0x3fbb6f4bae16d813	0.10716698646760418
4	0xbfb19cc42752feff	-0.06879831276000557
5	0x3f467d77d73a42d9	0.0006863436851337292
6	0x3fbf86819a867cd4	0.12314615271178592
7	0xbfb66ab678266194	-0.08756580766055883
8	0x3f8fc66b787a27b8	0.015515174497767834
9	0xbf9d38f800f73417	-0.028537631091058637
10	0x3fb25637a7f6b26b	0.0716280732219247
11	0xbfa689e47e708e81	-0.044020786699801036
12	0xbfa7dfbfb6b7ab0b	-0.04662894349515597
13	0xbfaaba5f8f66c418	-0.052203165297562915
14	0x3fb4eac394f2b5e3	0.08170721422603537
15	0x3f75308e8cedb043	0.005173260534189042
16	0x3fb42a29dc76bd91	0.07876836426179624
17	0xbf82356b424d2d81	-0.008890951119289838
18	0x3fba029eeaac45a7	0.10160248975105067
19	0x3fb8ebc7e5966eac	0.09734773020903259
20	0x3fa6e4c68858d11b	0.044714168685830745
21	0xbf8e480c963eeae8	-0.014785860381257135
22	0x3fb6b892340e04fe	0.08875383158558134
23	0xbfb4dfc339b3fbb7	-0.08153934630170921
24	0xbfbba70f2c190ed9	-0.10801787211044757
25	0xbfb43cd4fdb6cebb	-0.07905322260085772
26	0xbfbca5e995b32add	-0.1119066229322629
27	0x3fa3d90c8b99a0ce	0.03876532749274163
28	0x3fb15f78710429b0	0.06786301383195936
29	0x3fb46bc7f8ed4a4b	0.07976960971181161
30	0x3f900eb1ada14db5	0.01568105337385158
31	0x3fb9074d275ceb3c	0.09776766024598954
32	0xbfbedf27ebfaf82b	-0.12059258948554034
33	0x3fab122491232e1a	0.05287279388138817
34	0xbf924eebb2523d28	-0.017879183539261906
35	0x3fb330384b356676	0.07495452724597293
36	0x3fb6c3211e311c7c	0.08891493785005083
37	0xbf7e939cf48b5160	-0.007464993578384899
38	0x3fb152ef10b2fa0c	0.06767172010129502
39	0x3f90d1b5f3444946	0.016424982998679803
40	0xbf8c763592ad238a	-0.013897341288286364
41	0xbfbb553c92840ece	-0.1067693574623789
42	0xbfb0b62ed2f5893f	-0.06527989054078363
43	0xbf83fa32db15507a	-0.009754559813395004
44	0xbfbcdd92548ba7f6	-0.11275591434574025
45	0x3faf54370c4b75bf	0.061189384699655396
46	0x3fb19c680d92f311	0.06879282313725478
47	0xbfc0031695cf0b03	-0.12509424509888598
48	0xbfb353d33d84b9b9	-0.07549782039561749
49	0xbfa9ad7694df6c1f	-0.05015154425901635
50	0x3fbe91089b3aee24	0.11940053739356721
51	0xbfb161364a5d6afe	-0.06788958850431112
52	0xbfb399e33f7484e0	-0.07656688975523052
53	0xbfc06754dbdb2b8d	-0.1281534265056873
54	0x3fbd9d954fa880eb	0.115685779521758
55	0x3fb61292645a2674	0.08622088384631771
56	0xbfa06c554ce49847	-0.03207651675829531
57	0x3fb95e7273cae8f2	0.09909739806144893
58	0xbfb7681799c8bb92	-0.09143207077498364
59	0xbfa51e3115724fbb	-0.04124596964643908
60	0xbfba880e77654c01	-0.10363855757650244
61	0xbf743b8b576f3af5	-0.00493959837235879
62	0xbfb60e8f6c4a24a7	-0.08615967172422022
63	0xbfaf488634057e76	-0.06110019097354506
64	0xbfba59958760d562	-0.1029294448388405
65	0x3fbff13b18312e49	0.12477464047076937
66	0xbfb68f1577b6c057	-0.08812078640653574
67	0xbfbf51bb9c2b2643	-0.12234089434346011
68	0xbfb5756d84669f75	-0.08382305605357294
69	0xbfb648ec6c5a334d	-0.08705022473641329
70	0xbfc008b8a9f8e47f	-0.12526615428376783
71	0x3f83899e4015eba3	0.009539829569566843
72	0xbfa063b842c0a541	-0.03201080145692937
73	0x3fb6d08023c368a8	0.08911896584632706
74	0xbf999c4e0abccd7e	-0.025010318189015994
75	0xbfba2b5266050502	-0.10222353926385
76	0x3fadfdb22450b493	0.0585761708574434
77	0x3f941dfa5c04c7fa	0.0196456068671935
78	0x3fc18f8e43166ea2	0.13719347263110132
79	0x3fc6fc3ca3baa3a8	0.17957265848715775
80	0xbf89bfd043ef9667	-0.012572886536825935
81	0xbfa347641cd24cab	-0.037654045599219664
82	0xbfc0babe33417807	-0.13069894316407746
83	0xbfa3af871f11c101	-0.038448545973439614
84	0x3f8aef4886274fee	0.01315170916942773
85	0x3f4e1b300bca4dc5	0.0009187683677560002
86	0xbfa9f5669af21da9	-0.0507003845351009
87	0xbfbed347775cc992	-0.12041136421320278
88	0xbf97f864e39c636b	-0.023408485786692006
89	0xbfad7bf2ab487314	-0.057586272629327834
90	0x3fa019f306c06ebc	0.031447977613621586
91	0x3fbb9022f0f25b45	0.10766809828269881
92	0xbf994804fd75651d	-0.024688795061000513
93	0x3fbc3b1f14ff869b	0.11027712118768777
94	0xbf8dc9fa8addc208	-0.014545400011884105
95	0x3fbaca59302067f7	0.10465009140935409
96	0x3fb820085bb5a496	0.09423877943995004
97	0xbfb0c82d305459b4	-0.06555445127410203
98	0xbfa6198942e7fabd	-0.043163575570351644
99	0x3fae2fcfc5b9d2bb	0.058958523642023995
100	0xbfb1d775d0a4117e	-0.06969391196986938
101	0x3fb3ed5cf359e45e	0.0778406232947346
102	0x3fb0740a30287d62	0.06427062679039389
103	0xbfb4676c99b1e8f0	-0.07970312835996984
104	0x3f892218b9f01ed7	0.012272065328957122
105	0xbfb3c1768ec27679	-0.07717076287596027
106	0xbfa6d7681dbb6d92	-0.044612172727023794
107	0x3f7acf054541c67a	0.00654508646776863
108	0x3fbe56fab4b1e9af	0.11851469909189548
109	0xbfaefa9b1f634986	-0.06050572164680816
110	0xbfb533d61e498838	-0.0828222106879658
111	0x3fb94c1a5e658bb4	0.09881748966794995
112	0xbfbd7d900f053ddd	-0.11519718519888707
113	0xbfb03ad668784fe4	-0.06339778948341707
114	0xbfaa8cd76a1de535	-0.051855785087307295
115	0xbfa35154719268a9	-0.03772987257362221
116	0xbfbadf07da010716	-0.10496567795146591
117	0x3fbcee2bf2e094d8	0.11300921134587172
118	0xbf8b5ee65991ff36	-0.013364600761860506
119	0x3f237ed2a84696a1	0.0001487381124551284
120	0xbf8839716e597e11	-0.011828313999273228
121	0x3f91b0658f252fac	0.017274462568181256
122	0xbfa7595dbfa6e0c1	-0.04560368504047708
123	0x3faa32968b88a221	0.05116720631878403
124	0xbfb1cca206888d4c	-0.06952870044238074
125	0xbf9f569599fe5ee5	-0.03060373070147095
126	0x3fba945d83199a3e	0.10382637453731378
127	0xbfa5253855a49197	-0.0412995914978495
128	0xbfb2908193a6e406	-0.07251748900206686
129	0x3fb95514b2e1d3e9	0.09895448081245174
130	0x3f9e3773d2b303fc	0.029508409247458886
131	0x3fb7810a2858f6ed	0.09181273922964879
132	0x3fb56a8918d13ede	0.08365685325520242
133	0x3fbd03ceb2555b4e	0.11333934644549723
134	0xbf97988f85a57781	-0.02304291012966742
135	0xbfa9fe856c7f45b7	-0.05076996755054657
136	0xbfb1c41d60099929	-0.06939872355141986
137	0x3fa8f591dcc0dbee	0.04874854869597543
138	0xbf9305115597f571	-0.01857401928827102
139	0xbfb62bac8c68210b	-0.08660391261958382
140	0xbfa207fee2bff1b8	-0.03521725194875408
141	0x3faf50c399e18a1e	0.06116305592947334
142	0x3fa54e112aa177b0	0.04161122937578854
143	0x3fa07e73cba68c4e	0.03221475468605971
144	0x3fb3d34ea34c6f85	0.07744304167539269
145	0xbfb6b69c5f2bce80	-0.08872392009271302
146	0x3fb100581dc4ff7c	0.06641150213999752
147	0x3fafa82615a0cbbe	0.061829748287343986
148	0xbfa0730b72537c25	-0.03212772150595126
149	0xbfbb4d7ae66ec075	-0.1066510021762513
150	0xbfabba21791da2c9	-0.05415443995918207
151	0x3f998ca85e730467	0.024950629009940075
152	0x3f9832140dfb1d14	0.023628533700301338
153	0xbfb4e708a115c39b	-0.08165029461612365
154	0xbfaa727630f11187	-0.05165452334816494
155	0xbfbb06372870e020	-0.10556359040572305
156	0x3f34104e6cabe340	0.0003061477151927068
157	0x3fbbba0417338149	0.10830712858615245
158	0xbf8c9989fe0440d4	-0.013964727463218564
159	0xbfb38f1af6240f33	-0.0764023638658358
160	0xbfa1a689fbe29103	-0.03447371673363089
161	0xbfae2f50d03a71dd	-0.058954739969724314
162	0xbfaa6d5d56a36504	-0.05161563570590924
163	0x3fafdad2ad674cc8	0.06221636168233996
164	0xbfbffc06e9f75372	-0.12493937694610027
165	0x3fb53c4b5d5a8972	0.08295126942770084
166	0x3fc0e6816d27c488	0.1320344717965194
167	0xbfa96963d1bb81af	-0.04963218627176801
168	0x3f8f7880a182e5f1	0.015366558960852013
169	0xbfa226c24719d2e0	-0.035451956919961836
170	0x3fbdf01d2b4da557	0.11694509799203466
171	0xbfa427db0ab5dd9e	-0.039366574342177815
172	0xbfafc45529bb9773	-0.06204477438386293
173	0xbfa13d51c4ca4f38	-0.03367095496392242
174	0xbf9f14c9985d353b	-0.030352735447469952
175	0x3fbc2cb0edcf3c8f	0.11005693250557357
176	0x3fb1593aea7415f9	0.06776779388390954
177	0x3f608095f6187974	0.0020144394809584135
178	0x3fbf70cc758b369b	0.12281492109033325
179	0x3fb136b049fd71d3	0.067240732253999
180	0x3fb853af2182e7a9	0.09502691810749177
181	0xbfb070a5e3e96317	-0.06421887220620835
182	0xbf97e55a3f998c92	-0.023335847980331233
183	0xbfb54010fc17e4ad	-0.0830088248693694
184	0x3fbe2957b9f8812e	0.11781833925534066
185	0x3fc103261772e108	0.13290859360655127
186	0x3fa26cfb895a262a	0.035987720982188456
187	0xbfa1b68d684966ff	-0.03459588907271715
188	0xbfa6ae3355779336	-0.04429779451655806
189	0xbfae4dff8acecdfb	-0.059188829130473374
190	0x3fb625bd7a02011e	0.08651336888033653
191	0xbfac3ce8a24a3dd8	-0.05515219670371224
192	0x3f9716706ddc26b9	0.0225465361645891
193	0xbfb396fa29264f5f	-0.07652247910146802
194	0xbfa397055f44e3f5	-0.038261573676614015
195	0x3fb0054c98e72862	0.06258085949881001
196	0xbfa88c0894b08956	-0.04794337096270122
197	0x3fa744aa545ff76f	0.04544575004545847
198	0xbfb6ebc247b2f693	-0.08953489542451569
199	0xbf903da8cdf32a18	-0.01586021191614337
200	0x3fa6ed76db417a2d	0.044780458702679084
201	0x3f9ba57d2fc44451	0.026998477974363336
202	0xbf9ea80cb80559d2	-0.02993793366598558
203	0x3fb519745d37d1d1	0.08241965556937393
204	0xbf96fcee9e5a620e	-0.02244923440466278
205	0xbf2df0fd55fa4dca	-0.0002284344909538729
206	0x3fc0aba1c9073d1e	0.13023779216607861
207	0xbfaa0cc8ad40017e	-0.050878783367809696
208	0x3fb63e1b29277753	0.08688516382923454
209	0x3faef74812a3622f	0.060480358386204684
210	0xbfb0eeea1238628f	-0.06614554352598588
211	0xbfb43a5f8a07f734	-0.07901570434475219
212	0x3fa76f0ae551a38b	0.04576906251242637
213	0xbfb8336b8ae984c7	-0.09453460828219128
214	0xbfbd7f5f686f1989	-0.11522480296762273
215	0xbfa96667c0f56e8e	-0.04960941534474471
216	0xbfadc6914709e022	-0.05815557472391243
217	0x3f85eb986a2d9602	0.010703268757150223
218	0x3fb5f3102fdbb3cf	0.0857401005593623
219	0x3fb6818e693b1b75	0.08791437214959592
220	0x3faf9dca88400834	0.061750725872130735
221	0xbfae7ffd66f71d03	-0.059570235079769794
222	0x3fc08c343b07f497	0.12927868730904343
223	0x3f9ace5a4b1854cd	0.02617779811233305
224	0xbfb0e431ea7b5642	-0.0659819791283889
225	0x3fb9f804b2e572f2	0.10144070975861633
226	0x3fb9946e8944e9bf	0.09992113925264955
227	0xbfbce21ae250383e	-0.11282508874157401
228	0xbf9ccbbe6bca3349	-0.028120971039743457
229	0x3fc20f3cb6412d5e	0.141090001098159
230	0xbf96c8af75b507d4	-0.022249929007791838
231	0xbf9dac391dcd3e91	-0.02897729153056489
232	0xbfb35199d666c47e	-0.07546388134393742
233	0x3f89cc51244d75d2	0.012596734924666207
234	0x3fbba80facce112c	0.10803316086645925
235	0xbf7391a4a8e07b07	-0.004777568055969856
236	0xbfb58f68509ae23f	-0.0842194744863116
237	0xbfb2c9b9cafd345b	-0.07339059072292413
238	0xbfa8541aad819084	-0.047516664199776876
239	0xbfa7b1c417d585b3	-0.046278121861870324
240	0x3fa48a5f7268ed52	0.04011820098500131
241	0x3faffe1b481ae518	0.06248555426777552
242	0xbf9b582a2f617910	-0.026703509466067976
243	0x3fb70fbb513a06e0	0.09008379681656775
244	0x3fb15aee36b5808b	0.06779373965901152
245	0x3fa7333884cfebf7	0.0453126585125218
246	0x3fa18b939a2dde22	0.03426800973005252
247	0x3f93af8d32bb385f	0.019224363538164698
248	0xbf9c98ca54d99a6d	-0.02792659895785692
249	0x3fc106f655a6023c	0.13302497083715703
250	0x3fb7d7834550198e	0.09313221399506785
251	0xbfad572764550f7d	-0.05730555629500509
252	0x3f93fd1609f9c009	0.019520134314404945
253	0xbfb98a5e700cc2aa	-0.0997675918158715
254	0xbfb913667ccffe5b	-0.09795227572612346
255	0x3fafbd5e01e0eba3	0.061991632203408

equations.x.layers.4.bias f8 [64]
0	0xbfac3208fda02272	-0.05506923767103879
1	0x3fa2a9fb116e8b37	0.036453100088030536
2	0x3f260816c3f84423	0.00016808774852042447
3	0xbf64a8b8e1765e11	-0.002521859259740252
4	0xbf72b6838977cd39	-0.004568589989037358
5	0xbfb1e4fc3f2caaee	-0.06990028898568898
6	0xbfb3cd9522fc8bb2	-0.07735569099581488
7	0xbfbaf8bbe41a1d59	-0.10535787886521088
8	0xbfb1ac0262ce43ba	-0.06903090393303915
9	0x3fae5b60010ec888	0.05929088604843097
10	0xbfaf8a0652768ea0	-0.061599919859216756
11	0x3f89e79bd4a05e6a	0.01264878981241609
12	0xbfb2163290d9210d	-0.07065120731670423
13	0xbf9b605a3bd4fda3	-0.026734743024687934
14	0x3fb92eaf04450668	0.09836858610381116
15	0x3fb2ad86e75d13cf	0.07296031139874447
16	0xbfa1ca2973aa9882	-0.034745498055870364
17	0xbf90180926714ab7	-0.015716689082476445
18	0x3fbbc343c09f1b98	0.10844825222657872
19	0x3fb7ba89af0e2f19	0.09269009136022212
20	0xbfb49454edfa89c6	-0.08038836298013682
21	0x3fbaaf84ba6b8724	0.10424069930334362
22	0x3f9c21aa4355ff4c	0.027472172126635372
23	0xbfa0d7514a7b6c65	-0.03289274248319244
24	0x3fbe4b6a8ae5d8e6	0.11833825961170738
25	0xbf76d05d33f90959	-0.0055698052161140205
26	0x3fb84ac0e15360e6	0.09489064694514901
27	0xbfb2244b1d4864c9	-0.0708662935725385
28	0xbfa702909b6d0b2f	-0.04494144341744854
29	0x3faaae44364accb8	0.0521107975268022
30	0x3fab25e14b1805a9	0.05302337686226661
31	0x3f925ea1e817bb60	0.01793911913949431
32	0x3fbcab91d21411c7	0.11199294451586815
33	0xbfaae8b2a228823e	-0.052556593222338396
34	0xbf4478236a339a26	-0.0006246731685706816
35	0xbfb008eccfdf5eca	-0.0626361854077643
36	0x3f84173785e2321f	0.009809907697012453
37	0x3f9ad9e706b65562	0.026221856865580213
38	0xbfb2a90209f9e5df	-0.07289135688360869
39	0x3fb97e30241fef18	0.09958172685577116
40	0x3fa2c227670b05e3	0.036637526825426446
41	0x3fbdf184878726b4	0.11696651753222903
42	0x3fb2d9b3380c200c	0.07363433950752113
43	0xbfba5bbc876fb6af	-0.1029622870116451
44	0xbfa25a7377772e7c	-0.03584633668250789
45	0x3fa801f0159c2a58	0.04688978446764186
46	0xbfba0d289123f4fc	-0.10176328223674952
47	0xbf8ab82cb7fda474	-0.01304659782882054
48	0x3f9e632c915468eb	0.02967519413969281
49	0xbfb1c7ef83575ff1	-0.06945702511382003
50	0x3fa3a599fec4cdae	0.03837281451196915
51	0x3fb96570982f72d9	0.09920409884893945
52	0x3fa182c8900b2bda	0.0342009235224265
53	0xbfbdd649fd8793ea	-0.11655104102790373
54	0xbfb8d0e91bb3f2d5	-0.09693772245732231
55	0x3f8a28600b706d2b	0.012772322033973346
56	0x3faf91bb47636de5	0.0616587185520208
57	0x3fa1ca2155daafd6	0.03474525616670092
58	0xbf765411b230ad46	-0.005451268315521068
59	0x3fa69b774d9e3c6c	0.04415486166464508
60	0x3fa2de62cda6c0f3	0.036852920154503276
61	0x3fb24657784875d0	0.07138582884404987
62	0xbf96936a09b02a65	-0.022046715585057792
63	0x3fb5af2ec159f378	0.0847043249177214

equations.x.layers.6.weight f8 [64, 64]
0	0xbfa0e7a0bad80293	-0.03301718025978064
1	0x3fabc794dec4c11e	0.0542570611891071
2	0xbfae4e8c876551dc	-0.05919303086071512
3	0xbf87ce04809953c1	-0.011623416113403342
4	0xbf7fc769c8ce1d04	-0.007758534641545415
5	0xbfb7ee49dcf3855b	-0.0934797443801662
6	0xbfb8293a4e3314a9	-0.09437908562820731
7	0xbfaa23382c916ba5	-0.0510499529270512
8	0x3faca4fbd387cc7f	0.05594622571143137
9	0xbf912a2c171cf256	-0.01676243678160668
10	0x3fb5841252de7531	0.08404650233429291
11	0x3f71625d0a7c875e	0.004244197312603363
12	0x3fbf95b766cf9233	0.12337824115781686
13	0x3f91caa3e6f76389	0.01737457368094256
14	0xbfbc9fd7efcf4ffa	-0.11181401829463758
15	0xbfb0be89d4f72715	-0.06540738534308972
16	0xbf8faf6fba1fab74	-0.015471337192101343
17	0xbf93305a661f775e	-0.018739140017593463
18	0xbfc07578f303d86d	-0.12858497491805868
19	0x3f308fb57deb59e4	0.00025270634607235513
20	0x3faac1c9c91a14cf	0.05225973682267126
21	0x3f7e80cbd0d8f15f	0.007447048335560729
22	0xbfb13a9239f44bf8	-0.0672999755372955
23	0xbfb4c3b2c87c77ab	-0.08111112017328874
24	0xbfa06f81299f1df6	-0.03210071213794301
25	0x3fb71e671114e783	0.0903076569274202
26	0x3f8f751e7868937f	0.015360105561805558
27	0x3fb0d920ef586877	0.06581312030212581
28	0x3fb05326d611b9d8	0.06376879431056837
29	0xbfa1deefbb281a50	-0.034903995128889975
30	0xbfb1405105c005a1	-0.067387641815023
31	0x3fb5427ffbe70b42	0.0830459585186363
32	0xbfa8c2805d97efdb	-0.048358928132045974
33	0x3fb742336a12960a	0.09085389461196072
34	0xbfb70c251480b1ed	-0.090029065614267
35	0xbf91758d51638ccc	-0.017049987881262038
36	0x3fbbb460672976aa	0.1082210780964156
37	0x3f84e040273d09f6	0.010193349072896912
38	0xbfb665382b88a2d8	-0.08748198569140742
39	0x3fb6e3cdec49b929	0.08941351908444929
40	0xbf8b63fbc0333799	-0.013374296954136432
41	0x3fb6f573d05c605b	0.08968280636725139
42	0xbfb9e97d96c64975	-0.1012190335370969
43	0x3fa01aed2f47699e	0.031455432912213185
44	0xbfb2fad9fb093ede	-0.07414018992244162
45	0x3fbb7185d26d3b5e	0.10720096957559863
46	0xbfb35f8aeecb1f60	-0.07567661600034858
47	0xbf907859ace6813e	-0.016084099939349665
48	0x3fae5c4e919865d4	0.059297995827545386
49	0xbfb3bd5e886e23d8	-0.07710829573456068
50	0x3fb632a9e752fcfb	0.08671056649744806
51	0xbf93f6412987743a	-0.019494074020134124
52	0xbfb9607f8a839c2c	-0.09912869579021394
53	0xbfb52632ac1fb8eb	-0.08261410429233577
54	0xbf7ab5390feae2e7	-0.0065204838744470145
55	0xbfc0ef48120118b6	-0.1323022926246204
56	0xbf8441c4fbcc3e3d	-0.009891070303211008
57	0x3f99292b41b75b3f	0.024571109663010345
58	0xbf9af38c13a2cd64	-0.02631968374107653
59	0xbfb527526dc03ab1	-0.08263125590768074
60	0xbfb7cf8ba0d17b08	-0.09301064182498575
61	0xbfba0fdb7c03a085	-0.10180446412744189
62	0xbfb89b86b8c73ead	-0.09612314234913795
63	0x3fa127784d2fd533	0.0335042566511369
64	0xbf607eabf9457b08	-0.0020135268079423153
65	0xbfb12cc94882f71a	-0.06708963413526839
66	0x3fa4af08a37eb49d	0.04039790149486431
67	0x3fc0205def005028	0.12598776025754543
68	0x3f6db45732c61472	0.0036260321705321947
69	0xbf95d8bbda192455	-0.02133458632150494
70	0x3f9503e3bdb2031b	0.020522650197111064
71	0x3fb1e4b9d1074e24	0.06989632943378205
72	0x3fb50313fff01471	0.08207821844560372
73	0x3fae1037cbe1e5c1	0.05871748317526793
74	0x3fb4991ce1c4573d	0.08046131622208193
75	0xbfa7e86849eaf516	-0.046695002577943054
76	0x3fb154904c3a79cf	0.06769658909841002
77	0xbfbcf287b8a1b394	-0.11307571656807475
78	0x3f9dcc4def33f434	0.029099672055043338
79	0xbfb6a2bd693ab51e	-0.08842071360659928
80	0x3fb4a2003cf0843b	0.08059693801671212
81	0x3faa793dd85850a9	0.05170624986581746
82	0xbfbdcdd81b4f52c4	-0.11642218271965549
83	0x3f602abf7ed8a0eb	0.0019735088487956485
84	0xbf91d4da0e8bf70e	-0.01741352762018438
85	0xbfb2e3c75d6e75dc	-0.0737881281952108
86	0x3fb403506ada53ca	0.07817556961738528
87	0xbfbc27486758e472	-0.10997440837026476
88	0x3f973f86eb755c29	0.02270327388881924
89	0x3fa93c909da035d8	0.04929019855635958
90	0xbfafc45b056ee2bd	-0.062044948971963866
91	0xbfa6499a78970fb6	-0.04353029939696233
92	0x3f6681ea682fb3d3	0.0027474954854285
93	0x3fb2f012c5389a73	0.07397572817772317
94	0xbfa1c51b56e74f62	-0.034706930502266045
95	0xbfa23491dd4d3cc4	-0.03555732561528083
96	0x3fa80ef9aead04d1	0.04698925263665788
97	0xbfbf16508998ace4	-0.12143424376761264
98	0xbfb60e14921ff861	-0.08615234916212124
99	0x3fb8add7e87f1d77	0.09640263963875904
100	0x3fa4741619ce2b7c	0.03994816842085577
101	0x3fa8526ce1d12568	0.047503855290936425
102	0x3fbd58526e001574	0.1146289366298186
103	0x3fb014883e8d4f74	0.06281329657696039
104	0x3fb2d6dd5a6ab80d	0.07359107453768861
105	0x3f746bea8f5ebcfe	0.0049857294560944326
106	0x3fbc5d7d60f2c719	0.11080154053595627
107	0xbf70829369fdcd77	-0.004030776821184793
108	0xbfb356750d5e179c	-0.07553798271518847
109	0x3fa575531ce47050	0.04191074111642534
110	0xbfb98a12f63c8659	-0.09976309310561628
111	0xbfb7283b60ae25ab	-0.09045764074666944
112	0xbfb2b1f9c9b89d41	-0.07302819418747665
113	0xbfb98e3e6f38d746	-0.09982671943074903
114	0xbfa90a85811f587a	-0.04890839768602091
115	0x3fc120a2c5f9b072	0.1338084665943629
116	0x3fb85ca27fc0a8aa	0.09516349429091756
117	0xbfbf564584356a24	-0.12241014936208977
118	0x3fadd4f50bd1ca24	0.058265359585579796
119	0xbfb70fd2440f173b	-0.09008516465754905
120	0x3f2aa8fdd7fb2995	0.00020340059926688957
121	0xbfbff35509b6adb7	-0.1248067043986144
122	0x3fb00e388d281c32	0.06271699377258314
123	0x3f9bc61003dcdf85	0.027122736202016568
124	0xbf9ace6128cc8c8e	-0.026177900424170057
125	0xbf9069262a226380	-0.01602611190955683
126	0xbf77abd823ae6baf	-0.005779117865041635
127	0x3f7ee4b659a0c1c8	0.0075423358012333755
128	0xbfb1325fc0368b47	-0.06717489664746977
129	0xbfb1370f6c29f3d7	-0.06724640265197422
130	0xbfa30402cc87a3e0	-0.03713997599317742
131	0x3fb4b45a53b5c2f3	0.08087696593953435
132	0xbfb70845195a7d30	-0.08996993893605487
133	0x3fa125b4c3effd4c	0.033490799825808354
134	0x3fbcc7e808892ccc	0.11242532928843046
135	0xbfbf9cf2d454667d	-0.12348859485464377
136	0x3fb06e0780e828b7	0.06417891404285823
137	0x3f9e1dadbc86394a	0.029410090095148868
138	0x3f7a5ea09f14dca4	0.006437899997130323
139	0xbfba1f9d0586f3a7	-0.10204488167705837
140	0x3fa1869374bbf2cb	0.034229858398224865
141	0xbf881ae973338bb5	-0.011770080402532782
142	0x3f9567ba7e1df057	0.020903505275314007
143	0x3fac3c8885bf5623	0.05514933235796728
144	0xbfa790142b970a1f	-0.04602110893349142
145	0xbfbac3aeaa0fdb07	-0.1045483746710084
146	0xbfba656c972b0b84	-0.10311011019352462
147	0xbfb6fb1f0e40ead8	-0.08976930711734654
148	0x3f8ae43f6f4df487	0.013130660614246515
149	0xbf950f520d30a25d	-0.020566255621960006
150	0xbf10554082e301d7	-6.23055100019762e-05
151	0xbfb2f3a22ce39c7e	-0.0740300521462007
152	0xbf83c6f68b2336d4	-0.00965683567155954
153	0x3fba4814d9c92ef9	0.1026623756126205
154	0xbfbe7792cb6dc757	-0.11901204554103849
155	0xbfa6771d4b262994	-0.04387752096507139
156	0x3fb2bc9c73edc5e2	0.07319047766011225
157	0xbf924ea215244b74	-0.0178780866054455
158	0xbfa33e1739547ec9	-0.037583089588449754
159	0x3fb3b869445df229	0.07703264159312852
160	0xbfaf2843165a4364	-0.06085405013903403
161	0xbfb10a7bcc67d6a9	-0.06656621685382426
162	0x3fa3463867f12b6d	0.03764511364769061
163	0xbfad7c76b93e69aa	-0.05759020816113332
164	0x3fa2b14d47cbf3fb	0.03650895596909006
165	0x3fbd901bf0ac2dda	0.1154801809863594
166	0x3fbf26b5e86dd5fd	0.12168442654168383
167	0x3f6bb9c5cc2f1fd8	0.0033844817384966856
168	0xbfb15cc6bc54c29e	-0.06782190416266551
169	0x3f82a9a0304b0360	0.009112597917352694
170	0x3fba96de0852357a	0.10386455252792884
171	0xbfaf7f824de3d732	-0.06151969147496884
172	0xbf9165a3870f2792	-0.016989283674582696
173	0x3fb5d4f136213c84	0.08528049060372395
174	0x3fbd7814111b4285	0.11511350076330913
175	0x3f6f9b4eeaab2c42	0.003858236440782232
176	0x3fa65160c75d2517	0.0435896151889869
177	0x3fa98ea3906f8062	0.04991637361649805
178	0x3fa8157756ab53df	0.047038773851148845
179	0xbfaf8444f6d65e14	-0.06155601037169958
180	0xbfaf2ed2e3b4b7c4	-0.06090411214459793
181	0xbfb209439ab47a8b	-0.07045385863282598
182	0x3f88d2a447302f8b	0.012120517179958564
183	0xbfab6f8b1fa39b50	-0.053585383999055325
184	0xbfa9bfbbef1060c5	-0.05029094022046502
185	0x3fbc8e1b95322cfd	0.1115433921096844
186	0x3fa8ffa5b1924ba7	0.04882543366070218
187	0x3faebdca83b50abe	0.060041740968264076
188	0x3fb2d2b34262e215	0.07352753039129596
189	0xbf9d182c654ae507	-0.02841252678147035
190	0xbf9dcb8519990e5a	-0.0290966793893531
191	0xbfb5413d2a854fe4	-0.08302671707252746
192	0x3fab5078223452a8	0.053348306823101155
193	0x3fad36ecb90b6b08	0.05705966719479788
194	0x3f8b4c2d68bb70da	0.013328890570328534
195	0x3fa82381bf72bd50	0.047145895595685716
196	0x3fb03e71aedaba9e	0.06345282095819946
197	0xbfbb70536d9aa848	-0.10718270707971655
198	0x3fbc6b0757449760	0.11100812798085036
199	0xbfb0c94f1bdf7d27	-0.06557173185818908
200	0xbfb5a512e3095311	-0.08455007593995513
201	0x3fb93caab38e546e	0.09858195193949523
202	0x3fb8a0dd830c1fba	0.09620460938833633
203	0x3fab66d4154f6fdd	0.0535188938153792
204	0x3fa7b431b183061a	0.0462966469945167
205	0x3fb9d5fb4c2328cd	0.10092135056325731
206	0x3f2b577ddcab06bb	0.00020860110665492878
207	0xbf95969ba3b6bf4c	-0.02108233629922944
208	0xbf7cddfc66940243	-0.007047639789789675
209	0x3f894d3b2841a902	0.012354337850599698
210	0xbf941fe579f4757f	-0.01965292507985827
211	0x3faca80fc2e5c2e6	0.0559697080051416
212	0x3fb71b1143f8a2a8	0.09025676640943436
213	0xbfb85d258c4902b0	-0.09517130541736196
214	0x3fa790182cb780b1	0.04602122827395883
215	0xbf8a2e9c14e99636	-0.012784213436314844
216	0x3fbcb3d44571b7c4	0.11211897559562006
217	0xbf9e946de204c1d4	-0.029863087577895644
218	0x3fb6651889bb196b	0.0874801002747511
219	0x3f91f329542b2ba4	0.017529149782415168
220	0xbf4faf791103fb34	-0.0009669629235132594
221	0x3f60b79651ed476a	0.002040666192819997
222	0x3f6606c0bfefa051	0.0026887669223363627
223	0x3fbefc143ea356d2	0.1210339215207015
224	0x3fb9363cdd1520f2	0.0984838523628502
225	0x3fbe246993b2490b	0.11774310928220559
226	0xbfb6a909b8629636	-0.08851681472386805
227	0x3f973cf3e799e5f3	0.022693453799069684
228	0xbf622a310f3ca63d	-0.0022173841661199665
229	0x3f8a7b44c6d059e0	0.012930428807561734
230	0x3f9c3f63c84677f2	0.02758556280024744
231	0x3fb077243ddd0c51	0.06431795606936076
232	0xbfb6f2fe53d2317c	-0.08964528604901106
233	0xbfae676eebf52500	-0.05938288336126085
234	0x3fb8f7d0e44d4ca8	0.09753137182024096
235	0x3fa17d71adfeefdc	0.03416018723461864
236	0x3f9e0e4f20382dc9	0.029351459828871804
237	0xbf48599796eb3d33	-0.0007431020911442876
238	0xbf87b023c9b45648	-0.011566428750067761
239	0xbfbb0ec63066a456	-0.10569418603576372
240	0x3fafedf299c8ce9a	0.06236227156878478
241	0x3fb05b995c961685	0.06389769087226156
242	0x3fbcdaed88d786f1	0.11271557417742507
243	0x3fb7363ff9568455	0.0906715377555128
244	0xbfba83051fd3449a	-0.10356170680030843
245	0xbfc08184c4f261df	-0.12895259491484887
246	0x3fc00ee185dc5b3a	0.125454130517676
247	0x3faedb000f83c27e	0.06026458920849097
248	0x3fbe8b4e98b0380a	0.11931315639250797
249	0xbfb3fd6509bc93e2	-0.078085245968921
250	0xbf92a2c4cf245843	-0.018199038641874898
251	0x3faf8b9ec78ecb89	0.061612092838365724
252	0xbfb9f63f83ef7b80	-0.10141369792061816
253	0xbfbc493645f39282	-0.1104921265392225
254	0x3fbeea3193f0321d	0.12076101171278038
255	0xbfbed00b7286b701	-0.12036201044130836

equations.x.layers.6.bias f8 [64]
0	0xbfb01bae7ead92d7	-0.06292238800740378
1	0x3fae10d3a4660e8b	0.05872212774104665
2	0x3f9502aa45083f0f	0.020517979110137804
3	0xbf629e6bc2878360	-0.002272806614414355
4	0xbfaaf445c3f4acaa	-0.052644901438122574
5	0x3fa599b8977ed758	0.042188423626994875
6	0xbf96b63f4ae4073a	-0.022179593034713486
7	0xbf875dcd232b2684	-0.011409380565413636
8	0x3fb6c39c8414704d	0.08892229294400629
9	0x3fa632293b18e2cb	0.043351448501601185
10	0xbfb436f0d5786e9d	-0.07896332942658053
11	0x3fb0493b938050df	0.0636174426184115
12	0xbfbe7fbb4204e051	-0.11913652765076789
13	0x3fb84f9ae2b65bae	0.09496467623681212
14	0x3facec7563782ede	0.056491535560864156
15	0x3f9b545fc958fa05	0.026689049400596705
16	0x3f95381ed866d8f9	0.020721895177950398
17	0x3fad0482401bbe83	0.05667502434323259
18	0x3fb0154f12e220eb	0.06282514773386409
19	0xbfb61d75813971b5	-0.08638700871364942
20	0x3fbc3cad5379ac00	0.11030085838289949
21	0xbfa42c8c9a920db0	-0.039402383678886266
22	0x3f98e813027f854b	0.02432279303309785
23	0x3fa68b3ec1dbbf2b	0.04403110615191815
24	0xbfbda6b10e168e5e	-0.11582476228664393
25	0xbfb2f1d4e31563d1	-0.074002557220765
26	0xbfb72188acac6143	-0.0903554364744013
27	0xbfb9a12a4744cc8d	-0.10011543502769112
28	0xbf848233e8120b09	-0.010013967056015998
29	0xbfb6723a76d01719	-0.08768048668579488
30	0xbfb635971ef1d051	-0.0867552233265212
31	0x3fb3b3df30551189	0.07696337633121265
32	0x3fb5f435285ed08f	0.08575756297688229
33	0x3fa85f82fef51bc3	0.04760369646333331
34	0xbf93abd0c503a006	-0.019210111641683646
35	0xbfb09e41b2b57447	-0.06491480458267161
36	0x3fba7f364f2571e1	0.1035036032894321
37	0xbfa8d9e9ba818645	-0.04853754426654836
38	0xbfb427f318acac46	-0.0787345824470985
39	0xbf693d7382e35fe1	-0.0030810600356794148
40	0xbfaa582456280914	-0.051453719632279654
41	0x3f678cf0d7576ff6	0.002874822991300259
42	0x3fb08469132b9c79	0.06452042310739782
43	0xbf968e1ae86e7b46	-0.022026462971207715
44	0x3fb8ea0ff7c8e77f	0.09732150840218699
45	0x3fae115a07c7cd9a	0.05872613282181334
46	0x3fb93fabb86634bd	0.09862778903898835
47	0xbfaa433ae179538f	-0.05129417421691251
48	0x3fb17dc6c46af4b7	0.06832544608456002
49	0x3f9cfbee2b90e061	0.028304788025906528
50	0x3f8b3da48384c704	0.013301167739516291
51	0xbfa3c6ed95c5bc68	-0.03862707570339624
52	0x3fa3433ecb992665	0.037622415879536665
53	0x3f61a4e3a935c598	0.0021538206580593126
54	0x3f872d2909ab0b77	0.011316605193661051
55	0x3f981b12a45d8fa1	0.023540774614403074
56	0xbf7c12e816e98bd8	-0.006853968238462259
57	0x3f8ac7d873c3b40c	0.013076487572528016
58	0xbf9ba87eb089b6d5	-0.027009944462796327
59	0x3f77ac394370ea1c	0.005779479680365653
60	0xbf7f66017be1343b	-0.007665639683250676
61	0x3fbd9faff44904c5	0.1157178851508603
62	0xbfb3fe36d0c8af23	-0.0780977496839879
63	0xbf8078d837b9bcef	-0.008042992783173079
