simple-pendulum-system/2025-05-30_22-08-59/model.pt (torch, 276310 bytes, 24 tensors)

equations.x.layers.0.weight f8 [64, 1]
0	0xbfd445e345befc24	-0.3167656117547628
1	0x3fe919d4aa36e5df	0.7844031643391495
2	0xbfdb27fd1527fe75	-0.424315710697534
3	0xbfe53de7a4b47065	-0.6638067452327162
4	0x3fe93c9da5a0abcc	0.7886493906893235
5	0xbfb7ab250ac69dd7	-0.09245521081049134
6	0x3fdcc0f8bc04126c	0.4492780529110749
7	0xbfeceda63617fbca	-0.9040099197881031
8	0x3fe301024394e20e	0.593873149867308
9	0x3fd9a6e42a1a9197	0.4008112345857397
10	0xbfb6fa70dca9dc2e	-0.08975892436306829
11	0xbfc40318f586a081	-0.15634452808922464
12	0xbfdfc5020f289877	-0.49639941673593263
13	0x3fe01041eeb698f7	0.5019845640534005
14	0xbfdb22f8881ef481	-0.4240094498926013
15	0xbfe652d788130292	-0.6976125390720702
16	0xbfb5d9a9ce0dd138	-0.08535252838720886
17	0x3fc0221101fae1ec	0.12603962513618627
18	0xbfe56acf2aad93e4	-0.6692882379107883
19	0xbfe00b404ce35e93	-0.5013734342309867
20	0x3fec5494c848ffb8	0.8853248512095808
21	0xbf9fb85f6e6bdd81	-0.030976763834556834
22	0xbfe3b2e0bbd01747	-0.6155856769771412
23	0xbfd25a5c78cd18fc	-0.286765211076627
24	0xbf7f68c0ee8c6f43	-0.007668260230982163
25	0x3fb6e3c5d05d8b76	0.0894130357460606
26	0x3fbfbd8bcfeb1aa6	0.12398599458820544
27	0xbfd3c873a9a682dd	-0.30910960738587595
28	0x3fe69a9d010e395c	0.7063736935249767
29	0x3feec3caf73fe318	0.9614004925816486
30	0x3f96c524b3a21bef	0.022236417259161752
31	0xbfe018d2db06fd26	-0.503030231273361
32	0x3fcb763b78975b5b	0.2145456637215045
33	0x3fcbba5c29f6579f	0.21662475632609543
34	0x3fe675ce5e2e7f93	0.7018806304440538
35	0x3fb3208f1546eaa1	0.0747155596681446
36	0x3fcfac8e7d82e9ba	0.24745350960240647
37	0xbfc9932f4d924bd7	-0.19980422294301434
38	0x3feb89a4625f9b5f	0.8605520173413018
39	0xbfe2b31a3a7e646c	-0.5843630926566568
40	0x3fd0ce0e5e0cfc8a	0.262576667639174
41	0xbfd61fef6e1e3e42	-0.3456991744396626
42	0x3fdeac07b16364a7	0.4792498810107397
43	0x3fbf735a9c8d13fe	0.12285391161010747
44	0xbfea3ce94a4aa498	-0.8199354601867013
45	0xbfe857f7c1399c90	-0.7607382558752693
46	0xbfe2e76153d86ba3	-0.5907446515660592
47	0x3fd91225db4e7099	0.39173265854493305
48	0xbfe217c9066777df	-0.5654034733850003
49	0xbfba603466f1343f	-0.10303046715962781
50	0x3fe1db887def2b0e	0.5580484828618368
51	0x3feacda1393fffea	0.837601291481403
52	0xbfd3a18be45838f2	-0.3067350130012435
53	0x3fe662f7fa336d22	0.6995811354385391
54	0x3fdd8dd09867d0b4	0.46178069003441213
55	0x3fdcac358fbe0f08	0.44801081693025013
56	0xbfec7cf0fa80c9ce	-0.8902516262663143
57	0x3fda65377d9cadde	0.4124277807884179
58	0xbfe1ce1595812297	-0.5564067764290311
59	0xbfe9d40c573c7661	-0.8071347907859484
60	0xbfdf2af21857742e	-0.48699619652853954
61	0x3fc5e577f4e63b93	0.1710653253362265
62	0xbfe50bc61f2a2ae5	-0.6576872452436332
63	0x3fe1684fe35067ef	0.5439834060409775

equations.x.layers.0.bias f8 [64]
0	0xbfd0b1bd9b50f07d	-0.2608484284171551
1	0xbfe400774702831e	-0.6250568758879103
2	0x3feeb56bc043f398	0.9596461062607089
3	0x3fec9539a4a82458	0.8932159629777159
4	0xbfef42a3ab216616	-0.9768846838371157
5	0xbfe51f4f5ba3a641	-0.6600720205144129
6	0xbfd4ba86a7b00cf3	-0.32388464332343786
7	0xbfa6c1c8266f9616	-0.04444718808353458
8	0x3fdd3a5a9a280680	0.45668664030390715
9	0x3fe828a6f12afba2	0.7549624166784847
10	0x3fcb3c3307fd5567	0.21277463808170724
11	0x3fb59daa62c3de83	0.08443703566796938
12	0xbfe1530d3e1bb110	-0.5413881505060392
13	0x3fe08bc7f5b46614	0.5170631216926176
14	0xbfe5a09c9c36bc77	-0.6758559275675812
15	0xbfe3735a15320877	-0.6078310407613249
16	0xbf926b81a9dc4000	-0.017988229744389628
17	0x3fe394e217ceccec	0.6119242157932638
18	0xbfe52328bd91281a	-0.6605418875199149
19	0xbfd068893f95c8ed	-0.2563803788135733
20	0x3fd12a11a10b8dbd	0.26819267966331123
21	0x3fe689b342295ad9	0.7043091098992945
22	0x3feb1a72869931fa	0.8469784382701271
23	0x3fca553790339463	0.20572561780059848
24	0xbfdee3401bfca46f	-0.4826202653226294
25	0xbfea3e2799951216	-0.8200872420935095
26	0xbfc5638db7372136	-0.16710063406049763
27	0x3fc4e6fb176d8fe8	0.16329897540992921
28	0x3fd536850703a3ee	0.33145261464102205
29	0x3fe454199c98cb15	0.6352661188633159
30	0xbfe80159839f0fd4	-0.7501647539834218
31	0x3fd0229dbad39490	0.25211280102514255
32	0x3fcc575b9a22b9ae	0.22141594911722734
33	0xbfe7e617ffe25370	-0.7468376157508896
34	0x3fc98ec4eb27a585	0.19966947061702114
35	0xbfca4c7b2b9c4400	-0.20545901898779562
36	0x3fac08588c842940	0.0547511741188651
37	0x3f9eb117885b974a	0.029972427079790344
38	0x3feca28019b80dd7	0.8948364736865483
39	0x3fee1d9a901e1f29	0.9411137404249291
40	0xbfdb75e72fe14035	-0.42907123256464114
41	0xbfc282eac68a518c	-0.14462027258253973
42	0xbfd98b1d79a9f48a	-0.399115914165869
43	0x3fea71772791c725	0.8263507626381609
44	0x3fe3151e6edaa248	0.5963279881589836
45	0x3fe88d0c9a1fefb7	0.7672179231881192
46	0x3fd9bdb314047a18	0.40220334009964764
47	0xbfe58688e066de27	-0.6726726897094907
48	0x3fd2f5a5046afa7a	0.2962429564612773
49	0x3fc0acfe19aa0359	0.13027931454783007
50	0xbfe7237460790d3c	-0.7230779537425529
51	0xbfd590a3118e6cc7	-0.33695294107901613
52	0xbfbeb1ed884a29ca	-0.11990246369729288
53	0x3fd01746d3d2daae	0.25142069517043353
54	0x3fd216e5af8bdb9e	0.2826475347823648
55	0x3fda287efdd346bd	0.40872168338419695
56	0x3fed70d53a93fdd1	0.9200235504248956
57	0xbfd5a95282a6cb6e	-0.3384596134084664
58	0x3fefd2cf850e631b	0.994483718753233
59	0xbfdbf7f6ddc00383	-0.4370095410850398
60	0xbfeee25c672b76b6	-0.9651319518122452
61	0x3fe2220986906b43	0.5666549328046603
62	0x3febbf267ea6099b	0.8670837854008825
63	0xbfdc5ddfa29ec1b5	-0.44322958832620013

equations.x.layers.2.weight f8 [64, 64]
0	0x3fb9e9028ff48df6	0.10121170057805515
1	0x3f9362736c27b52f	0.018930247761024418
2	0xbf9548cefa0bd490	-0.020785554896936065
3	0xbfb2609b63e5a788	-0.07178660572904338
4	0xbfb15fe92b992cb1	-0.06786973299419931
5	0xbfbd81cfa9b1f736	-0.11526201146076862
6	0x3fa219091ac101a4	0.03534725619875026
7	0x3fbb341454b6b862	0.10626341884810267
8	0x3fa3d33b30efdc6c	0.038720941280126236
9	0xbf84e11b62824df0	-0.010194982475048214
10	0xbfabd25e31c5b6d7	-0.05433935506412773
11	0xbf798399abcede21	-0.006229019430001454
12	0xbf8f1f505e41f302	-0.015196445347322566
13	0x3f91d4efd91e4739	0.017413852335784717
14	0x3fbc6d56b54f649e	0.11104337622181723
15	0x3f70cff6e04d1fca	0.004104580268922528
16	0xbfac9f7ebebcdacf	-0.05590435102788193
17	0x3f680eab560a9753	0.0029366823585687345
18	0xbfbc7749fcb5d319	-0.11119520587619681
19	0xbfbeed8509c1e0ca	-0.12081176269737451
20	0xbfa5f3bf6feeb9eb	-0.04287527314533065
21	0x3fbdb34f70718b32	0.11601730818942427
22	0x3fbd6736f7f6b69f	0.11485618165780885
23	0x3fbe4368b5db9834	0.11821608009231072
24	0x3fa1e9b8851c2cb8	0.03498627304915075
25	0x3f8c5b648145d5ad	0.013846192545979042
26	0xbfb51c214e4e072f	-0.0824604812787839
27	0xbf9ca9b74eaeea25	-0.027991165330357632
28	0xbfb5686c02e91bc9	-0.08362460204180801
29	0x3fb083a23c9d3515	0.06450857143245899
30	0xbfb8dd3c06dfe0db	-0.09712577026209905
31	0x3f624730f977d847	0.002231212285319226
32	0x3fb98e0c0bd86995	0.09982371606057534
33	0xbfbe7addab42e09e	-0.11906228476698508
34	0xbfb1d0694922a894	-0.06958635364086013
35	0x3fc027410db28b3b	0.12619794052906194
36	0xbfb58bc12581a3b0	-0.08416373410876932
37	0xbfb2f2228dbfcc81	-0.07400718651460815
38	0x3f74a9c8661c25d1	0.005044730003427715
39	0x3fbddc7a2ddf57f1	0.11664546604092131
40	0xbf8a874140329b46	-0.012953290721566934
41	0x3fb6beb6250514be	0.0888475265865791
42	0xbfb3687152ca3214	-0.07581241866336824
43	0x3fbd2cec6349941e	0.11396672653207005
44	0x3f835de53de7d334	0.009456435157497368
45	0x3fb89e409f094a8b	0.09616474039766325
46	0x3fb160dffdba6ffa	0.06788444466150159
47	0xbfbd05cb3be12bd0	-0.11336965763000184
48	0xbfafc07c0e9c68ff	-0.06201541593891768
49	0xbf62718e35a117d8	-0.00225141310969244
50	0xbfa09d4640dee511	-0.0324499086559148
51	0x3fb55ec85ec158f8	0.08347751916275914
52	0xbfbf2c5153e0c856	-0.12176998422435878
53	0xbfb63927a29b39a1	-0.08680961341744943
54	0x3fa6b6088128225d	0.04435755325909405
55	0xbfa0742e4a1aa94a	-0.0321363892993128
56	0x3fa07eb87f63383c	0.03221680216812259
57	0x3f16eca35d08ddac	8.744952288785326e-05
58	0xbf6fe942094075e9	-0.003895405747256876
59	0xbfb8660cebfa3589	-0.09530716668287743
60	0x3f6973493ec2ac90	0.0031067305154315952
61	0x3fab7e9d615d9ffc	0.05370036901041428
62	0xbfaae08bd126878c	-0.05249440124613533
63	0x3fbb07715356225e	0.10558231625157918
64	0xbfa6b7045875614c	-0.044365058706434896
65	0x3fb6fd2da970493a	0.08980069529232973
66	0xbfac10a0197aef66	-0.05481434165036951
67	0xbfb3214c3716178c	-0.07472683281784337
68	0xbfb58fcae17ea8b5	-0.08422534947627265
69	0x3fad92425c00dcb5	0.05775649426544175
70	0x3fb6692dc165415e	0.08754240008898281
71	0x3fbe799c572c23b0	0.11904313209755801
72	0x3fbad0d6b6d50db8	0.10474912608793019
73	0xbfa2a1a22e522238	-0.03638941588821293
74	0x3f89136333fe5a0c	0.012244009994714332
75	0xbfb9efecfce4072b	-0.10131722616281695
76	0x3fa84aee8fd3c260	0.04744668489172876
77	0xbf9a6d39011e4696	-0.02580727643323274
78	0x3fc03b6ed5a347c6	0.12681374961408504
79	0xbfad06bc17d30f4d	-0.05669200697732766
80	0x3fb9d56520510692	0.10091239966370782
81	0x3fbdae52cdc1bc33	0.11594121478422963
82	0xbfba17f24410938e	-0.10192789232003305
83	0xbfbbe623155109e4	-0.10898036261008986
84	0xbfb8b99f1eadb80a	-0.09658236025799752
85	0x3fb7d3362b51c277	0.093066583229083
86	0x3fa3f6dbc98a6ae2	0.03899275622571509
87	0x3fbaff7818c6e716	0.10546064953714693
88	0x3f85b72801e552d2	0.01060324912820346
89	0xbfab9d0250e62340	-0.05393225896393128
90	0xbf9eb525db7ac55f	-0.029987899323434927
91	0x3fb193602abb9f7f	0.06865502398761512
92	0x3fa84c0ecf327ee6	0.04745527533782283
93	0x3f98be5e84f5363a	0.024163700928786926
94	0xbfb316ebf0606ace	-0.07456850641794263
95	0x3fba6f39f41a84ec	0.10325967988548584
96	0xbf6dc756d59e46af	-0.003635091398742705
97	0x3fbde9590fe184ff	0.11684185636251597
98	0xbf810955b325633a	-0.008318585900882181
99	0xbfbb6a35838e3859	-0.10708937131696085
100	0x3fbaba6d28b11bbf	0.1044071411462104
101	0xbfbb27693a96a814	-0.10607011490233759
102	0xbfa0ee498af8c8c4	-0.03306798764642019
103	0x3fb3627733c377dc	0.07572121633299339
104	0xbfa9d458c94ca527	-0.05044820267932897
105	0xbf8dea12e396357e	-0.014606616564175164
106	0xbf5e519929073b50	-0.0018505092340210423
107	0xbfaac82d0ba88fa1	-0.05230847136797868
108	0x3fa3159ad21bb508	0.03727420630262129
109	0xbfb140cfef812275	-0.06739520642543957
110	0x3fb087af08048ece	0.06457036920306367
111	0x3fb341821073df79	0.07521832372355942
112	0xbfb0b9badab0b193	-0.06533401335827298
113	0xbfb69e097b9a60fc	-0.08834895389225389
114	0x3f8564a33696c1e1	0.010445857146664518
115	0x3fbbefa324424ec0	0.10912532458524549
116	0xbfaee9726e5bb961	-0.060374809237930156
117	0xbfb65f06205af165	-0.08738745012209888
118	0x3f8164c95a49f23a	0.008493016307732682
119	0xbfb8abcdbbc803ba	-0.096371515603109
120	0xbfb4a5fcdebfc42e	-0.08065777242860925
121	0x3fbce2991b5ac3d1	0.11283261220775322
122	0xbfbd4252149aff25	-0.1142932224565781
123	0xbfbaa3e361ff6dc1	-0.10406323568843502
124	0x3f8446266754d96a	0.00989942553370034
125	0xbfa5f39b4e914831	-0.04287419637752555
126	0xbf978ee009e881d8	-0.023005962948561137
127	0xbf84b241a8577bc1	-0.010105622243768654
128	0xbfbe9d952ceca8a5	-0.11959202143467225
129	0xbf777a0364d36be2	-0.005731595284681897
130	0xbfb35fe8aa495841	-0.07568220288644147
131	0xbfa6d49d235036fb	-0.044590864716253585
132	0x3fa124fa497e38af	0.033485242339439274
133	0xbfba8305c600009d	-0.103561745490881
134	0xbf6d6b1fde01e171	-0.0035911199957434016
135	0xbf7c48ce667ea3d5	-0.006905370952076735
136	0xbfb1ed51c72cc1e1	-0.07002745735804396
137	0x3fb4e2f85e551605	0.08158829024349508
138	0x3f9450a8d2eab050	0.019838941453301395
139	0xbfbd1c2978f3e647	-0.11371096804568835
140	0x3fa13ef725a4d718	0.03368351301689482
141	0x3fa4aca712228510	0.040379734958387314
142	0xbf9d51990ec2ea5e	-0.02863158371540419
143	0x3fb295b1ec3f43ae	0.07259666459800826
144	0xbfb54e14bc617b4c	-0.08322267150059054
145	0xbf9ee1b4932709ef	-0.030157872659183068
146	0x3fb6c4650fd4a415	0.08893424641122778
147	0xbf705e0d995300a3	-0.003995946045677243
148	0xbf4c411c07f9fb1a	-0.0008622538443459921
149	0xbfb9e85957f87203	-0.10120161435811074
150	0xbfadfcdc4f0b07f5	-0.05856979813462707
151	0x3fbbfae2a8666834	0.10929695712403104
152	0x3fa821f50d652f77	0.047134073147929216
153	0x3fbbd1a38e605a49	0.10866758562074454
154	0xbfbe64e0c931234f	-0.11872677719032974
155	0xbfb89a02f1d6531e	-0.09610002903202683
156	0xbfc01ca20b6ab707	-0.12587380940879475
157	0x3fbe9b7ae85dbe40	0.11955993817331834
158	0xbfb8c3c926bd4145	-0.0967374534204782
159	0x3f9e0203e4be9b66	0.02930456241270054
160	0xbfbc975afc338928	-0.11168450028666099
161	0xbfb7e9ee98c72125	-0.09341326932838408
162	0xbfb4b5df18c9dbc5	-0.08090013842762207
163	0x3fb96a5de5e77934	0.09927927840133038
164	0xbfbab8338db5cbef	-0.10437319001884736
165	0xbfa67ee847b01ceb	-0.0439369761953062
166	0xbfbd1261a1370655	-0.11356172738944655
167	0xbfb0516ce65e90ce	-0.06374245285275323
168	0xbfb05a2287598c5f	-0.06387534908712798
169	0xbf9f085c53f8a875	-0.03030533087272898
170	0xbfb0986e369944e4	-0.06482590516067749
171	0xbfa4240e17845f70	-0.03933757817338701
172	0xbfb0432d5d118b2e	-0.06352504274540813
173	0x3fb3b8e4dd4cf5b7	0.07704000857207559
174	0xbfb241966c8f70d6	-0.07131328726194694
175	0x3f87c77f80702b23	0.011610981089707878
176	0xbfbb39786bc17b1a	-0.10634567862278424
177	0x3fb9d42ab3b6fa5d	0.10089365851943329
178	0xbf8c14af5f880bc9	-0.013711328604591249
179	0xbfb6c90272855611	-0.08900466247481399
180	0xbfab88889ff30fc1	-0.05377604439266249
181	0x3f91c416f5129e15	0.01734958525471882
182	0xbfa16580a930f2f3	-0.0339775282413707
183	0x3fad1ddac148dde8	0.056868396848979874
184	0xbfbc26018cf67134	-0.10995492640944776
185	0xbfbf1f1ebcdbfe89	-0.1215686045725254
186	0xbfad5feb2713a8e5	-0.057372425575367626
187	0xbfbcf9f128485665	-0.11318881257496967
188	0x3fad699ba38168b3	0.05744634982029719
189	0xbf8227526e1301ba	-0.008864063247870802
190	0xbfb850e4fb2f8afc	-0.09498435146774037
191	0xbf83a5671b766270	-0.00959282448347773
192	0x3fb8fe77859432dd	0.0976328564758648
193	0xbfbe682abd3a69f7	-0.11877696151569937
194	0x3fb02b1625d32ea7	0.0631574480386755
195	0x3fb8acaec9856fc4	0.09638492984726016
196	0x3fbe49e5db352905	0.11831509210347597
197	0x3fade4a4053acf92	0.058385015142817256
198	0xbfa854259de8040a	-0.04751699020926743
199	0x3f9fe0ded20eb598	0.031131249972238345
200	0x3f8b4ff30295a0c7	0.01333608485829564
201	0x3fbdc225199f0bd9	0.11624366641539953
202	0xbfb4110b1d64aecd	-0.07838506190881418
203	0xbfbfd616142a8cd8	-0.12436044685687209
204	0xbfb4034f6e9f4776	-0.0781755108903591
205	0xbfa4377e2af867d9	-0.03948587679424493
206	0x3fb3059b07979d6c	0.07430428443296017
207	0xbfa8c7347fc8ccf9	-0.04839481410854236
208	0x3fbbe6e25aecb45e	0.10899176330413371
209	0x3f8e2dc808c9b48a	0.01473575856035782
210	0xbfb2d38b3ae369ed	-0.07354040324882023
211	0x3f94f295bf5fd85c	0.020456638150755033
212	0x3fb1217615c28b30	0.06691682845352598
213	0x3f7d88823d4f73fa	0.007210263011953261
214	0x3fb242fc7ef3ce7b	0.07133463000701028
215	0x3f6e51c08d773fb2	0.003701091841982384
216	0xbfb8c526b6d3072e	-0.09675828898892
217	0xbf79a5ba0e181c51	-0.006261564996299888
218	0xbfaf6148b695e272	-0.06128909329249134
219	0x3fb77732111307f7	0.09166253010610591
220	0xbfb31232432b5145	-0.0744964040744139
221	0xbfb067d7228cdeca	-0.06408447831642686
222	0xbf876be2dec3b25f	-0.01143624536822435
223	0x3fb52f8ee199c475	0.08275692947224107
224	0xbfbdcf73e8f8e01d	-0.1164467281131469
225	0xbfbe153db41639c8	-0.11751161238337382
226	0x3fbdab31a956a2f8	0.1158934629844558
227	0xbfbc99e799165df2	-0.11172339904293674
228	0xbfbd4a0b40d4f715	-0.11441107113656941
229	0xbfb8076879b7f665	-0.09386303874631492
230	0xbfa4d07664d60463	-0.040652942475397656
231	0xbfb35060ed913207	-0.07544523048381545
232	0xbfbd571d3682cd68	-0.1146105058749548
233	0x3f91b6304893697e	0.017296556882550267
234	0xbfb6439c4a90da49	-0.08696915455298283
235	0x3fba0982db0dd1cc	0.10170762870786304
236	0x3fb0cce2405311b8	0.06562627859518144
237	0xbfbd0cb2f5d640d7	-0.11347502233388994
238	0xbfb991f8ae471ae4	-0.09988359694316845
239	0x3fa1225a79b0cffa	0.03346522078973631
240	0x3fa61c7c26dfe3af	0.04318607306044641
241	0x3f5d45927433aeaf	0.0017866068090438938
242	0xbfb2593341d4d7b7	-0.07167358739101713
243	0x3fb7249b882e8475	0.09040233683346506
244	0x3f91f232f7883fc8	0.017525478704612657
245	0x3f9582c53f23b182	0.021006662348484813
246	0x3fb133a91afafd8b	0.06719452770902572
247	0xbfb660dbe294fe7e	-0.08741544992244063
248	0xbfb899a33d8ca983	-0.09609432461426164
249	0xbfb8b528f2fa9391	-0.09651428157901722
250	0x3fa3ceb13bd6efb5	0.03868631225074585
251	0x3faaaf017e2a8cf8	0.05211643853297149
252	0xbf7c264a547ef522	-0.006872454025083104
253	0x3f90a2b917cf7d9d	0.01624573905780623
254	0xbfa105ab2d2d65e1	-0.03324637342911863
255	0x3fb6ce2b940c11ea	0.08908340801651318

equations.x.layers.2.bias f8 [64]
0	0xbf83d925d7e9301a	-0.009691520358636341
1	0x3fb62e2de6bf6285	0.08664214023100143
2	0x3fbc96f49ab8f5b5	0.11167839791683927
3	0xbfbd8b5d8e84b969	-0.11540779809431502
4	0xbfba04f98975eb8d	-0.10163840871784498
5	0x3fb72ca8794909c1	0.09052517853800791
6	0x3fbc29e276e0bf51	0.1100141086797042
7	0x3fbcb784d206b166	0.11217527511207023
8	0x3fb4d2e4e09362fd	0.08134298785024537
9	0xbf96b4431afbd925	-0.022172020456275327
10	0xbf9de12b9bfaffa4	-0.029179269213954875
11	0x3fb3b114ab49d2b2	0.07692078763813973
12	0xbfa18909c82c3961	-0.034248643574857913
13	0x3f8c883864db8267	0.013931694581914301
14	0xbf9e7c000dab67ae	-0.029769898256610076
15	0x3fbbd4a8780dcc8b	0.10871365481379962
16	0xbfa330e5125b1380	-0.03748241280621922
17	0xbfb7e18f8e5693c7	-0.09328553414395833
18	0xbfbaef7812a58297	-0.1052165074847927
19	0x3f9475a8ef3b28d3	0.019980086900240956
20	0x3f81186d33d63a30	0.008347371239122742
21	0xbfb3b231aef2e41f	-0.07693777581415916
22	0x3fb6ae465a926820	0.08859672270992336
23	0x3fb8d0e4bfd4c87e	0.0969374626481869
24	0xbfbe4a7e3e90b837	-0.1183241751429883
25	0xbfbdfca0c903a64f	-0.11713604838919277
26	0x3f9f03b6a7727587	0.030287603349838512
27	0xbfb45f87e0bad5b1	-0.07958268391197156
28	0x3fa60bcab454bb9f	0.04305871440225605
29	0xbfb5b6b68106cf0e	-0.08481922769606973
30	0xbfb73c7eca2faead	-0.09076683460414854
31	0xbfad9402b0e45def	-0.05776985558821567
32	0x3fbc934b931e1d91	0.11162254659404015
33	0x3fbdf194ded97959	0.11696749153768361
34	0xbfb8087722f1809e	-0.09387917140111532
35	0xbf999bd9ad5bbffd	-0.025008584218937802
36	0x3f8a1f8ad98cc621	0.012755474819274916
37	0xbfb41b317845dcae	-0.07853993593549788
38	0x3fbf4738c8981849	0.12218050858800313
39	0xbfbb3c7d881e885c	-0.10639175961708375
40	0x3f971d9c3f8c555d	0.022573892000840135
41	0x3fb68dd2c410e56a	0.08810155188338845
42	0xbf632e8409c29607	-0.0023415163869511288
43	0xbf6727fdfc9ac243	-0.0028266869238325067
44	0xbfbdfad9040a5488	-0.1171088824142591
45	0x3fb3f4138c2f2d68	0.07794305965869841
46	0xbfbe8ce279ba66ac	-0.1193372294605079
47	0xbf87c48d53edd88a	-0.011605362056553287
48	0x3fbbf1ccd79d4ead	0.10915832771325525
49	0x3fa625682dc04597	0.04325414236530916
50	0x3fa038337c35602a	0.03167878047196411
51	0x3f6df37fddb0e3a2	0.0036561486608914376
52	0xbf94d237ceed7efb	-0.020333168034425402
53	0x3f817eaa6a57e387	0.008542376871433678
54	0x3fb5caf1112609e4	0.08512789410273275
55	0x3fba6aefc8304e1e	0.10319422376078832
56	0xbf9dca7a27a83d3b	-0.029092701597673836
57	0xbfb735b8c9c44ce9	-0.09066348005244475
58	0x3fbb95391be2771a	0.10774571352746101
59	0xbf87c658928e47f4	-0.011608783695724136
60	0x3fb81a804e0f4ba7	0.09415437608485765
61	0x3fa795912fc63dcb	0.046062981683572334
62	0x3fb1d37d53c36cfa	0.06963332457546648
63	0x3fb3f5ca33bab2ac	0.07796920550272074

equations.x.layers.4.weight f8 [64, 64]
0	0x3fa36def88c535eb	0.03794811768112168
1	0x3f9812e9f20c4c99	0.023509650610389874
2	0xbfb87c5382a38fd1	-0.09564706744600861
3	0x3fbae381cbcdf59d	0.1050339815683032
4	0xbfb084483a74befd	-0.06451846530103107
5	0x3f9915b0efe86f38	0.024496807711428675
6	0x3fbbc5fdddbe20df	0.1084898630489337
7	0xbfb9fc77c4e452a9	-0.10150860363894289
8	0x3f8b3ee466645419	0.01330355107760721
9	0xbf9db178db8530e5	-0.028997314833120753
10	0x3fac87ebc96949a4	0.05572449525483883
11	0xbfac302925ededd0	-0.055054937248282365
12	0xbfa51b5c7d2f03f7	-0.041224375039298815
13	0xbfaa3dcfe2a559a3	-0.051252838532195776
14	0x3fb7981c1805ce14	0.09216476046076877
15	0x3fb512e8c22e7ccf	0.08231978169213792
16	0x3fb19542e65bd642	0.06868379711144093
17	0xbf7dd2f5e238ba78	-0.007281265719525913
18	0x3fb88f95e1d8244c	0.09594094051148366
19	0x3fb77c05ae1561da	0.0917361783989529
20	0x3fa7693553085ed8	0.045724550615145965
21	0xbf8ed56e00dc0373	-0.01505552234766736
22	0x3fb70742def1444e	0.08995454733782646
23	0xbfb5836172d361aa	-0.08403595975267444
24	0xbfbc7ee9f3fc02f2	-0.1113115521111572
25	0xbfb4f31494f5e699	-0.08183411251766372
26	0xbfb76467976fa9e2	-0.09137580344364651
27	0x3fa2645b825ec834	0.035921916641556
28	0x3fafb951155be713	0.06196072946290889
29	0x3fc11d6287180086	0.13370925518393423
30	0x3fa3d3cba8bb729b	0.038725246760553854
31	0x3fba209c8306cccb	0.10206011008158382
32	0xbfbe8958aa61f541	-0.11928323898060446
33	0x3fb6e6f77c4b0473	0.08946177277086224
34	0xbf92c51b7bddd9fa	-0.018330029902665836
35	0x3fb21084cbf6ffee	0.07056455592737595
36	0x3fb783fbe2063fb7	0.09185766475843492
37	0x3f964d60aaf4a90a	0.021779547151859403
38	0x3fb049df733f19ce	0.06362721027026128
39	0x3f89d5155824b67d	0.012613455536292445
40	0xbf8a71281a67d347	-0.012911141687234852
41	0xbfbb84dec96fd6d9	-0.10749618928806672
42	0xbfad781c9aab20b4	-0.057557004814556306
43	0xbf89cba93f9ff266	-0.01259548402230699
44	0xbfbc74b1e6580bb7	-0.11115562318450044
45	0x3fada08e576139df	0.057865570227125344
46	0x3fb2d4021b5c6923	0.07354748886101396
47	0xbfbf09461635286a	-0.12123525659731774
48	0xbfb39ef12918179b	-0.076644012959234
49	0xbfa94bc916355c75	-0.0494063224420466
50	0x3fbeb01ba6bcabbe	0.11987469502189094
51	0xbfb09fb79e49baa9	-0.06493709196522936
52	0xbfb1af829091c3de	-0.06908432034994358
53	0xbfbef68acd06e11b	-0.12094943528689266
54	0x3fb86673d0aa6a40	0.09531329960228963
55	0x3fb3ea9b85f9df01	0.07779857655429724
56	0xbf9ab0275d68a0dd	-0.026062598301138763
57	0x3fbef479aa1ca031	0.12091789630051221
58	0xbfb7152bc6c1f60f	-0.09016679384691194
59	0xbfa50dc70cb7969e	-0.04112073927153158
60	0xbfb9faeda16f76fa	-0.101485111153547
61	0xbf94140ce024fafb	-0.01960773580617124
62	0xbfb6846a7c28ef80	-0.08795800715682667
63	0xbfae82bf73dfaf74	-0.059591277022120887
64	0xbfb6bc05fd794824	-0.08880650938343188
65	0x3fbd1cce25668ff1	0.11372078335858739
66	0xbfab42ec533d4959	-0.05324495807748759
67	0xbfbe08b9c6ed9657	-0.11732064348833525
68	0xbfb89ec35d7fb874	-0.0961725333470172
69	0xbfb92e427c9caac2	-0.09836211721691782
70	0xbfba465cd778441b	-0.10263614902966404
71	0x3f95ffb1ee5e847c	0.02148321168317978
72	0xbf9affa9bed22ee3	-0.026365902206221824
73	0x3fb719dd55048273	0.090238412147764
74	0xbf9a92386351e591	-0.0259484110469877
75	0xbfb3340fa325fe51	-0.07501313908687136
76	0x3fa67adb0c851fa9	0.043906064298936905
77	0x3f912a89a982e5ec	0.01676383111109729
78	0x3fbdcf4656edb9f9	0.11644401190071808
79	0x3fbbece2583718a0	0.10908331540767557
80	0xbf8344904d128e3d	-0.009408118583741682
81	0xbfa6ccc78e2250c8	-0.04453109369311076
82	0xbfbfbe690b8830db	-0.12399918109457835
83	0xbf97df92a975856c	-0.023313800423584594
84	0x3f81dc4d6008414d	0.008720974438830931
85	0x3f5bb200ab6928f3	0.001690388349418867
86	0xbfa970f50e3eb231	-0.04968992041481036
87	0xbfbf1535ae3a787c	-0.12141738418219633
88	0xbf90de211ebc0de9	-0.01647235632027658
89	0xbfa7cb86c6c3518e	-0.04647465874009803
90	0x3f57f07138abe85d	0.0014611344983550747
91	0x3fbef7a39a9afee6	0.12096617245242278
92	0xbf8971a295dd1b8e	-0.01242377300117228
93	0x3fb193af20fa6b41	0.06865973048335851
94	0xbfa695514036af5a	-0.044107951248718094
95	0x3fb7f6f666629ea1	0.09361209869040944
96	0x3fb74ffcd31b3954	0.09106426385844674
97	0xbfbe1a8890f00ce8	-0.11759236849325172
98	0xbfa3fdd0e935d952	-0.039045837848720524
99	0x3fb1bea871ac5ca7	0.06931545996882225
100	0xbfb53277d66d2923	-0.08280133233089208
101	0x3fb2aaf01cff250c	0.07292080600668188
102	0x3fad2f399bcf32df	0.0570009234139428
103	0xbfb32ef8323e7f6e	-0.07493544794715287
104	0x3f7acd46a6a41bfe	0.006543422680130638
105	0xbfb2b9ca6a7d964a	-0.07314744090907613
106	0xbfad415ccca7dd8f	-0.057139301283252945
107	0x3f8c31e8b98c89ab	0.013767069017892227
108	0x3fbcb825f1a4b2fd	0.11218487882133484
109	0xbfac529464a2a2ff	-0.05531753281076667
110	0xbfb8bf52c9f658ef	-0.09666936331482011
111	0x3fb6a6a5c2c935ea	0.08848033910290778
112	0xbfbe520534e4ae2a	-0.1184390310415259
113	0xbfb051959042759f	-0.06374487659419124
114	0xbfa869ba5b8d24ed	-0.04768164031572462
115	0xbfa88f8d5bc8bb43	-0.047970216230501815
116	0xbfc00384dae8e10d	-0.12510739029836096
117	0x3fb98b2641115151	0.0997795018059311
118	0x3f76f1cc33739b13	0.005601689968193896
119	0x3f92d3e2fa21c1b6	0.018386408345067294
120	0xbf99f151acfabac9	-0.02533462160379932
121	0xbf90579a002a80cf	-0.015959173450597327
122	0xbfa9d4b855b43f48	-0.050451050245213624
123	0x3fa78c3bd011a3bb	0.04599177279380436
124	0xbfb2d933f341e51d	-0.07362675370122358
125	0xbf8179cc42f2d6d4	-0.008533092301472513
126	0x3fbc4be52e18f026	0.11053306937623172
127	0xbfa82a41baf10691	-0.047197393484123336
128	0xbfb35772322708ea	-0.07555307125497604
129	0x3fb992890f3cfc49	0.09989220258738486
130	0x3fa3d6d999f914b7	0.03874855045845876
131	0x3fb6cbe8f033d2d1	0.08904891838376307
132	0x3fb57972cc7c14a6	0.0838844060163689
133	0x3fbf42b9470b5e8b	0.12211187347872447
134	0xbf9b7c66843646cf	-0.026841737575131582
135	0xbfa88829eb984a58	-0.04791384697832218
136	0xbfb1ceadfcb7a7f1	-0.06955993099077752
137	0x3fa8540063b1fed4	0.04751588074668481
138	0xbf9ebc1c9aa92dd5	-0.030014464320897567
139	0xbfb4ca489f616514	-0.08121160403370126
140	0xbfa31c5d008794dd	-0.03732576972451238
141	0x3faf9ef2cd198c6b	0.06175955537471441
142	0x3fa5aa14ffb6834f	0.04231324788566459
143	0xbf8aea0d265a4a7b	-0.013141730053836334
144	0x3fb2762543659ff5	0.07211525817331206
145	0xbfb63b48318d1532	-0.08684207162612692
146	0x3fb03774af339bce	0.06334618832953184
147	0x3fad0d887ddeeb17	0.05674387489803772
148	0xbfa03dc9622326a5	-0.03172139475789252
149	0xbfbbe817ceae1a78	-0.10901020809078854
150	0xbfab565df61828ea	-0.05339330319482534
151	0x3f9806a0ae1d9ba5	0.02346278250424984
152	0x3f95f9857cfc9b81	0.02145966124876564
153	0xbfb5ed34aa8c9f13	-0.08565072215844464
154	0xbfabdcbc8107ed28	-0.05441845965466491
155	0xbfbafe68a780a1e5	-0.10544447030463962
156	0x3f6985227232cf04	0.0031152413153793263
157	0x3fb60462a4308455	0.08600441463978943
158	0xbf8a522c9c7bab10	-0.012852047467693889
159	0xbfb3189d423bae26	-0.0745943342878311
160	0xbfa0fc85f57e2677	-0.033176599709872905
161	0xbfbab2b11bef8333	-0.10428912097951297
162	0xbfaac4ee5ec2e383	-0.05228371531251865
163	0x3fae3126a88d22b3	0.058968742442237064
164	0xbfbff9561b52df2c	-0.124898320837812
165	0x3fb94fe94c85e76e	0.09887560003508408
166	0x3fbc184804441c8a	0.10974550346519343
167	0xbfaaca02e37a3ad2	-0.05232247378181899
168	0x3f907b1ddcf2d21d	0.016094652758242945
169	0xbfa3148b72f278b6	-0.03726611879504686
170	0x3fbdfdbaa050716d	0.11715284742280625
171	0xbfa4f5bb1faeee1a	-0.04093727838286672
172	0xbfaff2d93e16ac26	-0.06239966280858082
173	0xbf9f8e6b1bd7fc9f	-0.03081672055668305
174	0xbfa06cdc892bb7b8	-0.03208054708907987
175	0x3fbc1d9edb14e91e	0.10982697342561606
176	0x3fb180ea343d3a26	0.06837333464975667
177	0x3f5e35f14ba7fba6	0.0018439155961684577
178	0x3fbf916afbc4222f	0.12331265112528265
179	0x3fb11f61a9c0a6ac	0.06688509363507461
180	0x3fb8d1cc416ae988	0.09695126149282463
181	0xbfaf038b50feba36	-0.06057391513546799
182	0xbf9b1e5e671bf426	-0.026483035128865982
183	0xbfb527e38c7983da	-0.08263990573460891
184	0x3fbebe814e5ceb85	0.12009437716635148
185	0x3fbf213cabd2beab	0.12160090632346036
186	0x3fa2b64e65ef88d2	0.0365471362527089
187	0xbfa14459f83b640b	-0.033724605132825124
188	0xbfa45198f942f812	-0.0396850399279033
189	0xbfaf1941fc574d0a	-0.06073957639059742
190	0x3fb5e2e316449dca	0.0854932717671694
191	0xbfacaa12f5b97971	-0.05598506211821331
192	0x3fa4abaf4b0f102d	0.04037235060926068
193	0xbfb563b472267bbc	-0.08355262553094084
194	0xbf7e08d1cbbc6866	-0.007332629694952164
195	0x3fb0e7b7208acd9b	0.06603569550025272
196	0xbfac538ae8ed900a	-0.0553248795829689
197	0x3f9cc03772665298	0.02807699809780448
198	0xbfb1e52be94d1668	-0.06990313001468851
199	0xbf7914bbe05df0e9	-0.006123289005582879
200	0x3fa89595ad8c5220	0.048016240534853205
201	0x3f9b6d84196a65b1	0.026784957934614165
202	0xbf907883e000c728	-0.016084728762684325
203	0x3fb93ffadcc69e1f	0.09863250627551466
204	0xbf9fa6bddbf6dcd5	-0.03090950636916719
205	0xbf505d5e349d92ed	-0.0009988231635926173
206	0x3fbdb167d0e19173	0.11598824357640129
207	0xbfc012ccbf309664	-0.12557372413100432
208	0x3fb935af8dd5c484	0.09847542965668948
209	0x3fad52c803bc44aa	0.05727219625090048
210	0xbfaea8db9c7236c3	-0.059882033202581585
211	0xbfb22ff1f3efc222	-0.07104408460123371
212	0x3fa6ae331d91b14d	0.04429778800917692
213	0xbfb868675870509e	-0.09534307393215832
214	0xbfbd5ae0ab6086c1	-0.11466793235788499
215	0xbfa8bbdf91bbabc9	-0.04830835966080078
216	0xbfab07889b151605	-0.05279185193152717
217	0x3f926752de304cad	0.01797227364666003
218	0x3fafe6b9d3d8e4b3	0.06230717383409381
219	0x3fb815f70ebe0c5e	0.09408516035004896
220	0x3fb23a81303fa2c0	0.07120520999854829
221	0xbfbd63f54fb1f1b7	-0.11480649181061763
222	0x3fba9485bf11e5c3	0.10382877268593575
223	0x3f9388750c56f238	0.01907523048224588
224	0xbfb108c135bacfec	-0.06653983651887047
225	0x3fb144988ba8fe94	0.06745294007941488
226	0x3fb9b51da3dfea3a	0.10041985751005536
227	0xbfbb54bd83e53492	-0.10676178426838792
228	0xbfa1c9b778cfc32b	-0.03474210119009621
229	0x3fbc02eec8aef335	0.1094197502088264
230	0xbf90fe29ff3ca487	-0.01659455890981978
231	0xbf98557aaa0dd40a	-0.023763577107690316
232	0xbfb3cfd937d4f783	-0.07739026654323138
233	0x3f8d2cfced933a76	0.01424596405049992
234	0x3fb8c1c498453c1e	0.09670666425266503
235	0xbf2ff359da3d4ad0	-0.00024376365501640193
236	0xbfb684911a074a48	-0.08796030888996953
237	0xbfb15456dfc67147	-0.06769316638241661
238	0xbfae5dce6d882543	-0.059309435721000024
239	0xbfaab8a70001e79a	-0.0521900355824549
240	0x3fa419008c41c0a6	0.039253251191327096
241	0x3faff16a4420a7bb	0.062388726059296094
242	0xbf99d008c4f5398e	-0.02520765020499876
243	0x3fb5aa6125db7530	0.0846310346054977
244	0x3fada9b4da6b0585	0.057935382521018965
245	0x3fa23360d238c8af	0.03554823461708289
246	0x3faf4a920572004f	0.06111580196829946
247	0x3fa03efe38e135eb	0.03173059887249593
248	0xbfa32ee29415380a	-0.03746707971241399
249	0x3fbb2ae21ef29bba	0.10612309699591452
250	0x3fb77cc09379528c	0.09174731827199362
251	0xbfaed0e63dbca940	-0.06018752578377695
252	0x3f8f1356e656c914	0.015173605827702143
253	0xbfb502cb2f7cea03	-0.08207387837766338
254	0xbfb86a9fb603879c	-0.0953769511575317
255	0x3fada39d1b86bcbc	0.05788889847769371

equations.x.layers.4.bias f8 [64]
0	0xbfac7976453cae3c	-0.05561418147257455
1	0x3fa0b9a93ef97432	0.03266648191195322
2	0x3f49f6c8d053d62e	0.0007923584495574448
3	0xbf63613e89a01646	-0.002365705627201095
4	0xbf7448521167eef4	-0.004951782777876213
5	0xbfb1db5d0b345438	-0.06975347064538162
6	0xbfb390f0097aaa15	-0.07643032294678449
7	0xbfbac7039530171a	-0.10459921257287555
8	0xbfb16268aaa3d44f	-0.06790784994139297
9	0x3fae92aa1ff72c6e	0.059712711717644903
10	0xbfaec9ca0d3bd5ab	-0.06013327991051239
11	0x3f77a6215953c3b4	0.005773668545985201
12	0xbfb2846d51b61084	-0.07233317608739936
13	0xbf9cd9e34424fbec	-0.028174925836761774
14	0x3fb93acca936037d	0.09855345851066306
15	0x3fb0a03107fb7960	0.06494432873612288
16	0xbfa0cc58dea814dc	-0.03280904500938117
17	0xbf850cfa7a30ce0d	-0.01027866063495877
18	0x3fbb0ebb5aec36a7	0.10569354028504084
19	0x3fb7eac74afa9b0a	0.09342618542232742
20	0xbfb432754f866776	-0.07889493171242443
21	0x3fb9c354abfc182a	0.10063676070066721
22	0x3f99b843ec9a285b	0.025116978946734352
23	0xbf9ec15266309fa3	-0.030034339415720656
24	0x3fbe047ccef1767b	0.11725597431492389
25	0xbf741b7a35859986	-0.004909016970805152
26	0x3fb7e627129c47cc	0.09335560039860907
27	0xbfb2612741433251	-0.07179494231531548
28	0xbfa92f61b425a0e2	-0.04918961834010972
29	0x3fab4a8142d3bf11	0.053302802474602846
30	0x3fab20156907df30	0.052979153700958626
31	0x3f91dc6d9a2f5d41	0.0174424290997568
32	0x3fbc8e514a65999a	0.1115465933449741
33	0xbfaaf1cd6ba50a6a	-0.052626056089611975
34	0x3f57a865468c4385	0.001443957235270883
35	0xbfb0556f8ba5cd93	-0.06380364570013901
36	0x3f705fd28555dc40	0.003997633311306592
37	0x3f9e282c41005e89	0.029450122325299453
38	0xbfb2f57070a6ab5f	-0.07405760526914439
39	0x3fb76b3521dd6cae	0.09147960736065627
40	0x3fa2006f9824f088	0.035159575769712126
41	0x3fbe16bc7e0014d9	0.11753442836932794
42	0x3fb336d9dc218da7	0.07505571007054944
43	0xbfba5d3bddc16688	-0.10298513568832324
44	0xbfa26e07ce47e35b	-0.03599571602894144
45	0x3fa71491aa22203e	0.04507880403349461
46	0xbfb8612ec6b7a430	-0.09523289062021045
47	0xbf8a04428e70b10f	-0.012703437778406127
48	0x3f9ec0c7b6d94f9e	0.030032272849282664
49	0xbfb1a56787242379	-0.06893012093872909
50	0x3fa39c8710b64662	0.03830358580593153
51	0x3fb999ae0d76757b	0.10000121906928953
52	0x3fa092742335dce8	0.032367352769989755
53	0xbfbdb1853b454cac	-0.11598999688185313
54	0xbfbb7db3407efb56	-0.10738678288087775
55	0x3f89cdfb211157cb	0.01259990877785446
56	0x3fb058997f88f273	0.06385192264219501
57	0x3fa1a318c8cea2ea	0.03444745494136277
58	0xbf748c6d54adc2a5	-0.005016734193177418
59	0x3fa63ccd5a64a0b6	0.04343263367110366
60	0x3fa454e65a4dc614	0.03971023418752054
61	0x3fb2ae220686e9c2	0.07296955737448399
62	0xbf96355e29ac9c7c	-0.021687957089991702
63	0x3fb584aa567481e3	0.08405556307526

equations.x.layers.6.weight f8 [64, 64]
0	0xbf9d2e4061e4a410	-0.02849674794666518
1	0x3fa414dcc1483238	0.03922166690253842
2	0xbfb0e6abfe84b201	-0.06601977313830078
3	0xbf94b7ae73823382	-0.020231939125142435
4	0xbf95ca7620fbdd72	-0.02128014160458975
5	0xbfb8fdce55b4cc06	-0.09762277214467482
6	0xbfb8fd712c41c490	-0.09761721926203593
7	0xbfab1bf6f5619498	-0.05294772858977942
8	0x3faebeae12d21732	0.0600485227560469
9	0xbf8cf2e5851958a5	-0.014135163425788308
10	0x3fb95de4a045fc65	0.0990889445583761
11	0x3f70660bda148b11	0.004003568931951988
12	0x3fbcc22866f6c57e	0.112337613237079
13	0x3f915cd271b42261	0.016955650510711687
14	0xbfbc12ac23c084c6	-0.10965991852619358
15	0xbfb1c82e77f67a7f	-0.06946077755717715
16	0xbf8c8f50e931eaa2	-0.01394522868780729
17	0xbf705ac0582c79a9	-0.003992797227310532
18	0xbfc04057839b1c99	-0.1269635574919661
19	0xbf73039ef6cc94c4	-0.004642125085216612
20	0x3fa7913a2e42bd30	0.04602987112718393
21	0x3f72beeb9e5f8bc5	0.004576607117971092
22	0xbfb40f173b3fffc2	-0.07835526653798211
23	0xbfb63fe63f237152	-0.0869125274798013
24	0xbf9f7bbcf3ed7479	-0.03074546088042893
25	0x3fb451658373d5ad	0.07936701258935015
26	0x3f8dd76a0beee3b9	0.014571026314898693
27	0x3fb085260e081787	0.06453168718880252
28	0x3fa966e0b8366b80	0.049613020407568875
29	0xbf9b5f3c07fbf962	-0.02673047827465192
30	0xbfabba93f13c6f53	-0.054157851407778644
31	0x3fb4cd8f0486bef4	0.08126157627588865
32	0xbfaf7888bef7b36d	-0.061466477691147194
33	0x3fb797b5b7146644	0.09215865821570285
34	0xbfb63c854346c4b5	-0.08686097042552172
35	0xbf8f15d2241f4ad7	-0.01517833874450984
36	0x3fbc46e9c2d2b4bd	0.11045704847738853
37	0x3f9c431373a31757	0.027599624569823202
38	0xbfb5e465f1706513	-0.08551633018977993
39	0x3fb6e635807fd270	0.08945021044912393
40	0x3f6d638a8f220992	0.0035875040276220427
41	0x3fb4aeef65f457f5	0.08079429854510052
42	0xbfba9af3c9d8c5dc	-0.10392688444041859
43	0x3f97b2e0a9bd84e6	0.02314330135357503
44	0xbfb2a8d48898c830	-0.07288864455111432
45	0x3fbb0be2ed743929	0.10565012261597374
46	0xbfb46b427c3fced5	-0.07976165326527547
47	0x3f626825dcbf4fa1	0.0022469272134717088
48	0x3fb51bfea6c71ae8	0.08245841571543233
49	0xbfac4d051a2e1199	-0.055275115438266194
50	0x3fb72ff2fe8c69c1	0.0905753966766616
51	0xbfa1c3a1aed791bb	-0.03469567546179372
52	0xbfb70e2d9193b4a1	-0.09006008915067067
53	0xbfb3439dcc19e8cb	-0.07525049431743296
54	0xbf97c85281e0ab59	-0.023225106408215044
55	0xbfbcf01eea73f6c0	-0.1130389521021824
56	0xbf93be26dd48548f	-0.019280059104933186
57	0x3fa08662061c9490	0.03227526020627025
58	0xbf9e3876f2a1c52e	-0.029512270506932108
59	0xbfb25fd6f129c672	-0.07177489650509886
60	0xbfb852849cc8dd31	-0.09500912502050053
61	0xbfb7b6522a029887	-0.09262574697149449
62	0xbfba30e1602a5935	-0.10230835531033196
63	0x3f9d0bd5378a1d25	0.028365451350080968
64	0x3f63cffc31e52c70	0.002418510978861081
65	0xbfb4e2d6299202ab	-0.08158625140095903
66	0x3fa16ad9ad94ec28	0.03401832813184341
67	0x3fbe2a324980583a	0.11783136648622952
68	0xbf83a87451d77668	-0.009598644969567263
69	0xbf99cc53c26fb190	-0.02519350885624899
70	0x3f92de993daaf308	0.018427271260168104
71	0x3fb15135990fd689	0.06764540659772868
72	0x3fb5fd5b2dfb3f98	0.08589715836137513
73	0x3faf540cc7443d98	0.06118812496617493
74	0x3fb86cea42e1533c	0.09541191227738194
75	0xbfa83b71612cb9e8	-0.047328513252398896
76	0x3fad9b135b6a0c57	0.05782375803848854
77	0xbfbd0de1c5905478	-0.11349307130179109
78	0x3fa00bc147ba8e15	0.03133968353838782
79	0xbfb797e82674123c	-0.09216166437915602
80	0x3fb4fb11fe308921	0.0819560285167751
81	0x3fb0eb0f7679700a	0.06608673708382198
82	0xbfbd91da9d0a6e67	-0.11550680479052176
83	0xbf64e0ce73ef0af9	-0.002548602321867374
84	0xbf97e74c6f027c1d	-0.02334327151822545
85	0xbfb38f77a51cea9a	-0.0764078882320213
86	0x3fb147ea078d65a2	0.06750357326872927
87	0xbfbd9d50479087a2	-0.11568166491681933
88	0x3f9894f76f35f906	0.024005762255449724
89	0x3fa3d45230dfc7e3	0.03872925612075997
90	0xbfb012afa3afa973	-0.06278512712711919
91	0xbfa6eb27375c4153	-0.044762826450212366
92	0xbf86fa0a7086f33e	-0.011219102438980163
93	0x3fb4ef4af417e2a2	0.08177631816205147
94	0xbf963edfd892cd3c	-0.021724221795648577
95	0xbfa31f8c5ca518d5	-0.03735006934089006
96	0x3fa16c7cbd21c0ab	0.03403081711519581
97	0xbfbed196435c8725	-0.12038554329458558
98	0xbfb5488a61ea7191	-0.08313813105127667
99	0x3fb9b47358208f25	0.1004097070841082
100	0x3fa598d859cead07	0.0421817407253347
101	0x3fb0a45a25be076d	0.06500781461184398
102	0x3fbdcf2fb4eca127	0.11644266287897108
103	0x3fb026836b7af25a	0.0630876672175388
104	0x3fb6d14e8cc0928f	0.08913126884778876
105	0xbf74c9ed176f65e3	-0.005075384272424685
106	0x3fbba616c749676d	0.1080030666866187
107	0xbf8851fd502fd4da	-0.011875132569893077
108	0xbfb30895818c863b	-0.0743497315675307
109	0x3fa4acdbdec1c138	0.040381308500288815
110	0xbfba8b3baf1c7543	-0.10368702912497434
111	0xbfb2a6fe7877d19b	-0.07286062661279973
112	0xbfa8d11977414a8a	-0.048470302398205226
113	0xbfb3f673a3c4d4c5	-0.07797930477393596
114	0xbfa6e6d638aae478	-0.04472989503614938
115	0x3fbe09434a3bfa4a	0.11732883989677947
116	0x3fba8c020acc0fe2	0.10369885219193933
117	0xbfbd7bca1d7f0183	-0.11517012806053199
118	0x3fa552e8e294baa5	0.04164817586785333
119	0xbfb23c8e90627171	-0.0712365248204543
120	0xbf812e5953ae977a	-0.008389184824249208
121	0xbfbe09b09f5e6d72	-0.11733535662499664
122	0x3fae97ab339846a2	0.059750890777775525
123	0x3fa337e0c716ccef	0.037535690596451114
124	0xbf9ccc2a4cc60bbd	-0.028122578559770284
125	0xbf7c7dbb09de2243	-0.006955843562430677
126	0xbf8771d1945c744c	-0.011447560634730312
127	0x3f65d6b256cdf539	0.0026658518967780623
128	0xbfb204b9a9034b1e	-0.07038460136690758
129	0xbfabd80154957188	-0.05438236386791845
130	0xbfa04ebdade77ca5	-0.0318507456574875
131	0x3fb6578f1b4d4b33	0.08727354446936601
132	0xbfb3d737315a5be2	-0.07750267939478264
133	0x3fa2d44bd594e881	0.036775941678983244
134	0x3fbd76e79aa9b069	0.11509559179256858
135	0xbfbf0cfaa62c715f	-0.12129179532025124
136	0x3faf1c1811ae8988	0.06076121536104312
137	0x3f9af725c7bf873d	0.026333418194446557
138	0xbf7a655dfe1ddbd3	-0.006444327505838526
139	0xbfba6caa3c1a1eb6	-0.1032205960019564
140	0x3fa650bbf6941882	0.04358470330230181
141	0xbf87e86ef0e1702b	-0.011673800207226822
142	0x3f92feaf741d3f96	0.01854967256741665
143	0x3fae1852e217efac	0.058779325579933456
144	0xbfa844b1fcb4c423	-0.047399103258051654
145	0xbfbde10ca8ce2d41	-0.11671523209786462
146	0xbfbad99bb006cbda	-0.10488293693087716
147	0xbfb5f1fcf026dec0	-0.08572369444925254
148	0x3f9238903afb279d	0.017793897247237223
149	0xbf91f73984dc79ed	-0.017544649824339165
150	0x3f82f807689b03fe	0.009262140159423279
151	0xbfb17eb67b65a2b5	-0.0683397341978303
152	0xbf86175c1e4952c7	-0.010786742853420418
153	0x3fbcc83fc857a45e	0.11243055955095957
154	0xbfbe5ef96f0f67b6	-0.1186366935866364
155	0xbfa5cf05f0c0052a	-0.04259508670657859
156	0x3fb5d7320f82c336	0.08531487349206376
157	0xbf9917f996a86f1d	-0.024505519695693246
158	0xbfa9572ab49beaa8	-0.049493155047419635
159	0x3fb437b29b955881	0.07897487924978643
160	0xbfa987a7d07b5e4e	-0.04986309452004588
161	0xbfb1327f739251a8	-0.06717678615161182
162	0x3fa1cd9921724a16	0.03477171452790999
163	0xbfaede982b158037	-0.06029201055457672
164	0x3fa1e41f1c211d19	0.03494355409980638
165	0x3fb96e1056a38bce	0.09933569064337108
166	0x3fbeb46ebba2c101	0.11994068222952949
167	0x3f6e80974a371844	0.0037234263306542854
168	0xbfb4e4f1fd2905b8	-0.08161842756910331
169	0x3f934dfd8e678618	0.018852197472261606
170	0x3fbaf2ca51f8afba	0.10526718617683076
171	0xbfac692d18ea27a1	-0.055489930430737695
172	0xbf92f0a376b078b2	-0.01849608814165355
173	0x3fb60effd5202d01	0.08616637185348354
174	0x3fbe5250ab02a531	0.11844352889115296
175	0xbf87f3ceed795502	-0.01169549619877808
176	0x3f95f3547878e94e	0.021436042645498525
177	0x3f9cd465dd594002	0.028153983721779248
178	0x3fa64e6b64315117	0.04356704328589183
179	0xbfa8e1b001906e59	-0.04859685916036644
180	0xbfb1722a82e5ebfe	-0.06814828582530194
181	0xbfb375b27d5f1e7d	-0.07601466713742329
182	0x3f9bd5b298973cd2	0.027182379306222533
183	0xbfb20cd58ac0b999	-0.07050833356399834
184	0xbfa59181a5dd8f16	-0.0421257510159007
185	0x3fbad9dd2d37e4d2	0.10488684038127197
186	0x3faa13b8dd518452	0.05093171788826879
187	0x3faa5969778668b1	0.05146340927167737
188	0x3fb33d474f4616df	0.07515378651995828
189	0xbfa27000caf7a0b3	-0.036010765816003064
190	0xbf9849c69a85e8d1	-0.02371893232473427
191	0xbfb433755e8dbcfb	-0.07891019400061687
192	0x3fae9afd4b39bd8b	0.05977622550278302
193	0x3fa4903e83312b7e	0.040162995829255074
194	0x3f71d65564eb5823	0.004354795046955603
195	0x3fa2dea106d0cf00	0.036854774553289005
196	0x3fb0d55ab778e322	0.06575552920629638
197	0xbfbc8cbc6c139bf6	-0.11152246130551177
198	0x3fbd6a975e51554a	0.11490770390203867
199	0xbfafdbf46b4d78aa	-0.06222499666067567
200	0xbfb50d3fb6fd61b4	-0.08223341195605977
201	0x3fb8a60829947ea9	0.0962834455026448
202	0x3fbcb1b695ec1624	0.11208668861589693
203	0x3fa399b18c2ed48a	0.03828196369378485
204	0x3fa197b8b2d1290e	0.034360668018580495
205	0x3fb959c3aa478dfd	0.09902594477858169
206	0x3f3a193da3ee78e2	0.0003982329835085075
207	0xbf96609f7ba8a800	-0.021852962420020106
208	0xbf7c1a6232c04331	-0.006861098849200429
209	0x3f9e9cef53eb9f51	0.029895534035773
210	0xbf916f4c850c9ed1	-0.01702613412922355
211	0x3faadae06dd62cc2	0.05245114651469286
212	0x3fb45abf594c2d6a	0.07950969629398733
213	0xbfb7adccc7ccf74e	-0.09249572637506029
214	0x3fa3c04872df5a25	0.03857637789012739
215	0xbf878deb580abec0	-0.011501158356025498
216	0x3fbcd478a63ed1fe	0.11261705454564461
217	0xbfa0caaf4646c696	-0.03279636128298795
218	0x3fb59e8c0473be23	0.08445048435873352
219	0x3f9219368df895fb	0.017674305358147162
220	0xbf9647519ef6ce5b	-0.021756434752843706
221	0x3f794f5ea28526e4	0.006179208438263226
222	0x3f82145ba651e58c	0.008827892316036999
223	0x3fbf75aa70596b9f	0.12288918726828378
224	0x3fb6cbdcea8c03fa	0.08904820181125209
225	0x3fbf0e3511652491	0.12131053614315791
226	0xbfb66ffde3c57686	-0.08764635859321332
227	0x3f9364a2ab8ea344	0.01893858120061799
228	0x3f5dd5b3973ea7b0	0.0018209699455646704
229	0x3f85c65f78a91558	0.010632272596135792
230	0x3f9bbce428a9aabf	0.027087750417573938
231	0x3fb189769ed799b5	0.06850377443297513
232	0xbfafad6d1952a868	-0.06187001165501799
233	0xbfa69d81bf0a3f5d	-0.04417043168098076
234	0x3fb6cd1baf5e9154	0.08906720191459289
235	0x3f9641a5265e6202	0.0217347912472139
236	0x3f9ab753a005f54f	0.026089960710568957
237	0xbf6c7635a2ae6057	-0.003474335438522085
238	0xbf8ff19edc28b049	-0.015597573369710587
239	0xbfb62008125e915a	-0.08642626236411868
240	0x3fb28f0fe7e6e368	0.0724954548994795
241	0x3fa897487856c9af	0.04802919835073582
242	0x3fbda0856c6c44d5	0.11573060891193461
243	0x3fb095d61e192369	0.06478632197207691
244	0xbfb80193fdb8459a	-0.09377407974559163
245	0xbfbd8e2b5483559f	-0.1154505807238224
246	0x3fbd8d496dede225	0.11543711599177493
247	0x3fb207649ba5b92a	0.07042530822738927
248	0x3fbd418340415690	0.11428089445811396
249	0xbfb31240a4673f2b	-0.07449726117851856
250	0xbf98299deed7efbc	-0.023596255972719624
251	0x3fb3da45734b723d	0.07754930558025648
252	0xbfba9578792bd8f9	-0.10384324034007254
253	0xbfb9ef2d20cdfe51	-0.10130579043288292
254	0x3fbe25046d840a13	0.11775233911252085
255	0xbfc0057cb1756868	-0.12516745247814076

equations.x.layers.6.bias f8 [64]
0	0xbfb01ee6773e608c	-0.06297150050375161
1	0x3fae0f0b642e8b0f	0.05870853040621259
2	0x3f94f57a7020c2fb	0.020467675298450932
3	0xbf6705016f3e8469	-0.0028100040453443065
4	0xbfaa9a2924180a39	-0.05195740285491408
5	0x3fa51ac807a96735	0.04121995061423293
6	0xbf954ad052d3ebd5	-0.02079320436039807
7	0xbf878b620b94ab19	-0.011496320703903206
8	0x3fb6865f71f1d038	0.08798786670541936
9	0x3fa611bd8cc1f0e5	0.043104098732301734
10	0xbfb4174c32a63577	-0.07848049389413868
11	0x3fb02fa9ba171f19	0.06322727959843312
12	0xbfbe591678f5fb7d	-0.11854687169214446
13	0x3fb8234a460b17ef	0.0942884846691354
14	0x3fad4f5bb0d4e65a	0.0572460797652183
15	0x3f9ef6b48c015b81	0.030237980885739816
16	0x3f98bd561dd362bd	0.024159761019151505
17	0x3fac6ab36000dee6	0.05550156161228674
18	0x3fb013e6139e14a8	0.06280363062804162
19	0xbfb5fec9313e0d70	-0.0859189744206128
20	0x3fbc733d32a0e4d7	0.11113340841338314
21	0xbfa40cb7d2ea9635	-0.03915953111326723
22	0x3f9b23d4fe08bd2f	0.02650387573720286
23	0x3fa60f2b41338cba	0.043084480008269435
24	0xbfbdb6d155aa3d21	-0.11607082692556904
25	0xbfb2df19e7249ffb	-0.07371675389424574
26	0xbfb70ef9f1eb23d3	-0.09007227092946772
27	0xbfb8b4f926e0e8fb	-0.09651143263991806
28	0xbf845bc1b6598f32	-0.009940636994720007
29	0xbfb68e94cdfd1f79	-0.08811311749479768
30	0xbfb612c0095ca336	-0.08622360447465102
31	0x3fb41c12cab43cb6	0.07855336617307071
32	0x3fb5eb7ae1d553c6	0.08562438977726491
33	0x3fa83dcf4f71f3ec	0.04734657139577067
34	0xbf935b5ffc20279a	-0.01890325523712697
35	0xbfb077f5d1ec16ae	-0.06433044791273332
36	0x3fba607c5ae8069d	0.10303475589173634
37	0xbfa86a4f28e815ef	-0.04768607496593435
38	0xbfb52cd7e5b23295	-0.08271550519766387
39	0xbf6df3fe4227fcee	-0.003656384085160994
40	0xbfaaf3c6e13491ed	-0.05264111994828
41	0x3f718993928de05f	0.004281593756665896
42	0x3fae4b9a51476312	0.05917055360959557
43	0xbf96e6727dd3c63a	-0.02236346142757937
44	0x3fb90328593938ad	0.09770443132694835
45	0x3fae15a99d3ba859	0.05875902218197444
46	0x3fb95204741c2ece	0.0989077361556909
47	0xbfaa19e856394ece	-0.05097890903985346
48	0x3fb12a7c7c959716	0.06705453912362844
49	0x3f9cafc965a285b6	0.028014323070811385
50	0x3f854e940b3f0034	0.010403782456592216
51	0xbfa3ec4787324281	-0.038912043813188475
52	0x3fa34f9e30b876e8	0.037716811606726186
53	0x3f5a8e2278bbf52b	0.001620801604928455
54	0x3f87d015ea1d7ae9	0.011627360541465364
55	0x3fa054988bf83aea	0.03189541538823966
56	0xbf7aab82f1e85263	-0.0065112223660618055
57	0x3f8aa57fe5f239e9	0.013010977940464978
58	0xbf9bef7f3dfe3f8c	-0.027280796202432664
59	0x3f8b5e05237dd418	0.013362922807326469
60	0xbf7bc6403d379f60	-0.006780863699056144
61	0x3fbd80ea43ffaf60	0.11524833831907477
62	0xbfb3f506f4b5330a	-0.07795756792365807
63	0xbf807b7c18124710	-0.008048028454399808
