fisher-kolmogorov-3T/2025-06-13_17-35-49/model.pt (torch, 7784 bytes, 8 tensors)

equations.x.layers.0.weight f8 [16, 1]
00000000: b63c e97c 45bf f13f 45c7 6ca0 f0d0 f03f
00000010: 141f d0d4 5b13 bfbf c10f fc7b ef8d e5bf
00000020: d746 2b53 74d4 f0bf 7faa 8205 7ec8 edbf
00000030: 1e96 4c27 2b4b ecbf 22ef 05c4 57d0 f0bf
00000040: cefc c234 a514 e9bf e0d2 89f0 afd2 f33f
00000050: ffb0 4723 410c f1bf 2505 77e4 a56f f5bf
00000060: ef65 f3ed 0597 f5bf 0bc4 7b33 4ef6 e13f
00000070: 5030 ad2d 75bc e53f 9f36 390f 4121 e73f
1.1091971282328763 1.0510107294653193 -0.12138914056424382 -0.673576109082653 -1.051868748549557 -0.9307241542458796 -0.8841758506357029 -1.0508649499087785
-0.7837701826573722 1.238937320330642 -1.065491807758974 -1.3397578167353654 -1.3493708891822924 0.5613165860687571 0.6792550937766553 0.7228093430837425

equations.x.layers.0.bias f8 [16]
00000000: 9da3 fd8a f865 ee3f 6603 f05d 3fe4 ebbf
00000010: 4501 67a6 c65b f7bf cdfc 7bdd aca6 d63f
00000020: af72 7644 8dad e9bf 5f1f 1bfb 633b eabf
00000030: 5227 a42b 5a7b e2bf 02ab 52dd 5679 ec3f
00000040: c85d 0c0d 497b cabf c47c abb0 1e3c f23f
00000050: 3f00 03fa 036e e4bf 37a4 ef40 f7f4 f23f
00000060: 5861 710d c747 f4bf 304b a373 e351 cbbf
00000070: 585a a78e ff80 d3bf 6e43 c86a eec0 e43f
0.9499476160682324 -0.8716122469632921 -1.4599062442867574 0.35392305020645837 -0.8024355256234993 -0.819749823037437 -0.5775576450698543 0.8898119280541723
-0.20688737046360317 1.1396777058760543 -0.6384296305695968 1.1848061119619737 -1.2675238156426385 -0.21343653818493058 -0.3047484295943028 0.6485511861411462

equations.x.layers.2.weight f8 [16, 16]
00000000: 7938 9733 9280 f4bf de99 d1d0 3f3e c2bf
00000010: fa82 043a 9e49 d43f d65d d961 1fa4 9e3f
00000020: 84c6 213e fdc2 f93f 9ebc 5b1b 899f ee3f
00000030: 2648 0a08 a865 f03f d9d7 33d2 4e23 b33f
00000040: 27c8 5b38 be4c e63f 2767 bc8a c75e f4bf
00000050: 7b1c f0ca 64fe f33f d790 7fab 7e5c d0bf
00000060: b507 4e20 1af6 f23f bae3 4117 5be9 d9bf
00000070: e4b0 b0bb a04f c7bf 8a25 39d5 c09e efbf
00000080: 40db 1d81 8b73 c5bf ae31 5557 e66f cdbf
00000090: 16cd 3e92 aaff d33f 4229 e2c2 eab7 da3f
000000a0: 7926 7565 15bb d93f b6ae 1811 74ce c03f
000000b0: 871e 5c01 3cd5 c03f ff91 b79a 1868 cc3f
000000c0: a1ef 00b6 c5d3 de3f b97b 7a67 efa8 d4bf
000000d0: 7506 1c05 60cb d93f ac6f 53cb 1cf9 c3bf
000000e0: f39c a128 4005 d83f bb83 2d5c 2cfe 8c3f
000000f0: db7f 4955 96a9 d0bf ea4d 6f04 12cf e1bf
00000100: 6ef5 c780 23da cebf 2e80 f134 fa76 e6bf
00000110: e859 e943 94f4 d7bf c2c2 ecca c883 ec3f
00000120: 527b fb2f 0500 c0bf 2f41 089d f532 b33f
00000130: 7fb5 37ac 6eb2 d43f d175 5c6e e5ce e33f
00000140: 2d9b caf5 911d bb3f 2ac8 8748 b25d b43f
00000150: af92 861d ae89 8f3f c568 946d d5e1 e13f
00000160: a8e6 c05c e493 d1bf ff62 0b1a 4500 f0bf
00000170: fa7e 30b7 96c1 dfbf 0305 a2d6 ef5d cdbf
00000180: 0f1b 81f1 3bd9 1cc0 608a 7657 9b48 e83f
00000190: 0651 0bff 2b9a f23f b91d 3c76 38b8 c4bf
000001a0: 9c4c d905 34bb 0740 ea39 5b74 fe55 2240
000001b0: 7981 3c82 9813 0140 df6d 14c1 a183 e9bf
000001c0: 50a0 9a08 3adc e03f 2034 f08e cac7 25c0
000001d0: 0038 a66c 9fe6 f73f c319 357e ba1b ecbf
000001e0: e21b 498b b4c5 2840 a073 d10f 2fa0 bfbf
000001f0: 9734 c7f4 0f74 c23f 10c5 4447 fdee 28c0
00000200: 535a d55f cbaf e3bf e291 057f 5bf8 2940
00000210: 2d28 f6e3 21ee f43f 9726 8d4f 74bc 0fc0
00000220: e466 135d 0d21 ea3f 7611 d0e1 969e e43f
00000230: 6043 9469 fdb7 e03f ba6d 1492 6d1d 30c0
00000240: 8b7f 8066 907c cf3f d3be 4380 70ae f3bf
00000250: adea cd10 0311 e93f ab1a f570 eee8 34c0
00000260: db19 f8d2 d2b1 e83f fdc8 68f9 7610 0540
00000270: a34a 9186 2b65 0540 e333 7615 bee5 e6bf
00000280: cd79 d44c e6d2 d03f 0c84 ffa7 48bc d33f
00000290: 25ed 4835 2957 cfbf 55b3 46e5 8bee e4bf
000002a0: 70b9 ba2c 96b1 d1bf 540b e88a ea82 b9bf
000002b0: 286d 61bf 8070 b9bf 90d6 62a2 e511 ccbf
000002c0: f363 1fe2 bc21 dbbf a6a9 ecb9 0c84 ac3f
000002d0: ba24 401e 37e8 92bf 35d7 d2fd 2f47 c9bf
000002e0: c35d 6441 8d07 c4bf fb81 018e 1ac9 e23f
000002f0: bf5c 9f98 e336 db3f ecf0 aa6f b828 b03f
00000300: 8cd4 3b83 8e71 cb3f 05a2 7ad2 0aec babf
00000310: 23b6 9cab 4dc6 d1bf 1b4e c254 6667 d3bf
00000320: c5b8 f6cd b551 d3bf 8e9e 7262 f78a d4bf
00000330: 1fd5 5340 7c8e cabf 6c59 c73e 3848 b33f
00000340: a13a fe7c f3a1 a13f 0e09 b1c6 2181 c23f
00000350: 6c99 158d d89f b33f 67c0 1015 3e13 d6bf
00000360: 3db0 c018 176f b7bf 41c9 98ee 7856 e23f
00000370: c100 5e86 919e dc3f c505 1985 c177 d93f
00000380: 348d 4da1 94e2 05c0 7704 797a 0c71 a6bf
00000390: 3c7e fbc1 cf3f ed3f cfb5 b389 fa1f d43f
000003a0: b9c9 4856 6fa2 f53f 5fc5 7bd3 9e59 0840
000003b0: 5951 14e1 7fb8 ee3f 3940 77c5 76bd bcbf
000003c0: 20b3 83e0 d215 dd3f f621 ce43 78d0 09c0
000003d0: cea8 9b8a 83b8 ec3f d5f6 bcbc 9aaa d4bf
000003e0: 2240 d964 018a 0540 43c1 949f 645c e3bf
000003f0: 4001 2c2c a3d1 d7bf 930f f482 ca00 05c0
00000400: f34b 92e6 899f ac3f f080 ae2c aef1 e83f
00000410: 2d82 72dc 3faa bf3f 23a6 dcd7 258b ebbf
00000420: 6c38 164f 74f2 c83f a81c 8bf1 591f bcbf
00000430: f545 4278 713f bdbf 8dca 4acf e741 e1bf
00000440: 4d45 ba76 3d22 d3bf 0d3d 4112 ec7c d7bf
00000450: 8d58 d32b 97c7 afbf 87d2 e9af dced e0bf
00000460: 24d4 aa9b a68b c13f 522e 705c 3664 f43f
00000470: 462f c990 a8a2 ef3f be06 38c5 8628 a23f
00000480: c801 9627 2ac2 11c0 1ef6 1a3a 2104 d93f
00000490: 05e8 70e0 7901 f03f 0491 b5f6 2a4e b3bf
000004a0: e897 b49a 2faa 0240 1b82 f6f8 be77 1540
000004b0: 2ddd 7058 6694 f43f 6127 2dda b61f dfbf
000004c0: d7a4 c51a 1f1b e33f 4db2 4050 2749 1ac0
000004d0: 0f16 42be 77ee f03f 5013 b2f3 af47 d2bf
000004e0: 8fa5 b3cc 9bb3 1840 2e67 a9f6 7012 e1bf
000004f0: 7ddb 7d90 95a0 cebf b9cf 7c36 a14c 15c0
00000500: 196d 2be7 9d5c b3bf 6558 3e4b 9337 fe3f
00000510: 7284 2019 e7ba d13f a331 6126 9e5c f9bf
00000520: d4b6 132b 0979 d03f 6c69 3d56 2791 cb3f
00000530: 73de 5825 78c3 c63f ea13 856b 3dd8 00c0
00000540: 387e cb27 f2d6 dfbf 103d 5675 0c9d c3bf
00000550: 90cc 73ce c9fc b4bf 61a6 8424 e7c6 febf
00000560: 73ef f308 9942 cd3f 853e 810a f787 fb3f
00000570: f19c 5aa8 1055 f73f e338 f697 8b0c 883f
00000580: 9d29 3427 1cf4 cc3f b654 ce58 15b3 f5bf
00000590: edbc 737c b636 e2bf 08ee 958d fd09 fb3f
000005a0: b799 2d4b 2aee 9e3f abd7 618b 9aa5 90bf
000005b0: 131c 3d25 da4e 9ebf 8fe4 e369 1d0f f13f
000005c0: b8f1 1fdb 15b0 c93f 48af 569f 03fe c93f
000005d0: 856e a25e 2beb c53f f740 8aee 927f f23f
000005e0: 5c6c f5ab 7c25 93bf f31e 0f31 2b4a f8bf
000005f0: a816 d915 23f2 f6bf 52e9 a0d2 f266 91bf
00000600: 6693 d4ea 92c4 bb3f 193f 346d c1e9 07c0
00000610: 03da 565a 472a e1bf b510 4b57 f177 0040
00000620: 6ab4 0810 994e b73f 1927 f7af b687 a4bf
00000630: 0458 4964 ac37 6e3f 0b1f 7cfd f3ea 0640
00000640: 0f39 d045 57dc d53f 1793 6e5a 31db d33f
00000650: e2cf 3dd1 53e8 afbf 4692 763a df52 0640
00000660: f2bc b094 3987 d4bf 0999 684a ee04 fabf
00000670: c23b 8a88 39f5 febf 166d bf02 22a0 8e3f
00000680: d27b 1922 d0ff c2bf d8eb 83be b36c b9bf
00000690: d7b5 12df 3eec b2bf 7dde 426c a564 dc3f
000006a0: 1618 7f17 5987 b0bf 8003 811c 5d7a d33f
000006b0: bbcc 48dc 09f5 c43f 8b9b d6b6 ab02 e03f
000006c0: 5d45 5404 b393 b03f 8af5 58a4 7591 cdbf
000006d0: 42f6 61e5 6dbe c13f f623 590a eb28 dd3f
000006e0: 7924 d957 e633 cabf 9e39 cf58 62a9 debf
000006f0: 4bae bf54 0bc9 d5bf e3f1 f53c ee38 bbbf
00000700: c1e0 023d 9396 e73f 7409 ef55 9ef0 b53f
00000710: cd21 7de7 039d d5bf de42 5739 e014 b5bf
00000720: 91c3 96d4 d148 e8bf 0516 9129 78b0 dabf
00000730: fc6a f465 fc85 e4bf 87ab 65f1 44a5 aabf
00000740: 8af1 734b 113a e6bf 5dd8 163b 4f86 df3f
00000750: 9c8a ceb1 8b58 e5bf e701 d56f 1508 af3f
00000760: 790e a6af 61fe e7bf bae3 c59c f0fc dd3f
00000770: cf4b 4d51 b92f cc3f 9498 88a9 aaa3 e73f
00000780: 3ed4 4048 a78f d5bf 767d 49ed c57a 1340
00000790: 9ec5 509c d7ec e93f 2605 4eb0 f438 01c0
000007a0: 7db6 9826 9c32 c33f 1704 6607 d2d0 c83f
000007b0: d084 fd97 7293 d13f 92b4 c46a 0fbe 18c0
000007c0: 8f99 0d11 3e2f 8ebf ea5d 76a3 cb60 e3bf
000007d0: 2781 b9fa 15a4 763f 08ba e313 35a9 23c0
000007e0: 4b4f 21da 7671 cc3f 59fc bec0 add0 fc3f
000007f0: 3793 d6fb 2840 fb3f 48ba ecd2 9a9a c4bf
-1.2813894286405498 -0.14252469726780154 0.3169932905748706 0.02992295298312605 1.6101047923115468 0.9569745573370658 1.024818450362099 0.07475750572106622
0.6968680477859878 -1.2731395167706496 1.2496078421843595 -0.25564543483620866 1.1850835096270036 -0.40486790915707227 -0.18211754955826287 -0.9881290592685883
-0.16758865170023718 -0.22997740997597077 0.3124796322037623 0.41747540504060876 0.4020436754986814 0.13130045733247692 0.13150739733122327 0.2219267611936999
0.4816755559329469 -0.3228109846622221 0.4030380296609118 -0.15603980949424334 0.37532047241116046 0.01415667206100745 -0.26035078362292347 -0.556527146016774
-0.24103206432475183 -0.7020236047792474 -0.37430292732224624 0.8910869563461221 -0.12500061838997084 0.07499632915301356 0.32339064424635205 0.6190058856479316
0.10591995478408185 0.07955469389688177 0.015399322773029437 0.558817590735338 -0.2746516137882318 -1.0000659005510781 -0.4961907185515738 -0.22942922573205501
-7.21214272833346 0.7588631351721453 1.1626396143593083 -0.1618719651525973 2.96640781945605 9.167956958900465 2.1345682310786143 -0.7973183413591264
0.5268831413313908 -10.890217272588472 1.493804382716462 -0.8783848252285725 12.386143067049435 -0.12353796135125927 0.14416694118554993 -12.466776110787151
-0.6152092811342506 12.985073060445703 1.308137789225394 -3.9670187201453007 0.816534692562723 0.6443590555577845 0.5224597036450227 -16.11495316504236
0.2459888935563835 -1.2300877580964211 0.7833266571245382 -20.909888324584852 0.7717069740763763 2.6330394253828886 2.6743994248475516 -0.7155447405981444
0.26287229063919143 0.30836693197312637 -0.24484744169044706 -0.6541194418001434 -0.2764640271006078 -0.09965387240667428 -0.09937290832879297 -0.2192961733723462
-0.42393419344222066 0.05569495935044992 -0.018463956090305024 -0.1974849690793065 -0.1564804620072505 0.5870487950851947 0.42522516159574403 0.06312134481681014
0.21440297515770046 -0.10516421927116688 -0.2777284789943641 -0.30318601872679246 -0.3018621932377637 -0.3209818326381332 -0.20747330800046712 0.07532073528941446
0.03443871403498134 0.14456579400764052 0.07665780491297419 -0.3449244695393702 -0.09153885225595189 0.5730557117551954 0.44717825052067545 0.3979343223364505
-2.7356350518981802 -0.043831243467601526 0.914039496299615 0.3144518227335 1.3521569605332913 3.0437599680087 0.9600219150620816 -0.11226599045699083
0.4544570152782388 -3.2267918870240875 0.8975236613453264 -0.3229128687997734 2.6923854712295148 -0.6050284497087336 -0.37217025102292567 -2.625386260102411
0.05590468349068791 0.7795019982040952 0.12369155056013233 -0.8607358184864932 0.19489911901149826 -0.1098533835130292 -0.11424931703574955 -0.5392951058077685
-0.2989648494195379 -0.3669996431608105 -0.06206962976436712 -0.5290358959014875 0.1370743045896755 1.274465905272241 0.9886057689522907 0.03546544225174618
-4.439613932161997 0.39087706255290466 1.0003603713253153 -0.07541149638342765 2.3330986105311133 5.366939439817112 1.2862304167482066 -0.4863106852177364
0.5970607302562269 -6.571439031552086 1.0582196647604893 -0.2856254463043131 6.17539901586987 -0.5335011308299948 -0.23927564196830167 -5.324833728187451
-0.07563197034635429 1.8885682048035275 0.2770326371556343 -1.5851117610173808 0.25738743979205236 0.2153672381489956 0.1778402502402404 -2.105585899351799
-0.49749425779552636 -0.1532302449163372 -0.08198224344578109 -1.923560278557851 0.22859490334655738 1.7206945810648062 1.458267839081426 0.011742678236967346
0.22619964517828076 -1.3562215298637006 -0.5691788130478962 1.6899390726747487 0.0302054031739318 -0.016256727940763643 -0.02959767200743719 1.066190160401934
0.20068619918300867 0.20306439666944187 0.17123930092644826 1.1561459844561435 -0.01869768905212897 -1.518107597004868 -1.434115491241224 -0.01699427996229847
0.10846822961009436 -2.9891384631699904 -0.5364109768332245 2.0585657901557064 0.09104305879073285 -0.04009791276946668 0.0036886565233471575 2.8647231868270686
0.3415735418101499 0.31025346595042563 -0.0623193924829193 2.790464836829673 -0.3207534744314692 -1.626203814180885 -1.9348693212120769 0.014953866680960586
-0.14843179383293986 -0.09931491280796878 -0.07391732164497654 0.44364295551665817 -0.06456524680751871 0.30434348853673754 0.1637279821021361 0.5003260203419456
0.06475371223156885 -0.2310015728452693 0.13862394047093757 0.45562244425360576 -0.20470885552848353 -0.4790883891372689 -0.3403957679390472 -0.10633744228648072
0.7371307555795498 0.08570279691688204 -0.33770845037772973 -0.08234979057238997 -0.7588891174437881 -0.4170208364415376 -0.6413557044319016 -0.05204215475790535
-0.6945883248986757 0.49257260103639117 -0.6670587990559684 0.06060854902398543 -0.7498024397504671 0.46856322584022403 0.220206417749607 0.7387288390352915
-0.3368929105375321 4.869895656214217 0.8101614048993502 -2.1528104566392754 0.1499819935283319 0.19387269364600065 0.27462448923877236 -6.185605686431829
-0.014738545318050437 -0.6055658524155068 0.00552757821751041 -9.830483075665157 0.22221265459904269 1.8009469536916838 1.7031640851429992 -0.16096816348131626

equations.x.layers.2.bias f8 [16]
00000000: b090 f6a6 e956 c7bf 6439 6870 ed30 d2bf
00000010: 1bca faa2 6fc3 e13f aacb 0ab2 0e4d f5bf
00000020: a7e5 dc3c 1be7 f6bf fdfb db55 c8fa a1bf
00000030: a976 27e6 bb71 c73f 1c0f 76d3 a56e d9bf
00000040: 33cd 3144 4b8d e1bf b472 9ae4 7193 e5bf
00000050: dd0c 407c 8f10 e2bf 632f d72b b4d1 d73f
00000060: 263b 8bb2 75c0 e33f 665c 6d98 d5cc d13f
00000070: ccc5 5ee6 bd53 d53f 5419 540d bff7 eebf
-0.18233986523148848 -0.2842362973905408 0.5551069434353083 -1.331312842824199 -1.4314224603134365 -0.035116444092629685 0.1831583856391508 -0.3973784031916112
-0.5484978038715894 -0.6742486443432285 -0.5645215441476484 0.37217430383019784 0.6172436225113855 0.2781270969912327 0.3332361936291732 -0.967742467911004

equations.x.layers.4.weight f8 [16, 16]
00000000: 9f66 9297 1bd5 c63f 47c2 5dec e28c 9e3f
00000010: 98af d956 ec7d e43f 8fb4 a870 9386 d43f
00000020: 443e 6465 70f3 efbf df8a b506 2086 e4bf
00000030: c8fd 0ccc ee18 cdbf d1a0 022b 026f ca3f
00000040: 9468 066c 1748 e2bf 245a aa5e 2d95 d53f
00000050: 6042 78cb 3458 eabf 9f16 df56 b2cb e63f
00000060: 10ee 2cc8 6de3 dc3f 6901 dd49 42c6 d43f
00000070: a959 8d05 f6ab bc3f 5e1f b17a 1e00 fdbf
00000080: 9b6b e8b5 1b46 debf 6d61 2641 ab76 e9bf
00000090: 4d1f 0c46 5c3a c8bf 0f6a 37b1 da1a e5bf
000000a0: af11 cb50 cbcc cd3f b342 9f71 3fd6 b13f
000000b0: 2c19 f6cb ac1f f03f 60af 0ccf 9cde eabf
000000c0: 0ba1 c914 7c8f a4bf 0c59 c975 c615 f5bf
000000d0: ab93 a88f 6476 d93f 3bff afd4 d5eb b2bf
000000e0: 5501 195a 3b0e d8bf 6799 8709 8774 c33f
000000f0: 824a 5b26 810a eb3f 0a3f f415 a2cc bd3e
00000100: 992a 00a0 fd3f da3f 5990 a19f 3802 c63f
00000110: 9e44 703d 5aa8 de3f d9c4 a7d7 5e09 b7bf
00000120: 185d 9e2a 3c3b c1bf 683e ce2a cfe4 e5bf
00000130: ab08 edc5 3351 dabf b86c 7ae4 e195 bdbf
00000140: 391d 1714 f883 c9bf 4d02 99ff a544 d73f
00000150: ebea 911f 3ae9 d8bf 3134 83f1 b645 c43f
00000160: 5b56 7bb9 f29f e03f 88ca 7d20 f851 e43f
00000170: 91e2 fc96 5ab2 c0bf 9b5e 256b 05ac b5bf
00000180: 73d7 28bf cb26 96bf 0519 b2d9 e2b2 b63f
00000190: 866f b9e8 faf0 e53f e719 a56e 7b3f abbf
000001a0: 91f6 f44e c328 f1bf f3f8 9ee5 48f2 e8bf
000001b0: b63f 9ad8 89b3 dcbf c10c c964 ff33 973f
000001c0: 506e ce64 64b4 e3bf 7a31 3dee 431c d73f
000001d0: 2752 8ff6 0976 e9bf be45 5d62 2d22 e63f
000001e0: fb0b 3669 f767 d53f 9b8d cec9 05ec e63f
000001f0: ec01 3b11 43e2 cabf 90e0 30ac 2376 f3bf
00000200: 3ad0 c1e6 5c38 d93f d36d 930c bd48 be3f
00000210: 9715 94c3 3901 d93f 8332 efba 7cb7 ac3f
00000220: 40c9 d040 1119 eabf 69de 0c89 8b3e dfbf
00000230: 1654 e684 98ca dfbf 1577 2efb cf85 d03f
00000240: 040a 7a5f d597 dfbf ba68 feea 6865 983f
00000250: e348 012e a34d e4bf 2fe1 e378 250c de3f
00000260: 3229 5920 7169 e03f b822 c04e ce9e ec3f
00000270: 2d2f 95fe 6ab3 b9bf 6d17 3174 a613 f0bf
00000280: d151 17f1 1311 ebbf c748 02f6 91fe e8bf
00000290: 2156 3ca1 d686 90bf 199f b4c4 9470 fbbf
000002a0: e8ab e26f 4268 c73f b36b 484a 1b71 d43f
000002b0: 0b7b a8fb d4f7 d83f fa80 4b0e 3733 ebbf
000002c0: 4fb5 03e4 1dcb d53f 45b6 29eb 22fc f4bf
000002d0: 693e b7ca a31e d23f 18c4 f02d 17ca b7bf
000002e0: 7652 bcb9 814a d0bf 424f ab18 37ce cdbf
000002f0: 352d 5c87 740c e83f d035 098e e1ab bdbf
00000300: a77e a4ee 93fc d43f 2863 82b1 e2b2 ec3f
00000310: 1e9f 2df4 9383 ca3f d4e2 b339 f35d fc3f
00000320: 276c 4e6e a1d5 c8bf 38dd 9784 480d ddbf
00000330: 7ddd 8405 60ce f9bf be17 58d6 017a d9bf
00000340: dd86 2460 792a d5bf 70d6 47be 55cf fc3f
00000350: 2441 f1b0 f7c7 c2bf ac77 12bd 9109 a83f
00000360: 5e19 4989 98cf d13f 4df1 14f8 ee01 cc3f
00000370: d8d6 e049 3678 e4bf 2261 6bec 23f8 c3bf
00000380: a688 ba3f 2a70 dd3f 8751 484e 89d9 df3f
00000390: 8a0c eab3 43af b33f 0915 d73f 4048 d03f
000003a0: 788d 6120 d072 aa3f 738b b92f 8105 cebf
000003b0: c3d9 006e f933 f2bf 1b97 b4b5 4ed5 e63f
000003c0: bdaf 22ac 65ac be3f cf55 c9f7 9cf7 e53f
000003d0: ee65 93e2 d2d0 dabf 83c2 7729 40e8 c03f
000003e0: 26b5 3b54 65ad c43f b341 77aa 2713 913f
000003f0: 1cde 9152 721b dcbf e21d 4c91 175f d6bf
00000400: 92e4 1f39 9982 dabf 94b6 d15e c226 dabf
00000410: 6bb7 e6e9 18c3 d0bf 797f 2b4d 52bc f5bf
00000420: 92fd 5035 adf1 b03f a117 d8d3 c774 c63f
00000430: 9f5d 8af5 7650 e13f 4cbb 0e69 aef1 efbf
00000440: 61d4 5761 ab3c bd3f 0e85 c692 ae3f fabf
00000450: 3900 493f e080 c93f 8626 b5b6 fd74 cabf
00000460: 4408 4fa6 907d 933f 3144 d93b fafe d5bf
00000470: 2cc2 c456 bad6 eb3f 14e9 6408 89d7 ce3f
00000480: eeca e880 b60b d53f dc4e f443 457b 983f
00000490: 1634 6659 7922 dd3f e6b8 e71e 74a8 bf3f
000004a0: 4870 2d51 e7e1 be3f 3c2a 2910 e404 af3f
000004b0: 1001 b151 7eaa cdbf b5b1 3910 f107 dc3f
000004c0: a5a4 f677 196c d5bf d298 518f 7384 c23f
000004d0: 7594 dc9c 1fea cdbf 6365 7583 d9d6 dc3f
000004e0: 357f b971 16ee e13f 6f07 8006 80e8 a1bf
000004f0: e184 9cca 3186 ddbf e61d 67eb 65c4 cabf
00000500: 4085 8caa 3a03 e0bf 5f46 7c4f 8b65 e1bf
00000510: 423f 3f40 1297 b7bf 0a51 1c49 bc2d d7bf
00000520: 636d cc48 104c ca3f c3bc 679f 7d55 c83f
00000530: e53c bbd0 964d e13f 16d7 774d 8f4e bcbf
00000540: 72d6 676c 688c c23f aa4f 47d3 3996 dabf
00000550: c3c0 c156 bca8 afbf 1f10 e729 5374 ddbf
00000560: 6316 449f 2f86 bbbf 1f69 a727 3970 ddbf
00000570: 419e 3c89 3533 d63f 5455 5d81 c92b d13f
00000580: 77bf bdcf 508a dabf f967 f728 60ef d6bf
00000590: 0642 6857 0601 ddbf b185 df32 8775 c2bf
000005a0: 7308 820d be55 0540 6067 7ce3 d8c1 e83f
000005b0: b46e b6cf 6298 d53f 5315 e546 83e2 cebf
000005c0: dcd6 f62f ceea e73f 00e5 c34c 21f2 e2bf
000005d0: 1753 b893 e4ad d53f ab64 bf46 465c e6bf
000005e0: a390 1e00 e2af ed3f 7256 bfa1 3b15 e3bf
000005f0: 37e4 a915 b9c5 cb3f bc5f 4117 f467 f63f
00000600: 5ed1 c0ff e560 e1bf efc6 79dc 70e8 d9bf
00000610: 3421 5ca1 48c1 a1bf d2bf 4def 6304 7bbf
00000620: a020 d6f9 4a1a c1bf 4b66 f137 dc32 cb3f
00000630: 22fb 5839 5dba f43f eef5 bdb7 d7a1 f0bf
00000640: 5a50 be7a d739 a1bf 36b2 9494 f70e e3bf
00000650: c437 a618 b61f b63f 0074 14f6 42db b43f
00000660: dfc0 aa02 7538 bcbf f4ca a4e2 21b4 b63f
00000670: ddea a096 542b e53f daf5 9b02 a80c d63f
00000680: e04e af95 07cc debf ccac d478 c7ab d3bf
00000690: c218 522f c4ed e8bf 5d3b 1043 e441 d0bf
000006a0: 4a0a ae78 46c2 0240 f16e a138 e851 e23f
000006b0: fc5f 8d88 a0e7 d93f 956a 8224 7cf5 c1bf
000006c0: fe07 e93b 5270 e33f d267 27c9 52be c5bf
000006d0: af09 7853 d7d6 e03f 0c05 94b8 268b e8bf
000006e0: 1c48 d9c3 824c c3bf 0e23 9835 9c7c e8bf
000006f0: b420 5681 a913 c33f 2bcf 68c0 d02e f73f
00000700: 0626 474e 9d5f e2bf 2328 b43a 677d dfbf
00000710: b3e3 7083 2d21 ecbf c6bc fd06 f048 afbf
00000720: 42fd e3b4 0fbb 0440 333e 9b97 810c f33f
00000730: 2cc2 39c0 df78 e33f b8d2 c366 0a9f c7bf
00000740: 2a9d 8301 7a82 e43f c7d0 0dec dde5 b5bf
00000750: bf9b deec dcd2 f23f 7a27 e3a0 109d e0bf
00000760: 9680 4e40 4de8 db3f d2a5 1b76 0ac1 f3bf
00000770: 61c5 bc68 9243 bb3f 0fb6 b07e 62d3 ed3f
00000780: 8ab6 df2a d844 e9bf bdfe 9ffd de1c f0bf
00000790: 4957 e737 5ef9 d2bf 34a2 5601 b204 07c0
000007a0: bea1 6907 4001 c4bf e8d7 5d17 be63 db3f
000007b0: 856e 3ede f090 f03f 6865 c310 ecf8 d73f
000007c0: 0fb4 a1d3 1a20 d13f e952 3a51 9530 f0bf
000007d0: 9a5f 7324 3619 c73f 33cb fa40 c476 a2bf
000007e0: 449c 869c 9f21 b43f 0808 eb56 3c01 debf
000007f0: eae1 a451 db71 ef3f 98da 0a4d 53f1 b73f
0.17837853337259887 0.02983431403794359 0.6403714844031922 0.3207138633905026 -0.9984666805557443 -0.6413726931608287 -0.2273233887044468 0.2065127096186701
-0.5713002309669428 0.33723005528136896 -0.8232673620241933 0.7123653122623245 0.45138115452184113 0.324600765354282 0.11199891696501275 -1.8125290672923806
-0.473029067654062 -0.7957359573802428 -0.18928101940422906 -0.6595281087168717 0.2328123230455623 0.0696754124067052 1.0077331511725545 -0.8396743816315215
-0.04015720132594155 -1.31781621942861 0.39785112408781725 -0.07391106073918945 -0.3758686427936671 0.1519936367541945 0.8450322865631537 1.7761795659299896e-06
0.41015568375648 0.17194278521049247 0.4790254211412249 -0.08998673214934473 -0.1346202095125839 -0.6841808162734653 -0.41120619133665554 -0.11556827381211832
-0.19933987599345374 0.36356496773445174 -0.389235049085683 0.15837752144435194 0.5195249197665349 0.6350060114476301 -0.13044292805149785 -0.08465608468884016
-0.02163236955876564 0.08866708578907286 0.6856665177724472 -0.05321870542188716 -1.0724518856290255 -0.7795757756028067 -0.44845815804091715 0.022659292723130834
-0.6157705277323178 0.3611001802971924 -0.7956590476629274 0.69167203151499 0.33447060846827953 0.716311353830338 -0.21002996770222582 -1.2163426138122624
0.3940651181685585 0.11829740101841617 0.3906998071618885 0.05608739644921903 -0.8155599847725981 -0.4881924475080042 -0.49674046495903335 0.25816726235812953
-0.49364218067071897 0.02382434782303087 -0.6344772242103115 0.46949135595015695 0.5128713256647528 0.8943854845138821 -0.10039395060919949 -1.0047974146595735
-0.8458347042856592 -0.7810754589902665 -0.01613936766724156 -1.714985626584115 0.18286924803882632 0.31940347913922124 0.39012646270741475 -0.8500018386075958
0.34052226321258144 -1.3115567384769673 0.28312010570969065 -0.09292740699380919 -0.25454753053899226 -0.23285568909215654 0.7515204089881197 -0.11590394704509
0.32791612915932905 0.896836611459638 0.2071404402042782 1.7729370359431202 -0.19401948820163392 -0.45393574665600367 -1.6128845420442695 -0.3980717271045896
-0.3307174147504222 1.8006188805424266 -0.1467275251366199 0.04694800789842132 0.2782956448248991 0.21880900491113167 -0.6396743243155596 -0.15601014179152012
0.4599710104322504 0.4976523651578408 0.07689307348668897 0.25440984949484907 0.05165720362927123 -0.23454298811256144 -1.1376890465740963 0.7135385083135789
0.11981807186629019 0.6864762153224379 -0.4189955914167446 0.13208772682948586 0.16154162037802527 0.01667463281575161 -0.439175205835882 -0.3495539587897537
-0.4142211015565148 -0.4086156774490999 -0.26190779535215 -1.3584769262742766 0.0661876921812932 0.17543886035872183 0.5410723491394726 -0.9982521106629547
0.11420699240245959 -1.6405473454872808 0.19924548235030828 -0.20669528409262145 0.019033680105856612 -0.34368759007071775 0.869961900205515 0.24095261487838882
0.3288398989563309 0.02390773989925675 0.45522912722009445 0.12366414789696342 0.12063451511261392 0.06058418938899421 -0.23176554669226634 0.43798472008236483
-0.33472286906414644 0.14466709611878642 -0.2337073818136194 0.4506133826995066 0.5603134366210499 -0.03497695998522842 -0.46131558214444907 -0.2091185950687155
-0.5003941851647724 -0.5436455299806758 -0.09214891499072755 -0.3621664728136841 0.20544627718559658 0.19010896953066067 0.5407213284287563 -0.11057372704803145
0.14490990918391194 -0.4154190600650006 -0.061834226217685216 -0.4602249058918932 -0.10751626623467696 -0.4599745642896255 0.34687555696516276 0.26829755433330615
-0.41469211852289994 -0.35836032868030504 -0.45318754707207665 -0.1442116735843633 2.6668664031322407 0.7736629908642776 0.3374259022182102 -0.24128762208617135
0.7474127709199041 -0.5920568942375724 0.3387385790422725 -0.6987639791288037 0.9277200701076435 -0.5963419112328678 0.2169715266971097 1.4003792675411963
-0.543078422086676 -0.40481206446484824 -0.034677762696505715 -0.006595983858332448 -0.13361489485783284 0.21248963100042526 1.2954990615978166 -1.0395123650954434
-0.0336444222768086 -0.595577039906465 0.08642137624539631 0.08147066600618302 -0.11023646655189932 0.08868610175413122 0.6615393583263899 0.3445224786263147
-0.4812029802098845 -0.30735956954840726 -0.779024212287162 -0.2540217070499489 2.3448609760392047 0.5724984270159138 0.40476239524059543 -0.14030410559356157
0.6074610872385617 -0.1698707086750902 0.5262257223369512 -0.7669862370532043 -0.1507724243443257 -0.7652112051738145 0.1490375405812806 1.4489295497887251
-0.5741716889253332 -0.49202900631701335 -0.8790500228125125 -0.06110334477750139 2.5913385517193612 1.190553276264734 0.6085051302343962 -0.184541034868422
0.6409273175785632 -0.08553874028240492 1.1764802220074981 -0.5191729681330195 0.43605357437082526 -1.2346291173547468 0.10649981553139788 0.9320538019580357
-0.7896538579349948 -1.0070485980249224 -0.29647021731704065 -2.877292643028591 -0.1562881504244284 0.42796280176059875 1.0353859597588848 0.3745680011466761
0.26758452098039326 -1.0118611500703827 0.18045689372843016 -0.03606236737450388 0.07863805362158965 -0.46882542121977666 0.9826485247240815 0.09352608328740997

equations.x.layers.4.bias f8 [16]
00000000: 16d1 38df 3f32 d3bf 1b7c 956e a2c3 aa3f
00000010: 0742 fed4 67bf ca3f 28ac b132 e8df 79bf
00000020: 25ca 9849 3d8f b03f a259 35ea a3cf c8bf
00000030: d457 8bf7 a9ea c4bf 28d0 43b9 647a c13f
00000040: da55 f63e 30b2 bbbf e0ed db92 13ef a7bf
00000050: 7665 7e8a 626b ab3f 8035 dd8e 1aae b53f
00000060: b5ce e4bf 1dad 6fbf 5830 7f03 5e05 9d3f
00000070: 6eb3 f086 ce23 803f 8356 02e1 fdd7 c63f
-0.29994198607461564 0.05227382278348377 0.2089662351613841 -0.00631705000260311 0.06468565985486714 -0.19383667884785633 -0.16341137492298563 0.13654765173089456
-0.10818769013561483 -0.046745883633743324 0.05355365696523055 0.08468786228077896 -0.0038667279287894715 0.028340786899022724 0.007880795949029209 0.17846654402517367

equations.x.layers.6.weight f8 [1, 16]
00000000: 7a49 1455 f928 f83f 0a77 1c49 e20f fabf
00000010: e409 ba7a 8bf7 0040 a821 b214 8a83 f63f
00000020: e585 a6fe c797 f73f a2b1 5c65 4883 f6bf
00000030: e63d 59a4 9e61 f43f 791f 63d3 289a f83f
00000040: 9242 920c 52b3 f6bf a058 9733 b892 1440
00000050: 3ddc a084 b254 01c0 7f06 44a9 65fa f6bf
00000060: 97e7 a605 2d00 f8bf 6f45 a972 8ab8 f6bf
00000070: e292 4982 0d33 f3bf 206f b319 337c f8bf
1.5100034068496755 -1.6288779121309198 2.1208715045952307 1.407114106028624 1.4745559642109296 -1.4070514640289749 1.27383293341324 1.5376365907013378
-1.4187794200007926 5.143280798065604 -2.1663561212149305 -1.436132107919917 -1.500042936399472 -1.4200539092019786 -1.1999640549994912 -1.5303221706335037

equations.x.layers.6.bias f8 [1]
00000000: ba01 eee2 b41a a2bf
-0.035360005093937955
