simple-pendulum-system/2025-05-30_23-01-06/model_best.pt (torch, 277858 bytes, 24 tensors)

equations.x.layers.0.weight f8 [64, 1]
000000 3c 08 2a 20 22 62 d5 bf f2 7e 26 02 b7 5a eb 3f
       -0.33411458149942397 0.8548235933303359
000010 b6 d7 45 08 9c a9 de bf 7e 48 1d 14 69 4d ea bf
       -0.4791021424092564 -0.8219495194300774
000020 db b6 2b d6 74 3d eb 3f ac b5 48 44 39 ed c3 bf
       0.8512520010969767 -0.15567699274235502
000030 3c 25 08 a7 4a 59 e1 3f c8 d9 ea f5 c0 57 f0 bf
       0.5421498548832129 -1.0214242559574007
000040 98 75 26 aa 7f 1d e6 3f 1f a6 87 af 00 1f df 3f
       0.6911009143110958 0.4862672533186884
000050 23 11 5c 93 d7 19 bb bf 71 69 f4 e3 3c c3 c5 bf
       -0.10586306903502822 -0.1700206864414429
000060 04 93 07 34 7d fd e1 bf e1 91 dc 4a ec f6 e3 3f
       -0.5621934906199333 0.6238919698849338
000070 da 0d 1b dc 54 55 db bf 28 d2 24 fc bc c4 e8 bf
       -0.4270832204312832 -0.7740158962902273
000080 5a c7 bf 46 25 03 b7 bf fe 11 91 35 9d 41 c6 3f
       -0.08989174821161097 0.173877383380514
000090 e9 71 68 c3 48 3c e9 bf a8 ae ad e8 80 11 e1 bf
       -0.7886089150011318 -0.5333866638661293
0000a0 88 6f 34 b1 7d 1c ef 3f 75 84 dc fe d3 41 9e bf
       0.9722279034644865 -0.029547989302163253
0000b0 ff 3c 4d 76 35 0b e8 bf 86 76 7d eb b5 af d6 bf
       -0.7513682661609947 -0.3544745254238041
0000c0 af ae 39 01 6f 4e 83 bf 87 e3 75 36 ad a1 b7 3f
       -0.009426943993467189 0.09231073932268262
0000d0 97 ff 3d fb 5e 1a c3 3f d3 80 71 a6 dd 69 d9 bf
       0.14924227969822532 -0.39708653692470114
0000e0 6a 46 ed 3a 70 60 eb 3f f1 7c 1c 68 d6 65 f0 3f
       0.8555222655215406 1.0248626772734577
0000f0 6f 91 f2 06 b4 3e 9d 3f 41 24 b6 c2 ae e3 e4 bf
       0.02855950634388321 -0.652793293281441
000100 38 0e 55 8c 60 84 cd 3f d0 b0 bf 1c a7 de cb 3f
       0.23060232975159223 0.21773232368230433
000110 80 97 9c a5 27 8f ea 3f 91 70 24 f2 f9 bc b8 3f
       0.8299749598124748 0.09663355027845656
000120 11 e4 df 7a 3a aa cf 3f 36 03 6c d5 71 3a cd bf
       0.24738245963797614 -0.2283460895632971
000130 73 35 5a 92 a2 c2 ef 3f 4a 95 90 37 77 85 e3 bf
       0.992509160847176 -0.6100421986817903
000140 58 e9 e0 c1 e6 70 d2 3f 3c a4 9c 52 53 c6 de bf
       0.2881409543366735 -0.48085482661787515
000150 aa 97 09 54 b6 26 e3 3f ad 03 8b 56 12 11 c1 3f
       0.5984756127697797 0.13333348489507327
000160 0f 6b 47 2e 98 ae ed bf 8d 67 c9 6f 96 9f ed bf
       -0.9275627998243595 -0.9257309134802526
000170 be 8b 83 8b 8f d7 e5 bf a8 43 6d 0c 25 bd dc 3f
       -0.682563564765921 0.4490444775920488
000180 98 82 f0 83 19 58 e6 bf b7 cc 70 0e eb 95 bd bf
       -0.6982543541854112 -0.11556882002405443
000190 b4 c5 e1 3f 4f 78 e6 3f 45 d9 a0 50 96 f3 ee 3f
       0.702186226624852 0.9672347616931708
0001a0 0b 2f 22 71 ad a9 d4 bf 47 70 28 1d 38 76 ea 3f
       -0.3228562931842453 0.8269310540667981
0001b0 73 2e 07 05 ad 69 e0 3f b0 30 34 21 a1 e3 d9 3f
       0.5128998850063468 0.4045183967834971
0001c0 d7 3f 64 f0 6f 90 f0 bf 08 8c ee 6b d6 84 e0 3f
       -1.0352630033776131 0.5162155254405443
0001d0 1c 0b ac 5f 2b 18 e5 bf de 1c 39 78 09 e8 ed bf
       -0.6592003697008724 -0.9345748279673918
0001e0 41 6e 07 48 49 ef de bf 10 0d 9b 2e 40 ab c6 3f
       -0.48335487398228244 0.17710115695636164
0001f0 c2 fd 0f ff 12 f8 e7 bf d3 b9 35 f3 0c 1f e6 3f
       -0.7490324956597123 0.6912903547470769

equations.x.layers.0.bias f8 [64]
000000 97 c1 f9 d1 ca bb d3 bf bb a5 39 bb 4a 8a e2 bf
       -0.3083369303267544 -0.5793813378087899
000010 30 3c 24 2d db 31 ec 3f 4e 54 d7 03 8e 86 e7 3f
       0.8810859567328233 0.7351751399061273
000020 45 fc 96 78 14 3c ec bf e8 83 d7 dc a8 d3 e6 bf
       -0.8823339801091455 -0.7133373559300908
000030 1b ad a2 cc d2 73 d0 bf 2c bb cd 2c e1 83 94 bf
       -0.2570693014519791 -0.020034330710980416
000040 d9 bf b4 0a 26 8f d9 3f 20 41 6f ca 3d 0e e8 3f
       0.3993620972205441 0.7517384485054528
000050 b7 c0 3a 30 c8 c5 ca 3f 0a 5f 04 c0 ae f6 ae 3f
       0.20916082720714765 0.06047578901251256
000060 9c af d6 9e 93 c7 e2 bf 44 ef d8 f2 1b a3 d8 3f
       -0.5868623831097355 0.3849553939396524
000070 20 c1 34 16 5d e3 e6 bf da 26 76 a7 1c e5 eb bf
       -0.7152543481552449 -0.8717177649243368
000080 9a e2 9f 17 48 12 9e bf 53 b5 19 f1 98 68 e5 3f
       -0.029366613809517085 0.6690182408325803
000090 c2 b5 2f de fe b0 e4 bf 7a 8d 1e 00 ca 56 ca bf
       -0.6466059054925426 -0.2057735920508142
0000a0 41 47 ad ca bf 6f ca 3f da 68 21 90 07 0e e7 3f
       0.2065353145249507 0.7204625906990956
0000b0 75 e9 44 51 7d 3a e6 3f 9f 22 11 14 bf e4 c1 3f
       0.6946398341454328 0.13979328613119876
0000c0 33 5b 07 7e e8 1d e0 bf 33 c4 70 f2 44 c4 e9 bf
       -0.5036509000300157 -0.8052086577573675
0000d0 d0 9d 75 3d b4 96 c4 bf b4 81 a1 47 79 ab ba 3f
       -0.16084912301015075 0.10417898176957047
0000e0 c1 a4 d1 f3 d4 89 c4 3f a9 aa 1f 30 6d 56 d7 3f
       0.160456294109542 0.3646500558813082
0000f0 b1 56 c6 39 ee 42 e8 bf a4 39 b2 0c 4c 21 c8 3f
       -0.7581702354825294 0.18851614589625598
000100 56 4a 83 d3 b4 94 d0 3f 49 5a bd 27 c6 fc e7 bf
       0.2590763154559331 -0.7496062065282071
000110 1d d1 2f 6a 52 92 a1 3f 0e 27 9d 95 24 f0 c8 bf
       0.03431947275376699 -0.19482857995381447
000120 25 6c cf 5a 64 16 a8 3f 42 83 17 ce e2 34 95 bf
       0.04704583748363004 -0.020709556416366633
000130 bc 3f 7c 92 ee 00 e6 3f 2d 1e 04 5d d6 86 ec 3f
       0.6876137600938743 0.8914596382828158
000140 6a 39 f6 f1 29 98 d9 bf 35 e3 a6 f7 0a dc c6 bf
       -0.39991234425624234 -0.17859017460230012
000150 fe 35 34 63 2d 57 d2 bf 59 43 f6 f0 68 b1 eb 3f
       -0.28657087982068663 0.8654064852035886
000160 0d 04 72 9a cf c0 df 3f 95 5a 03 1b b7 e4 e3 3f
       0.49614324648433766 0.6216693427657726
000170 45 b9 bb d7 11 08 d2 3f a7 50 18 b6 34 14 e3 bf
       0.28174253528313314 -0.596216540960559
000180 6c 63 98 01 7a ce ce 3f 27 3f 90 03 28 98 c0 3f
       0.2406761653699293 0.1296434419059491
000190 a0 70 84 1c 09 55 e3 bf 03 70 07 6e f3 21 d6 bf
       -0.6041303212146154 -0.3458221983435125
0001a0 0b 61 69 ef 3b 18 bc bf aa 06 4b 7e 65 4e c1 3f
       -0.10974478335390729 0.13520497004178839
0001b0 16 ff f1 66 5e 6a d4 3f 0c bb c6 27 9a 49 e0 3f
       0.31899223378421604 0.5089846398239799
0001c0 09 3f 4b e4 b1 30 e9 3f 24 ea 6c a4 f6 0b d0 bf
       0.7871942004075844 -0.25073019082234027
0001d0 ee d7 c7 ec b1 46 ec 3f bb a5 41 dd 48 9c e2 bf
       0.8836297630903098 -0.5815777131476162
0001e0 d3 25 8a 47 45 58 f0 bf c5 69 a7 80 65 3d e2 3f
       -1.0215504450337576 0.5699946892521487
0001f0 14 3f 15 b5 0d 3c e8 3f 9e c5 5c 2f b9 ff d5 bf
       0.7573307549264165 -0.34373311639054716

equations.x.layers.2.weight f8 [64, 64]
000000 e8 60 50 7a bb 04 bb 3f bd 1b 03 c2 b7 62 8b 3f
       0.10554095970326538 0.01337188301876135
000010 0e b6 3e 3f 45 9f 97 bf d6 ed 2c f9 92 18 b2 bf
       -0.023068506226698253 -0.0706874712313302
000020 2b ac 7f 7f c9 e8 b1 bf 0c 06 eb 95 79 c2 bc bf
       -0.06995829928170909 -0.11234245214566146
000030 c6 13 3e a7 f1 76 a0 3f b3 4b da 4f 4a d0 bd 3f
       0.03215747038397114 0.11645950746087301
000040 05 e7 c3 53 1b 73 a0 3f 83 75 86 92 48 71 8f bf
       0.032128194785356036 -0.01535278985175626
000050 8d b1 63 1d 65 90 af bf 93 4e a5 47 67 7a 7d bf
       -0.06164852126844087 -0.007196811139084896
000060 84 6c 05 ec da 00 83 bf 12 e4 f6 f9 2c 62 87 3f
       -0.009278974845690742 0.011417724016483919
000070 46 05 1d f4 a2 c2 bd 3f d6 ce 62 e6 2a 77 85 3f
       0.11625116786764975 0.010481200366803927
000080 c6 c3 5f 98 ff 06 ae bf 8c b9 97 20 dc 69 24 bf
       -0.05864714369807404 -0.00015574276066794253
000090 e7 64 46 51 bf c3 ba bf ac 19 87 a7 5c 60 bd bf
       -0.10454936727764484 -0.11475161638290982
0000a0 e5 e2 a0 a0 79 d9 aa bf 20 29 bb 16 ae f7 bb 3f
       -0.052440453393904275 0.10924804739912419
0000b0 41 89 76 07 76 83 bd 3f c4 1b 4a 44 33 be be 3f
       0.1152871864528935 0.12008972565864356
0000c0 71 ee fd a2 a3 cf a3 3f a7 f0 a0 80 42 f6 99 3f
       0.03869353642127472 0.02535346899115667
0000d0 da 63 5d 3d 9b 2e b4 bf c4 ae 9f 7d a5 e0 99 bf
       -0.0788361573044222 -0.025271020691362236
0000e0 c5 4a a0 10 b8 7a b7 bf ee fd 4a ca 87 9d ac 3f
       -0.09171629339133876 0.05588936180492597
0000f0 ce f6 50 b6 bb 39 b7 bf 63 48 1b 1f b9 1e 7e 3f
       -0.09072468949394905 0.00735351861085762
000100 ac 63 85 30 c5 d5 b8 3f 6c 7a 35 e9 ab 21 bc bf
       0.09701187548252105 -0.10988878673149721
000110 0f 26 b6 f1 c6 f0 b3 bf 68 61 b0 23 94 62 c1 3f
       -0.0778927173725139 0.13582088225008282
000120 7b e5 29 28 70 19 b6 bf 79 68 74 1e 52 ab b2 bf
       -0.08632565479810765 -0.07292664760135094
000130 18 a1 7d 95 b5 ff 59 bf 07 ef 1d 02 d6 4a bd 3f
       -0.0015868447571510454 0.11442315627749276
000140 d7 59 d9 ea 06 a2 88 bf 40 df 56 10 55 f3 b7 3f
       -0.012027792017005474 0.0935567059412934
000150 71 ce 02 b7 b5 47 b4 bf cf 25 be 6e b3 49 bc 3f
       -0.07921920507470205 0.11049958661728641
000160 07 17 b0 e0 02 27 91 3f fa 62 15 64 3a eb b9 3f
       0.016750378574236027 0.10124554580159986
000170 1d 99 de e0 42 d3 b2 3f 44 e9 51 81 3a f1 bc bf
       0.07353609075525865 -0.1130558553431103
000180 45 5e 60 29 14 e6 ac bf 39 91 2b 84 e4 09 7d bf
       -0.05644286160548665 -0.007089512483365029
000190 91 aa 7f 85 a1 29 a1 bf 5b 13 f9 4e 9a d7 b2 3f
       -0.03352074389097937 0.07360233715105606
0001a0 6b 8c bb 29 e4 40 be bf 84 3e 82 49 be 41 b8 bf
       -0.11817766207563955 -0.09475316328666322
0001b0 07 59 b3 a3 c1 c5 a3 3f b6 2c 41 ac f8 4a a3 bf
       0.03861813662813245 -0.037681361224338
0001c0 9a 1e 0d 4c 4f a4 a3 3f 9a 37 bf 1a 0a 07 68 bf
       0.03836295894012416 -0.0029330441811685317
0001d0 65 37 cf 8c ff 5d 79 bf 76 ba 0d c1 02 8a b6 bf
       -0.006193159334498909 -0.08804337704871465
0001e0 06 a5 ea 53 b0 0b 81 3f 14 d0 be 4d 45 e0 a9 3f
       0.00832307582943993 0.05053917478599615
0001f0 64 fb b7 91 15 eb aa bf ec bc 88 55 13 fa b9 3f
       -0.05257480052750088 0.10147209966884291
000200 fe 5c c1 c9 0a 2c 96 bf bc ad 32 66 d2 ce ac 3f
       -0.021652382435004995 0.056265425658547724
000210 aa 36 72 7c 76 97 b0 bf 48 72 9f a4 e6 f3 a7 bf
       -0.06481113947139741 -0.04678269156986353
000220 c6 23 77 e1 6b 0c be bf 19 00 37 26 78 1a b4 3f
       -0.11737703566099275 0.07852888997058506
000230 4e 05 97 11 a6 dd b0 3f 9c 0c 32 b9 41 89 c3 3f
       0.0658820908493187 0.15262624304532302
000240 dc 63 e2 18 e0 ed b3 3f bd df f9 a0 e8 ba ae bf
       0.07784844024207821 -0.06001975026168747
000250 db 6d 82 07 b7 82 96 3f ca 4e 93 0e 50 45 b6 bf
       0.0219830129941395 -0.08699512821049918
000260 2d f7 c8 c0 0f b6 b2 3f 45 80 cd df 35 5d aa bf
       0.0730905385653073 -0.051492389268560625
000270 0d 37 7c c9 b7 47 c3 3f 6f 74 06 df a0 c7 9f bf
       0.1506261571707274 -0.03103495942342643
000280 bf 97 14 d2 ee 18 be 3f 67 23 b4 26 d2 69 b8 3f
       0.11756794575612071 0.09536469883836461
000290 35 66 c6 e5 8f 4f b3 bf e1 95 22 da 0a 15 b5 bf
       -0.07543277129880084 -0.08235233140529587
0002a0 ad 3f 7d 31 d5 73 c0 bf ff ab 5d 05 21 77 b2 3f
       -0.1285349361082785 0.07213026410106237
0002b0 5c 02 28 0b 2a 18 b0 3f 25 cc f5 86 35 f6 be 3f
       0.06286871693010582 0.12094435257840581
0002c0 96 3d f6 9e 67 2d a0 3f c1 f2 f4 63 b6 14 a3 bf
       0.03159641089871028 -0.03726739854980599
0002d0 f3 ec 5c 32 60 1b a5 bf f5 33 d0 48 30 3c b6 3f
       -0.04122448553831672 0.08685590531986505
0002e0 09 98 bf d6 ee d1 91 3f 2a 00 53 8e 0e 41 77 bf
       0.017402393204882603 -0.005677277430720587
0002f0 2c 12 bf 28 f7 93 ab bf bc db 38 3b 92 c9 c0 3f
       -0.05386326191322541 0.13115146533684008
000300 ea e2 60 01 a7 c8 97 bf 7b 66 d6 90 3f 2a c0 3f
       -0.023226365527281446 0.12628931591170897
000310 f3 5d 8d 85 e1 3a a4 bf 2e a6 c0 bb 0a a5 bd bf
       -0.0395117259528738 -0.11579958995630399
000320 19 8c cb bc ae 56 b6 3f 61 91 21 10 6b fe b6 bf
       0.08726017102485208 -0.08981961387468608
000330 5a 39 02 ca 96 2d ae bf 8c b4 2b df 88 bd b6 3f
       -0.058941566619170785 0.08882956932548519
000340 0d 8b 7d 9c 5c 2f ac bf ea 97 e2 de c2 0a 83 3f
       -0.055048841574509046 0.009297869135774978
000350 52 b4 8a 2b d1 65 9a bf 93 9e b0 61 c0 bb b2 bf
       -0.025779026300984782 -0.07317736039169125
000360 1f 3c dd 17 be bc b2 3f b1 ec 35 23 e8 d2 a0 bf
       0.07319248278257405 -0.03285909108941477
000370 b2 26 8d 0e fc 84 b8 3f 03 cc 5e 51 e9 33 b2 3f
       0.09577918391473864 0.0711046050699196
000380 18 99 06 b0 49 58 a2 bf 1e 30 c3 1e 16 57 b3 bf
       -0.03582983278038138 -0.07554758311306428
000390 b7 cf 91 93 f6 b7 8a bf 3d 9a 41 82 ca 94 b2 3f
       -0.013046194437471443 0.07258287124714342
0003a0 92 e9 4c 0b 5b 69 a4 bf 16 24 50 99 1b 08 be bf
       -0.03986629975266277 -0.1173112153338852
0003b0 61 50 05 6c 6e 49 91 bf e4 a2 02 1f af 15 bf bf
       -0.016881680815757586 -0.12142462260329584
0003c0 8d be ed ed eb 29 a6 bf ef 7b 94 80 74 ae b7 3f
       -0.04328858642008724 0.09250572337303685
0003d0 ad c8 11 4f 98 65 bb bf 3f f0 4e 9f 2f b0 b3 bf
       -0.10701896601111356 -0.0769071353851709
0003e0 6f e8 6c 9b 34 26 a1 3f 57 ce 37 74 75 27 b0 bf
       0.03349460980685214 -0.06310209357598616
0003f0 2f 95 6f 9f 5c fd 46 bf fc b3 33 69 13 b6 a3 bf
       -0.0007015897998569382 -0.03849850329593349
000400 32 f5 1e 8f c3 df cf bf f1 27 6b 15 a5 5e c1 3f
       -0.2490162323792134 0.13570083185032858
000410 2f ae 41 34 26 39 c4 bf 3d 97 b0 1d bc e8 c5 bf
       -0.15799405623998683 -0.17116500329682963
000420 e0 d5 6f bb bb 27 c5 3f ad b3 37 77 b6 3b c7 bf
       0.16527506496610922 -0.18150978871508752
000430 47 e8 8d 8c 89 1a c0 3f a9 22 f2 17 2b bf c3 bf
       0.12580985415462662 -0.154271494571977
000440 8f 9c 49 8b 55 c2 b0 3f b2 f7 4d a7 ca 62 c9 3f
       0.0654653039033397 0.1983273808399964
000450 e6 7d 88 5e 84 ed ac bf 33 56 a8 db b2 d7 ca bf
       -0.05649961141557096 -0.20970760083643966
000460 6f 84 98 a3 72 70 b8 bf 87 06 07 5c ed 4f c6 3f
       -0.095465817394613 0.17431418412711627
000470 28 c6 ca 5b 2b 9d c2 bf 4c 80 31 77 58 fb a9 bf
       -0.14542142850909667 -0.050745739507647686
000480 58 64 4d c8 a0 cf c5 bf 14 72 37 07 96 a1 ae 3f
       -0.17039880543123576 0.059826553708010405
000490 5c eb 28 56 83 9d a5 bf 13 7c 16 cf 92 15 c2 bf
       -0.04221735407596469 -0.14128337012968525
0004a0 e2 d1 3f 05 9a 6a c2 3f b7 26 5c 5c c3 54 c2 bf
       0.1438782239562349 -0.14321176538242295
0004b0 e0 ea 8c 9a 1e 0f c7 bf 5c 44 90 0c 0d 25 77 bf
       -0.18014891191872717 -0.005650568936304525
0004c0 aa 1c 26 89 f9 1a b3 3f 29 62 18 47 9d 88 c3 3f
       0.07463035200463489 0.1526066395897641
0004d0 99 54 1d bb b1 ce a0 bf 81 80 92 25 29 01 cc bf
       -0.03282695206750325 -0.21878542265494974
0004e0 c0 fe 9b c0 6a 93 91 3f 5c e2 4a 52 ca bd d0 3f
       0.0171639137324735 0.2615838817251068
0004f0 e2 24 80 1f ee 52 ac bf 6f 25 d9 5c d2 aa bc bf
       -0.055320206971438926 -0.11198153273394039
000500 7e c8 16 aa fe 37 82 3f 2d 0f 3f c6 41 6c 9b bf
       0.00889586407251763 -0.02678015491961998
000510 9a dd 19 1f 3e 5e b0 3f 47 ee b6 88 a4 43 c6 3f
       0.06393802890112568 0.17393929172054554
000520 48 4c 2e cd 2f a5 8d 3f 44 6c 32 bf d4 84 c3 bf
       0.014475224923250832 -0.15249118171490939
000530 0d 60 87 46 ec 2e 91 3f 7e 1c 9a af d3 49 c5 bf
       0.01678055935357752 -0.1663155181342723
000540 03 f4 d9 8a 5f 94 9c 3f d2 b6 24 f8 06 5c c5 bf
       0.027909748887839935 -0.1668709479940192
000550 cb 5c 66 9e 55 3d b1 3f fc ac 90 80 93 0d 72 3f
       0.06734213940795823 0.004407478504656167
000560 31 b5 31 44 3d b5 ca bf 81 81 cd d6 ea 62 b0 bf
       -0.20865598516267306 -0.06400935882766669
000570 8b 6b ea 29 4e 5e cb bf 09 e8 7a e3 56 cb bb 3f
       -0.2138154701868554 0.108571463143477
000580 12 5b 51 ca f2 d5 cf bf c7 61 49 72 e0 fc 92 3f
       -0.24871668700026156 0.018542773223403388
000590 27 b2 33 e3 7a bc bb 3f b1 6f 65 60 71 84 ae 3f
       0.10834472700998586 0.05960420896255359
0005a0 bb f4 3e ba be 6d c7 bf fa 00 c7 6b 4d 80 c4 3f
       -0.18303665250815535 0.16016547930303898
0005b0 9f cb b2 ed 39 ec b9 3f a7 47 a7 f5 24 7f c7 3f
       0.10126077702697821 0.18356763834759457
0005c0 3f cc 5a 4a 65 15 d0 bf 12 6d ed a4 66 98 77 3f
       -0.2513058878059304 0.005760575250714399
0005d0 58 97 65 b0 88 eb c3 bf 95 c8 91 d3 4c a2 cf bf
       -0.15562542546393376 -0.24714050608196617
0005e0 93 f0 31 f7 1a c2 a6 bf c3 81 1d 8c c6 59 b7 3f
       -0.04444965617673904 0.09121361656935449
0005f0 69 e6 c8 88 62 56 cb bf 31 92 02 f1 c3 60 c0 3f
       -0.2135737579244961 0.12795304554050937
000600 fb 95 a2 da 2c 81 ca 3f 45 47 ad b9 75 8d cf bf
       0.20706711459676783 -0.24650451246503216
000610 c0 f4 0c 4d ed 8a c6 3f 5b 6a 2d 3a 5e fe cc 3f
       0.17611471426235958 0.22651269760793266
000620 cf f8 31 46 76 c7 80 bf 8b b3 b4 f8 72 16 c2 3f
       -0.008192943589389405 0.14131009239045186
000630 6e 91 34 0d 43 d7 c6 bf 8a 1a b4 fb 1a 91 c3 3f
       -0.17844427246849243 0.1528657654782431
000640 25 13 a0 b3 26 84 b8 bf 0d b1 88 fb 1c d2 96 3f
       -0.09576646695502385 0.02228589329949764
000650 fc a8 5f 8a ae 48 97 3f b9 fb 09 25 4a 79 7f 3f
       0.022738196559580523 0.00768403017775559
000660 77 da 95 ca b3 c0 99 3f 1b 41 b8 84 c3 e7 c2 bf
       0.025149163474873917 -0.14769786816078398
000670 48 94 be 04 29 7d c5 3f d7 e8 f2 06 cb d1 a8 3f
       0.16788208705580332 0.04847559413743035
000680 32 81 20 bb 78 70 cd 3f 8a 49 59 6b e8 6c b2 bf
       0.22999486100253247 -0.07197430249042305
000690 a9 40 40 ae 7f 3f 9f 3f a0 68 fc 34 e8 18 c1 3f
       0.030515666017948338 0.13357260310369146
0006a0 2f fc 58 12 21 45 aa bf 00 1d 2f 60 17 e3 9d 3f
       -0.05130866383523657 0.0291865971046521
0006b0 a5 86 28 ee 8f ec c9 3f dd de 93 c6 c7 0c c2 3f
       0.20253180626700842 0.14101502605603047
0006c0 a6 13 11 b6 1f 2c b4 bf 4e a9 68 f1 aa 1e a9 bf
       -0.0787982768534464 -0.04906210133443044
0006d0 e7 a5 ff 78 00 ab c6 bf a1 00 a4 75 51 d7 cc 3f
       -0.17709356220375058 0.22532099003001796
0006e0 34 a4 f0 8b 31 7f c8 bf d4 dd c2 c8 de e1 c6 bf
       -0.19138163884170611 -0.17876801302712286
0006f0 6b 55 2b 31 be 04 a0 bf f4 98 eb 95 ca c4 ca 3f
       -0.0312861857434353 0.20913059540107037
000700 10 b0 be 75 b2 88 cd bf 13 c9 5a b1 57 4b c9 bf
       -0.23073416470776964 -0.19761177215475154
000710 0d 2e a6 d3 a8 c5 6e bf cf 9f 93 49 a0 aa ca bf
       -0.0037563607595012594 -0.20833209602937905
000720 3d 23 d6 db c6 b1 ce bf 75 91 d3 ae 9e 2d a6 3f
       -0.2398003171367921 0.04331680187331958
000730 a5 9f b8 de 24 61 c2 bf 21 cd 26 06 a0 60 ab 3f
       -0.143589600325183 0.053471565962718744
000740 66 65 64 05 70 89 ce bf 62 93 4a 06 c3 5b c1 3f
       -0.23856926215448054 0.13561284835045756
000750 c7 a1 8a be bb d7 cb bf 2e 01 1f 4d e2 d8 a1 3f
       -0.21752116016183562 0.03485781852168866
000760 77 98 01 49 08 d4 c8 3f 2d 07 20 64 7a 7b 8f 3f
       0.1939707142329927 0.015372234516692973
000770 71 6b a2 fd 21 28 9b 3f dc 6b 43 73 df 9b b8 bf
       0.02652028189241257 -0.09612843097731577
000780 7a 6c bb 14 d9 c6 c5 3f 89 7f 4f c6 d1 fe bc 3f
       0.17013085853873006 0.11326323596540368
000790 74 a7 16 7b 96 2b ca bf 70 c1 b9 c3 2e 65 a2 bf
       -0.20445519457035355 -0.035928212539945714
0007a0 fa ab 82 c2 8e 54 c1 3f 81 e3 63 fa 43 90 b8 bf
       0.13539299485759654 -0.0959513174347091
0007b0 6a c2 f7 95 b4 8a a6 bf 52 00 c6 60 f4 2f c8 bf
       -0.04402698832189318 -0.18896345830217115
0007c0 5a 3e 71 60 ae 5b a0 3f 27 a9 8f 09 ab 32 cd bf
       0.031949471733807314 -0.22810876814703215
0007d0 7b 2d 7e e5 36 78 c5 3f 39 da b0 fa bf 46 c4 3f
       0.16773115354258636 0.15840911618006873
0007e0 29 a8 49 6a cf a8 b3 3f 63 d8 41 3d bd 36 b3 bf
       0.07679458947100727 -0.07505400414979273
0007f0 04 99 e8 88 4b c8 b8 3f d1 fe 12 ec 76 bf a4 bf
       0.09680626003737208 -0.040523258512164546

equations.x.layers.2.bias f8 [64]
000000 24 96 a4 f9 6a 96 8c bf 59 42 4d ec 35 c5 b0 3f
       -0.01395877432203025 0.0655091955097843
000010 c3 a6 c5 94 f5 09 b4 3f 84 4e cc 5d d7 e2 bd bf
       0.07827696687823064 -0.11674257316581743
000020 59 17 06 d4 d8 90 c1 bf f8 ba 50 b5 39 38 b0 3f
       -0.1372328791878157 0.06335793186802252
000030 5a 0b 23 d0 60 e1 c2 3f 39 7f 01 22 a9 56 c2 3f
       0.14750299609121492 0.1432696739238908
000040 88 3a 32 dd 91 c3 ad 3f 9a 66 3f 21 41 ca a9 bf
       0.05813270402096743 -0.05037120371680466
000050 9f d7 5b 8a cf ab a0 bf 8c b2 b0 ab fc 83 b8 3f
       -0.032560811652657444 0.09576396171241636
000060 2b e4 7e 30 f1 7a 99 bf dc 0c b3 f3 52 93 ad 3f
       -0.024883049569073428 0.057764618156875364
000070 c1 23 58 29 b1 92 ab bf c7 0a 4c ca 2f 54 bd 3f
       -0.053853546425734596 0.11456583680050435
000080 1d 15 cf f2 1e e0 a0 bf 65 3a 6e cd 06 45 b3 bf
       -0.03295990671134972 -0.07527201190371498
000090 bb 4d c9 78 93 50 c0 bf 77 17 8e 0c 65 e0 a0 3f
       -0.12745898626108762 0.032961995871160825
0000a0 79 06 47 3a fe 58 71 bf cf 5b 4d 8a 31 0b b2 bf
       -0.0042352610366279625 -0.07048329950826758
0000b0 99 38 56 74 d3 fb b8 3f 6d 68 cd 7f 69 12 93 3f
       0.09759255972150739 0.018624924111783892
0000c0 e2 f3 7d 4a bb dc bc bf ca 0b 15 43 8b 20 b6 bf
       -0.11274309700634391 -0.08643408191441818
0000d0 7f c6 a2 7e 88 f3 ae 3f 74 92 a3 5a eb a5 a9 bf
       0.0604517607292907 -0.050093989195180294
0000e0 05 18 3e de d1 26 b2 3f 43 72 7b 3d 6d c5 b4 bf
       0.07090484310000995 -0.08113749266653607
0000f0 1a ec 09 0f e4 3f aa bf 06 99 4f 76 d6 a2 a4 bf
       -0.0512686985357151 -0.04030485338425831
000100 b5 b5 e9 ee a0 4a c1 3f 41 6a e2 ef 8f 30 b9 3f
       0.13508998552008014 0.09839725119165
000110 f6 21 3c 33 ea b8 b2 bf c8 a6 5d 53 93 ae b0 bf
       -0.0731340766034306 -0.06516381058977594
000120 35 e8 cd eb 03 89 69 3f 23 7d 49 31 8c e0 b0 bf
       0.0031170918068115457 -0.06592632487580778
000130 90 e1 b1 3b b6 5c ba 3f b0 5c 3f f7 d4 b9 b9 bf
       0.10297717053788902 -0.10049181972805132
000140 96 3c 53 98 22 83 ae 3f 4f 82 7d 25 2d 94 b9 3f
       0.0595942316955355 0.0999172417191485
000150 78 29 1c 9d 51 66 9f bf df ee 05 1f 55 d7 96 bf
       -0.03066375276015651 -0.02230580331659737
000160 a5 56 80 3a cb c3 c2 bf 42 d8 30 a5 9c a8 b1 3f
       -0.14660015446195476 0.06897906334856521
000170 1f fe 06 0b b2 c2 b1 bf 47 c3 61 03 a0 fa 6a bf
       -0.06937706727239189 -0.003293335462381117
000180 b1 ee 90 42 48 b0 b8 3f b6 64 a0 78 c6 78 b6 3f
       0.09643985390806155 0.08778038449271972
000190 d5 b7 ee d0 06 fa b0 3f a4 94 47 77 51 2b 82 bf
       0.06631510353938037 -0.008871685459732888
0001a0 e3 11 d4 ad 19 41 a3 bf 57 a3 8d 37 b5 2b 8f 3f
       -0.03760605093887983 0.015220084913112037
0001b0 7a 8a 8d 2c 78 4a b5 3f 37 19 41 d0 cf aa be 3f
       0.08316756332127709 0.11979388079007412
0001c0 6b be 5d 04 5f 77 b1 bf a1 ef aa 5b 15 e0 a3 bf
       -0.06822770935627324 -0.038818995895297144
0001d0 2a 99 b5 af 9c 06 bc 3f 1f 6a 52 99 77 84 b3 bf
       0.10947589196948529 -0.07624003880702233
0001e0 f6 59 16 d5 4e 07 c1 3f 5a 11 60 6e 44 e3 ae 3f
       0.13303552059797114 0.06032766196588808
0001f0 0a 23 6a f1 9f e4 a7 3f 5d 9c eb 61 37 90 b8 3f
       0.046666143626742665 0.09595056667932185

equations.x.layers.4.weight f8 [64, 64]
000000 98 45 a9 f1 a3 c8 9e 3f 72 c1 a5 01 c4 3c 99 3f
       0.03006225740893384 0.024645865059427625
000010 49 c8 2f 9e 1d 9f b8 bf d3 8d 89 f9 d3 e6 ba 3f
       -0.09617791282633549 0.10508465616435751
000020 79 1e 72 a1 f0 85 ae bf 78 df b7 34 97 2a a0 3f
       -0.05961563082479144 0.0315749408582055
000030 b7 38 42 25 1a 18 b9 3f 29 26 82 f5 8e be bb bf
       0.09802401933322612 -0.10837644094331068
000040 d1 18 86 2e 6a 9b 92 3f 41 6b b5 64 b3 bc 99 bf
       0.01817098530730094 -0.025133898755807186
000050 ae 7f 6b 09 f9 c9 aa 3f e5 14 ce f6 48 da b0 bf
       0.052322180175678454 -0.06583076501381731
000060 99 f4 58 66 28 62 9a bf f7 75 4c 99 95 a9 ac bf
       -0.025765067335886547 -0.0559813260681316
000070 df e1 40 fe 23 18 ba 3f 42 2e ec cd ce 21 a0 3f
       0.10193085629806074 0.031507933270486635
000080 81 1d 77 19 e4 3b b1 3f 6a dd 95 40 6f 29 8b bf
       0.06732011434279707 -0.013262623938074387
000090 a2 21 14 d0 b1 1a b9 3f 68 3d e8 0e 1c 29 b6 3f
       0.0980635769848335 0.08656478275246615
0000a0 01 9d ee 3f 58 f5 a6 3f 1e 43 fa c6 20 5c 8e bf
       0.04484058170720041 -0.014824157783807797
0000b0 2f 3e 65 79 0c 5f b8 3f 2b 0c 43 91 2d 1e b8 bf
       0.09520032848126257 -0.0942104797023126
0000c0 0b 50 f7 92 01 a7 bc bf e3 e6 18 92 b8 74 b5 bf
       -0.11192331159628581 -0.08381227080181079
0000d0 9e b5 7f 02 6c 81 b8 bf 99 97 c8 94 64 fd 8e 3f
       -0.09572482167251059 0.015131746092332853
0000e0 7d 94 e6 16 02 7d b0 3f a5 55 e8 63 27 1e c2 3f
       0.06440747317408753 0.141545223029124
0000f0 ac fe e2 fa 30 a6 8f 3f 72 9f 06 50 1d 57 b9 3f
       0.015453703552679464 0.09898551181561091
000100 c9 3f 58 4e 41 9d bf bf 7d ca cf 2e 71 72 ba 3f
       -0.12349327242577525 0.10330874817717901
000110 19 f3 bb 51 25 0b 90 bf 1e b7 33 2f 4d 71 b3 3f
       -0.015667517770441373 0.07594759371178525
000120 c9 10 14 6e e8 d4 b8 3f 99 a7 fe ec dd 5e 63 bf
       0.09699871718845822 -0.002364571999312792
000130 46 4c 1f d3 92 cf b0 3f 1d ab fe 30 14 ec 8c 3f
       0.06566732076980583 0.014122159714891997
000140 1f b9 c9 e3 ea 7d 93 bf e5 4b e2 50 62 a2 bd bf
       -0.019035024788928042 -0.11575903391557991
000150 cd 91 6d aa 35 95 ab bf 03 0f e2 61 86 44 82 bf
       -0.053872754148673964 -0.008919763433602684
000160 8f 96 be b2 51 4f bb bf c4 97 b9 c3 0c 1b af 3f
       -0.10667906392935776 0.06075324906559801
000170 1b f1 cf eb f9 b5 b2 3f bb d0 12 b5 34 ff bf bf
       0.07308923728118481 -0.12498788281192479
000180 45 2f df 85 66 0c b3 bf 53 55 ee 67 e5 6c ab bf
       -0.07440796631197795 -0.053565186440361366
000190 21 7b 62 b0 5a 69 bf 3f 09 00 12 dc 05 eb b1 bf
       0.12270132833735349 -0.06999241469202401
0001a0 6d 66 e5 e8 5c 21 ae bf 9c 56 c1 92 24 31 c0 bf
       -0.05884828894586467 -0.12649972120077713
0001b0 b9 b0 24 93 de d6 b6 3f 2d ec 40 a2 df e0 b2 3f
       0.08921614734998941 0.07374379836339591
0001c0 83 9a 58 4c 60 a9 9b bf 82 bb 8b f1 e0 58 bc 3f
       -0.02701330629329358 0.11073118111720073
0001d0 fa 00 91 89 b1 83 b7 bf 02 07 8d 30 17 3f a9 bf
       -0.09185323341899113 -0.04930946796095094
0001e0 4a 29 6f 35 9a 14 bc bf e4 cc ad 72 b6 a1 99 bf
       -0.10968936733767012 -0.025030947446293875
0001f0 4f 94 ab ed 98 db b5 bf 8b 5e 41 de 31 27 af bf
       -0.0853820400476064 -0.06084590757444371
000200 f7 6d 75 0e d7 3d bb bf c6 bd 15 69 15 9f be 3f
       -0.10641235449786977 0.11961492362546897
000210 49 d0 72 96 f8 5c a4 bf 80 4e e1 50 ea 56 c0 bf
       -0.03977181278733661 -0.12765244435523826
000220 0a e8 10 4b cd 4f b4 bf 71 98 ae 37 8e 9b b7 bf
       -0.07934268076579101 -0.09221733912872467
000230 50 23 38 88 80 3a c0 bf 45 0d 19 e8 32 9b 77 3f
       -0.1267853417523619 0.005763243536026257
000240 fb c3 64 8d e3 94 8d bf 8c b1 64 84 c8 9c bb 3f
       -0.014444139244547563 0.10786107284793028
000250 7f d4 03 9e d4 9b a2 bf 12 92 4a d5 32 f3 b3 bf
       -0.0363451426400525 -0.07792966563517492
000260 6b 29 1c 19 aa da b0 3f 10 4a 2f b4 ab 99 5b bf
       0.0658365546516159 -0.001684587173021005
000270 61 a8 5b 0d 02 0a c2 3f 73 34 02 64 05 c4 b2 3f
       0.14093042042015028 0.07330354396454357
000280 ae f3 54 52 63 78 8d bf f4 48 e7 f9 b1 f8 b2 bf
       -0.014389778089588603 -0.07410728789480797
000290 5a 32 9b 92 40 61 c0 bf 30 77 8e b4 d1 c6 8b bf
       -0.12796790274150532 -0.013562811205527575
0002a0 17 a2 ac 93 e0 20 87 3f 1e b9 f0 84 6d 66 4f 3f
       0.011293177134192907 0.0009582552683065381
0002b0 b2 c1 b7 10 63 3a 9d bf 27 76 07 ab 37 c5 c2 bf
       -0.028543041129468434 -0.14664359904320287
0002c0 c6 b2 fd bb 7d 13 9d bf 0c fc e9 bc f3 7a af bf
       -0.02839466533571302 -0.06148492508963707
0002d0 9c d7 62 7a b5 4e 69 bf 9a f3 1a 98 a7 d1 b8 3f
       -0.0030892891400879485 0.09694907630451013
0002e0 11 12 bc cc d8 44 3d 3f 6d 9e 65 63 da 31 b5 3f
       0.00044660847628133585 0.08279194761927906
0002f0 74 63 da 95 ea 66 b1 bf 7d 5d 76 9c 75 71 b3 3f
       -0.06797662886164152 0.07595000333673414
000300 09 f3 d2 de 8b ad b4 3f 6f 3d ce 30 a6 43 bb bf
       0.08077310743369649 -0.10650099460166527
000310 98 ef a0 81 fe dd 94 bf 8a d5 97 29 1d 25 b7 3f
       -0.02037809053602721 0.09041006341415972
000320 b3 93 6c c9 ea e7 b5 bf c0 5d 6c 8c 17 c5 aa 3f
       -0.08557002465802448 0.05228494252349547
000330 81 b5 01 a7 68 ed a9 3f 0c dd d1 fc 51 a3 b6 bf
       0.05063941038757048 -0.08842956945760622
000340 31 9b 99 d9 be 82 91 bf 68 91 a7 aa a2 70 b7 bf
       -0.01710031703114651 -0.09156243006106524
000350 81 c5 6c 11 90 1d a8 bf ee 8c a2 c0 46 80 9c 3f
       -0.0471005460043541 0.02783308554411417
000360 54 c5 af d6 e2 7c c0 3f 80 f8 a0 3f 1b 3e ab bf
       0.1288112209581792 -0.053208209531008244
000370 e7 b0 5f d4 3c 92 bd bf cc 20 65 ad 7c b5 b5 3f
       -0.11551265892893846 0.08480052216794148
000380 6f 9d 74 48 10 26 c1 bf c7 42 c8 4a 25 77 b3 bf
       -0.1339741090571169 -0.076036768681898
000390 f9 8a 3c 98 3f 4e 93 bf 4e 34 2b 70 66 eb ad bf
       -0.018853181521204274 -0.05843658560989039
0003a0 36 8c 79 07 60 67 bb bf 75 5f ff d3 a0 5f bb 3f
       -0.10704612905969743 0.10692792106362765
0003b0 6a f7 a9 a9 1a f9 8e bf 07 1c 74 13 78 30 6a 3f
       -0.01512356596253613 0.0031969399675548823
0003c0 06 d8 e3 b4 70 51 a9 bf 00 c3 f8 07 e4 6e a1 bf
       -0.049449464875507984 -0.03404915425597288
0003d0 33 1d 4a 14 aa 53 ad bf b6 fc 64 96 c5 f0 92 3f
       -0.05727893350290927 0.018496596626616145
0003e0 73 5f 19 8b 71 67 b7 bf e0 9f e2 33 09 59 a1 bf
       -0.09142217298483306 -0.03388241537442105
0003f0 f1 e0 d6 7c 00 a3 bf 3f 92 02 86 1f 67 ec aa bf
       0.12358096168361833 -0.05258486041839662
000400 4f 32 3d b3 6e 81 b6 bf 82 d0 9b 94 33 c6 b9 3f
       -0.08791248203233092 0.10068056467190625
000410 56 5a 55 53 92 52 a3 3f 99 62 1c 78 a3 87 b6 3f
       0.03773934619191681 0.08800718004602927
000420 9e 99 55 a0 7a 7d b7 3f a1 0d 58 8f 9f d9 c0 3f
       0.09175840773023089 0.13164133547989557
000430 c5 ad 79 d7 13 b8 a3 bf 3b 86 28 37 db 25 ae bf
       -0.038513774922502665 -0.05888257072753019
000440 91 75 11 9b a5 ae af bf 79 6c 4d 52 e7 99 ab 3f
       -0.0618793250839459 0.05390856628101743
000450 74 2a d1 1c 07 36 a3 bf fc 48 ab 6b fe fa b6 bf
       -0.03752157427569083 -0.0897673619140597
000460 2b 7c ba c8 45 b4 91 bf a5 a8 5d 17 58 9d ab 3f
       -0.017289247871868845 0.053934815265919846
000470 10 a3 90 d9 cf c3 ac 3f 91 97 0f c6 b1 4b ad bf
       0.056181426342226115 -0.05721812765823054
000480 98 1f c0 d3 7b 54 b1 3f 5b f7 94 99 df a6 b8 bf
       0.06769536895455841 -0.09629628657873239
000490 c0 08 ad 79 8a c2 af 3f 88 c3 6a f5 e2 a4 aa 3f
       0.06203110442449278 0.05203923459828902
0004a0 bd 55 5f f8 bf 38 a1 bf 95 a0 f4 24 ae d9 bb bf
       -0.03363609225167916 -0.1087902870391438
0004b0 a8 31 da ee b3 4b a6 bf 5c 08 cd 8a 85 24 81 3f
       -0.04354631701162087 0.008370440767638758
0004c0 ce 4e 21 4a 5d 09 94 3f 9a 81 69 04 6b 58 b6 bf
       0.019566972398321884 -0.08728665216177092
0004d0 75 14 55 5d a4 f2 ad bf b0 02 ae e1 32 69 c0 bf
       -0.058491836922748876 -0.12821041125791544
0004e0 2f 6a 9e bd 73 f7 86 3f 0d d1 e0 67 b2 e6 b8 3f
       0.011214164947706965 0.09727015529717083
0004f0 33 fb 8f 67 a1 30 a4 bf 7e 4e bf 48 4d 84 b4 bf
       -0.03943352116765766 -0.0801437666516964
000500 c1 ad e9 a0 68 eb a3 bf 1e 69 3a f3 c8 ff b6 bf
       -0.038905400889088344 -0.08984046877086313
000510 25 63 62 51 8d 1d a8 bf e8 0f 7a 55 d3 05 b1 3f
       -0.04710046404324534 0.06649514042697968
000520 f8 d6 49 cf bb 5a be bf 72 c7 65 35 10 60 b3 3f
       -0.11857198534729807 0.07568455985690806
000530 b7 93 99 b5 ed 55 bb 3f 32 36 30 aa b3 52 aa bf
       0.10677991565314825 -0.05141221477979875
000540 3f 53 14 5e e8 19 79 3f b5 ab a2 40 4e f4 a8 bf
       0.006128223119294784 -0.04873890437132592
000550 74 09 08 fe 6e 8f bf 3f 71 f6 b0 9b 2f da a1 bf
       0.12328237249315582 -0.034867751841812906
000560 93 3b f5 e6 65 35 ac bf 84 5f 67 5d 0e d0 9d bf
       -0.05509489483176035 -0.029113983584323502
000570 95 15 56 04 2d 5c a4 bf c4 6e 05 99 95 ad ba 3f
       -0.03976574590619034 0.1042111872279135
000580 18 9c 40 8a 8a d9 b1 3f 58 77 c2 3a 17 b4 73 bf
       0.06972566485693255 -0.004810419788695196
000590 18 f4 0a 55 bc 52 c0 3f 2b bb 18 a8 85 6c ae 3f
       0.12752489235381925 0.059421707887273044
0005a0 c3 39 15 7f 22 83 bc 3f a7 53 70 95 6a 06 b0 bf
       0.1113759575139062 -0.0625979056206477
0005b0 82 89 a0 5e ab 8d a3 bf af 84 42 78 f8 e8 b6 bf
       -0.03819022684207864 -0.08949234901457957
0005c0 7c b8 b5 1f 4e 40 be 3f 4a 1e 37 b0 bb 77 bb 3f
       0.1181687190453164 0.1072957329953336
0005d0 0b ad 7e e2 b6 07 a1 3f bf 6f 16 3a 8b 8b a8 bf
       0.033261981151861596 -0.04793963512494725
0005e0 15 24 5b 5e 62 dd aa bf dc cb 19 4f 6a ce b1 bf
       -0.0524702778034866 -0.06955589705630366
0005f0 c2 62 1e 0c 82 0c b7 3f 7d 6a a7 81 17 8a ad bf
       0.09003460689417422 -0.0576941819924359
000600 51 f7 88 23 71 a6 b0 3f 20 a1 ee f4 4b 11 b6 bf
       0.06503970258287707 -0.08620142679012988
000610 0d c9 65 c0 da ba 75 bf 05 41 47 fd 1b 45 b2 3f
       -0.005305151460890179 0.0713670247416794
000620 3a 9f 48 3d e4 f6 b2 bf 38 16 5a 47 83 36 85 3f
       -0.07407976623710236 0.010357881178843717
000630 db 24 10 65 e6 c9 a6 bf e6 8e 12 b8 28 db 8d 3f
       -0.04450912460021935 0.014578168981024441
000640 a1 89 ea 4c c9 1c a0 3f 36 9b 1d dd 8a d0 86 3f
       0.031469622267894744 0.011139950631059752
000650 64 f4 45 70 c1 87 51 3f f3 32 0e 1c 38 1b bb 3f
       0.0010699643181333535 0.10588408169696688
000660 d6 30 3d 7b a0 3a ae bf 60 52 c7 38 57 7d 92 3f
       -0.059041037601305454 0.018056261864176526
000670 26 5b b3 c8 68 52 b6 3f 30 e9 c2 e5 01 99 b3 bf
       0.08719496631543375 -0.07655345782669509
000680 8f e6 87 8b 36 2b bc 3f f9 ff 7b cc 0b 80 b4 3f
       0.11003437906756573 0.08007882826132108
000690 d6 a1 eb 30 76 ad ac bf 8a 3b 18 81 2a 96 b1 bf
       -0.05601090762303655 -0.068697601811648
0006a0 fb 7c 56 f9 f6 c4 a7 3f 88 8e 2e ab 23 87 b8 bf
       0.04642459672617779 -0.09581206254238783
0006b0 6b aa cd 47 33 72 c1 bf f8 b8 ab ba fa d5 96 bf
       -0.1362976170160722 -0.0223006416735467
0006c0 40 7a 99 80 b5 c8 a6 bf 77 56 37 68 54 2f 97 3f
       -0.04450003809755687 0.02264148603520374
0006d0 8b 62 45 b6 39 c5 b1 3f 41 35 cd 7f 16 6c c0 3f
       0.06941567134834707 0.12829858055412482
0006e0 c9 b8 ec 34 e8 0b ac 3f 7c 5b 4e 9f 6b 76 c1 bf
       0.05477834363988305 -0.13642640379540782
0006f0 52 fc 70 6d bd 13 c2 3f fe e3 62 96 aa 1c a1 3f
       0.14122741550270007 0.03342183194894942
000700 51 ac 07 33 44 1b ab bf 19 c4 88 73 71 e0 a5 3f
       -0.05294240115093685 0.0427279904873858
000710 5e e2 21 3a 0e 5f b6 3f b2 80 ce b4 9c 00 c0 bf
       0.08738793296095923 -0.1250186808438279
000720 8c 75 32 65 64 58 a6 bf 51 e7 d5 00 73 ea c1 3f
       -0.04364312873188245 0.13996732273863668
000730 1a e7 1a 81 df 63 7e bf 45 fa 83 04 65 a0 94 bf
       -0.007419465125787084 -0.020143106842619458
000740 5a 8b 08 97 2d bd ab bf b4 b1 4c a2 b3 19 a3 3f
       -0.05417768925351281 0.037305463373147246
000750 40 ec 2f 95 26 d9 b4 3f 29 0a a8 25 d4 78 8e bf
       0.08143845693841545 -0.014878899954969676
000760 b5 9f cd 1b 5a 0e bb bf 61 bb 24 da 57 02 b1 bf
       -0.10568774393834597 -0.06644200397270829
000770 25 b3 23 4b 92 2e a6 bf d3 a5 19 36 90 21 a5 bf
       -0.04332406203488962 -0.041271692852045704
000780 bd ea c4 0c 89 0f a5 3f 34 30 30 42 df 08 b4 3f
       0.041134150322667186 0.07826037755893439
000790 cb 4d 14 1a 58 ce a4 bf a2 fc ed 10 ac 23 b9 3f
       -0.04063678091383912 0.09820056355782694
0007a0 a2 75 0b be e8 1d a1 3f ff f9 ca a8 36 b2 9b 3f
       0.03343131370432252 0.027047018101024275
0007b0 e7 de 1c 4c 92 3b b6 3f 6c 5a 3c 49 fe c3 a8 3f
       0.08684648855421138 0.04837031024924418
0007c0 17 63 43 82 c2 f0 9d bf 32 58 ee df 71 f1 c0 3f
       -0.02923873825133957 0.13236831125385745
0007d0 c4 a2 0c da d0 58 b9 3f 4f 3f f9 69 bc 88 a0 bf
       0.0990114719721858 -0.03229321282981223
0007e0 9c a4 82 89 3b 24 a6 3f a2 6f 3a c9 1e 08 af bf
       0.043245182548454525 -0.060608827651974964
0007f0 d6 4f 0b 1f a6 91 bb bf 54 ae f2 3b 8e 64 b0 3f
       -0.10769117601313324 0.06403435672353314

equations.x.layers.4.bias f8 [64]
000000 c8 49 ea 8a 8f 1c b0 bf 63 04 69 48 85 a0 71 3f
       -0.06293580190166559 0.004303475032942125
000010 08 2f 4e ad 3d 80 86 bf 37 21 97 19 02 d7 98 3f
       -0.01098678765426754 0.02425769120398621
000020 ac f6 9e ed cc e2 82 bf 90 68 37 a8 39 b6 ab bf
       -0.00922165012513728 -0.05412464312003451
000030 b3 13 ce 24 3c bf b5 bf 4d 57 5a 15 15 31 b9 bf
       -0.08494926355895309 -0.09840518733321098
000040 2b 9a 0e 0b 88 5a b2 bf 88 05 88 79 74 32 a8 3f
       -0.07169389982173217 0.04725994094406888
000050 3c c8 54 a9 63 da b2 bf 59 2f 22 0c c3 49 91 bf
       -0.07364485630094547 -0.016882941833088114
000060 ef 72 b7 2e 39 16 b3 bf 8e 14 d6 90 d5 f9 97 bf
       -0.07455785170118266 -0.02341397949705431
000070 18 6d 68 03 87 59 b5 3f a2 42 a4 88 0c 29 b1 3f
       0.08339732964707414 0.0670326074216612
000080 cb d7 52 70 3e 30 94 bf 5c 43 fe 67 53 58 9e 3f
       -0.019715285878838345 0.029633811208955904
000090 ff 0b e2 66 16 96 c2 3f 76 c9 bf 3a e3 07 b8 3f
       0.14520530723174827 0.09387035545640807
0000a0 02 e0 ba af c7 bb b7 bf 38 ef c9 84 9a 7a c0 3f
       -0.09270904579432229 0.12874156459644737
0000b0 df 12 38 df 22 c4 a7 3f d9 94 78 46 e9 38 a6 bf
       0.04641827559320232 -0.04340294823877295
0000c0 88 65 d5 78 b3 74 bf 3f 10 7b 4b 5d c1 cf 83 3f
       0.12287446689642512 0.00967360559428479
0000d0 e3 fb 4b 32 36 60 ad 3f 35 52 a6 69 6e 54 aa bf
       0.05737466205572852 -0.05142540969533053
0000e0 65 f4 d6 4f f4 10 b1 bf f0 81 94 97 43 2a 95 3f
       -0.06666495274744617 0.020669036986079747
0000f0 72 a7 45 af be d8 ac 3f 97 66 26 96 a8 43 a1 3f
       0.05634113206435999 0.03371931870351579
000100 cf 68 58 c4 96 52 bf 3f 06 d4 54 df 27 1e b0 bf
       0.12235395711505535 -0.06296014025140559
000110 2b 69 ac 5f da a0 92 bf 4c 90 c2 ea 18 db b1 bf
       -0.018191730584569726 -0.06974940997548734
000120 52 ec bb 7a 9a e6 99 3f 50 85 7f f6 0f 6f 9a 3f
       0.025293744793981006 0.02581429426198173
000130 59 dc e5 45 ac 28 b7 bf aa c2 a4 c8 e0 62 b7 3f
       -0.0904643698357729 0.09135250948453214
000140 d4 bf 8b 3f a2 2e ae 3f a1 c4 ca 28 97 c8 c0 3f
       0.05894953752238022 0.13112153522300665
000150 d8 20 5e 7d ae e0 b1 3f f7 d4 10 00 c0 42 b7 bf
       0.06983461914763056 -0.0908622741852304
000160 06 1f 82 17 67 28 aa bf ed ff 31 ce 7e 3a a9 3f
       -0.0510894981571806 0.04927440897972688
000170 2d 7e 85 ce 90 b3 bd bf 84 4b ed 41 67 11 6f bf
       -0.11602120439555881 -0.003792478251321398
000180 0a b1 c9 58 91 45 8b 3f 69 cc 65 fd b4 19 b2 bf
       0.013316283723917372 -0.07070475756136009
000190 d9 75 cb 19 67 88 aa 3f 7e 70 41 e1 b5 14 bf 3f
       0.05182192029836203 0.12140976666836598
0001a0 97 ab 12 6e c9 2b 98 3f 4f 0a a3 b5 3e 79 bb bf
       0.023604533522909667 -0.10731880125516934
0001b0 83 21 76 bb cd da c1 bf c9 b9 2d 38 ed dd 80 3f
       -0.1394898572291475 0.008235791470465952
0001c0 3e 21 a9 a3 15 84 a8 3f 1f a1 c9 42 38 3d 9e 3f
       0.04788272497950395 0.029530409885780814
0001d0 a1 be 8d 7d 5d 4f 7a 3f 84 e2 88 c0 9c 1a b0 3f
       0.006423344800040504 0.06290607166818957
0001e0 da 15 6d 34 44 57 75 bf 2d 90 ca ce f0 9d af 3f
       -0.005210176873168016 0.061751866572450666
0001f0 5b 31 20 24 0f d4 75 bf 3f ff d8 d3 27 07 b9 3f
       -0.005329188485131499 0.09776543542920722
