double-well-vFinal2/2025-06-03_08-06-29/model.pt (torch, 138642 bytes, 12 tensors)

equations.x.layers.0.weight f8 [64, 1]
-0.3355314461389711 0.6763708401764806 -0.4663944961636185 -0.4907464826413422 0.8104040296749035 -0.12692074612122228 0.3800922401725895 -0.8405866877431464
0.5740036271482506 0.42008809351666226 -0.03459192164604704 -0.19496823978482897 -0.4906217761076009 0.4728965941191434 -0.43080003177512266 -0.6944013315339641
-0.0497048127384452 0.13188320115917537 -0.6242179949280684 -0.4949579601540439 0.894751059575494 -0.12166868242092159 -0.5367279268156077 -0.2185744681361535
0.0028522888031986366 0.08949346237962252 0.21019437926238163 -0.21425581045064163 0.6300798998942156 0.8086944256320183 0.09351310369306762 -0.45425576385134353
0.2546235555462685 0.2879231535017029 0.6111530932498633 0.05355870937058519 0.2463515154589656 -0.15303520780031718 0.7366192558844319 -0.518331372383775
0.20904699318114528 -0.30348820905169854 0.45554701078784127 0.1580505008244309 -0.7589902519920331 -0.6545389495966074 -0.5228272625527026 0.4451561786066741
-0.4027337093842018 -0.08125050283010087 0.41975820324780777 0.7674948724498994 -0.24984422027493913 0.6542103530368674 0.45061635368015246 0.46242151811761706
-0.7549969341304636 0.35257533718784934 -0.5553631003716335 -0.7768662630673951 -0.4553336314073961 0.20575798539600537 -0.7132068018678333 0.514213467927746
00000000: e892 fce2 5879 d5bf 37d5 d075 d4a4 e53f
00000010: 2aa8 034d 68d9 ddbf 0995 64ef 6368 dfbf
00000020: a802 806e d4ee e93f 1025 e362 f03e c0bf
00000030: 2d4c 4067 6e53 d83f b3e9 a90d 16e6 eabf
00000040: 3d63 ccda 3c5e e23f 99f4 c52b b9e2 da3f
00000050: dbe3 5948 08b6 a1bf 2a38 d122 b8f4 c8bf
00000060: e99a c5e0 5866 dfbf 9c6a 8813 f043 de3f
00000070: 21c1 e54b 3a92 dbbf 6297 2724 8938 e6bf
00000080: c3b2 54c2 e872 a9bf d36a ef79 8ce1 c03f
00000090: ce4d 3904 98f9 e3bf 546a f026 64ad dfbf
000000a0: de04 5ef9 cca1 ec3f 1bfd f1c3 ad25 bfbf
000000b0: bbbb 900b e02c e1bf ea53 3188 3ffa cbbf
000000c0: d68c 1ce4 ae5d 673f 3854 2026 0be9 b63f
000000d0: d512 5e40 a6e7 ca3f 8a86 6e01 bc6c cbbf
000000e0: 1a34 7d52 9d29 e43f 3681 d121 d3e0 e93f
000000f0: 5ef3 1b8a 79f0 b73f 8bb4 70c4 8612 ddbf
00000100: 9632 f798 c04b d03f 9d43 033c 556d d23f
00000110: d56f 8bee 908e e33f 8544 5312 0c6c ab3f
00000120: 94af 1b4b 7288 cf3f 57c8 515e a896 c3bf
00000130: 6714 b48b 6292 e73f ae21 9cac 2b96 e0bf
00000140: c423 8547 0dc2 ca3f 6350 26cf 596c d3bf
00000150: 25f5 47a6 ae27 dd3f 1a24 14b2 ff3a c43f
00000160: 0e3c c9ec a549 e8bf 4a38 cfaa fbf1 e4bf
00000170: c0df 433d 00bb e0bf 8e97 2e57 707d dc3f
00000180: 9352 b39b 63c6 d9bf bb57 703c d5cc b4bf
00000190: e054 cb82 51dd da3f eba3 2068 518f e83f
000001a0: 4076 9639 e5fa cfbf 49ef df8c 4aef e43f
000001b0: 6956 86f9 e5d6 dc3f 9d09 526c 5098 dd3f
000001c0: 9e75 9554 ef28 e8bf 6545 a625 9890 d63f
000001d0: e80a 30d6 88c5 e1bf adaf 27a3 16dc e8bf
000001e0: cf79 eaab 2f24 ddbf 0e56 1515 4756 ca3f
000001f0: bad3 2912 97d2 e6bf 7f32 7dcd 6f74 e03f

equations.x.layers.0.bias f8 [64]
-0.19550625335873992 -0.6486186632447425 0.9927474042120895 0.9311061210652788 -0.9395243206677648 -0.6262949508002171 -0.3262387531267551 0.021042863550753892
0.5245063321547823 0.7354912329494532 0.27423825448532474 0.08596189300101745 -0.44955587485269105 0.5915408699474535 -0.7961417195911483 -0.6408766533912877
0.005013633983080519 0.5565659570083185 -0.49886595396658595 -0.2359807839958151 0.07120192825977738 0.6407241956308349 0.8923025556017959 0.25184493235869504
-0.3669337234087472 -0.8151553302323364 -0.12313534951095441 0.1889008292031714 0.24068286664003422 0.33710598069327075 -0.6748537282597729 0.2801501135142381
0.21934563882840655 -0.7234670667296706 0.03495017013287386 -0.20869675052093317 0.040620849321219094 0.09148594697761109 0.7035418681217075 0.985175454619157
-0.4570100543558983 -0.1669694032698398 -0.31260752177418527 0.8122747147887981 0.5405063890015911 0.8467334416639151 0.443753725705035 -0.6620650820540723
0.28134762376434774 0.16846126223465333 -0.8099167225810712 -0.38833557237671573 -0.08026405727522047 0.2733168692394154 0.20246067658060582 0.44095598089836446
0.8582544112651955 -0.37136426826717983 1.403769775064582 -0.49323289626952266 -0.9644756368551655 0.5764286887182091 0.8957967736423924 -0.44934396936086074
00000000: 776d 2b52 5906 c9bf d7c3 46ed 7bc1 e4bf
00000010: 43f4 4834 96c4 ef3f d395 6210 9fcb ed3f
00000020: c011 e24e 9510 eebf 92c7 6ab5 9b0a e4bf
00000030: b680 d781 18e1 d4bf db07 0fab 428c 953f
00000040: 5eca e480 c1c8 e03f 6067 00e9 2489 e73f
00000050: efe6 949b 1e8d d13f 4a41 243f 9901 b63f
00000060: f3e2 0d01 86c5 dcbf 957e 551e e7ed e23f
00000070: 8301 1433 fe79 e9bf 7cbc 62c1 0f82 e4bf
00000080: 7bf5 dc1f 2d89 743f 8d5d ed68 63cf e13f
00000090: fef4 5777 6bed dfbf 338c df4a 9e34 cebf
000000a0: a3b2 4921 4a3a b23f e2b0 3f07 d080 e43f
000000b0: 4b4d ce16 be8d ec3f 1b36 0935 3a1e d03f
000000c0: dac3 7595 d77b d7bf 4041 90a1 c015 eabf
000000d0: 618e 215b cc85 bfbf 23b5 ce01 e72d c83f
000000e0: c796 7638 b2ce ce3f 4f45 97f6 2493 d53f
000000f0: 5eb3 8ed8 6698 e5bf f3ea e0bd faed d13f
00000100: d9e4 a494 8413 cc3f 95c8 ea67 a426 e7bf
00000110: 45b0 6b1b fde4 a13f a06a 223b 93b6 cabf
00000120: 6ca2 bd86 41cc a43f 64fb 4f7e 9f6b b73f
00000130: 2162 5e3c 6a83 e63f a528 cdac 8e86 ef3f
00000140: 87b6 5919 a73f ddbf 2501 3ddf 405f c5bf
00000150: 2c3d a0fa c201 d4bf f656 ec8a 27fe e93f
00000160: f44e 010e d44b e13f 8308 0cbb 7018 eb3f
00000170: e466 d806 7666 dc3f 92dd 671c a32f e5bf
00000180: 0c03 b876 9901 d23f 6169 f87d 2390 c53f
00000190: bb03 7f79 d6ea e9bf d5cf ce71 7dda d8bf
000001a0: 7195 0a6d 2f8c b4bf 7704 b509 067e d13f
000001b0: d7e2 5140 3bea c93f e7c7 3b6f 9f38 dc3f
000001c0: 1604 81f4 d176 eb3f 9012 c7a2 6ec4 d7bf
000001d0: 2040 b04b d775 f63f 537e b2b5 2091 dfbf
000001e0: 5a9d c202 fcdc eebf fcaa d093 1a72 e23f
000001f0: 2601 d5fe 5daa ec3f 80d2 4335 0dc2 dcbf

equations.x.layers.2.weight f8 [64, 64]
0.13812552460627542 0.01724906713625042 -0.02772366284174589 -0.075537425213869 -0.0695010178669141 -0.06528658316447115 0.03518329995632595 0.11091100033984393
0.0038780588838060693 -0.05190039884596008 -0.05886359448762389 -0.004111022993828049 0.022238269092468732 -0.020368324311321708 0.15327689994376287 0.04287473312058697
-0.04757243579373638 -0.045087164762144145 -0.07443097474899998 -0.09555748280408259 -0.05030620008941843 0.06140475870040511 0.11425070344767019 0.11730750394215879
0.08956443294455588 0.0658652996595572 -0.08209395951133105 -0.028398529169574454 -0.09805124241098634 0.04009134912748238 -0.04266744417117024 0.0034704035522280367
0.06277410805359708 -0.042939381190576095 -0.07626631261247656 0.14358159733090314 -0.09752725718337696 -0.06987984580009506 -0.033419839575949656 0.11190106761009018
-0.006277675608214487 0.10893820511214537 -0.07512011027465157 0.06354587080782358 0.011257311563429018 0.09823341622156506 0.06947948154596643 -0.11012908555999903
-0.06081536600439942 -0.003045062551934122 -0.02873609838143479 0.08124006979008161 -0.10133514106502 -0.10658055551260644 0.01410075905144653 -0.07069339801012796
0.03394293870566602 0.00010209291646358408 -0.016424130893488292 -0.058773934960140016 0.04727624019980861 0.00479504659646228 -0.05182490726927512 0.10521731632932868
-0.0022972068601933735 0.054355015285730744 -0.04633942116252988 -0.060291715146735037 -0.11919974509112685 0.13712502679222371 0.0513322821486687 0.16133342691323557
0.06124367576555683 -0.131483351827417 0.012464015892360644 -0.06939254792002103 0.0988015224061372 -0.07691009243129952 0.22051714890530466 -0.016358944409136808
0.197067812957627 0.042410791892692715 -0.061338466233616176 -0.06448906613260756 -0.13764837582649633 0.032823546953937764 0.0663298098258288 0.13267817506276433
0.07398581127404155 -0.012320726075876951 -0.05955819983054795 0.10076742575090752 0.005514496574380722 -0.016232649265747447 -0.016100625852951977 0.14176531875270584
-0.039681367199314456 0.18432393794406335 -0.050023226307461525 -0.08115979666031742 0.06822460321102915 -0.07109185677599641 -0.07564077457674075 0.09371386285437378
-0.04762158099429867 0.028962007400852505 -0.0370490603783916 -0.13237981739256088 0.07672354470296812 -0.0320927691042372 0.10159414060666605 0.045301856174930474
-0.027874696631114745 -0.05396674525541306 -0.006614765423330994 0.06643597367714674 -0.01792517519348275 -0.1288815951081018 -0.03729021142675389 -0.14755867160416242
-0.04284267126784693 0.07817684282336661 -0.13568185302889352 -0.06049441831940167 0.1728800632410182 -0.09365457081143531 0.006871523271202714 -0.046692788742138495
-0.08635151978080848 -0.03874275799825082 -0.04608033616251526 -0.01634830791108308 0.0006732556587524919 -0.1088520827117291 -0.03810590299325359 0.02951190236522022
-0.10408681747303604 0.04332647111065108 0.04467523343726478 -0.08177356268905292 0.0655559418367237 0.008750360836661277 -0.0007653608983019279 0.10828830004673885
-0.0746910301911684 -0.03056277387992361 0.12419634452098462 0.029107506518727 -0.036571315351553786 -0.06070533675794312 -0.028961180640021962 0.14441275789721195
0.03614345378173721 0.07545541084743262 -0.15064872052090145 -0.061217281893621946 -0.16133482360222226 0.08391597516635034 -0.12574552594535585 0.06404711502302306
-0.14639310542498613 -0.13757973952189542 -0.11603997502293129 0.057894531429703175 -0.13742201210091867 -0.011616844122483315 -0.14890694309701824 -0.034962161689277495
-0.09778664874986043 0.003274764409601081 -0.10003937397629921 -0.03219741391420727 -0.02845068784411225 0.10891820123599834 -0.03782171383041139 -0.023658238289756224
-0.07229805968945029 0.12462393558358349 -0.04249637597423408 -0.1246160037511496 -0.021483654727420143 -0.018413618193526538 -0.06622914467625249 0.025942783976228012
-0.07603424048873562 -0.15528732181568217 -0.03288616228820788 -0.07857525694321962 0.07648623192586732 -0.02664000815270288 -0.06455218655278024 -0.04454178008408827
0.11985631177230653 -0.12680303483040278 0.07967235172885083 0.11109793184934615 0.10777790163291756 0.04752671450664227 -0.056825166420451094 0.03671560080182212
-0.004277994492997204 0.08428869177789043 -0.06683441621681387 -0.11497980960577207 -0.058429784561014546 -0.06155091329684118 0.10274886319071015 -0.03310620545331076
0.07647597029062266 0.023542686605786914 -0.05754617522762717 0.03495615174768535 0.059982192710017555 -0.015848360909314102 0.08344513186373688 0.017129363138341194
-0.08335827577356844 0.01610638390083635 -0.0697157946109668 0.10577495968428609 -0.08517564750111888 -0.07650901975840912 0.006234036529264894 0.09122124747354227
-0.13750250248952972 -0.1352200564790251 0.10797125170275824 -0.15111066336174 -0.13001936461398994 -0.08265526036330742 -0.05452824051260427 -0.06064258768434953
-0.13824215078446742 0.03686733886277396 -0.09573862266254733 0.11442670614818008 0.07147341842822426 -0.10448168265645699 -0.09242545661124921 0.02337555774193739
0.051505993390449104 -0.0021394058348626556 -0.0841919453382655 0.08733385635359306 0.0353066987186042 0.009165659419238624 0.051958447349325004 -0.10791502227000156
-0.08822546598902246 -0.10546696192672123 0.07770590283050943 0.06478123635424551 0.011926809906624848 0.006830108258132871 -0.02061499918240894 0.08056614067711014
00000000: 42a1 76e1 18ae c13f 8462 f24c bda9 913f
00000010: 042a ec84 9763 9cbf b2e8 eab2 6b56 b3bf
00000020: 88f0 c696 d1ca b1bf d319 8f1b 9fb6 b0bf
00000030: be05 5ba5 8b03 a23f 21ed 39cf a964 bc3f
00000040: b63b 7e02 e1c4 6f3f beb0 6267 b092 aabf
00000050: deaa 7f7a 5e23 aebf 8b4b fc54 b8d6 70bf
00000060: c01f e3f9 a0c5 963f 7771 2a1b 6fdb 94bf
00000070: 1ad0 3ed4 939e c33f 9ec1 2751 adf3 a53f
00000080: 40ae d90f 6a5b a8bf 11dc 3e34 aa15 a7bf
00000090: 323a 5b8a e80d b3bf 0f18 8887 7476 b8bf
000000a0: 4f15 57f8 bbc1 a9bf f6bf dfcc 7170 af3f
000000b0: 084d daba 883f bd3f 55c8 0155 dd07 be3f
000000c0: fab3 61d6 b1ed b63f 3ea2 fa5b 8cdc b03f
000000d0: 72e1 4c17 1c04 b5bf 6bbb 2608 8114 9dbf
000000e0: 44c3 7cdf e219 b9bf c3c9 b572 da86 a43f
000000f0: b85e a3da 81d8 a5bf ddfe 57b8 f66d 6c3f
00000100: 7132 20c5 f611 b03f c616 d98b 26fc a5bf
00000110: 7304 7566 3086 b3bf 60fd 6bbc e160 c23f
00000120: 3039 12dc 8bf7 b8bf fd65 5c44 a5e3 b1bf
00000130: 9454 08bc 671c a1bf add7 c561 8ca5 bc3f
00000140: 9e33 eab6 9eb6 79bf c9d9 3dcc 5fe3 bb3f
00000150: 76cb e650 123b b3bf 7f5a eacc 8a44 b03f
00000160: 40e6 0bc8 120e 873f 34c5 0b3e d325 b93f
00000170: 5ba3 fb44 68c9 b13f 928e d174 6b31 bcbf
00000180: b294 2a10 3123 afbf ba04 6582 f5f1 68bf
00000190: e935 0deb fe6c 9dbf 4a87 df32 26cc b43f
000001a0: 8c4f cf8c 19f1 b9bf adef 5000 dd48 bbbf
000001b0: df43 ccd7 dbe0 8c3f e721 7f68 f618 b2bf
000001c0: 2289 5707 f860 a13f 20a4 0ff3 56c3 1a3f
000001d0: 8805 36c4 7cd1 90bf 0ba6 0501 9e17 aebf
000001e0: 0471 1263 9734 a83f b09b 0885 f8a3 733f
000001f0: 3ef6 ad53 cb88 aabf 847b 9ba4 85ef ba3f
00000200: a60f c68a 97d1 62bf d334 0daa 6bd4 ab3f
00000210: c138 d1f4 ccb9 a7bf 80c9 8c41 8ede aebf
00000220: 10a1 dbde df83 bebf a092 c418 508d c13f
00000230: b17a 1d92 3948 aa3f a706 2ce0 92a6 c43f
00000240: 27f2 ffc0 545b af3f 989a 084c 72d4 c0bf
00000250: ab7b 13e5 bb86 893f 0011 e7c3 b5c3 b1bf
00000260: d384 877b 0e4b b93f 6f8a b93b 61b0 b3bf
00000270: 72b2 60eb e739 cc3f ccf2 ef2c 66c0 90bf
00000280: fca5 dfa1 8439 c93f 5268 5a08 deb6 a53f
00000290: f29c eb64 c167 afbf ab37 fdfd 5a82 b0bf
000002a0: 57db 4244 769e c1bf 8369 6979 3fce a03f
000002b0: 67ab f38b fdfa b03f f7cd 6433 99fb c03f
000002c0: d63f caef bbf0 b23f b28e 78dc 9b3b 89bf
000002d0: 2930 f690 697e aebf 742d 1ade e4cb b93f
000002e0: e5cc 0d67 5e96 763f 0a32 e5a6 4a9f 90bf
000002f0: 932a efb5 ae7c 90bf 4dfc dfaf 5d25 c23f
00000300: 0d64 c3bc 1d51 a4bf d17a ab42 ed97 c73f
00000310: 37d9 0ff2 a49c a9bf 6cf4 6770 e3c6 b4bf
00000320: 2dee 92e7 2a77 b13f e264 dd6f 1333 b2bf
00000330: 151c 0d9d 315d b3bf 7830 24b8 a1fd b73f
00000340: ac9d e819 db61 a8bf 39e3 736a 37a8 9d3f
00000350: ed6e 582d 18f8 a2bf fcfd 2c65 d2f1 c0bf
00000360: ed1a 557b 27a4 b33f 4147 7ba3 766e a0bf
00000370: 70f0 5ed7 1202 ba3f 1658 700d ce31 a73f
00000380: 7f8e aa39 2f8b 9cbf 981a e37b 87a1 abbf
00000390: b568 9f92 1518 7bbf a2a4 38ae f201 b13f
000003a0: f19f ec24 fa5a 92bf 93d6 052e 317f c0bf
000003b0: fbe1 13dd b317 a3bf 7afa 63da 33e3 c2bf
000003c0: 03f7 ef7f 79ef a5bf bb1b 3bc7 6503 b43f
000003d0: 3abb b5e0 055e c1bf 8974 8bd8 1ff9 aebf
000003e0: 2b13 e014 ef20 c63f 3d8b c1f6 bef9 b7bf
000003f0: 3c88 937b 5025 7c3f 078a 3601 1ee8 a7bf
00000400: d120 6b19 221b b6bf 7660 1e3d 17d6 a3bf
00000410: 5d06 9d81 d797 a7bf f9ca 4a5f 9cbd 90bf
00000420: 67d6 a184 ad0f 463f 592e 59e7 badd bbbf
00000430: 24f9 47ee 9d82 a3bf 1066 013e 5e38 9e3f
00000440: 1fcd fd04 6fa5 babf d852 f120 e32e a63f
00000450: 73c2 1b15 acdf a63f 8a48 6db9 1cef b4bf
00000460: ec48 3f32 46c8 b03f 8e28 f98c b5eb 813f
00000470: 1664 9003 5014 49bf 597c 3d33 c8b8 bb3f
00000480: 08c2 f98b f31e b3bf 2d42 2809 d94b 9fbf
00000490: c118 00e6 54cb bf3f cd9f 43b2 5bce 9d3f
000004a0: 5131 d0b6 79b9 a2bf 23d5 2218 c514 afbf
000004b0: 224d cfee ffa7 9dbf ab97 2504 1e7c c23f
000004c0: 4e02 ea0f 6581 a23f 145e e5b9 0b51 b33f
000004d0: 6e27 e90f 7548 c3bf cdc1 5d1f df57 afbf
000004e0: a7ea 8997 9ea6 c4bf 7390 f370 847b b53f
000004f0: 1ddd c6ec 6d18 c0bf 1f52 6d48 6465 b03f
00000500: 4a81 1460 02bd c2bf d15b eb80 369c c1bf
00000510: b08c c0b9 cbb4 bdbf 1634 371e 5aa4 ad3f
00000520: c9aa dc63 0b97 c1bf 7fda b56c 92ca 87bf
00000530: 18e0 5ff9 610f c3bf 2517 1b7a 8fe6 a1bf
00000540: 10b8 5dba 8b08 b9bf 2eab 52c1 add3 6a3f
00000550: 6d5f 8a2f 2e9c b9bf aff9 8def 2d7c a0bf
00000560: 8f4e 5b57 2d22 9dbf 2d6d 3f30 10e2 bb3f
00000570: 49e8 f51f 5e5d a3bf 2221 f17e dd39 98bf
00000580: a331 ee29 2082 b2bf 755b a1af 5ae7 bf3f
00000590: a305 04c2 15c2 a5bf db5d ab9c d5e6 bfbf
000005a0: 70b1 cfa9 cfff 95bf 2dd7 c4ff 04db 92bf
000005b0: d632 6daa 64f4 b0bf 70f9 fac2 be90 9a3f
000005c0: 477b 46e0 fa76 b3bf a444 5778 74e0 c3bf
000005d0: 55a0 097f 74d6 a0bf 8e8e d80e 821d b4bf
000005e0: 5643 b708 9a94 b33f ebc6 1faf 8447 9bbf
000005f0: bd25 21fa 7d86 b0bf d097 8821 2ece a6bf
00000600: 1bff 473b e7ae be3f 10a8 d0f3 143b c0bf
00000610: 7b21 1241 6865 b43f c138 f2ff e970 bc3f
00000620: d8b0 be22 5597 bb3f 4216 fce8 6b55 a83f
00000630: 3f2f bb2e 3018 adbf 3fc5 6421 63cc a23f
00000640: 3ecb 0967 cd85 71bf 5fd1 9b96 f193 b53f
00000650: f901 e66f 0f1c b1bf 5b04 f519 516f bdbf
00000660: 6f90 9a3b 82ea adbf f537 4cef 9983 afbf
00000670: 85f3 1adf bf4d ba3f ade9 6eeb 4bf3 a0bf
00000680: d5fd 53df ed93 b33f 9498 20f4 921b 983f
00000690: 609f 3939 b176 adbf c8c3 19d1 c5e5 a13f
000006a0: 8b54 1068 fcb5 ae3f 08ed 337f 8d3a 90bf
000006b0: f57a 5d00 a95c b53f d403 ec19 5c8a 913f
000006c0: 9e65 4ccc f756 b5bf 2f93 7120 317e 903f
000006d0: c266 def1 e4d8 b1bf 0169 9458 1114 bb3f
000006e0: 7bd4 6e3c 12ce b5bf 541d b659 1896 b3bf
000006f0: 7083 3e70 dc88 793f 4c64 9992 465a b73f
00000700: a6c4 a797 ae99 c1bf 979b 2b0c e44e c1bf
00000710: 41b6 f802 01a4 bb3f c696 9b1e 9857 c3bf
00000720: 8e90 6e7b 79a4 c0bf 2a4f 1a28 e528 b5bf
00000730: ac8c 6b23 20eb abbf 66bc b295 8b0c afbf
00000740: 7b24 4636 ebb1 c1bf 548e 699d 46e0 a23f
00000750: cbba 4c8d 5382 b8bf 1108 b290 114b bd3f
00000760: 65bb aefa 144c b23f 6260 0ac2 4fbf babf
00000770: 1e93 76d9 31a9 b7bf b009 1c20 c3ef 973f
00000780: bae7 515a fe5e aa3f 71d3 fec2 a886 61bf
00000790: 1b81 d073 9a8d b5bf 624b dff8 825b b63f
000007a0: 88fa a638 b813 a23f f97f 9dfb 71c5 823f
000007b0: 348a 3b30 4c9a aa3f 9d92 65a3 51a0 bbbf
000007c0: dfe2 18b3 f195 b6bf 80a3 4800 e2ff babf
000007d0: 24fa 5cb7 88e4 b33f c232 89cb 8095 b03f
000007e0: 34dd f453 156d 883f 5893 8c39 e3f9 7b3f
000007f0: ff9a 2e2d 191c 95bf 0385 5f8b fb9f b43f

equations.x.layers.2.bias f8 [64]
-0.06455637309494874 0.02748520094841096 0.12426222808489328 -0.13132282019795308 -0.07940865669902318 0.10296753940704005 0.08078499653783774 0.0921669965570161
0.10406949914266002 0.05264877692367696 -0.04276915566205044 0.13077913422670243 0.0011829002395740322 -0.033854993654316504 0.002416395731548173 0.10326283769394232
-0.01163077547666968 -0.1285368898362541 -0.1749741108553683 0.07124340035470432 -0.012935709047323747 -0.08954448001280024 0.10379863558090792 0.06723148617675491
-0.17127650284076923 -0.10560701254673567 0.02639585560375203 -0.059030149062464315 0.08072309225926917 -0.07582277863142892 -0.07492327944870292 -0.10701030221586832
0.07373509826180032 0.10081832318530913 -0.061947882458338266 -0.066993931926057 0.06430381352518531 -0.062243827701451315 0.1166715085294478 -0.10971285145277168
-0.01095413309079764 0.048210586630537504 0.05752589407688057 0.08422844953521014 -0.055371105501290145 0.056460376590365347 -0.1459586684152681 -0.015566066503900213
0.09377816799110279 -0.007274265244482694 0.0009107358359783716 0.009965921262764639 -0.06264228257921525 0.04356040537834127 0.007816270421588684 0.14858558497011012
-0.01958732429998981 -0.07733353593803644 0.11267476773960855 -0.013650522949093923 0.08815411807288401 0.04098260879870537 0.1052986512541309 0.04144625281481639
00000000: 1ef1 3037 c486 b0bf b326 ca9c 1425 9c3f
00000010: 8fb1 c03d a6cf bf3f 41fe fba8 2fcf c0bf
00000020: 07a6 8a2f 2054 b4bf 2786 4da6 145c ba3f
00000030: 4e32 2356 53ae b43f 38a1 fb9b 4198 b73f
00000040: dd2d 5477 4ca4 ba3f fe88 1fce c7f4 aa3f
00000050: 232c b1b9 d6e5 a5bf 695e 40e4 5ebd c03f
00000060: 5448 fa75 7161 533f 4a68 1a15 7155 a1bf
00000070: 05a8 8494 8ccb 633f aaa2 c9ee 6e6f ba3f
00000080: bd33 6542 e0d1 87bf e48f 1695 e573 c0bf
00000090: 449f e239 8d65 c6bf 574c 94ea 013d b23f
000000a0: 317a 787a 097e 8abf c03a 3115 63ec b6bf
000000b0: ed7d 3021 8c92 ba3f e100 642a 1536 b13f
000000c0: 101e 2371 63ec c5bf 61d2 1da9 0f09 bbbf
000000d0: c4af 45e2 8307 9b3f 640f 671f 3339 aebf
000000e0: ed19 49c1 44aa b43f ae8a 8322 1f69 b3bf
000000f0: a0f5 f00a 2c2e b3bf cc2b 5af4 0665 bbbf
00000100: 2d0e 9aab 4de0 b23f 4720 ebc8 3acf b93f
00000110: 7016 6e02 a2b7 afbf 2b22 a7aa 8326 b1bf
00000120: e747 19f8 3676 b03f 3010 b648 6cde afbf
00000130: 6c4b 8219 2fde bd3f 92c8 f034 2416 bcbf
00000140: 894d 0cdb 1e6f 86bf 375b ccd9 0eaf a83f
00000150: 3f7b 77b3 0874 ad3f f081 25e4 fe8f b53f
00000160: d7f5 8afe 9959 acbf e86f f3dd 5fe8 ac3f
00000170: faa4 b40d c6ae c2bf ae2e 7e14 1ae1 8fbf
00000180: a5bf 9994 d801 b83f 695e 3db5 9ecb 7dbf
00000190: 36c9 be50 ced7 4d3f 4447 2f4f 0369 843f
000001a0: f246 061b 5309 b0bf b03e 00a9 8c4d a63f
000001b0: ea06 b30e fa01 803f 7944 0d3a da04 c33f
000001c0: cb6e 2315 b30e 94bf 7ce7 bc6f 21cc b3bf
000001d0: e4a8 86ea 40d8 bc3f e603 1e2d cef4 8bbf
000001e0: 7279 21ae 4491 b63f 0a8b fd28 acfb a43f
000001f0: fc0b 7337 daf4 ba3f cf44 c378 7138 a53f

equations.x.layers.4.weight f8 [64, 64]
0.008788258557824216 0.0021596339621079794 -0.07319969959398813 0.09045824098371696 -0.11674955882312421 -0.036012630016660184 0.08993421406571349 -0.04791549199510505
-0.02367993335508381 -0.0381804715989518 0.08746050784971139 -0.01941371960322651 -0.058669059275318465 -0.010611237200415888 0.07547592816407873 0.04124341348842133
0.08173729135356711 0.021816062516484967 0.14442510317138083 0.0950480230338032 0.0616341381356477 -0.008976831327302466 0.12682786490742154 -0.10291595977930205
-0.07879684236362379 -0.10462863236898218 -0.10006983989372076 -0.01781010707332576 0.11634825774439399 0.08830568722385874 0.051204461126830095 0.09803231891851154
-0.12469054286235116 0.030624677247631495 -0.06524621559956656 0.05624634272535944 0.1057554801545969 0.04487092327849907 0.031127294983982503 0.017026202599481056
0.0217029078676978 -0.11543343854547515 -0.052422300247087945 -0.0019429981853830369 -0.12497255178340336 0.13100018583343334 0.06272973578870203 -0.09904771445987438
-0.10205965650962766 -0.014164199148276978 0.1184334166478094 -0.05721798794416126 -0.07836659367524164 -0.13728055002268846 0.09560967666172165 0.1365679795361625
-0.036600592901139185 0.08847949432948111 -0.04101833340582594 -0.06482035393713355 -0.09729809135377525 0.027059686218713942 -0.13389022132103973 -0.09413555374598026
-0.08679527698906683 0.006137805964858601 -0.02954389218176405 -0.06935851790854623 -0.11509213401336402 -0.12829527196217308 -0.0798247800204181 0.029222568707983933
-0.051170045594859125 0.13122592112022594 0.047597314285899715 0.003331695571846877 -0.0333995123106538 0.03430362132069111 0.06617585094260751 0.08424138973182675
0.07937104246094899 0.0003765190351071794 -0.07304116306320173 -0.03372120316500871 -0.012119630055969595 0.02722306649770453 -0.04963593229116719 -0.09289407852486403
-0.04320885140095501 -0.05991765934878539 -0.01475985120205004 0.11139644748903962 0.006911830429132031 -0.008447371786547319 -0.056924100998122534 0.040082120448504094
0.1122042661157863 -0.10470758214264815 -0.055106698700450665 0.03811769244012563 -0.01881212694800931 0.1992123607322729 0.07943213089780954 -0.02002946961460164
0.03334701165721145 -0.0943570844081968 -0.12373006062633812 0.03917711003688835 0.1441052861076936 -0.028565189682969817 -0.07163367147196785 0.05310807742489514
-0.08331239312431211 -0.06341866337325867 -0.10681047151562045 -0.028346712155661338 -0.07681298413335706 0.0473482818658593 0.025744521832709234 0.05147828803133484
0.054044674423789095 -0.03536813777955822 -0.03744944058110324 0.03397275575600066 -0.08408140910470074 0.02712899226524688 0.08176755067368602 -0.0636802328425946
-0.08995904122875396 0.05184906640517171 0.09118327017005697 0.13392210493688175 0.06814137843066947 0.06876107056648997 0.033798965444931724 -0.03675484914481682
-0.09118763942193986 0.10086600629422354 -0.005069992004301394 -0.013635841431486061 -0.053259999560483606 0.07262307297982876 -0.0011938929148687001 -0.0861425337087935
0.11044863280354301 -0.07385157474348347 0.08601072737216932 0.08222863372016752 -0.006058700273736429 -0.05076074551631209 -0.01761405764510166 -0.010635929392065247
0.014444546096716561 -0.10980322021427646 -0.04177546751933224 -0.12890985081871562 0.05896254797049973 0.07124065924387307 -0.0712276723712768 -0.1129652314532482
-0.007485369358817493 -0.12647501334414202 -0.056770235016393854 0.08469246555867185 -0.07164064819670253 0.13984114259415473 0.051747883283599035 -0.005072672382434008
0.021290460441286366 -0.0827859488245789 0.0644243361558763 0.006383137779178435 -0.017079446627135113 0.0007273476502431853 0.015663006067584112 0.060642606422063816
0.10165435354906038 0.0232234755389226 0.0891996426997985 0.05249478966030251 0.12985867105772547 -0.07671191866458485 -0.0421733768710046 -0.04198767495947724
0.14439622508309014 0.05565975011464236 0.04270093339840414 -0.09708545690131405 -0.08965272339673543 -0.02068689868417834 0.07059005829157594 -0.0892733702212315
0.04491177318109596 -0.14540053246606477 0.024182704371833636 0.14175890253466578 -0.03978950008111304 0.02934116252650275 0.012933910037050519 0.2068013308834132
0.0572121013702242 0.1230717108171519 -0.020697920388604543 0.1555398178403656 -0.03949726410935556 -0.015733888718170254 0.07447120241684772 -0.18736146475296142
0.12443314054153111 0.07007038442418527 -0.07517700381496006 -0.004109911577960049 0.03918831714882165 -0.011205785439397025 -0.12601949528028922 -0.10991909389301499
-0.11801106105430773 -0.013663591884658629 0.06995236976476805 0.0899472763846419 0.08442150532736153 -0.07614166174972536 0.010004000772680056 -0.0566877344140488
-0.11527258656729694 0.07298029842130486 0.12968985066176136 -0.03277478854223804 0.031669373643426826 0.15289609892770525 -0.010121763786574329 0.037737972753237016
-0.09999943034378415 -0.0717516323202369 -0.0046222406420795515 0.07765062082030112 -0.0021221673098403265 -0.08423197777109862 0.01951340978257316 -0.14236485178159553
0.11742160149370831 0.046451692245225606 -0.07092210687748728 0.04664090681091478 0.08363986933426229 0.0535953753104609 0.06578394546315519 0.04250216334854009
0.013047317602372597 0.0176239289677841 0.07503520531027764 -0.07239152145738542 -0.061345425552408024 -0.08232604005883165 -0.07949805242064781 0.051510815205298335
00000000: 5bd6 c118 94ff 813f 547c a2a7 14b1 613f
00000010: d34c d52b 37bd b2bf a4c2 ad72 4528 b73f
00000020: 40be f790 4ce3 bdbf cb39 5458 3f70 a2bf
00000030: db25 34bc ed05 b73f a373 2e1e 6188 a8bf
00000040: 6880 536d 8d3f 98bf a409 ba09 648c a3bf
00000050: a9f3 e7d4 cf63 b63f 8d85 28ab 30e1 93bf
00000060: b9c8 bff5 de09 aebf 7892 f725 58bb 85bf
00000070: 3597 19f3 6352 b33f b362 3750 db1d a53f
00000080: 6829 3a31 bcec b43f 49a7 242c f356 963f
00000090: 41d7 6b93 857c c23f a7c9 7a36 1155 b83f
000000a0: 9531 387f 828e af3f 979f c7e7 7162 82bf
000000b0: 5adb ff3d e53b c03f db11 7d49 b358 babf
000000c0: 3dd6 faa4 072c b4bf 0cff 3f2a f1c8 babf
000000d0: 20d4 a851 2d9e b9bf a23a ac0d d03c 92bf
000000e0: b370 f5d9 ffc8 bd3f 1d62 ad96 339b b63f
000000f0: 62e8 e59b 7837 aa3f a3bf b463 a518 b93f
00000100: 59db b62b b8eb bfbf baa1 ea4c 135c 9f3f
00000110: 701a 30da f9b3 b0bf 3fd0 0c15 52cc ac3f
00000120: 6803 a388 ca12 bb3f 5182 0b58 52f9 a63f
00000130: c768 e067 d5df 9f3f 5dff 5b1d 516f 913f
00000140: 0157 147e 4939 963f 8fea 6abb 0b8d bdbf
00000150: 31e0 4882 18d7 aabf 61e2 646a 86d5 5fbf
00000160: b6b0 ce7e 33fe bfbf a156 f634 9dc4 c03f
00000170: 82fe b253 0e0f b03f d944 59e6 305b b9bf
00000180: ff28 f3e6 9420 babf d952 eda0 1e02 8dbf
00000190: 9281 4103 a751 be3f c61a ed15 ad4b adbf
000001a0: 1520 ef44 d50f b4bf 24b7 5cb8 6892 c1bf
000001b0: 7477 7132 e079 b83f 58f1 e43e 0f7b c13f
000001c0: b598 0c1b 50bd a2bf 5101 8396 97a6 b63f
000001d0: 8f65 07e1 5a00 a5bf 256f 4614 1198 b0bf
000001e0: 2be3 5318 87e8 b8bf aac8 65cd 88b5 9b3f
000001f0: 1efe e994 5023 c1bf 80d6 ba84 4419 b8bf
00000200: 8684 1d1c 3738 b6bf 9a51 36be f423 793f
00000210: ac70 de0a c140 9ebf abc1 1dd6 7ac1 b1bf
00000220: 563f 9d97 ad76 bdbf f98b a7be fa6b c0bf
00000230: 6c1c 9993 656f b4bf 4aa5 9f63 85ec 9d3f
00000240: 5bc0 bad0 f532 aabf fda6 cccf 02cc c03f
00000250: cb82 78d8 ac5e a83f 0e93 ae70 124b 6b3f
00000260: 1839 27aa bd19 a1bf 63d9 6987 3e90 a13f
00000270: 4b5e 958b e6f0 b03f 3b27 defd d790 b53f
00000280: 1b84 9e1f a951 b43f 78e9 2df1 f0ac 383f
00000290: ef45 9e5e d3b2 b2bf 410c 8dd1 e743 a1bf
000002a0: 770e d735 2dd2 88bf 17c8 3711 5de0 9b3f
000002b0: f747 cb83 e169 a9bf f49f 4105 e8c7 b7bf
000002c0: 0464 5477 781f a6bf c638 b606 87ad aebf
000002d0: 442e a7b1 693a 8ebf 3e23 db42 7a84 bc3f
000002e0: 12bf 605a 944f 7c3f 46a5 7b0c db4c 81bf
000002f0: 2443 48e0 2725 adbf cc18 f6c8 a485 a43f
00000300: 3261 7035 6bb9 bc3f fd26 f2b8 1dce babf
00000310: fafc 6af9 f136 acbf 9fd0 db84 2984 a33f
00000320: 4c23 0a78 7c43 93bf a8eb 2667 ca7f c93f
00000330: b82a 7504 aa55 b43f 28c3 cdf3 9a82 94bf
00000340: 225f f908 dc12 a13f 99da ad2f c927 b8bf
00000350: 9416 ecf3 c5ac bfbf e96f b8ac 050f a43f
00000360: bdb2 81c1 0a72 c23f 9a35 f86d 3140 9dbf
00000370: efb6 4394 9556 b2bf 2700 635f fb30 ab3f
00000380: c506 d203 f653 b5bf ebe8 249d 343c b0bf
00000390: 74a9 075a ee57 bbbf c779 a1a6 eb06 9dbf
000003a0: abcc c206 04aa b3bf a574 45b4 083e a83f
000003b0: 3a63 4a9d c55c 9a3f d5e8 18b7 5c5b aa3f
000003c0: 0ba6 585a beab ab3f d8d0 2ac6 c51b a2bf
000003d0: 4342 19b5 922c a3bf 2ea2 da85 e064 a13f
000003e0: c868 4ef6 5b86 b5bf bbef 35da b3c7 9b3f
000003f0: 287b 04dc b7ee b43f 77ea 7505 594d b0bf
00000400: 7798 0e44 8e07 b7bf eda1 13f9 f58b aa3f
00000410: 3d9e 526b c957 b73f 692b 750a 5c24 c13f
00000420: b034 dd9f b671 b13f 8a2e 5255 539a b13f
00000430: d900 7316 194e a13f fac1 1716 88d1 a2bf
00000440: 38de 1db9 1258 b7bf 74d3 4fc6 5ad2 b93f
00000450: 275f 979d 45c4 74bf e66d 03a8 1bed 8bbf
00000460: 5831 9808 e544 abbf 9225 62fb 6c97 b23f
00000470: d0eb 8dc1 8c8f 53bf 8de7 12e5 6f0d b6bf
00000480: 1175 c791 5c46 bc3f 4807 48d2 efe7 b2bf
00000490: f12b 2b8d cc04 b63f 3775 9f8c ef0c b53f
000004a0: e7ec 82f8 01d1 78bf f786 d3fb 4ffd a9bf
000004b0: 916c 2466 6b09 92bf fa3d 3647 4ac8 85bf
000004c0: 544a ba28 1a95 8d3f 80d8 d057 101c bcbf
000004d0: 9e91 8a15 9863 a5bf 0f06 b334 1e80 c0bf
000004e0: b3ba 71ce 5630 ae3f f410 99ed d33c b23f
000004f0: 60a3 670b fa3b b2bf e740 ad16 4aeb bcbf
00000500: fd7c 8389 faa8 7ebf 2481 094f 5530 c0bf
00000510: db33 90fd fc10 adbf 32c7 cac9 67ae b53f
00000520: 25af 11a1 0a57 b2bf 9de0 0987 50e6 c13f
00000530: 9139 aed4 b27e aa3f 6826 c61f 15c7 74bf
00000540: e498 3f9d 2acd 953f e817 c5be 7531 b5bf
00000550: c122 db00 1d7e b03f 8972 1e80 3425 7a3f
00000560: fe0e ca42 467d 91bf 1f60 702f 6fd5 473f
00000570: 68f0 448b f609 903f c867 a736 8c0c af3f
00000580: 903e fd0b 0506 ba3f eaaa c10f e5c7 973f
00000590: 9fe4 35ac c9d5 b63f de50 9ad9 98e0 aa3f
000005a0: 02c1 a57c 359f c03f c2b7 e06d 64a3 b3bf
000005b0: 7a7f d8b4 bf97 a5bf e772 9295 687f a5bf
000005c0: b8e8 3254 937b c23f c84f e44c 6f7f ac3f
000005d0: 28de e890 e5dc a53f c5f0 4eae 97da b8bf
000005e0: fd7e fc1a 7bf3 b6bf 3283 3745 f22e 95bf
000005f0: 30f9 c8a7 3012 b23f e8fe 809d 9eda b6bf
00000600: 804e 090a adfe a63f 48a1 e111 7c9c c2bf
00000610: 359a 9fd1 59c3 983f 9ad0 26dd 2725 c23f
00000620: e027 2513 4a5f a4bf bd6b e915 9c0b 9e3f
00000630: 1ec4 f204 187d 8a3f b3ee 744c 7778 ca3f
00000640: 181f a490 e74a ad3f 6cbe 05ad a081 bf3f
00000650: e735 a8ec d531 95bf 4bd2 6c8f bae8 c33f
00000660: f826 4343 fc38 a4bf 1a0c ef65 8b1c 90bf
00000670: c3c8 df72 8b10 b33f 1b83 d2e1 75fb c7bf
00000680: 4119 2aad d9da bf3f 4320 85f9 21f0 b13f
00000690: c8e8 cbd4 cc3e b3bf 9092 11fd 8dd5 70bf
000006a0: c034 14b9 7d10 a43f 16d7 e70f 0ff3 86bf
000006b0: 0492 7125 6821 c0bf cef8 7961 a823 bcbf
000006c0: 1265 cb0f f935 bebf 91f1 5242 a8fb 8bbf
000006d0: 49d9 6a04 66e8 b13f 04b2 6fe2 c806 b73f
000006e0: 9cc9 75d4 a59c b53f 9802 141b 057e b3bf
000006f0: 07bc 2e41 fa7c 843f 7a0c c9ba 2c06 adbf
00000700: fc8e 6e15 8182 bdbf 83c9 f83a d6ae b23f
00000710: de91 9b51 ad99 c03f 412e d869 dbc7 a0bf
00000720: 42a9 2ad8 f736 a03f ff4c 4a70 1992 c33f
00000730: 2a86 8723 b8ba 84bf 85c1 953d 6452 a33f
00000740: 83f7 f10a 9099 b9bf 3c02 40a2 505e b2bf
00000750: 3b86 4546 c5ee 72bf 3df2 ef3c e9e0 b33f
00000760: 7c2d 28e6 8162 61bf 7ae4 cd15 3a90 b5bf
00000770: 12fd 65c3 52fb 933f 4c3c 40ef 0239 c2bf
00000780: 7a69 4292 570f be3f e0fe 1226 84c8 a73f
00000790: 632b 9a81 f327 b2bf 3b3c d122 51e1 a73f
000007a0: caaf 6e27 6c69 b53f b3bd 5960 da70 ab3f
000007b0: acb8 5d76 37d7 b03f a3b5 2ef3 d7c2 a53f
000007c0: dfc2 3853 8db8 8a3f 24b5 2cda 010c 923f
000007d0: b135 dbd8 8135 b33f 84ca 2a31 4088 b2bf
000007e0: a97a 03e9 aa68 afbf 2c70 a9c1 5113 b5bf
000007f0: 5a0c 3eff fb59 b4bf 82e4 6425 a05f aa3f

equations.x.layers.4.bias f8 [64]
-0.06030813448806684 0.08367931569359846 0.009557338147602571 0.008802765903272801 -0.05599206309304143 -0.10483071375224941 -0.052749966291401156 -0.16295519553637688
0.009062013292190764 -0.002212787936579359 -0.022687136535189417 0.033363052994147775 -0.037761232083561 -0.06081321433851984 0.08138542364840803 0.03681728789515024
-0.03555488046605915 -0.03329964572700619 0.06825364368001886 0.13386888481514478 -0.04115764119649506 0.037755625785348614 0.07588740823912632 -0.038856649788850124
0.11958567540925857 0.011506891692251643 0.07571163511301535 -0.045377304947200256 -0.017027289068443273 -0.009514491084346653 0.029852316545136287 0.02548658293318779
0.07098950341680188 -0.011997550148405388 -0.018412150152574164 -0.10206447793921371 -0.013524140185136695 0.020083588307700982 -0.12366515087260183 0.04184806484809647
0.08011820875493589 0.10359492406590774 0.08059777072723591 -0.03899259008375756 0.02496615847816208 0.03624472345360926 -0.10977734720733731 -0.028674626028230395
0.03069195959371185 -0.08782822711561868 0.05139907747672839 0.0764832450637083 0.038095942602021975 -0.08880722075529951 -0.1059274547643291 0.012942196025094648
0.09538231375202454 0.006790609491591397 -0.08213914696702167 0.03687014388012541 0.11008224371391477 0.1047107059707209 -0.048067616118217235 0.09101724382042946
00000000: 7337 9e32 b5e0 aebf 4273 41f4 016c b53f
00000010: 6202 3f36 cc92 833f 8ce8 593d 2f07 823f
00000020: d6ee a3df fdaa acbf d9a7 2e87 2fd6 babf
00000030: 0f60 2c28 0b02 abbf 0a61 c541 b7db c4bf
00000040: 6798 ced5 1a8f 823f 7649 427a 8d20 62bf
00000050: a887 d5f5 4b3b 97bf 4158 024b f614 a13f
00000060: 040c b6b1 7055 a3bf 0246 7fdd e822 afbf
00000070: 86e6 f0d4 acd5 b43f ddc9 df2e b7d9 a23f
00000080: 503c a1d1 3f34 a2bf 5354 bbb2 a60c a1bf
00000090: b942 701f 1279 b13f 2fd4 1d99 9d22 c13f
000000a0: f7c1 d645 9d12 a5bf 7de6 f993 b454 a33f
000000b0: 20b4 9070 5b6d b33f 6985 26d0 04e5 a3bf
000000c0: 20ed f3b4 2a9d be3f 9484 f9db ec90 873f
000000d0: aeb1 bc74 d661 b33f 0e2b 75b1 b13b a7bf
000000e0: b606 c106 9a6f 91bf bfe1 5c60 557c 83bf
000000f0: 78b5 150d 9b91 9e3f f244 bda0 2719 9a3f
00000100: 58d1 883b 5e2c b23f acfa 27ec 2b92 88bf
00000110: a873 047b a2da 92bf 710d d5ca e520 babf
00000120: fcd7 695e 8bb2 8bbf 2622 dfcb ca90 943f
00000130: 5c19 a7f2 84a8 bfbf f4cf d80b 1c6d a53f
00000140: 0ea3 6a7e a082 b43f 8f09 e56a 3285 ba3f
00000150: 856b 6735 0ea2 b43f a163 6436 d6f6 a3bf
00000160: e08c ae88 ba90 993f ab89 c51b ab8e a23f
00000170: dede 1844 5e1a bcbf afab 1094 e15c 9dbf
00000180: c011 d28a b66d 9f3f f992 2023 e97b b6bf
00000190: a73e 9dd9 fa50 aa3f b096 3dec 6794 b33f
000001a0: 3f05 2cb7 4f81 a33f 04ec caec 11bc b6bf
000001b0: 9a18 f6c9 0f1e bbbf 1662 5425 7081 8a3f
000001c0: 9787 2eae f96a b83f 920d fb5a 78d0 7b3f
000001d0: 93d7 f135 1207 b5bf acf1 53bc a4e0 a23f
000001e0: eb1e 9f94 592e bc3f 0371 af21 52ce ba3f
000001f0: e6e7 728e 519c a8bf 7baf 94f5 e74c b73f

equations.x.layers.6.weight f8 [64, 64]
-0.01193820387746363 -0.020084062330147538 -0.12301712626620132 -0.013857106445497262 0.027837221863176543 -0.13760696179324866 -0.09617356069283899 -0.07921321782283305
0.12334258940213753 -0.01982742009160429 0.1373217839776768 0.0015326319773872046 0.10122095359943806 0.06670725412546873 -0.07288275961328258 -0.059492923472698155
0.04699700165221312 0.04270325388738199 -0.05156845950548491 -0.06452861263451118 -0.008101231583722538 0.0424753552431723 -0.08811325976939485 -0.07358294334928529
-0.028487920190029853 0.017493167914742803 0.008965127024182848 0.02590342266339338 0.007425748660539313 -0.0024279631052005405 -0.016543277952048376 0.0261209727736026
-0.07073508754545071 0.09876131210908323 -0.04042514016150308 -0.013381108005430367 0.12106423125114285 0.011260097629746927 -0.09267124811606502 0.10970354625243234
-0.029067282119138897 0.027189673451924405 -0.12822189899924774 0.02190349054898283 -0.08307646100843627 0.02423544132065953 -0.03663555430900036 0.03756327070524596
0.11590900796789079 -0.049199178531879016 0.11773273652090648 -0.07498280850144307 -0.1263466414884335 -0.04898069984348096 -0.011317936840420623 -0.1187134221897776
-0.06849621676702138 0.0865033938097912 -0.017446085387119243 -0.03386195355903884 -0.13152530755651867 -0.15030947539351316 -0.11084882198319222 0.012216449527654133
0.012983978012321002 -0.09082049383368451 0.03899402138959048 0.16931007619391758 0.007550950466852213 -0.0337678559624086 0.07732794086141476 0.09351119325429931
0.11147000734788319 0.0031537681606918825 0.1015331623646977 -0.017685317961288374 0.10248878434985392 -0.1046432303285975 0.03402712477639974 -0.03815421194656734
0.08753766376259033 0.08423482358607906 -0.10305676986329193 -0.020493299697523004 -0.013943777588420346 -0.062365941707663436 0.06868345514715214 -0.11227440067667134
0.02309089172025937 0.03331229359934666 -0.03338892213409602 -0.04784303682202684 -0.023393678887002455 0.08875213257288023 -0.007798757815465039 -0.045585121247812554
0.08098804128194843 -0.07065016517338525 -0.07494174258949843 0.12625052334223097 0.06300141908535968 0.0038231388149850463 0.1455674267513245 0.04812322346645328
0.10004041547563489 -0.004231284736449438 0.10599277380524201 0.034944721687203785 -0.041691416810042015 0.013431366971659663 -0.10126908395616951 -0.09142633192966647
-0.019912672603222086 -0.04959735997998124 -0.06176514684773667 0.0963793091674783 0.11392160828509622 -0.14681317765768492 0.07756755801062934 -0.09470381135708182
-0.02136996669182278 -0.09063828612289788 0.022223012995264586 0.05252763337214399 0.016704382958147242 0.0383456025972146 0.015678044566579327 -0.03458713475066404
-0.04774437564644554 -0.05134553222774756 -0.057072903675244785 -0.004318891563067287 -0.056333270077554044 0.017179094298788968 0.06799267653255618 -0.12872070161281352
0.06513281008439946 0.07215597229457854 0.01858223418216474 -0.10267495337261065 -0.0031189295089158495 0.007443822294826989 0.012570072189593686 0.025020648355800743
-0.035730828040916596 -0.1137570906077658 -0.0839661204118864 -0.075634955674686 0.005241830144999714 0.012412766676141244 -0.011146667519903095 -0.05257435041586651
0.009547316313061369 0.08645554281011726 -0.15543255955342253 -0.05166065121541132 0.07780462159674242 -0.00950140188224644 -0.03099117530767968 0.06386981772566075
-0.10535233023677047 -0.03602340869493755 0.039277584216833396 -0.10097796835935137 -0.0012226910557065031 0.16836375987028648 0.054608567969752005 0.013501784491664644
-0.10980683320662361 -0.009671178019155055 0.09117942063812354 -0.11124573240826727 -0.07173756459344985 0.07758107052429489 0.12722040594574344 0.0071341833961255175
-0.026948888439823505 -0.03837375430299371 0.07093780975813314 -0.07240381210450715 -0.105602421055708 -0.004568738087984959 -0.03221994934884685 -0.09496729286054577
-0.027025269913859104 0.08505438205295655 0.0983080114163806 0.02021745831549034 0.0162745583897864 -0.02730718733075593 -0.03296570882235993 -0.028963908805636013
0.05809913209493772 0.04195926174568871 0.010916039826761367 0.08964951164461903 0.037870689343892774 -0.09226465548908479 0.13300593103968736 -0.044068226782841
-0.0962792288677633 0.09008536357903274 0.10680647653859687 0.05747219841156827 0.051255373075758205 0.08523197431174065 0.01599485857111243 -0.016719622698130786
-0.013349923649615196 0.016779906275206483 -0.051754756135707985 0.05928073919519777 0.10696958586345505 -0.10890327075700303 0.03542871988624257 0.002425849236271709
0.07951905189268198 -0.02157860022909714 0.1282261527724652 -0.012300713367457354 -0.03402983893443917 0.005815600369825454 0.0014409983120799589 0.126482745706988
0.1280868882505406 0.14521486479854911 -0.07420769071046543 0.03702015849186338 0.004118259727676497 0.0030789287613605405 0.0744470173493004 0.027841815064511364
-0.038620786873090875 -0.04364703076573884 0.0740550135521711 0.0708682559951253 0.08113122797134759 0.033183487538271245 -0.00040728920532413256 -0.11417323499190654
0.1177380334706531 0.09321504734464257 0.11209795683522572 0.07033692161706571 -0.03844565524978221 -0.16965842246274868 0.10226613560136438 0.0781233730942796
0.11623248398255467 -0.060501909026730846 -0.06171972994315898 0.10016017584583085 -0.03445566564005829 -0.06932159162310629 0.07655419100617042 -0.15822387364837376
00000000: 1b41 d099 0e73 88bf 91e6 839b ea90 94bf
00000010: d846 29e6 0c7e bfbf 623b 0158 1d61 8cbf
00000020: ed2b 0e56 5c81 9c3f 664d 4ddc 1a9d c1bf
00000030: b765 ea99 d49e b8bf 0ec2 f543 5147 b4bf
00000040: aba6 af43 6193 bf3f d712 6ea3 a34d 94bf
00000050: 2833 9b9d c293 c13f 7c44 0f0e 531c 593f
00000060: 3828 61cd 9de9 b93f 1ff6 df02 ba13 b13f
00000070: 0e35 fbcc 71a8 b2bf 1b3d 5141 db75 aebf
00000080: b36e 36b2 fd0f a83f 2718 c26d 33dd a53f
00000090: 8b8d 295e 2e67 aabf fae5 eb78 f284 b0bf
000000a0: 75df ace5 6097 80bf 8791 4f6b 54bf a53f
000000b0: 66b2 0d31 978e b6bf 9985 3aef 54d6 b2bf
000000c0: b85e 30f6 ef2b 9dbf 4d97 63a0 bae9 913f
000000d0: 859f fcfa 4e5c 823f b963 c644 6d86 9a3f
000000e0: cf47 533a 766a 7e3f ef54 3fc4 cee3 63bf
000000f0: e73a 1797 b8f0 90bf e395 35cf 74bf 9a3f
00000100: f4f9 afd7 b11b b2bf 085a 9edd 6b48 b93f
00000110: 2b18 dc9d 9ab2 a4bf 48fa 23ea 8d67 8bbf
00000120: e864 f0c1 10fe be3f d565 8eb8 880f 873f
00000130: d320 f08b 4db9 b7bf c4cf 6817 8815 bc3f
00000140: c15a 5748 d0c3 9dbf 0e4b 0f19 9cd7 9b3f
00000150: ac98 6a3f 9369 c0bf 10f4 4d5e de6d 963f
00000160: 5241 19bb 7f44 b5bf 7264 81ef 2cd1 983f
00000170: b387 4137 e5c1 a2bf 596e 6b36 7e3b a33f
00000180: 4dad 8876 36ac bd3f 1ba8 917d a230 a9bf
00000190: f39f 068d bb23 be3f 44a3 46c6 1232 b3bf
000001a0: 367d 9372 202c c0bf df06 ed8f ff13 a9bf
000001b0: 90d0 b3c4 db2d 87bf ecbd e6b9 0064 bebf
000001c0: 6301 ead2 f788 b1bf aff3 671f 1625 b63f
000001d0: 053e b9f8 62dd 91bf 8cbf 3a9e 5a56 a1bf
000001e0: 7b9a 463f d2d5 c0bf 050a 8c44 573d c3bf
000001f0: afca 37a1 9660 bcbf d05a 8e19 f004 893f
00000200: caad 7a07 5897 8a3f a07e d20a 0340 b7bf
00000210: 9b33 373d 06f7 a33f 2c6d 11dc f3ab c53f
00000220: b308 f1d4 beed 7e3f 7e77 073a 054a a1bf
00000230: b419 1191 c3cb b33f 8d4f d67c 59f0 b73f
00000240: 1346 0b64 4c89 bc3f cbb1 7f63 eed5 693f
00000250: 8ada d0cb 13fe b93f c468 0d99 191c 92bf
00000260: 944a fd78 b43c ba3f cb55 0214 e6c9 babf
00000270: 68df 2ed8 006c a13f f3c2 07e9 f288 a3bf
00000280: 5950 074b de68 b63f d28d 7cd4 6990 b53f
00000290: 88b9 31b0 ed61 babf 20b3 f30f 32fc 94bf
000002a0: 79b9 cc25 8e8e 8cbf 648d 09c0 6dee afbf
000002b0: 0920 a229 3d95 b13f ed94 15df 03be bcbf
000002c0: 2491 1883 23a5 973f 46bd 2017 4f0e a13f
000002d0: 2bb1 3a51 5a18 a1bf 20de fbec e17e a8bf
000002e0: 53de 0237 83f4 97bf 84cc d9b2 75b8 b63f
000002f0: 1801 451c 97f1 7fbf f018 e3d9 ee56 a7bf
00000300: 154e acdc a1bb b43f 9d6e e014 2116 b2bf
00000310: 0cf3 86cd 612f b3bf 4ccb 6d26 fa28 c03f
00000320: e5bd 926a dc20 b03f abb0 b505 b451 6f3f
00000330: 9841 a114 f4a1 c23f 43db ee6d 9ba3 a83f
00000340: ae00 bfa8 3f9c b93f 2884 02d9 d254 71bf
00000350: 5318 1ba9 5722 bb3f 15f4 a049 46e4 a13f
00000360: a831 72cf 9358 a5bf 6c21 128f e781 8b3f
00000370: 4808 b04b c5ec b9bf 9393 a151 b767 b7bf
00000380: 6b5b 6dd6 fc63 94bf 7cf6 293e d364 a9bf
00000390: dbc1 7c6b ae9f afbf 12a9 e27c 50ac b83f
000003a0: ef67 e46d f729 bd3f 22af 5432 c6ca c2bf
000003b0: 5ae0 e2ac 77db b33f f7d0 954c 823e b8bf
000003c0: 3f61 3b30 02e2 95bf 75d0 a91a 1234 b7bf
000003d0: d20a 2228 a1c1 963f 3774 f0e6 e6e4 aa3f
000003e0: 7f39 052a f41a 913f 196e 33ea 08a2 a33f
000003f0: 2cfa b6c2 e70d 903f f79e 3ba9 67b5 a1bf
00000400: 2458 f067 f371 a8bf f782 6d2b f649 aabf
00000410: 14be 8bdd a838 adbf 6a23 4ba0 afb0 71bf
00000420: 3dd5 51e1 b6d7 acbf 27b7 c080 6597 913f
00000430: 6b28 13d2 f767 b13f fe62 df81 eb79 c0bf
00000440: eb85 3539 8bac b03f 3c5f 3755 d078 b23f
00000450: 1b63 65a0 3807 933f 468b dade e748 babf
00000460: 8788 a887 de8c 69bf 052b 04d5 697d 7e3f
00000470: 2e89 b387 56be 893f 1cca a649 039f 993f
00000480: e81a caa3 4f4b a2bf dd34 d947 2f1f bdbf
00000490: dd1b 24bd cd7e b5bf bea3 0efd cf5c b3bf
000004a0: 2510 b410 7578 753f 4f4d 6a57 dd6b 893f
000004b0: 32b1 a863 10d4 86bf c907 4a77 06eb aabf
000004c0: b821 a21a 8b8d 833f e168 ed50 f321 b63f
000004d0: a1fc 01d0 36e5 c3bf 73a6 ebce 4373 aabf
000004e0: 7a54 3cf1 00eb b33f 339f cd92 7875 83bf
000004f0: fbf3 a491 26bc 9fbf 344c 55ba c559 b03f
00000500: 4fa0 eccc 5ef8 babf fb6b 7804 a971 a2bf
00000510: 05b8 5a07 311c a43f c94d b82f b1d9 b9bf
00000520: 2f54 3b86 5608 54bf afbb 3c95 f18c c53f
00000530: 71e0 057b a7f5 ab3f d17c a2d6 d2a6 8b3f
00000540: 45f1 7ff5 4c1c bcbf 38d2 728a 7bce 83bf
00000550: ee7e b5d5 8857 b73f e658 83ae 997a bcbf
00000560: 7ad4 d29d 645d b2bf aac5 b060 5adc b33f
00000570: 2bdd 751d c248 c03f a99f ebc5 bb38 7d3f
00000580: 8de5 0c4a 7d98 9bbf 2e1f 8387 b9a5 a3bf
00000590: 7907 f6f4 fa28 b23f dd36 1865 0e89 b2bf
000005a0: 4c0c d0a0 c208 bbbf 740a c04a abb6 72bf
000005b0: 5ed2 7619 227f a0bf 2b94 06c9 c64f b8bf
000005c0: bc4a c829 83ac 9bbf 2f87 4cbd 1fc6 b53f
000005d0: a2d8 f7bd b62a b93f 35d5 17a9 e2b3 943f
000005e0: 5af5 2920 47aa 903f 2f18 2052 6af6 9bbf
000005f0: 0f20 90a2 e1e0 a0bf d88f 5604 b7a8 9dbf
00000600: d827 8c60 2bbf ad3f 1990 ec31 af7b a53f
00000610: fe51 7610 265b 863f d3b2 9d38 45f3 b63f
00000620: 6a01 6b78 c963 a33f d7fe e60d a89e b7bf
00000630: 8fa7 fe9d 5606 c13f 2868 a651 1c90 a6bf
00000640: 9869 456b c1a5 b8bf 3893 6b9a d50f b73f
00000650: c8f8 bb53 ab57 bb3f c2bc 36f9 fe6c ad3f
00000660: 0d96 35ee 243e aa3f 6e10 3e3e c3d1 b53f
00000670: 6e48 dec9 f460 903f 467d c2e2 f21e 91bf
00000680: c963 d56b 3457 8bbf f152 ba72 c02e 913f
00000690: 2cd8 0772 997f aabf 878d 4088 0b5a ae3f
000006a0: 8740 f3d8 5b62 bb3f b129 54b2 15e1 bbbf
000006b0: f748 8092 b623 a23f 8b64 50e4 5fdf 633f
000006c0: 1bba 494f 5c5b b43f b216 1c59 b318 96bf
000006d0: 5527 53ee b669 c03f 1cac 0bcd 1d31 89bf
000006e0: 4885 9fea 5b6c a1bf a2f1 5156 19d2 773f
000006f0: 4433 ef27 fc9b 573f 23ef 282c 9630 c03f
00000700: a88e 0ab2 2665 c03f 56f6 9993 6696 c23f
00000710: d28f b674 46ff b2bf 14d4 0764 4ef4 a23f
00000720: cb82 8ced 4ede 703f 44b7 c64a fb38 693f
00000730: 22cc ccb0 f50e b33f e946 a794 9082 9c3f
00000740: eda4 2191 1ac6 a3bf 40a7 6953 e758 a6bf
00000750: adb8 4ff5 44f5 b23f b4d8 d209 6c24 b23f
00000760: fc3d d222 04c5 b43f 7cfa 7c13 6dfd a03f
00000770: 9f1c 1fd1 2db1 3abf 2667 5e06 753a bdbf
00000780: 8576 406b 1424 be3f f71f d7fb f0dc b73f
00000790: 4843 8ea2 73b2 bc3f cfee 0bba 9901 b23f
000007a0: b734 f11f 26af a3bf 69f6 fbff 5db7 c5bf
000007b0: d46a e50b 1d2e ba3f 3d3e 7eb4 e4ff b33f
000007c0: 461b 707d 69c1 bd3f 9612 3b31 1bfa aebf
000007d0: 4e65 3f7b ba99 afbf 7394 9ee7 18a4 b93f
000007e0: 1d03 2c4a 2ca4 a1bf 738b ed50 0fbf b1bf
000007f0: ee44 be32 0e99 b33f e412 620d ae40 c4bf

equations.x.layers.6.bias f8 [64]
-0.06823922907790234 0.024661485778734563 0.058375694554772636 -0.02246265492814087 -0.029420880158523458 0.010888040105779007 0.019703145415438297 -0.09201853152271593
0.07633571820111858 -0.020356146042630727 -0.1274706922189652 -0.04464406409343353 -0.18956196803279993 0.07912144525512102 0.055070180570194534 0.02849558945885621
-0.029349055469004678 0.07570135856265332 0.12759525970941657 -0.0846448067688704 0.06357644924908876 0.02800772230109636 0.06135652198124923 -0.029916642715209607
-0.060164755340949255 -0.05659691099617033 -0.10079292483217128 -0.08701478773954786 0.04533958761252011 -0.07373059532861252 -0.07242680118748439 0.08439002776299777
0.022719828868443318 0.03656648871297873 -0.08860997967446918 -0.07173168245902432 0.09769773256666359 -0.044546586271512964 -0.04922543695312893 0.0016061559314793543
0.00589835842330144 0.020782444686374472 0.04104719588961646 0.025973425203931838 0.06893390294041717 0.050823202322095105 0.06379163412914074 -0.04403868057427761
0.07490063766661428 0.0325624720208532 -0.06480790004557287 0.041019184655626664 0.07188902756600282 0.09192496254558168 -0.04804110682789038 -0.02946960492637676
-0.025684763571182122 0.04655372640346784 -0.056321070590276245 0.03446511639906063 0.05741007862875407 0.12465659673938274 -0.01295057519202557 0.025041504795177034
00000000: ae9f 3149 2078 b1bf f1cd 8f4b dc40 993f
00000010: fef1 fc45 6be3 ad3f d0d7 3041 7300 97bf
00000020: 91cd 66d8 8120 9ebf adf6 5f01 784c 863f
00000030: a724 c0b4 0f2d 943f 3b19 84c7 868e b7bf
00000040: 0dc3 30d5 bc8a b33f c950 1ad6 3dd8 94bf
00000050: 37b4 23ab f550 c0bf 79d0 7b36 96db a6bf
00000060: 3d15 a20a 9143 c8bf a272 c893 4d41 b43f
00000070: 414e 11a1 2832 ac3f de5f 39a3 f22d 9d3f
00000080: 5fa7 a1c5 ad0d 9ebf dd13 4a0b 2a61 b33f
00000090: 11cd c99d 0a55 c03f c639 d934 48ab b5bf
000000a0: 7615 52d2 8b46 b03f 794e 466d 0eae 9c3f
000000b0: f68d 9c3e 1f6a af3f 9092 45e8 77a2 9ebf
000000c0: 0458 1f31 eacd aebf 3afc 9033 45fa acbf
000000d0: 5086 d2ab 90cd b9bf e917 9ce3 9946 b6bf
000000e0: b111 051c c036 a73f 03a8 a61f 02e0 b2bf
000000f0: 7b42 7416 908a b2bf 69c1 59b9 959a b53f
00000100: b1bc d7e7 dd43 973f 4fb8 4dc2 d7b8 a23f
00000110: ea12 cdc4 24af b6bf 0ba2 3fee 015d b2bf
00000120: 8865 44f6 b702 b93f ae82 5e66 cfce a6bf
00000130: a9a3 b093 1334 a9bf 54b5 abcc b450 5a3f
00000140: fe5d 7388 e028 783f 011f 0941 fe47 953f
00000150: 0e77 e057 2304 a53f b892 430f c798 9a3f
00000160: 8bf8 b6fa a6a5 b13f 5be9 b3af 7f05 aa3f
00000170: 94d2 5706 a654 b03f 9ea9 a6e9 3c8c a6bf
00000180: 8a47 3a2d b02c b33f 161e d040 07ac a03f
00000190: 25da 3723 4097 b0bf 3a81 3571 7700 a53f
000001a0: 5a54 56be 5167 b23f 87bd d1f3 6488 b73f
000001b0: 2afd 600d d898 a8bf 8710 8ab5 472d 9ebf
000001c0: c6c4 2c4e 1b4d 9abf b9d4 d1d8 e3d5 a73f
000001d0: 709a 8588 1dd6 acbf 47d7 9267 69a5 a13f
000001e0: f7b2 5794 da64 ad3f 65ef 39a6 7ee9 bf3f
000001f0: f927 50c7 d485 8abf f238 8df0 7aa4 993f
