KolmogorovConsecutivevFinal2/2025-06-05_08-55-04/model_best.pt (torch, 8292 bytes, 8 tensors)

equations.x.layers.0.weight f8 [16, 1]
0.5527087351869547 0.5583431123270174 -0.01733073640357818 -0.17502024357961887 -0.8259337548063803 -0.5564794204251503 -0.8169643222680796 -0.3068551738550701
-0.7525232080736115 0.08880053627150103 -0.9523683435829284 -0.6077185229919879 -0.5429368087650878 0.03845011852097221 0.2938205710881642 0.07636635769553113
00000000: 87ed ba3a caaf e13f 4d86 ec5f f2dd e13f
00000010: bf9e 4608 26bf 91bf 48fd 2737 1067 c6bf
00000020: d2c9 31a0 0c6e eabf 11f0 f3ed adce e1bf
00000030: 927c c45c 9224 eabf 0a38 14e2 83a3 d3bf
00000040: 7e07 058d ab14 e8bf 8442 27c7 a1bb b63f
00000050: 5ae6 2d2d cd79 eebf 8291 ad1d 6e72 e3bf
00000060: df19 ae03 bd5f e1bf 3b59 26e3 bbaf a33f
00000070: 2ace edcb f4cd d23f 4023 d1e0 be8c b33f

equations.x.layers.0.bias f8 [16]
0.6842163948131578 -0.32069801490523386 -0.7954272479209274 -0.0825176441402844 -0.2967149389178373 -0.5725377367689962 -0.1546112514265661 0.5227707411759255
0.0004931208205795463 0.08732004600864467 -0.3217804691722606 0.34415314364895344 -0.8101697028228674 -0.027997467347590583 -0.018193180111224286 0.5860472011199158
00000000: 5381 e3c7 19e5 e53f 143f 7af7 5086 d4bf
00000010: 885d 05d8 2374 e9bf c0ec ec56 e01f b5bf
00000020: 7ec0 b8a7 60fd d2bf 1dc2 e4a8 3a52 e2bf
00000030: 0941 3c2e 4dca c3bf 4000 95b4 89ba e03f
00000040: 6c15 10e6 9828 403f ab70 e445 9b5a b63f
00000050: 8187 e51b 0d98 d4bf 0e6c 32e8 9a06 d63f
00000060: 36b2 3a03 e9ec e9bf a5d1 833a 5eab 9cbf
00000070: 810e 5aa6 3ba1 92bf ae1d 570f e6c0 e23f

equations.x.layers.2.weight f8 [16, 16]
-0.18350367789458683 -0.08503658025504798 -0.08359236448575141 -0.21728121946361179 0.02726635099342576 -0.05575812781841843 -0.1794258276525423 0.06677175644913107
-0.05360974153485411 -0.19110176559615302 0.1023985667727044 -0.19168859446936629 0.20289450328135322 0.029928767216585384 0.0806843064443114 -0.043256781690048415
0.197090462986732 -0.10913490384719476 0.17261800629980417 0.221403373562864 0.14883104423160975 -0.23566604422199255 -0.12377416647558931 0.14208865008136407
0.14444063796914533 0.12789184538750623 0.13462939210406602 -0.2412084308564384 -0.007891175892783459 0.18159489036976478 -0.06101097127038841 -0.18070668729133305
-0.22613465876667682 -0.1193107776424333 0.07228920667561349 0.187101923086976 -0.15974140900673406 0.018086550546234866 0.22602447648330842 -0.013321407357642966
-0.1219271935408989 -0.03412306856376797 -0.05025735435713535 -0.016117032078728322 -0.18587166242839243 0.04901102138233692 0.1921072386327461 -0.16000789614129843
-0.16982595869603143 0.06853228592843288 -0.228242752653378 0.012194957253631147 0.041861557125575086 -0.038864713335732805 0.24346112704556028 -0.038930156664860015
0.1886032619122665 0.1361662115622771 -0.1564450776588392 0.010593944147794701 0.16400755261020833 -0.09576456892182315 -0.052036875579724924 0.1708562564522309
0.24034425498209916 0.039156799238784325 0.10282555030308817 -0.20338050138101238 -0.018391298894628007 -0.10705309217006831 -0.13267679159915186 -0.23685069762197783
0.052514356385155996 -0.2339277980473384 0.047815582516166334 -0.18488688374586612 -0.23122662583185238 -0.07654309943593007 -0.04601690173004211 -0.12033083942231962
0.040922975608588985 0.042374343966043365 -0.2443750515276963 -0.10574874227894933 -0.08708276055668843 0.11763983640070531 0.10295015535989786 0.1004560303571972
-0.15429981466100212 -0.12432074675268288 0.1750941786916276 0.04379018365626586 0.023400702601208707 -0.07333952050345671 0.030228807127207605 -0.18886169471902944
-0.09359915191251075 -0.24828646435377638 -0.24548322105792306 -0.005368540587620801 -0.1524886370784851 -0.04315432449439726 -0.1280002692934093 0.22660443599398902
0.13387922978851174 -0.12779300045997585 0.18844830933811274 -0.2219856033575703 0.2142809161695534 0.1328177723579129 0.22379148506686733 0.09040400273604929
-0.1462371056980318 -0.0020289845682748054 0.20620440911375323 -0.22893299621984398 0.133661419963442 0.07532414494728278 0.027358050251933358 -0.06862257792251682
-0.005257766077965285 -0.00015361647868241898 0.02529271872605731 -0.15199380837729426 -0.14477269320389935 0.00527779949907203 -0.04918779314723806 0.04224674194575375
0.12372315736115418 0.23737252517766458 -0.20983587644110083 0.0711689706447117 0.14938495538677615 -0.12902587879314872 -0.09961986908730787 0.0401830330986431
-0.16143314202354697 -0.18599496247030697 -0.08480690594266453 0.003942919725405955 -0.002216867322867837 0.15591384705220437 0.09960672342522321 0.06486493578021849
-0.16525099552208633 0.0955152221211618 0.21273202802716848 -0.1746774940395242 0.24108779093707453 0.25234307089234986 -0.11022035328682964 -0.13927385872060563
0.09124265968922933 -0.10698919617350565 -0.19463096982492706 0.1256241750201009 0.11219414970097066 -0.22649970892392632 -0.18339978090049736 0.061930802673421416
-0.014627435738183767 -0.09320410711856515 -0.2591387583804426 -0.08912325375522087 0.219147706512803 0.20786167365869138 0.2284445364657075 -0.1509301686335488
-0.21424342902299093 0.051068503842825665 -0.07509923338534623 -0.1678064784643062 0.05029523319916925 0.11673847541433219 0.1349017531444456 -0.030195111323832853
0.17534366923330164 -0.22341021623157248 -0.06787922343870134 0.04208194419181567 0.02213102541336978 -0.030034544070690783 -0.13579300493026006 -0.11062002723378199
-0.07320170585328616 0.06827036548452427 0.09025814862450975 0.05944810445711536 0.1548555797111302 0.18198350657577794 0.021371855150785973 0.07180749609691484
-0.0011169119871672014 -0.022631549828737392 0.0076178141970668755 0.14743964949449404 0.18674102335663384 0.009583660151715497 -0.05954836222990533 -0.10265566258669676
-0.02234118069063089 0.07188777612583291 -0.02092202993503956 0.02528555166658427 -0.07640596704161431 0.254117300441772 -0.25321478836357464 -0.020960650660707174
-0.08967317946650165 0.18076448128955128 0.10606238664134308 0.09737708146423463 -0.130100303219598 0.24858515892672062 0.08511394554666248 0.17691584210855527
-0.03677123674335905 -0.20491108032289915 0.06456108965661773 0.14399054802812775 -0.22014942404135426 -0.16241961646223033 0.18190462840798005 -0.0788151461863921
0.07063156879657798 0.02533327067338562 -0.1495386237983177 0.20660074148628055 -0.19896505326571584 0.221482260251661 -0.04570999542313914 -0.019655835637112287
-0.20209295877383007 -0.18096495611324132 0.007998445121885554 0.06127603935746522 -0.09526515358002186 0.05646928738311658 -0.008661583846419553 0.11447090904764243
-0.07836568462307165 -0.12214439267940645 0.03915535867631021 -0.2610002102501428 -0.025862686295710726 0.023435807320092754 0.22972920841856173 -0.11777285791185726
0.25585735441278246 -0.11063330780214109 -0.10141231471261844 -0.2158759956683024 -0.25587114191793575 0.10168987191365507 0.1822698196803685 -0.05593839290989528
00000000: 4661 a06b 0c7d c7bf 76bb 2813 f5c4 b5bf
00000010: 8c5f a927 4f66 b5bf 88cb d0f9 decf cbbf
00000020: 5a2c 31d7 b5eb 9b3f 37be ee4e 548c acbf
00000030: c3a6 e9ee 6cf7 c6bf c3d8 3e2e f417 b13f
00000040: b246 476d bc72 abbf 35bf b8cc 0576 c8bf
00000050: 862f 72df ca36 ba3f a18d 217a 4089 c8bf
00000060: 82d7 1074 72f8 c93f 108c 9e91 a5a5 9e3f
00000070: fc8f 7a09 baa7 b43f 9ec0 60bd c025 a6bf
00000080: 66d5 70a2 423a c93f d434 e0da 43f0 bbbf
00000090: a012 e1c9 5818 c63f e899 561c f256 cc3f
000000a0: 7c59 cd49 e50c c33f e406 5b10 4e2a cebf
000000b0: 5c31 1aed a9af bfbf 40ba 9dfc f52f c23f
000000c0: bd3a 25e4 077d c23f 91a5 ae8e c25e c03f
000000d0: e16a 1532 893b c13f f020 06f9 eadf cebf
000000e0: 5087 17b3 3f29 80bf d621 a159 803e c73f
000000f0: 2966 9b7c d43c afbf e2d9 0a90 6521 c7bf
00000100: 408f f201 fbf1 ccbf 2bda 08b0 268b bebf
00000110: 1b8a 86a2 8b81 b23f c3b0 56b0 f4f2 c73f
00000120: ec1c c00f 6872 c4bf 3fc6 5fdc 4785 923f
00000130: bab0 4bbb 5eee cc3f b98d 8007 4148 8bbf
00000140: 2a50 c0dc 9e36 bfbf 6a85 0a2f 9478 a1bf
00000150: b8db b1fa 54bb a9bf cd33 bfb6 fb80 90bf
00000160: 5609 b183 a4ca c7bf 7f1d f6fb f817 a93f
00000170: 5252 a051 f896 c83f 85aa 8384 237b c4bf
00000180: 233f 4e65 dbbc c5bf aa61 c8f6 548b b13f
00000190: ccfe 18fb 0e37 cdbf 2eca a474 abf9 883f
000001a0: 16c2 a0c5 e06e a53f 6da3 7d61 13e6 a3bf
000001b0: 9205 41f5 bb29 cf3f 534f 684b a7ee a3bf
000001c0: 7c82 ead4 2624 c83f 1a77 bdf8 e46d c13f
000001d0: 441b 156e 6406 c4bf 0814 341d 47b2 853f
000001e0: 0a01 6111 33fe c43f 2f80 a2db 0684 b8bf
000001f0: c114 9acd 93a4 aabf c8c0 e328 9ede c53f
00000200: 2afd 76bd 99c3 ce3f 4d11 4b28 5c0c a43f
00000210: 21b6 be77 c652 ba3f 00ab 094d 5f08 cabf
00000220: 8730 222d 2bd5 92bf b05d ced9 d467 bbbf
00000230: eaa3 6d98 8dfb c0bf 6b1c 29a8 1f51 cebf
00000240: bf4d 7d66 29e3 aa3f cf8a 1e99 58f1 cdbf
00000250: bdd0 4ab6 487b a83f b7ec 9297 5faa c7bf
00000260: 1cc4 f485 d598 cdbf d8d1 cf1c 5498 b3bf
00000270: 4cd0 fcff 868f a7bf 1ae3 047c 00ce bebf
00000280: a8ac c933 dbf3 a43f c416 0c0b 17b2 a53f
00000290: d787 2283 ae47 cfbf 6d64 ae7d 5912 bbbf
000002a0: 82e9 a248 0e4b b6bf e93d 0cf2 a41d be3f
000002b0: ab8d 63fe f05a ba3f 09f5 1185 7cb7 b93f
000002c0: 0eba dfa8 18c0 c3bf c75e 8405 7cd3 bfbf
000002d0: a9aa 996d 7c69 c63f 9005 61bd aa6b a63f
000002e0: d5a0 8091 5af6 973f 2811 11fa 60c6 b2bf
000002f0: b1a6 08e8 4cf4 9e3f eb86 24b9 9e2c c8bf
00000300: 1ec7 6530 1df6 b7bf 2a2f 38d2 d9c7 cfbf
00000310: db8b 1483 fe6b cfbf 6c6c 04a4 52fd 75bf
00000320: 22c1 a166 bf84 c3bf 1fd1 c4d8 5218 a6bf
00000330: 0a48 3f15 5062 c0bf b381 dcc8 5f01 cd3f
00000340: f414 c760 f422 c13f 4710 d162 855b c0bf
00000350: e4fd cbfe 121f c83f 8342 4d35 066a ccbf
00000360: 8975 8d9b 8e6d cb3f 5f6a 4d3a 2c00 c13f
00000370: cd23 be0a 33a5 cc3f 8ec7 2d7b b724 b73f
00000380: 9fa5 37c1 e5b7 c2bf cdad accb 169f 60bf
00000390: 23a0 b7f4 e764 ca3f a4a8 de29 ad4d cdbf
000003a0: 866d bd41 d11b c13f 7fd2 2573 7148 b33f
000003b0: 981f 75ac bf03 9c3f 99c5 f1cf 3f91 b1bf
000003c0: b195 add5 2a89 75bf 8403 0f81 8322 24bf
000003d0: 9e78 059f 55e6 993f 6865 167a 8874 c3bf
000003e0: 4211 555f e987 c2bf fccc e483 2c9e 753f
000003f0: cc0e dc75 242f a9bf 4304 0a6e 5da1 a53f
00000400: b3bf 9f22 52ac bf3f 5fb2 4d10 3962 ce3f
00000410: 79c7 6be9 e6db cabf 96b5 6831 2138 b23f
00000420: 9a47 f3d4 0b1f c33f bb8a e084 eb83 c0bf
00000430: 9504 c30f b080 b9bf 2c88 06da de92 a43f
00000440: f4a6 bd58 d7a9 c4bf 7fee 83d4 aece c7bf
00000450: 4baa 7fc7 e7b5 b5bf 0a8a 5774 7326 703f
00000460: d75a d794 1b29 62bf 0198 0a25 fcf4 c33f
00000470: 75b3 9283 d37f b93f 324b d509 fd9a b03f
00000480: fc0b b3d2 f126 c5bf 27d3 4783 af73 b83f
00000490: ef1e 9897 cd3a cb3f 6a9d 1f06 d55b c6bf
000004a0: 4712 c5f8 f6db ce3f e6b5 368d 6326 d03f
000004b0: a672 b8ac 6637 bcbf d544 32ce b9d3 c1bf
000004c0: 2384 5dcf ad5b b73f 4f2d 97da a463 bbbf
000004d0: dee9 17e9 aae9 c8bf 232f a6f5 7314 c03f
000004e0: 92a8 c47b c1b8 bc3f 43de 3045 f1fd ccbf
000004f0: 74d5 87de a479 c7bf 0ddb 31e8 64b5 af3f
00000500: 256f f530 fdf4 8dbf 9d57 ed6f 39dc b7bf
00000510: d9ae 17bb ba95 d0bf ae18 3114 c8d0 b6bf
00000520: 73a2 3b34 080d cc3f 115b 3a19 369b ca3f
00000530: d0f8 88aa ab3d cd3f c463 2105 ae51 c3bf
00000540: bab0 8424 546c cbbf cd9e b8a3 a625 aa3f
00000550: 7340 580f b439 b3bf e5d2 87c4 ae7a c5bf
00000560: 5b62 78fb 4bc0 a93f a4e6 169e 92e2 bd3f
00000570: bfd7 f6ec 7544 c13f 122e 8a9e 77eb 9ebf
00000580: 4676 754e a971 c63f 3e48 27ba b498 ccbf
00000590: e041 bf64 8860 b1bf e2a4 1cbc c38b a53f
000005a0: c86c 82f9 83a9 963f 70b3 2222 60c1 9ebf
000005b0: 79bb 9949 aa61 c1bf eb70 4017 9851 bcbf
000005c0: 03ba a6d4 58bd b2bf 71c0 0aab 2a7a b13f
000005d0: cf2e 8a74 281b b73f 62ae e760 fb6f ae3f
000005e0: c130 3bc1 4ed2 c33f 4ec2 934c 3c4b c73f
000005f0: fbbb b5eb 80e2 953f a009 58df f961 b23f
00000600: 65ef 451d ab4c 52bf a227 7d99 b92c 97bf
00000610: 0e98 7e6d db33 7f3f ff34 5b6c 4ddf c23f
00000620: 4ab4 113e 21e7 c73f b1b7 6b17 99a0 833f
00000630: 9f98 9d78 1f7d aebf 6e1f 8f39 a447 babf
00000640: 8d5f ae41 9be0 96bf ac4f 71bf 3c67 b23f
00000650: a203 59a9 956c 95bf 968f e0a5 74e4 993f
00000660: 8ab9 a969 578f b3bf a3b1 af35 7543 d03f
00000670: b7a5 b8cc ab34 d0bf feca 5c74 b576 95bf
00000680: 0710 234d d2f4 b6bf 2161 b55f 4a23 c73f
00000690: a3d4 f591 e726 bb3f 18d1 4454 b4ed b83f
000006a0: d190 c371 20a7 c0bf b43c ee73 a3d1 cf3f
000006b0: dd72 8e0c 07ca b53f d811 00a6 2da5 c63f
000006c0: 030e 7ef6 add3 a2bf b395 49ba 863a cabf
000006d0: 0d57 ab58 1387 b03f ed61 5b43 486e c23f
000006e0: 43d4 3e38 db2d ccbf fb91 777e 2aca c4bf
000006f0: 5c6c 009f a648 c73f aacd 4cbb 3a2d b4bf
00000700: e2e5 0b16 e914 b23f d9ef 2b04 f7f0 993f
00000710: 83ef 59e5 1424 c3bf 8aa7 01a2 e471 ca3f
00000720: e65c 69d6 af77 c9bf de67 36dc 8759 cc3f
00000730: 90a8 e2ee 4c67 a7bf a7a2 f2cc a820 94bf
00000740: b1bd 579c 2ede c9bf be3d 1d14 dc29 c7bf
00000750: 9221 bd21 7d61 803f 872f 23b2 925f af3f
00000760: b819 130f 4c63 b8bf 29ec 13dd 8ae9 ac3f
00000770: b4c2 d01a 2abd 81bf c6f8 b32a f74d bd3f
00000780: b5b1 9504 c60f b4bf 27a5 f2db da44 bfbf
00000790: 99af f4d1 2b0c a43f d180 d139 3ab4 d0bf
000007a0: b7a0 4e7f bf7b 9abf 1e0a fb67 8eff 973f
000007b0: 0dfe 8b46 c467 cd3f 6c7f 16ad 5c26 bebf
000007c0: 0037 6986 f75f d03f 80c6 dbe6 7652 bcbf
000007d0: fe33 1a4f 28f6 b9bf 8c82 b11a d3a1 cbbf
000007e0: fbc5 a15a 3160 d0bf a71d 34f2 5808 ba3f
000007f0: 9999 4911 9e54 c73f 9910 4700 f5a3 acbf

equations.x.layers.2.bias f8 [16]
0.18696111392303552 -0.16627611321068977 0.12508240793105938 -0.0227223782558336 -0.19477922227297761 -0.016649488740804703 0.1634661932753027 0.24580577227546668
-0.23124663425788267 0.04255463096298647 -0.047911098798920804 -0.11314723657126927 0.05771246264739033 0.08528597812662851 0.1606056196341243 -0.20733016895802991
00000000: 5d2a f67e 57ee c73f a746 2c22 8948 c5bf
00000010: db35 af49 b302 c03f ea0d fcfd 8844 97bf
00000020: 0827 cd8a 86ee c8bf 5529 8c46 900c 91bf
00000030: b63c 0fd1 75ec c43f e6aa 8b44 9076 cf3f
00000040: 8e4d b95d 7d99 cdbf 5b0a 8f78 b8c9 a53f
00000050: 58e0 e9b4 cd87 a8bf 1ad5 b4a0 37f7 bcbf
00000060: 98c9 48e7 7c8c ad3f 477a dc46 4dd5 b53f
00000070: cff1 f095 b98e c43f ec0e 9383 cb89 cabf

equations.x.layers.4.weight f8 [16, 16]
0.0451060733934253 -0.07577692385090695 -0.04259924219783111 0.23936055609726084 0.2391328674800799 -0.12075288448428065 0.009384014717161694 0.01854322267482955
-0.2619369663856305 0.20628777181756702 -0.1379001196156575 0.10883555700036375 0.23870221412175516 -0.0729735963653234 0.24150504219340527 -0.1981148381141109
0.12780240677802 -0.07214140560823117 -0.02711825001245119 0.0301709998350536 0.05367268189889173 -0.05148435625811772 -0.008499512253383626 -0.14599343171585083
-0.165331936256274 -0.12253513459757294 0.23441675196849468 0.1196457918057583 -0.23564168951174536 0.2613655734495183 0.22524796094975166 -0.1329599910983228
0.2176916065598621 0.12104985314494512 0.09381779057801172 -0.22598569186569548 0.13670044707689624 -0.22060441546770806 -0.11023140738747644 -0.1986513204897398
0.04209072869833153 0.25980721744289964 -0.041894841196746496 -0.20444749173184393 0.16182160602196252 0.17614388638421175 -0.039272782395660254 0.2226899788111689
-0.2101762688276365 -0.06568640200685795 -0.013817955555037622 -0.23071777111324154 -0.13330969845627477 -0.17466270762779543 -0.12413905507749043 -0.16187035458500432
-0.14410868169282742 0.2019264252561527 -0.028439028161943318 0.07541473142501169 -0.23255004272468274 0.17955384442465355 -0.05205515557045997 0.05052532184150375
0.09437764729363796 -0.004454549789296313 -0.057027447008622396 -0.14521637977883609 -0.10717141136953584 0.06175463742213794 -0.17713015097436582 0.06871930502268114
-0.16984804057650632 -0.13828473719943973 -0.052813151004269705 0.20419394364682097 -0.06254312372220779 0.04446533092455931 0.042730054083012774 0.15002038711664806
0.08589191927321621 -0.1997384410093259 0.09104331288693349 -0.19201364743275678 0.039010179184438804 0.07882804778586582 -0.19261253134344564 -0.20784386070569355
0.16715514944148643 -0.16790131797986024 0.23320231268560263 0.008562733467407657 -0.238145879324767 -0.021226058941401164 0.16150759459001315 -0.14355644486822394
0.02698261690879022 0.19894990753951627 0.13195419717786083 0.14979414105009642 -0.040519543406207115 0.09844207131659026 0.014418454190798125 -0.07659967897284731
0.01818915157213893 0.23101216213162024 -0.1268964892486672 -0.15473892836919068 0.2613370019818506 -0.13786401460438627 -0.017188083059636004 -0.16103238927902352
-0.21853920712737324 -0.09509612092584795 -0.1314334430518963 -0.08504111746614532 0.12611443441444722 0.07760854585015924 -0.10261826777811445 -0.08403232458020068
0.2619512513257383 0.05863330559984517 -0.16065453462014376 -0.0963611360519773 -0.0780074678011553 -0.2012742867011406 0.14481504694794176 -0.0792129249474328
0.16143775636344462 0.1899378904114141 -0.10850514943196363 -0.14129905199901935 -0.09203077100366329 0.017122361189424583 -0.07267621871218692 -0.1650656131439055
-0.017566267383424025 -0.04832391997195696 0.03654464895187627 -0.057422405485757604 0.17381621950924978 -0.19867954207208746 0.22896277921193015 0.08129084981768124
0.10435727846937508 -0.18029711434902737 0.2150778331130477 -0.04670715787683143 0.2291063301387176 0.08538502484925234 0.031463796705204404 0.08023884646195194
-0.18134484480463248 -0.08920783214148906 0.08964746507167003 0.2121876660300419 0.2356467852084275 -0.15809507118643423 -0.23553718511106142 0.14159454800681776
-0.09373727910468613 -0.23531089753478218 0.12696150739740256 -0.21145863111390298 0.09143203825301373 -0.0788726115306052 0.08406168560060251 0.1868121025996396
-0.031005630088609917 -0.1863952871589007 -0.24531422417846438 -0.19490322661122575 0.031158239114761916 -0.22595548334847557 0.145418414019942 0.08926683002349743
0.01829656841635934 -0.02159907180934001 0.22341842444406668 0.23426771324111378 0.13414636423304258 -0.04757903197688926 -0.17652632659079878 0.137037514415956
0.20524276420005824 -0.24874764990400383 0.11274160910615118 -0.2244799035990152 0.1546998617975116 0.0956152867846664 -0.13583405141059463 0.06043527008217602
-0.20389715202877728 0.09534022191128401 0.13359488343348755 0.2370136117019423 -0.22013183975985084 0.09583953435100115 0.2320055866493306 -0.05700750871772573
-0.1270622869538875 0.08434901449524658 -0.0660328020390991 0.2530263894638721 0.020830564195242835 0.18551968390603224 0.077130589544741 0.19583917487069094
-0.09118032891688935 -0.09575699514583101 -0.17361628872052315 -0.0165199185122463 0.19460287676854013 -0.05764765062119198 -0.01995659464251418 0.06402817136163308
0.2204008174451573 0.04459412376130231 0.10741610553437696 -0.18967518834486455 -0.08161788651437786 -0.20246843846372203 -0.07613629359624097 0.19805039850827905
0.02500823897867522 -0.21091586901538392 -0.14732284598860154 0.22332773743048814 -0.023729261208611786 0.06992979151827311 -0.09618591954606334 0.06056445964975986
0.21651875225975362 0.14139685184163436 0.014432120824034342 -0.21214061857726935 -0.17651619319867187 -0.010995335997287746 -0.15369826863365846 -0.174266415101118
-0.10339714753872324 -0.22465338618365951 -0.08656477283595303 -0.15400823299016067 -0.23998910523396813 0.11802825381041183 0.17121570666142494 0.11891324778474346
0.025384378974452042 -0.18091002551154864 0.06113426024874889 0.1604717125431533 0.17202196828692756 -0.16053912777994314 0.23095201159199588 -0.04249988176205724
00000000: 0ec7 26ac 2418 a73f 302b bbd1 1d66 b3bf
00000010: 36ec 2560 91cf a5bf 15ef 31e0 5da3 ce3f
00000020: f0e1 9ce2 e79b ce3f 6ef5 c139 a9e9 bebf
00000030: 54ec 8522 ed37 833f a0a8 cd9b fefc 923f
00000040: cf57 0f44 93c3 d0bf 66b5 c240 a367 ca3f
00000050: f08e ee0b b6a6 c1bf a960 f5a5 a5dc bb3f
00000060: 875f 914d cb8d ce3f 374e dcc9 65ae b2bf
00000070: 5f17 0521 a3e9 ce3f 60b6 46b7 d35b c9bf
00000080: 7b18 bb4a d45b c03f db5a c6f1 db77 b2bf
00000090: c881 b6f3 e2c4 9bbf ac13 5186 25e5 9e3f
000000a0: ff81 e35a fc7a ab3f 9ab9 c454 285c aabf
000000b0: bb28 4839 3168 81bf ee3f 53ab e9af c2bf
000000c0: 313f 9acd 9829 c5bf f120 b56b 765e bfbf
000000d0: d56b ab3d 5e01 ce3f d0e5 e84a 1ba1 be3f
000000e0: 1479 03c3 8129 cebf 9a05 91ab 36ba d03f
000000f0: 0d8b e2d8 ecd4 cc3f b8cc b83e d504 c1bf
00000100: 3de7 648d 51dd cb3f c271 7188 1ffd be3f
00000110: 0dc7 5056 7104 b83f 0fab f661 19ed ccbf
00000120: d19c c576 667f c13f 81bc e4f6 c33c ccbf
00000130: c4a4 b821 2038 bcbf 49c3 670e 686d c9bf
00000140: d1c2 727e ea8c a53f 21a6 8b73 aea0 d03f
00000150: b44d 9f99 3d73 a5bf 6766 5edd 552b cabf
00000160: 6d44 d304 92b6 c43f 388c b403 e28b c63f
00000170: 434a 06e8 8f1b a4bf 1f09 12f0 1a81 cc3f
00000180: c747 8154 0ee7 cabf 214f 69f4 d2d0 b0bf
00000190: c1d8 a699 964c 8cbf 10c9 c4f0 2888 cdbf
000001a0: 42fe 8dcd 4a10 c1bf ebcc 8bfc 585b c6bf
000001b0: 76d3 b6bd 93c7 bfbf dc37 91f3 2ab8 c4bf
000001c0: f85d 783d 2772 c2bf cd30 56a0 b9d8 c93f
000001d0: bed2 8adf 1e1f 9dbf 8b67 1b3d 614e b33f
000001e0: 11cc 1726 33c4 cdbf 0e65 d6d0 9efb c63f
000001f0: 97d1 862d f9a6 aabf 55b7 db79 74de a93f
00000200: 407f 992c 2229 b83f 326a 9d1a ef3e 72bf
00000210: 51b8 c097 b332 adbf d52e ff48 7396 c2bf
00000220: 3cf8 e5ea 956f bbbf 9076 35c8 4d9e af3f
00000230: 4d04 c966 33ac c6bf a41f ad9f 9697 b13f
00000240: 566b c8a1 94bd c5bf be5d e773 50b3 c1bf
00000250: 595e b948 530a abbf f88e 00f3 0623 ca3f
00000260: 1d00 fa7e d302 b0bf e3eb 40ec 28c4 a63f
00000270: 2f8a afb1 b6e0 a53f 0e1b 3338 de33 c33f
00000280: 14e6 4448 03fd b53f 5fcd f17b 0791 c9bf
00000290: 926e 5e53 9d4e b73f aaff 0d38 e793 c8bf
000002a0: dcd4 9d67 24f9 a33f 0f71 3f2f 132e b43f
000002b0: 6ebe 7505 87a7 c8bf f6e1 33ac a09a cabf
000002c0: 4fc6 1a06 5765 c53f cee2 d656 ca7d c5bf
000002d0: 8f09 2bc9 92d9 cd3f 00b1 a7a1 5689 813f
000002e0: be42 b06d 907b cebf 9eb7 e7b3 48bc 95bf
000002f0: 03ed 68e6 47ac c43f f465 ebbd 0e60 c2bf
00000300: 1f29 bcc4 54a1 9b3f 4154 36c9 3077 c93f
00000310: d873 b908 e0e3 c03f 4ea6 7854 742c c33f
00000320: 2099 8e43 fabe a4bf fbf1 dae4 7f33 b93f
00000330: 80b4 aa29 6c87 8d3f ec8d 125c 099c b3bf
00000340: 97c9 934c 2da0 923f 0cb2 aa78 ce91 cd3f
00000350: 4e6e a6e7 243e c0bf e8c2 6136 7cce c3bf
00000360: 84ca 2fd5 beb9 d03f 95b3 022d 87a5 c1bf
00000370: 76ff 7cba c099 91bf 386b c696 b59c c4bf
00000380: 4ebf c0bd 17f9 cbbf c75c 5a29 3858 b8bf
00000390: ec18 c1a1 cfd2 c0bf 6a17 5532 41c5 b5bf
000003a0: 0b8a ae8d 8424 c03f 7309 5156 27de b33f
000003b0: a044 14d8 3045 babf 46fa e075 2483 b5bf
000003c0: d9c7 652e cfc3 d03f 64f2 0344 2f05 ae3f
000003d0: 1fe5 12ea 5390 c4bf aada f297 1fab b8bf
000003e0: 70bb 0c23 4cf8 b3bf b91c 7417 5bc3 c9bf
000003f0: 3b18 4ea9 4c89 c23f 97d9 115a 4c47 b4bf
00000400: 91d6 f50d fea9 c43f f54b cb81 e24f c83f
00000410: 3604 4254 fec6 bbbf df52 a55b 1616 c2bf
00000420: d7b7 af1f 548f b7bf e602 5b35 8688 913f
00000430: 5bd7 909e e89a b2bf 7ad9 12b9 de20 c5bf
00000440: bcc9 b23f e4fc 91bf 61c4 c9af e9bd a8bf
00000450: f228 2ff0 fab5 a23f efea 3c33 7866 adbf
00000460: 2d3e 2721 9c3f c63f 4fbc cacb 546e c9bf
00000470: 8eb6 5b00 a74e cd3f 4355 6e25 7acf b43f
00000480: cb22 209a 28b7 ba3f 7b9b d8d0 f913 c7bf
00000490: bb54 a8a1 ab87 cb3f 1fe4 2327 00ea a7bf
000004a0: b34d a031 5b53 cd3f 16b2 4b01 cbdb b53f
000004b0: 73b4 b6d3 051c a03f d33f 6c75 888a b43f
000004c0: baf6 ddd0 4e36 c7bf be41 9811 53d6 b6bf
000004d0: abf1 a6e2 22f3 b63f 4057 1b27 f728 cb3f
000004e0: 8b59 f081 ac29 ce3f 8ac7 3394 753c c4bf
000004f0: be9e 851d 1526 cebf 7297 7d28 c51f c23f
00000500: caaf 2b94 2aff b7bf 30f3 a6e0 aa1e cebf
00000510: d5b4 0f51 4640 c03f 85aa 8b90 1311 cbbf
00000520: d972 1a0e 1768 b73f b7f5 12d7 fe30 b4bf
00000530: 1450 800e 1185 b53f 1ecb 947f 75e9 c73f
00000540: c4ca e39c f0bf 9fbf ceed 3cff ccdb c7bf
00000550: f488 0bdd 7466 cfbf 3d0d 17c4 96f2 c8bf
00000560: a5d2 fe07 f2e7 9f3f 97b2 aaf9 1bec ccbf
00000570: dad5 3912 129d c23f 078a 91e3 30da b63f
00000580: adbe e8eb 55bc 923f 1027 2e2c 111e 96bf
00000590: 90d2 2795 f998 cc3f 928c 7003 7cfc cd3f
000005a0: 6b0d a143 b52b c13f ecd4 a164 475c a8bf
000005b0: 5f95 cb27 6a98 c6bf b3ee 5efd 718a c13f
000005c0: 076d fd17 6545 ca3f f2b3 a586 f6d6 cfbf
000005d0: c963 0254 a2dc bc3f 8e93 48ea c1bb ccbf
000005e0: 24da 8e7f 34cd c33f abe0 bc51 3e7a b83f
000005f0: 96ef 3e9c 0263 c1bf 6745 0e29 5ff1 ae3f
00000600: 9606 db47 4d19 cabf 7133 1a7f 3768 b83f
00000610: db3f a11b a319 c13f 56bc 7b47 7656 ce3f
00000620: f0d6 49b6 472d ccbf 2a90 b391 f088 b83f
00000630: 35f7 92eb 5bb2 cd3f bd5c 2393 1630 adbf
00000640: 16ce 82b7 9343 c0bf 51f8 b4a2 e597 b53f
00000650: c79e 3895 86e7 b0bf 326d f198 9531 d03f
00000660: 3537 e77f 9b54 953f 5801 92e7 1bbf c73f
00000670: 24a9 9d8f d4be b33f e930 ac11 4211 c93f
00000680: 628f bc12 9857 b7bf 2fbb 83ca 8783 b8bf
00000690: e4c3 0dfd 0e39 c6bf d981 f8f6 98ea 90bf
000006a0: bfd5 b63f bfe8 c83f 18f0 372c fe83 adbf
000006b0: b906 5165 806f 94bf 9059 0576 2664 b03f
000006c0: 9924 780f 1836 cc3f 5c11 4c7e 0ad5 a63f
000006d0: 1f76 5534 9f7f bb3f 05e4 66cd 4647 c8bf
000006e0: 790f 59e9 e8e4 b4bf 8641 d65c 7cea c9bf
000006f0: 98d5 080b ab7d b3bf fec2 4628 b759 c93f
00000700: 8204 2d82 c29b 993f 7b72 d08b 4aff cabf
00000710: 97c2 bc9a 79db c2bf 13dd 46d8 0096 cc3f
00000720: 4d9c 65c3 7b4c 98bf f44a 9637 ebe6 b13f
00000730: 3639 c9f2 a39f b8bf 3ec3 fd0a 4e02 af3f
00000740: 3993 f6ef e2b6 cb3f 0e66 35c3 4a19 c23f
00000750: 85f3 9b77 968e 8d3f 86a6 787d 6c27 cbbf
00000760: e958 8026 1598 c6bf 3f93 2204 b984 86bf
00000770: 95df 9d86 62ac c3bf 5a42 d3a4 5c4e c6bf
00000780: 63b2 2d47 3c78 babf c917 4c31 71c1 ccbf
00000790: 1beb 50e4 1b29 b6bf 61f5 00b2 8ab6 c3bf
000007a0: 2d27 3087 f6b7 cebf 11a5 1e82 1937 be3f
000007b0: 8c0f 5672 65ea c53f 22ef 4b3e 1971 be3f
000007c0: 6b21 19d6 5cfe 993f ab99 8b49 0f28 c7bf
000007d0: 8ef7 dd60 fd4c af3f 9429 a74a 568a c43f
000007e0: 1232 fedb d004 c63f 4388 c5cf 8b8c c4bf
000007f0: 19d4 5de4 d58f cd3f 64f9 8064 8bc2 a5bf

equations.x.layers.4.bias f8 [16]
-0.16030436329683614 0.05396497880939325 0.23584351805376777 0.08572023218441946 0.1852363306670593 -0.2176913559252722 -0.172867573970811 0.1914582295060534
-0.07817262548407507 0.010585324084097425 0.03640225713104634 -0.15744325349678714 -0.03166105414842238 -0.10474832559428073 -0.11641098609720991 0.2474263953013523
00000000: bf0c e276 da84 c4bf 053a 3b36 4ca1 ab3f
00000010: bbdb 81d2 1e30 ce3f 7e6d d6d9 c2f1 b53f
00000020: f27e 1ff7 d2b5 c73f 8f14 2973 4fdd cbbf
00000030: d12a 5f50 8620 c6bf e8a7 2309 b481 c83f
00000040: dd84 e505 1f03 b4bf 8df0 1126 c2ad 853f
00000050: 29c1 c10f 51a3 a23f 094d 5fbc 1927 c4bf
00000060: 04ac 3fb0 e035 a0bf 61fa bc48 c9d0 babf
00000070: a9c0 2e42 1ccd bdbf da44 fe09 abab cf3f

equations.x.layers.6.weight f8 [1, 16]
-0.033412220761727694 -0.08649812584280366 -0.022574418886062222 0.06322486265051046 0.012748321269285452 -0.13775593090734153 0.00510937448122584 0.2135498663128126
-0.11193011346093378 0.1509669496165464 -0.15072783400211298 -0.021084578329095067 -0.20771382999262347 -0.1658565100916501 -0.009201362903161897 -0.21950636096726292
00000000: 33ad ea16 681b a1bf 8dfe a8bd bd24 b6bf
00000010: d40b 5e9b bf1d 97bf dbc6 602d 812f b03f
00000020: aaa0 71b7 ca1b 8a3f 59dd 0981 fca1 c1bf
00000030: 0451 cc44 91ed 743f 5079 f01d 9a55 cb3f
00000040: 6b95 c0b0 73a7 bcbf 16a2 b08f e252 c33f
00000050: 3068 d1b6 0c4b c3bf 2560 7e19 3297 95bf
00000060: 6d63 5fe5 5d96 cabf f20e 563f c93a c5bf
00000070: 504e fb05 2ad8 82bf 9726 cfd0 c818 ccbf

equations.x.layers.6.bias f8 [1]
0.04528016622974313
00000000: 2977 3a42 f62e a73f
