simple-pendulum-system/2025-05-30_20-51-38 -best result/model.pt (torch, 276310 bytes, 24 tensors)

equations.x.layers.0.weight f8 [64, 1]
-0.580909789797431 0.7421481506567126 -0.3955256642453179 -0.36833766796464257 0.9481988956489651 -0.060180278154213084 0.36724282584817014 -0.7033143743839003
0.30817611517387566 0.4548353574614695 -0.0934678385232991 -0.09971123444057962 -1.0097257076899886 0.7444986073636747 -0.9836325387807568 -0.6308087499585693
-0.07305703513620244 0.18691750899824253 -0.2535898186396311 -0.6116490083765254 1.588996613802264 -0.1031434034137371 -0.6299054837092322 -0.39706212195315926
-0.041337482238005964 0.12865941237822512 0.11992595377242211 -0.2887932905585406 0.2734032958440856 0.8899370225721367 0.10204101488344712 -0.2134122738453793
0.11803413880633866 0.3035274481758829 1.2860855904816109 0.08343034354346497 0.11854416665141682 -0.11632681534455458 1.0253300774452254 -0.7898675371982427
0.24893682912065399 -0.44483349277290724 0.6913526886755116 0.041806121133400306 -0.3356074771430107 -0.3622424610330464 -0.32734732595244215 0.3620169752208862
-0.26298169427318396 -0.09459045781306201 0.2991082676683006 4.82505491066196 -0.1509362035017247 0.6756978737616965 0.8614633988663168 1.2611302917162361
-0.9010900451207945 0.48701401454941723 -0.4092008942589212 -0.9423340155922402 -0.5746773022293995 0.17157120882316187 -0.8720643466600696 0.8233204583930566
00000000: ff65 a320 d096 e2bf 5370 7b7a adbf e73f
00000010: 6663 2ae0 4a50 d9bf 47c1 7227 d892 d7bf
00000020: c64c dd35 a557 ee3f dbb3 120d f3cf aebf
00000030: 4c58 ad0d e880 d73f 3e23 9925 8d81 e6bf
00000040: c620 0550 28b9 d33f 8222 57c2 051c dd3f
00000050: f874 af1d 82ed b7bf e950 f7ea ac86 b9bf
00000060: e357 c724 d627 f0bf c56c 51be eed2 e73f
00000070: 9f08 2bf2 ea79 efbf 4a49 e3d4 952f e4bf
00000080: 2918 a7a8 ddb3 b2bf 133f 19b6 e9ec c73f
00000090: 69f8 69ca d03a d0bf ca74 f3f0 a092 e3bf
000000a0: 78c4 9bb6 876c f93f 72cb 7528 9b67 babf
000000b0: 5445 838b 2f28 e4bf 4a3a 113f 7769 d9bf
000000c0: c557 9fbc 2f2a a5bf cd57 3e60 e977 c03f
000000d0: b9e7 64a1 77b3 be3f bb33 90da 967b d2bf
000000e0: a636 9189 707f d13f 574d ee34 5d7a ec3f
000000f0: fb69 c625 5c1f ba3f 248e 5de8 1751 cbbf
00000100: 8318 fc3d 7c37 be3f dfa3 d663 fe6c d33f
00000110: 1b9b ef7b ce93 f43f d562 03e5 b05b b53f
00000120: ac3f e616 e958 be3f 487d 8d1b 98c7 bdbf
00000130: dfb7 e382 c067 f03f 5208 0e49 9846 e9bf
00000140: 51ec eb79 29dd cf3f 7501 e8e5 2678 dcbf
00000150: a19d 7bac 8f1f e63f 6ec5 14a6 9c67 a53f
00000160: bdd3 a7c8 977a d5bf dd01 d700 fb2e d7bf
00000170: cb85 d932 42f3 d4bf 45ea 4a3f 492b d73f
00000180: 5466 162c b1d4 d0bf eb1d d28a 1437 b8bf
00000190: e54e e600 9724 d33f 0eca ca31 db4c 1340
000001a0: 6641 e9a4 e051 c3bf 2a10 b925 519f e53f
000001b0: 639e 9ab0 1b91 eb3f a6a8 eef4 962d f43f
000001c0: 7370 51ca bad5 ecbf 13bd 4bd4 3c2b df3f
000001d0: 5d81 95f2 5830 dabf 9810 5caa 9927 eebf
000001e0: 5b85 5aa7 c163 e2bf 4b53 6a9d 0bf6 c53f
000001f0: 1134 1d7d f3e7 ebbf 07a1 5d25 a458 ea3f

equations.x.layers.0.bias f8 [64]
0.025670292636825118 -0.7172541949800627 1.192644380614499 1.3752238509713628 -0.9883032364862423 -0.5859039372167589 -0.707958285197556 -2.4496640524613085
-0.3624607432317119 0.18447725646019236 0.2732136276094486 0.18921167882905734 0.42447706044009487 -0.3234418420096246 -0.8618472531764013 -2.488757548842398
0.04942973457399168 0.5699959006604841 -0.4914624338819525 -1.1928592618934235 -0.6699312023984204 0.7097459712422544 0.9983181342138283 0.2902588499706118
-0.44373454193152945 -0.8513607995957124 -0.23981541041858262 0.4823169881460854 -0.44504394123948104 -0.8165686391620947 -0.7463930028693145 0.5089063161817964
0.11891230181151376 -0.8159779138404074 -0.29187129390921657 -0.25497724014240597 -0.11738597952100542 0.17596916127955836 2.401441638251614 1.0395002417405304
-0.5820676890579765 0.12719886048554435 -0.5533591643674484 0.7717932451479579 1.1135414805852193 1.3063543456053797 0.9065040386282356 -0.930361304521658
0.6435615912237782 0.189811560958395 -1.1735559303105496 -0.6244232722848738 0.024845436430441393 -0.6288690508719746 -0.2830742506464585 -0.2612732627577137
1.2587611911133068 -0.5505660190684335 1.4445721073243007 0.45263215646636845 -2.002869048535227 0.4928473305902667 1.0099479087270193 -0.6170969655692107
00000000: 4c68 6a2d 5049 9a3f 2f76 cb11 bff3 e6bf
00000010: 8ef5 2746 1215 f33f 709e 89b9 ea00 f63f
00000020: e0a8 e71b 2ea0 efbf 1c32 1e9d b9bf e2bf
00000030: 4162 3b22 98a7 e6bf b010 7c77 e998 03c0
00000040: 4be6 908b 8e32 d7bf 2e19 ad63 f39c c73f
00000050: d9dc d902 557c d13f 85c8 4b9a 1638 c83f
00000060: db83 1fd5 a12a db3f b1b7 6569 45b3 d4bf
00000070: 4d48 d1b0 4094 ebbf 1a9c bfb7 f9e8 03c0
00000080: 6ef8 e3aa da4e a93f 651b 060b 683d e23f
00000090: 3913 2fda 1e74 dfbf db01 e997 f315 f3bf
000000a0: a5e0 9b8f 1370 e5bf ef80 de2e 3db6 e63f
000000b0: dc77 2edf 38f2 ef3f f0e4 ffda 9993 d23f
000000c0: b7e4 6c90 2566 dcbf 1485 eb00 593e ebbf
000000d0: 7a8d 6978 45b2 cebf 4921 9912 48de de3f
000000e0: 5f04 3a95 997b dcbf 557e 048e 5421 eabf
000000f0: 9d2e 2994 73e2 e7bf 1c51 17e6 f548 e03f
00000100: 555e 5f5f 0971 be3f cb7d c6b6 7d1c eabf
00000110: 71cd 7eef 04ae d2bf c4b3 e80e 8c51 d0bf
00000120: 8b38 0def 010d bebf ae6e 6650 2886 c63f
00000130: c558 9c08 2736 0340 d15a 6701 cba1 f03f
00000140: 69fe 116b 4ca0 e2bf 4adb ef60 0d48 c03f
00000150: 73cd 3c47 1eb5 e1bf e2e4 65bf 87b2 e83f
00000160: a0a5 1ddf 10d1 f13f 28cd 75d0 d3e6 f43f
00000170: c734 f3c1 1402 ed3f 274d 0c12 85c5 edbf
00000180: 3692 687a 0e98 e43f bf08 5cc7 be4b c83f
00000190: e35e 4b95 e2c6 f2bf 0f65 aa83 46fb e3bf
000001a0: 4dc2 b103 1571 993f 2dc6 defc b11f e4bf
000001b0: 9470 3776 e31d d2bf 2445 b77d b3b8 d0bf
000001c0: fae3 54c6 e223 f43f bd02 c6a0 3c9e e1bf
000001d0: 2dbf 5aa4 f71c f73f 4406 49dd ecf7 dc3f
000001e0: 1609 2d35 e005 00c0 1397 b387 cf8a df3f
000001f0: 9856 6a23 bf28 f03f 4294 b222 42bf e3bf

equations.x.layers.2.weight f8 [64, 64]
0.09865825958183955 0.015054465250688829 -0.007117198671884012 -0.06460907003114132 -0.06907252916787741 -0.1370707013355842 0.029469065728366568 0.09977677851491275
0.040470437717053276 -0.005038086270521124 -0.14200820145116488 -0.049486640538278615 -0.019539925170453054 0.020580787265381068 0.10359616554347645 -0.0041319642815781064
-0.1181890621404244 0.01586959928764359 -0.11579816977093674 -0.12620834992124522 -0.04063389040548924 -0.1685945339708146 0.12218638766249834 0.1188097238545087
0.011919859572838759 0.3214004439257144 -0.031189661105004325 -0.02706573474142352 -0.08251952170483207 0.06686072471138359 0.1785021748744928 -0.008368659231369553
0.1159495215677339 -0.10006326010741041 -0.06476795373381845 0.225346541334345 -0.06638290009290773 -0.10174589407273234 0.013733839882471337 0.12387754846913218
-0.006683767596854831 0.0880266473891593 -0.07834123496043134 0.13084825672470418 0.013919765566984413 0.10305457463182258 0.07319578082854691 -0.12238702792152328
-0.06213405715598588 -0.06959762190652076 -0.002526247807800027 0.08493024801459617 -0.13455885702968837 -0.08517889804011078 0.04710206981123007 -0.026067347312520715
0.04118098369003883 -0.0055027881835944285 0.009782580093637833 -0.09857175318903272 -0.005155468584450333 0.06474571163366648 -0.047416115355283686 0.10381901031283128
-0.0344016822488908 0.08632471938372195 -0.07577472753722526 -0.09972958834633651 -0.09229576504045407 0.07787295317482561 0.08892739744728258 0.13001156481108403
0.09633129015001876 -0.04843101668630575 0.0820585352396381 -0.06866506910570226 0.06176411573296733 -0.03927570709145497 0.13862937207297957 -0.04486402743261153
0.15298367162936283 0.10441260792616303 -0.09222628657251788 -0.09843448740447096 -0.11219130151167797 0.321728404165399 0.04232724221407745 0.10661855350563461
0.03571483501972824 -0.2885270607791412 -0.06714250964522993 0.06637095723547377 0.042996846688123945 0.008991538867768748 -0.29800415371464634 0.10551657511137977
-0.0168251991080895 0.12391861396528847 -0.020897160141413268 -0.18685697539290475 0.09143675530421765 -0.08640921835250932 -0.04504825778886537 0.08174041520759752
-0.043814192396672565 -0.006944055218968555 -0.010528735321420136 -0.06930916544228433 0.02520240108601923 -0.08990465165124521 0.05859470916262132 0.08908216019760717
-0.07087395722254647 -0.03490632362762287 0.010224709758926474 0.0947729952424228 -0.050025481975873615 -0.10108720671171224 -0.004610876019124055 -0.10902517776905331
-0.07338416309851632 0.11152179607516348 -0.13640784680203377 -0.08903060441898183 0.021579013452487247 -0.053398559953683096 -0.013326397826110158 -0.02103148287416389
-0.11962802882240633 0.003859458260996931 -0.08186460661037956 -0.027827418968242687 0.044273850431520934 -0.08577744827128826 0.004640276376440845 0.007656486031077546
-0.07006819195868957 0.07585653548161982 0.04842161193612494 -0.10108823995814188 0.0341053664926125 0.04192679374240877 -0.01564836485289246 0.08890451337392834
-0.058021084417113705 -0.04600068037572961 0.09754232937676652 0.007054344371331253 0.0018951418330658922 -0.1698603663870473 -0.07958111388062246 0.10456490877350741
0.06119263476598341 0.08406295325537422 -0.14065687187856782 -0.09725958326162606 -0.12691543752193468 0.12387423261920023 -0.041414509412120354 0.036810284581009434
-0.12040391905621073 -0.12021626526593067 -0.08416019705963582 0.0665738295675534 -0.10860252872848566 -0.03803270591908799 -0.13044818003774514 -0.0883632997796471
-0.06918144050166815 -0.03227472756334118 -0.05273051135582336 -0.056113623316296116 -0.05340607566531108 0.09410708692060768 -0.07057058904064738 0.016926725366939933
-0.10103280912476939 0.12560590932518936 -0.052593166405445715 -0.08259652964091128 -0.04733994524484302 0.024331092159398868 -0.0324491057442006 0.05207854585343251
-0.1348401242781415 -0.109062206291734 -0.055492749456765494 -0.1149181386963453 0.07341462944393382 -0.022551544213831275 -0.11590652924119188 0.0019945302275923477
0.08894070030314508 -0.10830950700433435 0.10870603967981858 0.14875377408663076 0.1359678470969072 0.06069077394185716 -0.04978073835474541 0.026266562678277334
0.018195100108614852 0.1243991511444609 -0.06360149727377389 -0.10086572048855913 -0.09272188896866482 -0.025220324959752273 0.06945249525312328 -0.051850836058697565
0.11582653515957854 0.011090374127714521 -0.07857203828086774 0.01395139166955127 0.08794212840936146 -0.04497642868608132 0.05833950345537021 0.008493242928841377
-0.10083571738029751 -0.009602799255072389 -0.08619077318894303 0.10590301593776627 -0.07845796550618979 -0.04446857682946132 0.0172375648298809 0.1145836160805052
-0.1306365571730992 -0.180895405691393 0.12736318020942267 -0.12191646555946749 -0.13517738810735744 -0.06937500591554667 -0.03780381511082366 -0.0953303042175185
-0.1549342132812015 0.011423616812316996 -0.07153851571465425 0.1001866266899298 0.10079961285567024 -0.06210439346885414 -0.08252708468164327 0.0020348793179010573
0.06732264515073177 0.016400980629863886 -0.17180619152742513 0.11136065553246448 0.03349348406956954 0.03776025771126188 0.08191920664246498 -0.07838901118830854
-0.1218837219121033 -0.09247317184299163 0.07712558890510562 0.03502016526666339 -0.01014151444581715 0.01185331827746646 -0.05729620322695195 0.10872436475740994
00000000: 2460 62ee aa41 b93f 25a8 481f e0d4 8e3f
00000010: a0da 8e78 ec26 7dbf a508 cf52 388a b0bf
00000020: 67fa d3bd bcae b1bf 6cf1 bc61 888b c1bf
00000030: 1523 3086 232d 9e3f 592d 9f90 f88a b93f
00000040: 402b e68c 8ab8 a43f 59d3 42fc d0a2 74bf
00000050: 648e 7f22 532d c2bf 28d1 661d 5056 a9bf
00000060: f024 4b2e 4602 94bf 6848 ec40 2113 953f
00000070: 4c0f 003f 4785 ba3f 5c67 52b7 adec 70bf
00000080: 3c56 a36c a341 bebf b1a3 c3c7 1e40 903f
00000090: 0253 1ae8 f2a4 bdbf 696a b25f 9827 c0bf
000000a0: dd38 cd1c f7cd a4bf 7831 d874 8194 c5bf
000000b0: e8dc 066b 9b47 bf3f 4fe3 6666 506a be3f
000000c0: a358 4e78 7069 883f 3d2c e52a d391 d43f
000000d0: 6261 adb9 2ef0 9fbf eafb 39b6 1eb7 9bbf
000000e0: 14fa 00d7 ff1f b5bf 47b2 05d2 c81d b13f
000000f0: a7e7 acc5 28d9 c63f 4a49 ae6d 9623 81bf
00000100: 9bc9 1e2b deae bd3f a945 b1ed be9d b9bf
00000110: 6597 1df3 a194 b0bf d21b a6cc 27d8 cc3f
00000120: 02a5 e940 78fe b0bf 356f 8bd7 040c babf
00000130: fc53 26c9 7c20 8c3f 2432 6263 70b6 bf3f
00000140: 6a82 e133 7060 7bbf be84 b613 ea88 b63f
00000150: 7153 15d2 2b0e b4bf 0684 afbb a2bf c03f
00000160: d585 064f f781 8c3f d232 bfdb c861 ba3f
00000170: 8621 dd6c f5bc b23f 2ca9 609a c154 bfbf
00000180: 64cf e7fe 08d0 afbf f9c6 f755 26d1 b1bf
00000190: 783b eaf6 ecb1 64bf b2f2 a91d fdbd b53f
000001a0: 0332 2a81 3939 c1bf 863f 64c5 48ce b5bf
000001b0: 5b87 d332 c31d a83f 6691 cd10 66b1 9abf
000001c0: 2be7 5484 ac15 a53f a3ce 9074 178a 76bf
000001d0: b0d6 94ac e308 843f 849b 4198 ff3b b9bf
000001e0: d1ca 738f e61d 75bf 1fd9 05ca 2c93 b03f
000001f0: 8234 82d1 ec46 a8bf 8a27 fff5 e193 ba3f
00000200: da6b 5fe8 189d a1bf 0de7 9676 6019 b63f
00000210: c9bc a2f8 f865 b3bf 611c 64d8 e087 b9bf
00000220: fd75 68fc b1a0 b7bf 0bfa 205b 7bef b33f
00000230: 1d25 c127 f2c3 b63f e991 7b0d 38a4 c03f
00000240: fa9b c6dc 2aa9 b83f 9b36 8f41 f3cb a8bf
00000250: ae3f 36c5 c901 b53f 21c3 2fb2 0894 b1bf
00000260: 7b66 47d2 8b9f af3f ab5b f80a f21b a4bf
00000270: 65c3 a875 9bbe c13f 2009 2ef5 6af8 a6bf
00000280: c62c 3c0d f894 c33f 983b 55e0 c8ba ba3f
00000290: c215 a954 249c b7bf d362 33a8 0033 b9bf
000002a0: be69 e3b2 91b8 bcbf 0d6b 85bb 3297 d43f
000002b0: 7e23 1492 eaab a53f 551a 7480 5a4b bb3f
000002c0: db95 c800 3749 a23f b3ac 8334 3a77 d2bf
000002d0: 17fe 1863 4030 b1bf ed06 bbe2 affd b03f
000002e0: ab96 b6c4 ae03 a63f 55b1 05eb 276a 823f
000002f0: 35b3 9103 8012 d3bf ce0f 4a5f 2203 bb3f
00000300: 92f6 abff 9f3a 91bf 58b8 585a 21b9 bf3f
00000310: 98ec 8bad 1066 95bf bec6 2beb edea c7bf
00000320: 9d18 af31 6668 b73f 8d9e e51e ea1e b6bf
00000330: 04d1 e3b3 9010 a7bf ddfd 139a f0ec b43f
00000340: 3983 e356 d06e a6bf efca 12a1 5e71 7cbf
00000350: 276b fdee 1690 85bf fc3d e3d6 3ebe b1bf
00000360: 7fcf c781 a8ce 993f e3b1 99c2 fd03 b7bf
00000370: ffe8 242f 2000 ae3f 68ac b4a4 16ce b63f
00000380: 4cb0 68b0 cb24 b2bf 8af7 cedc 3ddf a1bf
00000390: 5f98 3450 b1f0 843f 1234 1c03 0b43 b83f
000003a0: bc24 1ba2 f09c a9bf 79ec dee6 d9e0 b9bf
000003b0: a62a 549b dae2 72bf 696b f5f4 12e9 bbbf
000003c0: dd6d 8df4 4dc9 b2bf 2b1b ef42 b18c bc3f
000003d0: 985c 77f4 cf75 c1bf 8a98 52ae b5ca b6bf
000003e0: 1fc7 3b14 cf18 963f 0923 4f59 0e57 abbf
000003f0: 596a b1d6 de4a 8bbf 5e0f 86ec 4689 95bf
00000400: 8228 7a47 f19f bebf 863b 5ce0 de9d 6f3f
00000410: 9a6b 1730 14f5 b4bf 1c4f 9a79 ca7e 9cbf
00000420: d8be 57e7 0fab a63f 5d3c 0fc7 82f5 b5bf
00000430: 1bdb 7fb4 ae01 733f 3e30 b151 685c 7f3f
00000440: ecd1 f330 fdef b1bf fdd7 147b 556b b33f
00000450: 61da 5eaf b7ca a83f 3163 a13c ebe0 b9bf
00000460: fb60 6833 4276 a13f f949 e6bf 6d77 a53f
00000470: 03bf 1dfd 1f06 90bf af66 6839 72c2 b63f
00000480: 2c94 1988 f0b4 adbf a571 9db3 668d a7bf
00000490: 7e1c a6ba 88f8 b83f 96d6 e925 04e5 7c3f
000004a0: 2a67 6f0c cd0c 5f3f d16c 4207 fcbd c5bf
000004b0: 451c 7f89 6d5f b4bf dece 7d0f c4c4 ba3f
000004c0: b8e5 261a a454 af3f 6c79 0953 2685 b53f
000004d0: cd8a 565c 0b01 c2bf 4ece 5409 01e6 b8bf
000004e0: a4d2 c1da c33e c0bf c5a3 eac1 38b6 bf3f
000004f0: a487 0257 4834 a5bf 8020 dd30 ccd8 a23f
00000500: a01a a88e cad2 bebf e1b1 c33f 7ec6 bebf
00000510: 36fd fecd 858b b5bf 461a c384 fb0a b13f
00000520: dad8 2615 60cd bbbf 0ba5 33d8 0579 a3bf
00000530: e3db 8aa5 86b2 c0bf e260 b82a fa9e b6bf
00000540: ade0 71f8 dfb5 b1bf 7464 be26 5086 a0bf
00000550: b99a 8c5b 7eff aabf f2d1 01c2 ecba acbf
00000560: f0c9 c788 0a58 abbf ba55 a5ec 6617 b83f
00000570: 7f31 fd03 ea10 b2bf 5a7c 844f 3d55 913f
00000580: 9e8e 0343 49dd b9bf 3936 5ebc da13 c03f
00000590: fab0 68d3 7ded aabf 8320 92d1 0b25 b5bf
000005a0: d7f7 3df9 f03c a8bf 7cfe 66f4 3fea 983f
000005b0: f55c e94f 2b9d a0bf 7e07 8706 0aaa aa3f
000005c0: eb49 fbf1 7042 c1bf 97aa 4031 80eb bbbf
000005d0: acf2 29b0 8b69 acbf bb01 6b6f 466b bdbf
000005e0: b678 8218 4dcb b23f f3a5 7d83 c017 97bf
000005f0: 74d9 7be0 0cac bdbf 2d08 2643 d556 603f
00000600: 32d9 1557 d1c4 b63f a5f3 6dfe 2bba bbbf
00000610: 9570 4db5 28d4 bb3f 4ae8 6d19 5d0a c33f
00000620: ff5b 4bf8 6467 c13f dd97 7f72 dc12 af3f
00000630: 73a2 6866 dc7c a9bf 65e4 b92e 9fe5 9a3f
00000640: aee1 a77f bca1 923f 82cc d06d 9fd8 bf3f
00000650: 5b7a c40e 3048 b0bf b82c c9fa 55d2 b9bf
00000660: f666 be28 9fbc b7bf ca25 965b 5bd3 99bf
00000670: d2dd bc83 a3c7 b13f e1e3 485a 318c aabf
00000680: 59f6 84cc cea6 bd3f 4177 6ed1 8cb6 863f
00000690: 05e0 cb0e 4c1d b4bf 79a1 a217 8c92 8c3f
000006a0: 8976 7515 6083 b63f 715e 9884 2607 a7bf
000006b0: 21b7 cfe6 acde ad3f 904c eec4 e764 813f
000006c0: 88c5 6a9c 5ed0 b9bf d834 01e6 a1aa 83bf
000006d0: 2c3f 1038 9910 b6bf fe1e 00c6 751c bb3f
000006e0: 39b4 f53b d215 b4bf 4949 5dd6 95c4 a6bf
000006f0: 99fc d364 b9a6 913f f322 b913 5a55 bd3f
00000700: 3039 5cde b2b8 c0bf c278 b8a5 9427 c7bf
00000710: 2a65 dbca 6f4d c03f 9bfc 6be0 ea35 bfbf
00000720: df36 8a1e 7e4d c1bf 1f2c 9175 8fc2 b1bf
00000730: 124a 218b 055b a3bf c595 ee1a 9167 b8bf
00000740: 0081 8961 e2d4 c3bf 1433 e3e4 4365 873f
00000750: 3419 6621 5950 b2bf 2d3b 21ad d4a5 b93f
00000760: ec20 aae0 00ce b93f 45f6 c5a5 25cc afbf
00000770: e0eb bdb9 7e20 b5bf 43e6 e483 73ab 603f
00000780: fcdd 338f 0e3c b13f 6edb b52d 6bcb 903f
00000790: 3f28 eeca befd c5bf d3b3 92c5 2182 bc3f
000007a0: a171 6ad5 0e26 a13f 9db3 eaff 4f55 a33f
000007b0: 3f93 7139 a8f8 b43f 8068 6b5f 4d11 b4bf
000007c0: 59f9 8687 c533 bfbf 8fb2 d260 52ac b7bf
000007d0: 3c3c 08aa 80be b33f ceaa 0ac1 29ee a13f
000007e0: 4f79 0307 13c5 84bf eb6e ce72 8d46 883f
000007f0: a0e6 168e ed55 adbf d554 e926 5cd5 bb3f

equations.x.layers.2.bias f8 [64]
3.276927221750156e-05 0.0742314393146544 0.0935217396447748 -0.1135772170757627 -0.09827352577585 0.14757168790394443 0.11409503827571282 0.1318929445212179
0.0830663884984416 -0.009964863125710877 -0.030403398587577995 0.0797553758494347 -0.03630310936514112 -0.02546453636659627 -0.02519859936709043 0.10049336634052682
-0.03124216086806946 -0.08954152120036761 -0.11460413255572666 0.015346887043362624 0.014439888532915727 -0.021281466488072977 0.058477848261291904 0.12078408593120564
-0.11434722717243272 -0.0929332933233845 0.020245930510514747 -0.08230975980003502 0.02580906976815891 -0.09319982381638134 -0.08087176450800655 -0.06852092627632125
0.09713247723621674 0.12057275200993157 -0.07228158415141006 -0.017915123889690226 0.011479741106927455 -0.07482317242350311 0.12507572348820856 -0.1111348097610516
0.039003591436907105 0.0954102661390042 -0.004654435585912593 0.030941002451227134 -0.10560516336767271 0.07765824244034056 -0.12326812342468467 0.008159617680581585
0.1111676750616462 0.054052363744608777 0.011516500598373114 -0.0015492803320668808 -0.010908326492728989 0.013138930402059787 0.08969524714962966 0.08985844677551942
-0.016382820627493886 -0.08116643564435673 0.08281221722781949 -0.011616227928057521 0.09698566184877667 0.036113500327151625 0.042818434932734926 0.12245478386913401
00000000: a0f8 b19e 372e 013f d202 31e4 d400 b33f
00000010: 0545 3d6d 0af1 b73f 6d3d e980 6513 bdbf
00000020: 6e17 452b 7428 b9bf 7a75 ae0a a1e3 c23f
00000030: acb1 071a 5535 bd3f d358 a535 dee1 c03f
00000040: 2765 ffbd d643 b53f c052 df49 7568 84bf
00000050: 3bcd 7b8a 1122 9fbf 4019 f42a d96a b43f
00000060: fdca ee36 5296 a2bf 5afd 9b1b 6013 9abf
00000070: b823 bf60 a9cd 99bf 35c3 e5e9 eeb9 b93f
00000080: ae29 bdec f1fd 9fbf 2f8e 3071 31ec b6bf
00000090: 1834 5049 b256 bdbf 81bc 924f 306e 8f3f
000000a0: 62d7 0d08 a992 8d3f ca0b 4f0a cfca 95bf
000000b0: d438 a5fb cef0 ad3f fba7 f3b2 b4eb be3f
000000c0: 9708 1821 dc45 bdbf 3794 88ef 79ca b7bf
000000d0: cbd2 ad65 59bb 943f 8c96 7b9e 4012 b5bf
000000e0: e6b0 605a b16d 9a3f 2ec9 4893 f1db b7bf
000000f0: cd50 bb0f 03b4 b4bf 1acc 7261 968a b1bf
00000100: 6ee8 1b8d acdd b83f 31df ab1a dbdd be3f
00000110: 788b 08c0 0b81 b2bf 4b0c d79c 5758 92bf
00000120: 2066 f7c4 b082 873f f0ba 8a86 9c27 b3bf
00000130: fae3 f336 7b02 c03f 2ff3 5eb5 5473 bcbf
00000140: bdce 4b5b 47f8 a33f b309 c5a4 ce6c b83f
00000150: ee1f f789 8710 73bf 08ae 8886 ffae 9f3f
00000160: b3f0 f3a2 f008 bbbf 56cd 8b1b 69e1 b33f
00000170: 6391 bfee 7f8e bfbf 780c b058 fdb5 803f
00000180: a31a c318 7c75 bc3f 53f3 1b5d c0ac ab3f
00000190: a09a 798b f695 873f 5fb3 f216 2762 59bf
000001a0: fea8 52cc 1a57 86bf abd5 0c63 95e8 8a3f
000001b0: 8b42 1d89 44f6 b63f 0d93 2b92 f600 b73f
000001c0: c9ca 3e7b a8c6 90bf 451a a0d2 52c7 b4bf
000001d0: 47e6 b374 2e33 b53f 4d5d 6eb8 3fca 87bf
000001e0: f947 d265 0dd4 b83f 8bca b2fd 777d a23f
000001f0: 9b6c 6743 4cec a53f e9e8 f45b 3259 bf3f

equations.x.layers.4.weight f8 [64, 64]
-0.1309237705643313 0.011483162381955033 -0.029168829339944996 0.1007479282077326 0.03381661978641587 -0.1529145463678659 0.1162039630236921 -0.10395761932315718
0.034269942807355694 -0.013307895342650809 -0.009769098661970309 -0.03946211723767875 -0.04356700345646362 -0.03435379728841524 0.14069320214492878 0.09845811023873044
0.0064063777643246405 -0.05404335464759141 0.1326292602964529 0.11547351259267633 0.06644653268537004 -0.049743827698176625 0.08690958257471927 -0.11974004924067702
-0.12735105682753559 -0.16981059651038857 0.01866444861963556 0.06036039864576276 0.05449871431568386 0.12364855397291012 0.020126988576749875 0.12330676570512897
-0.1287282859786569 0.10928692371353929 -0.0260105408597005 0.052977856419824026 0.12441864779177576 0.00543766383376018 -0.012832951315682682 0.013058436413965374
-0.08513434455352574 -0.1233330118035715 0.05309971837998767 -0.09920741805295732 -0.12833009536611845 0.13196116123814375 0.053022993305224926 -0.12420518382175534
-0.09297155893976046 -0.03482339060354281 0.143080571463575 -0.06547669753578535 -0.018250375081426642 -0.13977769985148672 0.017741833470498566 0.09230871721925366
-0.05840681586854571 0.11025548704275576 -0.08382767359199451 -0.06617600373707938 -0.1783585535893271 0.026374083162985205 -0.07096254003937243 -0.08359841931652015
-0.175935167553095 0.11325183268199356 -0.0952167530650238 -0.142548075152743 -0.09015409830590336 -0.12338152687609324 -0.10723263294121523 0.02599620449620311
0.06497472413740203 0.13024438785375572 -0.06362104788128968 -0.05979432104412199 0.04263585001246647 0.03281997426787356 0.1686401994115308 0.08195913724690125
-0.04586676649553789 -0.02826166626968305 -0.12036954609433886 -0.07311285259335103 0.013479203283145724 -0.0014521306217997083 -0.058183755077092544 -0.1407583597306175
0.0065535100791262076 -0.16947924555896732 0.13931513193216757 0.13866395409705892 -0.009605235768329097 0.06114854281677815 -0.03439672272291421 0.1381034230403535
0.08243150872519242 -0.06840628436563508 -0.031369471578277165 0.10616294359645931 -0.0509895279853532 0.0320632624900474 0.03481264005244007 -0.10513409955713139
-0.013096393926087795 -0.0572024032707104 0.057436607364835336 -0.03250081582225117 0.08473586018992914 0.03366679389854808 -0.16463452772641707 0.07111563300486168
-0.15563401913897248 -0.036198520802275105 -0.05192578166092349 -0.050919265023598025 -0.02187774067502324 0.05436276617243578 -0.08714887878171684 0.013231760766776348
0.01910409717632554 -0.0020864234981199953 -0.06591807438707895 0.03241837776711518 -0.12678271191132973 0.00011463738906951 0.14373748508621534 -0.045910066847764976
-0.05927012998135174 0.04498072450293673 0.054754594925966946 0.12579732225247597 0.147937915559018 0.020804628726634217 0.02861308716724049 -0.06560723400192328
-0.06672221861418459 0.061480831025009855 0.12305764281116406 -0.06708036302312116 -0.08019877311126322 0.07510587855996015 0.03481518198587779 0.009218202415285115
0.057247173236991265 -0.10637982790819758 0.12452840938442168 0.05838191563215209 -0.03584920881186927 -0.1082510331103578 -0.059330574926370824 0.039714476265299545
0.030451985037212633 -0.1346913398488394 -0.04481789190197495 -0.08509677786782914 -0.04120890841091503 0.031728673318522416 -0.03215803090882914 -0.14107696956606522
-0.047410775662270366 -0.10994592577523805 -0.04518445421546061 0.06597457966897466 -0.15751580567447412 0.09923223442425763 0.11355030690894576 -0.041687114055858544
-0.05341158522692013 -0.03733915296445349 0.15004917197162318 -0.04201726167659356 -0.07472954451475519 -0.04141878515035386 -0.03624399332242829 0.09166567398184422
0.06188054254887487 -0.024085149899806688 0.12115406926197879 0.06354551583546998 -0.21445206621234622 -0.054311558149016094 0.02738180500067551 -0.03556505292291534
0.11107262477180062 0.17110412085859839 0.02115040792103194 -0.0019077061970029226 -0.08724621263280519 0.11246774212792915 0.08598968315466107 -0.06528975918410437
0.11761536257873309 -0.1055885055069234 -0.05658612261742384 0.0787895492813567 -0.06388690547970124 0.12165787106597746 -0.06788649876540984 -0.02281368073019684
-0.002431110511588553 0.015947718497652925 0.018309221077768105 0.11235605400468543 -0.041279666578096105 -0.04141767256833544 0.05752375899581912 -0.10077485878519092
0.11877272145445526 0.03809004400707344 -0.052334453191775085 -0.06319473136792533 0.020498776490179588 -0.06737107705060098 -0.13513839823182933 -0.02538702589448441
-0.0515249004815515 0.13833759187277755 -0.03661573134406325 0.09068989423969918 0.058625861244723465 -0.0901400735301729 0.08832608848738191 -0.03210908123693902
-0.06702499228025638 0.030979454268698536 0.11659435609266688 -0.1197411446530881 -0.049385284234748555 0.15920165001602885 0.012661570997933505 -0.0041419575446242154
-0.015746458028749195 0.015772821593921512 0.017833965429428698 0.035116026436060634 -0.06872537575218457 -0.08388382701053552 -0.014389265155835022 -0.048095676948099284
0.08077308123549594 0.06584199184669391 -0.04683486553198339 0.11177814711746771 0.11445016253885872 0.028409932273735675 0.11756492225488027 0.004399397430312081
-0.022596344201997506 0.04952619792444286 0.08354843091711385 -0.042524330485960306 0.07445842076835661 -0.1976981704599392 -0.11319819855439153 0.08662382777720956
00000000: 36e1 6b30 1cc2 c0bf cbcb 14f7 7b84 873f
00000010: 7888 4f00 6fde 9dbf 60be cac0 9dca b93f
00000020: 087d 1678 6950 a13f cac7 dd2f b492 c3bf
00000030: aa33 dafc 8abf bd3f e9b8 296f f79c babf
00000040: eacf 2f77 d48b a13f dfc3 337a 2b41 8bbf
00000050: 8cd1 1d3a d201 84bf 9bf9 eeed 6034 a4bf
00000060: 557a 0f0e 6a4e a6bf 8ebe b127 d296 a1bf
00000070: b9b1 fd1e 3c02 c23f da55 80fb 8c34 b93f
00000080: 15cf bcef 923d 7a3f 0819 8e11 92ab abbf
00000090: cea3 bbdf fef9 c03f 36c9 2310 ac8f bd3f
000000a0: 60f6 d0d4 a302 b13f 4d76 48e2 0578 a9bf
000000b0: f10f ded6 b43f b63f 5e98 82ab 48a7 bebf
000000c0: 01b8 1718 0a4d c0bf 1d60 4387 5abc c5bf
000000d0: 9e44 adf1 c51c 933f f86b 50e4 8ee7 ae3f
000000e0: 9edf 5167 41e7 ab3f 2be7 827f 6ea7 bf3f
000000f0: 3e01 d156 2b9c 943f 7e3d 143e 0891 bf3f
00000100: 8f9a 2c21 2b7a c0bf b6e7 3a53 3afa bb3f
00000110: 0fef 5fd9 81a2 9abf e47c 78e1 e91f ab3f
00000120: 6539 4787 e6d9 bf3f 5f80 52c5 cd45 763f
00000130: 1f36 b291 2948 8abf e3d3 adaa 61be 8a3f
00000140: 9fb0 9f49 5dcb b5bf 59a9 3694 c092 bfbf
00000150: d8da bce3 e22f ab3f 7adc 0e48 a865 b9bf
00000160: 3a53 58dd 1e6d c0bf d114 ee73 1ae4 c03f
00000170: e92a 5d6c d425 ab3f 5513 8232 e9cb bfbf
00000180: 75ba 1aed fbcc b7bf 945c 8e17 5fd4 a1bf
00000190: 9084 90d3 7650 c23f d9f7 90b2 14c3 b0bf
000001a0: 3435 75f0 39b0 92bf 253f c954 3ce4 c1bf
000001b0: af83 1b4a ea2a 923f f4a7 9749 8ba1 b73f
000001c0: f4ac 0988 7fe7 adbf b69d 0d1f b439 bc3f
000001d0: 21cf 93fc ba75 b5bf b4aa d41b e9f0 b0bf
000001e0: 1163 50fd 73d4 c6bf a988 96c2 ce01 9b3f
000001f0: 59cf b5dc 992a b2bf 2a35 f6bc b466 b5bf
00000200: 63ac 6d27 0b85 c6bf 3fcb 9475 12fe bc3f
00000210: db11 7208 2060 b8bf 97c3 71ec 033f c2bf
00000220: 5700 d3c7 5614 b7bf 8605 dd86 ee95 bfbf
00000230: e1e6 8b0b 9973 bbbf e278 86c0 bf9e 9a3f
00000240: 899c 3cfb 2ea2 b03f c5e2 281d d9ab c03f
00000250: 8bc5 fc0f 7849 b0bf 73f7 bd7a 5c9d aebf
00000260: 0ba4 e1ba 5dd4 a53f 14ac 4598 c7cd a03f
00000270: 82b8 a186 0096 c53f fd74 1526 46fb b43f
00000280: 40a9 244c d97b a7bf 7a5d 6f51 a0f0 9cbf
00000290: 44d8 e8df 89d0 bebf 1b43 ce1e 86b7 b2bf
000002a0: 20cd 370a fc9a 8b3f d0f9 ed61 adca 57bf
000002b0: 46de 6dda 42ca adbf da3e d7b3 5e04 c2bf
000002c0: 94f1 6b77 dad7 7a3f f064 83f4 7eb1 c5bf
000002d0: 6b48 be07 14d5 c13f 918e fd8d bdbf c13f
000002e0: 5776 f6eb e8ab 83bf 5d36 319f dc4e af3f
000002f0: 5776 5e7e 729c a1bf b044 b67a 5fad c13f
00000300: c677 223a 3b1a b53f a5f7 3002 1383 b1bf
00000310: 4d02 0bcd a80f a0bf 123c cba2 7e2d bb3f
00000320: 4569 45a6 4c1b aabf 7c7b 988f 986a a03f
00000330: 0a7a 065d f6d2 a13f 59d3 4a7f 11ea babf
00000340: 1c59 dd3c 48d2 8abf 86c1 9926 a249 adbf
00000350: 3d48 73bc 5468 ad3f f08a 196a f2a3 a0bf
00000360: b56d 50d4 3fb1 b53f 8dc8 8225 c63c a13f
00000370: 8c4d 3084 be12 c5bf 007f fd55 a234 b23f
00000380: 0968 2cc7 d0eb c3bf 2ac9 04ce 9c88 a2bf
00000390: 1816 1b1c 0496 aabf f381 0604 1712 aabf
000003a0: c09f d652 1e67 96bf 6652 a9bd 6fd5 ab3f
000003b0: 8823 4090 634f b6bf c12a 18de 4019 8b3f
000003c0: 5d21 5e42 0690 933f 84bc 1416 8c17 61bf
000003d0: 5632 b5c5 01e0 b0bf fd27 9940 2499 a03f
000003e0: acbd ad78 6a3a c0bf ff0a 0a59 2f0d 1e3f
000003f0: 5dc9 d36a fd65 c23f 9d2e 5637 8681 a7bf
00000400: 1295 cc8b a758 aebf 1989 61a9 b607 a73f
00000410: e687 0655 cb08 ac3f 48d7 7f6c 201a c03f
00000420: cb0a 952e a1ef c23f d8fc f1ff ce4d 953f
00000430: f3cb 7bc6 bf4c 9d3f ea55 6bbc a2cb b0bf
00000440: e84e dd12 b514 b1bf daa8 2a5d 6a7a af3f
00000450: a194 65a7 b480 bf3f 615b 63bd 2d2c b1bf
00000460: 0034 b123 e887 b4bf 2402 278c 233a b33f
00000470: 6738 11a8 4bd3 a13f ed63 362f fee0 823f
00000480: 03c2 ae61 804f ad3f 82df d159 b53b bbbf
00000490: 219f ba05 18e1 bf3f fcc6 a204 3ce4 ad3f
000004a0: b170 ded6 d35a a2bf 6a9a f7f6 56b6 bbbf
000004b0: 1e5c ecbd 9360 aebf 2e76 79b1 7455 a43f
000004c0: af1a 551f ce2e 9f3f 9043 dad9 903d c1bf
000004d0: 3242 fde7 5ef2 a6bf 13f3 ef05 e7c8 b5bf
000004e0: ba83 db83 5519 a5bf 383e 7f9c bd3e a03f
000004f0: 7a46 1d76 0477 a0bf 11a5 4065 cf0e c2bf
00000500: 6017 e5a5 3946 a8bf a578 888b 6a25 bcbf
00000510: f438 49b2 6a22 a7bf f6ab 0bc6 b5e3 b03f
00000520: 69cb fc58 7a29 c4bf 46aa 8fa1 4867 b93f
00000530: 59eb 9f06 a211 bd3f 7dae 116f 0358 a5bf
00000540: 20e5 8d67 c358 abbf 5672 af11 1e1e a3bf
00000550: ed7a 34af cf34 c33f 6c71 8959 4983 a5bf
00000560: a660 bcb5 7921 b3bf 0957 52cf d734 a5bf
00000570: 5917 fe9b 928e a2bf 30f6 eacf 6677 b73f
00000580: a026 0375 ceae af3f fc42 8e0c c7a9 98bf
00000590: afec 41fd f303 bf3f 891f 52d8 8444 b03f
000005a0: 1b88 7851 2a73 cbbf 7df3 167c b9ce abbf
000005b0: 74f3 eed3 f909 9c3f b06d 5e26 9535 a2bf
000005c0: 0332 e06a 416f bc3f a035 a665 bde6 c53f
000005d0: 5c85 45d9 73a8 953f fe0a 7fee 7f41 5fbf
000005e0: c82f f58d c455 b6bf ec5e 4b9a afca bc3f
000005f0: ea52 f17c 6b03 b63f 1e9e 7564 d4b6 b0bf
00000600: 4268 c857 0a1c be3f 3d5a fc29 d907 bbbf
00000610: 663b 1934 dbf8 acbf f614 6e49 8d2b b43f
00000620: ca8e ad69 e45a b0bf ff83 8761 f824 bf3f
00000630: b691 0974 0261 b1bf fde1 8c32 785c 97bf
00000640: 68cd 7c84 68ea 63bf d2ab 9245 9954 903f
00000650: 1e1c fa06 a7bf 923f 0a2e 75c9 5dc3 bc3f
00000660: 7eaa e2c3 9b22 a5bf 969b 507a b234 a5bf
00000670: 2793 420f c173 ad3f 43cd bd92 61cc b9bf
00000680: 07c6 4d9a e367 be3f b88d a0ca 8980 a33f
00000690: 9e4f d3d9 94cb aabf f236 81a8 872d b0bf
000006a0: f888 889a a1fd 943f b9ed a01c 3b3f b1bf
000006b0: c275 6b0c 374c c1bf 488b d677 0eff 99bf
000006c0: 27ef fec4 7861 aabf 2653 73d4 0bb5 c13f
000006d0: aea3 4811 4cbf a2bf 2f53 d6f1 7337 b73f
000006e0: 60e9 7d79 3504 ae3f 3d02 df7b 6b13 b7bf
000006f0: 2ad9 6fdd 899c b63f f26f a2fb 9970 a0bf
00000700: 10bd dbc5 8c28 b1bf 035b bafb 13b9 9f3f
00000710: 58f1 50b2 20d9 bd3f 4447 450c 5ba7 bebf
00000720: f441 6229 0749 a9bf dddf 243c b860 c43f
00000730: 351d d14a 4fee 893f 081a 2143 28f7 70bf
00000740: 0296 0be9 d61f 90bf 8f69 a523 c026 903f
00000750: 590c 1c29 1143 923f e579 3752 bafa a13f
00000760: 3ccd 4279 fc97 b1bf 2f6f ac15 6979 b5bf
00000770: eff0 0f7a 1e78 8dbf f662 241f ff9f a8bf
00000780: 25b9 4d6e 8bad b43f 5f5f af51 05db b03f
00000790: 767b 8b4f bdfa a7bf 81e9 461e 7e9d bc3f
000007a0: 0d54 2019 9b4c bd3f 4134 fd47 7e17 9d3f
000007b0: 82d2 3d18 bc18 be3f 3560 5d41 1a05 723f
000007c0: dc4c 6dfd 7e23 97bf c9eb c270 7f5b a93f
000007d0: 79ce 6b12 6e63 b53f d567 71c1 bfc5 a5bf
000007e0: 67a5 1c02 b50f b33f 585f 4d74 2c4e c9bf
000007f0: 92d9 c1a0 8efa bcbf f081 5bab fa2c b63f

equations.x.layers.4.bias f8 [64]
-0.07991736121425533 0.016611871990004353 -0.02041824097872945 0.004073695416096313 -0.03287445605768027 -0.05517382615297174 -0.05314001987757066 -0.11833184582963834
-0.06410453880214255 0.0698740302963467 -0.07778712875055298 -0.006348655308750391 -0.08714798775547547 -0.04500940943318345 0.07353554827947141 0.06043984533762194
-0.026011384140387703 -0.041475664807786104 0.1270222738874051 0.09743936433532184 -0.08305773981411008 0.10814770870684189 0.009019851062373675 -0.04375084612136947
0.12438639341021508 -0.01580669109730914 0.05228905731304022 -0.07666472691618618 -0.04191744441731102 0.04827408595493966 0.05048897569818463 -0.0014949327533370555
0.09698934766098782 -0.04139490482256777 0.035861919497559756 -0.039839905281168625 -0.027553490661431382 0.0377810154695194 -0.06843294518304 0.11883030926235953
0.04563703148935286 0.10872391932052661 0.055239514838403926 -0.11192203667444008 -0.037108898749393805 0.059313229863610345 -0.10534339170119889 -0.016212312733860496
0.06874370138785983 -0.07543939571850782 0.06258777500098245 0.12062574777872669 0.021687049465534056 -0.10370285212306835 -0.09064424455861612 0.00897729476820616
0.04820473209365852 0.05021316387543804 0.001552750125959396 0.049896437093512054 0.054946751117807745 0.07325313309835134 -0.04413974371967631 0.08796063418207606
00000000: 9a3f ccd4 7675 b4bf 7f8b b0db b302 913f
00000010: bc61 fbf4 84e8 94bf 4140 6049 94af 703f
00000020: 1376 48b3 ebd4 a0bf 022b d865 be3f acbf
00000030: ff45 f72e 2b35 abbf 63e2 e9ef fe4a bebf
00000040: 6b2c aeb1 2769 b0bf dc67 f6b2 43e3 b13f
00000050: b38a 0876 dbe9 b3bf fb67 cb2e 0c01 7abf
00000060: fe6c 529d 544f b6bf 623b 0e2b 790b a7bf
00000070: 8929 f4c6 39d3 b23f 9365 33ae f8f1 ae3f
00000080: 399e d370 baa2 9abf 23cd db5f 4c3c a5bf
00000090: f6df 1a10 4442 c03f d7c9 2943 c9f1 b83f
000000a0: 5c68 2ea4 4543 b5bf 2181 0878 91af bb3f
000000b0: ba19 9fea ff78 823f eff7 86ca 8266 a6bf
000000c0: c9a6 c363 c9d7 bf3f 7f9e 4815 a12f 90bf
000000d0: 4e44 329e a1c5 aa3f 4f9e dcae 4ca0 b3bf
000000e0: acf9 ce09 3476 a5bf b26d d788 61b7 a83f
000000f0: ca4e dde6 b0d9 a93f da62 42d2 337e 58bf
00000100: 44aa 433c 4bd4 b83f 2b30 de84 b631 a5bf
00000110: 1bde d356 7e5c a23f 5c47 8464 e565 a4bf
00000120: b43e 2075 fb36 9cbf d0d7 b383 0858 a33f
00000130: c8b5 874d d284 b1bf b32e 0ec4 a96b be3f
00000140: 2472 77ab bc5d a73f 784c c6ad 54d5 bb3f
00000150: 5d0f 5b8b 5a48 ac3f 35eb 372f eca6 bcbf
00000160: 6dd7 0905 f0ff a2bf 04fb f7bc 4d5e ae3f
00000170: 78d4 34d6 c8f7 babf 0515 f0e3 f599 90bf
00000180: 2350 44ed 2f99 b13f f3e4 7009 ff4f b3bf
00000190: 5035 c29e c005 b03f 8fe2 c339 54e1 be3f
000001a0: 2c08 ce40 2135 963f 44d9 5e26 458c babf
000001b0: 7b2b f311 7634 b7bf 2fec 7c1b b062 823f
000001c0: e39b b567 4aae a83f 8dee 5831 8ab5 a93f
000001d0: e878 a1c0 b470 593f 09d2 019b 068c a93f
000001e0: 4b16 2506 fb21 ac3f 07a9 fca2 b7c0 b23f
000001f0: 6dac 7507 7c99 a6bf 64be 258f 9684 b63f

equations.x.layers.6.weight f8 [64, 64]
0.03674710381681272 0.014808062940185563 -0.054406528111102324 -0.03086443155327853 -0.011275994682415523 -0.06568774959559316 -0.08599890854047808 -0.054046274755610496
0.06075746891277474 -0.023481308972759053 0.10653234215665902 -0.06225996958854707 0.07855973676340301 0.02504335119260599 -0.09241000726913204 -0.12949378489980373
-0.008109944517860413 0.0016911256959720288 -0.15505893455721828 0.012523986702478318 0.02516390923566692 0.019693197182324592 -0.08305483805348336 -0.08249583870559381
-0.014777868168469497 0.10659412477126062 0.03583952615651181 0.06150743507635722 0.08341233035118233 -0.0018160125591575099 -0.06648549120688625 0.03192845472620212
-0.0439721181064916 0.10081877541811815 -0.0766471519462533 -0.013048270250819737 0.10131770716345141 0.05111939052665361 -0.05540912435031598 0.07907831453889207
-0.025360676045683286 0.06414061472580994 -0.11699319796366645 0.017425273352157215 -0.02732327368859081 0.09779527309490928 -0.07930547911746384 0.017580550376258962
0.09287647545433185 -0.04870484030764412 0.11670447892059073 -0.008958577389889035 -0.09543406216346374 -0.08701557834088888 -0.024896291309474385 -0.10361129348199695
-0.007443023810352678 0.05549302597251829 -0.017991609155711682 -0.06026401543150499 -0.08625488878086748 -0.06906128700895067 -0.13823748249737283 -0.01096229681905395
0.015275897338766753 -0.09148018263160458 0.03417669528011696 0.09487473495112403 -0.010375790997092021 0.012187119841041332 0.03963057816193505 0.0781889768458299
0.11246150436816922 0.0540433365577885 0.12513020959387955 -0.04550162883185271 0.05316416292286916 -0.12581360833045027 0.023303024757938103 -0.08896348061485326
0.07311055871683372 0.046788569123974666 -0.10891174177966899 -0.008846105319949652 -0.006978833607677568 -0.05011678307961089 0.09912769775673966 -0.1538904702649113
0.012881791423076898 0.03246456456673941 -0.0850697933341292 -0.09335337872791792 -0.004568290254874759 0.07579547523948703 -0.02905640555534397 -0.06206961427173601
0.02792473359488461 -0.11989012795560373 -0.06962661605294099 0.09637660837282774 0.016220170381414517 0.08728704950987083 0.12748784895447396 0.07402926960235891
0.09388933743840261 -0.012215650685406023 0.07798610950102919 -0.025985302583559085 -0.055856183245387395 0.048161740512382985 -0.07809656152096092 -0.05536613680029867
-0.0665353622584426 -0.10564837825767366 -0.056941743975501044 0.15778997623615895 0.07505397491309757 -0.13525429328262356 0.04961899077882312 -0.06207466003446454
0.005182667625041181 -0.10056227216462704 0.07605894269547626 0.04815764369200516 -0.0158387979930589 -0.0016004377413038895 -0.02014014513346734 -0.018607301752628095
-0.07344362774924192 -0.13009300143885025 -0.07904012615074524 0.1542326007507847 -0.04107526570163337 0.10654792646831326 0.10735411606024878 -0.0823162951316054
0.10046091187932739 0.050976449525094954 -0.011146204107771349 -0.07260931794345045 0.05998452909464527 0.009232632534681382 0.05481986512423854 0.10856601175750738
-0.04355880807699579 -0.06907712845004084 -0.0871988355576809 -0.1203541520572556 0.06101185914736273 0.06290113402823069 0.1346475678864908 -0.2061975878205885
-0.04919788781684326 0.18585488513492973 -0.2326180344797919 -0.1786615234900911 0.12886955006357917 -0.05856592461739124 -0.06367119790646039 0.07900385248109396
-0.04164643558256731 -0.07738341849856949 0.0007578820959829311 -0.08839656549755294 0.07891013453681808 0.09916354763674654 0.08173138041421062 -0.009284364075901016
-0.08715392785293798 -0.05305973792779849 0.12719912588679488 -0.04437836074056066 0.013234073243062236 0.08729341499735324 0.1608862189869301 0.02429275857132597
-0.020716664551959713 -0.0195239246937624 -0.009459588991105846 0.14957924997381156 -0.06566825507512505 -0.08012213928637461 -0.024087044479958058 -0.08441469870141854
-0.045223057407118426 0.0742051101522082 0.0738977975597253 0.08574327776763395 0.027198456908868227 -0.07337128864049995 -0.02469039681117194 -0.09403766713392762
0.02151777667189311 0.02452773862961492 0.02756784013776554 0.06240224380356509 0.07786392540484496 -0.1039039289878566 0.11128787660806914 -0.07435526339790767
-0.09335312852028302 0.09990174875467629 0.07938281991529494 0.0033317918492280513 0.007450535759792843 0.11388874104414168 -0.0011719993906470789 -0.03144145371871896
-0.0007544213741089737 0.06915097343976832 -0.03798595973294223 0.07391525795621384 0.07508788874217 -0.1272052045323279 0.03966931917087927 0.0165250094643501
0.1327039446781499 -0.08272066953704255 0.14901516222236943 0.03361887742572543 -0.024149889672662194 0.006447336821829696 0.017998461492006085 0.11099339544351797
0.13145613857001473 0.16129784749020173 -0.07870488403677156 0.024872876307151945 0.0553615353419517 0.012571282837426288 0.027427582549048316 0.0654301151915704
-0.08365412055369169 -0.048566503733681606 0.08902750121702431 0.015043920386233972 0.05215029488293327 -0.015000558221074099 -0.02917367367752871 -0.06967853377696857
0.09856247044955876 0.06476574675984813 0.14856747136236093 0.09342531809281614 -0.10096506300930479 -0.1215261209890565 0.08442926247924808 0.0879236486612575
0.13947728021412836 -0.058632775258200834 -0.0031073269483976834 0.06900370886114618 -0.11816698506983192 -0.07917723337337948 0.08074061369900978 -0.06989574455169309
00000000: d65a 3b32 84d0 a23f 4795 5c90 b053 8e3f
00000010: 5b28 da25 2cdb abbf d71a 86f0 ec9a 9fbf
00000020: 1f73 2063 de17 87bf fdca 4290 e9d0 b0bf
00000030: e74c ac43 0604 b6bf 5c8a 170d f4ab abbf
00000040: 5aab ef5b 9a1b af3f 4acc 6bf8 7b0b 98bf
00000050: 3c75 871d b445 bb3f e02c 77ea 89e0 afbf
00000060: 2162 2eac 7d1c b43f 33fe 6ad9 f6a4 993f
00000070: 7e46 0ba7 2ea8 b7bf 7a07 9799 4093 c0bf
00000080: c70b d053 f29b 80bf 3321 b063 18b5 5b3f
00000090: 131c 709e f8d8 c3bf 33e5 6b0a 2da6 893f
000000a0: a2a9 d35c 91c4 993f af34 6817 742a 943f
000000b0: 89db 36f5 1443 b5bf 0def 4b81 721e b5bf
000000c0: c5c8 e7e3 db43 8ebf 589b d6a7 c049 bb3f
000000d0: 3722 7ef1 8e59 a23f ab43 3a0c e77d af3f
000000e0: 9704 f1ae 825a b53f 9cc7 3ea3 e8c0 5dbf
000000f0: d55e 6472 3105 b1bf f4c1 b829 ed58 a03f
00000100: e00d 6872 8383 a6bf aa5b 3e5f 42cf b93f
00000110: c2d1 f0d2 259f b3bf a61e f92f 0db9 8abf
00000120: 8dd1 c50e f5ef b93f 82c1 011d 522c aa3f
00000130: 111e f8b1 955e acbf 9370 c4f6 793e b43f
00000140: c7f4 e128 26f8 99bf 83ba 97f2 846b b03f
00000150: 2ec0 1b27 44f3 bdbf 117d af4c eed7 913f
00000160: ea0b a6db a1fa 9bbf d561 a56b 1c09 b93f
00000170: 8dff 3327 5d4d b4bf 0698 a5c3 a200 923f
00000180: dfe3 a4b0 c0c6 b73f b274 8e40 d7ef a8bf
00000190: 85ba 4240 58e0 bd3f 011d 44e7 df58 82bf
000001a0: 41a0 eadf 5d6e b8bf f675 3727 a746 b6bf
000001b0: 0a10 ddd3 697e 99bf 095e 000d 4586 babf
000001c0: 0dbe 947d 937c 7ebf d484 6af7 9469 ac3f
000001d0: af6c b473 646c 92bf f6d2 cece ecda aebf
000001e0: e616 6fe6 cc14 b6bf 5284 1f21 00ae b1bf
000001f0: de2b 340d c4b1 c1bf 1274 9d92 6673 86bf
00000200: f37d e53b f848 8f3f 7585 a2c8 3e6b b7bf
00000210: 37e4 0699 9b7f a13f 4ced d4eb b549 b83f
00000220: e368 0518 e73f 85bf a998 3289 8ff5 883f
00000230: 0011 418a 754a a43f fee5 755a 3104 b43f
00000240: c5fb 51f3 46ca bc3f 5333 2a76 91ab ab3f
00000250: 6042 f946 4404 c03f 4fbd 7e4f fd4b a7bf
00000260: 3c58 254a 5538 ab3f 8be4 950a a91a c0bf
00000270: dfd1 ee84 bfdc 973f b874 c787 4fc6 b6bf
00000280: d25b aea2 5fb7 b23f 609f 6ddc abf4 a73f
00000290: 4f15 18d1 a3e1 bbbf b586 5e28 e81d 82bf
000002a0: 6449 bf61 d695 7cbf f384 9d30 e8a8 a9bf
000002b0: 3e33 fecb 6e60 b93f e717 7ad4 aeb2 c3bf
000002c0: c910 02c7 c461 8a3f 20a1 2f06 329f a03f
000002d0: 5660 3f4c 22c7 b5bf bf85 9bcc 01e6 b7bf
000002e0: 3ca6 e413 33b6 72bf b79f 560f 5567 b33f
000002f0: 47e7 655e f6c0 9dbf 97b0 bea6 96c7 afbf
00000300: ad7d 2826 4d98 9c3f 21bd ae92 1eb1 bebf
00000310: 5ae7 e0c6 0cd3 b1bf b489 0f2d 23ac b83f
00000320: 187e 4b35 059c 903f c55c 02af 7158 b63f
00000330: 18cc f296 8551 c03f d98e e30b 95f3 b23f
00000340: 4cb5 bdb1 2109 b83f 5ba1 8be1 8404 89bf
00000350: dc64 d9cd e5f6 b33f 929a 1723 e49b 9abf
00000360: 1afb a280 2e99 acbf 5197 d6d8 a7a8 a83f
00000370: ca9e a9e1 22fe b3bf 20ee b945 f358 acbf
00000380: 3172 ed24 7608 b1bf 45fd 7da9 c50b bbbf
00000390: 96d0 4de0 7727 adbf e713 c941 7632 c43f
000003a0: 4cc2 afbf bc36 b33f 5a6f 253f 0350 c1bf
000003b0: fca6 4f0d a967 a93f 9745 84f5 3fc8 afbf
000003c0: 9918 4abf 6b3a 753f 0c95 28f6 72be b9bf
000003d0: 4d06 724f 9978 b33f 724e 6b61 1ea8 a83f
000003e0: 2874 8dbd 0b38 90bf 8017 86f0 b838 5abf
000003f0: ce5f bd42 9e9f 94bf 9134 fae1 ca0d 93bf
00000400: f557 489b 33cd b2bf db25 4f31 e3a6 c0bf
00000410: 54a0 e344 f93b b4bf 84cf 19d4 e4bd c33f
00000420: 85de b935 d107 a5bf 2a55 a393 b946 bb3f
00000430: 96db 9131 8f7b bb3f 1ea4 8443 ae12 b5bf
00000440: f14c 0c6b ceb7 b93f 1128 27cf 9519 aa3f
00000450: 4579 f030 d2d3 86bf 55b5 f335 8696 b2bf
00000460: e475 74cd 4ab6 ae3f e5eb 56f6 8ee8 823f
00000470: b16c c26f 5911 ac3f 32a5 f46d fbca bb3f
00000480: a670 4910 574d a6bf 3d32 98e7 09af b1bf
00000490: 8e32 f8b2 a952 b6bf c512 069b 87cf bebf
000004a0: 7f83 6947 f23c af3f 1656 88e9 491a b03f
000004b0: 3c7a 47aa 213c c13f cc0c 1abc ae64 cabf
000004c0: d946 692e 7730 a9bf ff69 bac6 17ca c73f
000004d0: 0077 4681 6dc6 cdbf dbc3 387c 61de c6bf
000004e0: 5595 7c23 cc7e c03f 788c c855 5afc adbf
000004f0: 8294 b470 c14c b0bf 0610 aab2 9839 b43f
00000500: f0e9 a47d ae52 a5bf cb3b b453 66cf b3bf
00000510: fe1b 8268 93d5 483f b105 e445 28a1 b6bf
00000520: 9a99 285f 7433 b43f 421f 0e42 c862 b93f
00000530: b39b ef05 59ec b43f ebab 8f40 ae03 83bf
00000540: e9a7 d845 b84f b6bf 2fb9 445e a52a abbf
00000550: b2bc e19a 0f48 c03f cec4 0fb0 c2b8 a6bf
00000560: 78b0 2c3e 771a 8b3f a2dd 917a dc58 b63f
00000570: d385 766c eb97 c43f 44b6 5f6e 33e0 983f
00000580: 5575 eed2 bf36 95bf 7e75 3268 14fe 93bf
00000590: 2b9f cd8a 8c5f 83bf 001c 66b1 6925 c33f
000005a0: 3edc ee7f a2cf b0bf 3ba8 eb6f e282 b4bf
000005b0: ebe2 3131 46aa 98bf d46a 39a2 339c b5bf
000005c0: a36a 2d01 7a27 a7bf 77c0 4c29 1bff b23f
000005d0: 73f4 c34f f7ea b23f 1324 dd7d 45f3 b53f
000005e0: dc75 b38b e9d9 9b3f 8b23 2df5 75c8 b2bf
000005f0: e825 517b 7048 99bf b3ae ee40 da12 b8bf
00000600: d788 5a8c c108 963f ab3f 09ad cc1d 993f
00000610: 9292 406f be3a 9c3f 53aa aad8 2ff3 af3f
00000620: fee8 26e5 e3ee b33f 97c2 eda8 7299 babf
00000630: 9f12 79be 5c7d bc3f c158 9450 f208 b3bf
00000640: 8a51 f999 fde5 b7bf 51ec b637 2993 b93f
00000650: d883 66b7 6e52 b43f 04c7 f120 464b 6b3f
00000660: 9ad9 d0f6 7384 7e3f b6cd 2a02 d027 bd3f
00000670: 88d2 70c3 b833 53bf 2dd3 eb1e 1819 a0bf
00000680: 18ac 8990 8bb8 48bf fb0d 69d1 e0b3 b13f
00000690: a933 854d e572 a3bf 6ceb 983f 1cec b23f
000006a0: a12a 79ba f538 b33f 9d75 ac98 4248 c0bf
000006b0: a5ad fc78 894f a43f 42a5 dc9c eeeb 903f
000006c0: 36af 385f 71fc c03f ec64 5d8a 2e2d b5bf
000006d0: 0836 2dc8 ed12 c33f eeb8 2456 7e36 a13f
000006e0: 0366 62a9 bfba 98bf 4ca4 bccc 8568 7a3f
000006f0: 3528 f24d 306e 923f da7c 802b 106a bc3f
00000700: d521 0204 8ed3 c03f bd5b f169 68a5 c43f
00000710: 2831 f9d6 0026 b4bf 7cca 2f79 4678 993f
00000720: 0704 80df 5858 ac3f 127d 3e05 f9be 893f
00000730: e1db 39e8 f915 9c3f d1da eb2c 07c0 b03f
00000740: c728 f43f 5b6a b5bf 0938 6f72 b5dd a8bf
00000750: d1f5 2b9e 81ca b63f 5d01 80d0 58cf 8e3f
00000760: f876 ff85 71b3 aa3f 5f9d d9d7 9cb8 8ebf
00000770: b08a 6519 b4df 9dbf e328 cecf 73d6 b1bf
00000780: 469e 31db 633b b93f 7f0c 3cec 7c94 b03f
00000790: cc18 6047 4204 c33f 0db9 d3bd b8ea b73f
000007a0: fbdd a9ab d8d8 b9bf 0bfb 41fb 551c bfbf
000007b0: 377c 2cf9 279d b53f 5b8b 8b0b 2a82 b63f
000007c0: b600 873a 64da c13f 6a56 6a78 1d05 aebf
000007d0: 3714 e273 8974 69bf 0280 dc20 3aaa b13f
000007e0: 6083 5708 3140 bebf 2a2a ed8b f544 b4bf
000007f0: dad4 4bb7 6aab b43f c6a5 fa00 b0e4 b1bf

equations.x.layers.6.bias f8 [64]
-0.061747452526170046 0.04551475644964639 -0.019212107045635137 0.014324216324471003 -0.06037630660424048 0.06154035346692979 -0.02924730210225726 -0.0031255970997025257
0.08441420873945568 0.03225778684734907 -0.09181132604227049 0.05915490722663376 -0.11398778781319814 0.07090016755981661 0.03173084319263847 -0.0009533160667523389
0.010287687117101561 0.04667202683938797 0.06762370298028805 -0.10888852408331771 0.0915511799280389 -0.03730952780159459 0.030665351016027558 0.019670375014302143
-0.12794057819691296 -0.06430931623799413 -0.07988197329729652 -0.06023712388115599 0.004820263740490916 -0.09423026558930153 -0.10428819744087249 0.07568719669085973
0.06231324728352442 0.07015132062463879 -0.03294357013640583 -0.06334220480604001 0.11451413987293688 -0.08353538314902592 -0.09677330907679096 0.012747549912287206
-0.05817480275314546 0.006307291964222738 0.06421932506934912 -0.022661192245607788 0.1041424197463079 0.06938779596907212 0.10140352556285295 -0.04755380645767449
0.07573045880380841 0.05496328762845739 0.0054005846355366215 -0.040516056797037486 0.02989007610162216 -0.02084935179368386 0.016417628615811242 0.06721578712167173
-0.008367623312206668 0.002927915181437782 -0.03735002306183143 0.027151665949586734 -0.03331175968781661 0.16551311041038907 -0.09598445468939051 -0.051190045764365366
00000000: 1a24 6cb2 5c9d afbf cc8e dfcc b54d a73f
00000010: 1f03 cbad 56ac 93bf fe46 3cc5 0356 8d3f
00000020: 0810 a3ac a4e9 aebf 34ab 0c9b 3782 af3f
00000030: 8809 1a38 01f3 9dbf 32b5 5b2a da9a 69bf
00000040: be8a da69 2b9c b53f c5f5 19b7 1784 a03f
00000050: 8802 c172 f280 b7bf 8263 df4f 8d49 ae3f
00000060: 2513 cdbc 4d2e bdbf fd48 f36c 8326 b23f
00000070: c8e2 926b 063f a03f 1f81 2baa fe3c 4fbf
00000080: 6c65 c1fd b511 853f ae8f d359 65e5 a73f
00000090: e618 bc78 c94f b13f 8ff9 d849 1ee0 bbbf
000000a0: d47d b3eb e56f b73f d25e 7903 3c1a a3bf
000000b0: cbd1 efde bc66 9f3f 43c2 8b85 7824 943f
000000c0: f8f1 975b 5b60 c0bf 9cff 114a 9376 b0bf
000000d0: c811 da1e 2573 b4bf 913a 267a 66d7 aebf
000000e0: 67de f9b1 69be 733f 94db ff84 791f b8bf
000000f0: e109 5e9d a1b2 babf 955e 8372 3c60 b33f
00000100: c56e 619e 85e7 af3f f7a1 dadb 6ff5 b13f
00000110: 63dd b2c8 fadd a0bf b735 19da 3137 b0bf
00000120: b60f af75 cc50 bd3f cc13 af2a 9362 b5bf
00000130: da4a 9cb5 22c6 b8bf bbb7 d12f 631b 8a3f
00000140: 4051 8d76 16c9 adbf 720e 67cb acd5 793f
00000150: 17ad f17c ad70 b03f 9a40 55de 7e34 97bf
00000160: 61cb efde 13a9 ba3f 53be 6d0a 66c3 b13f
00000170: 72d6 fdd9 94f5 b93f f171 12f7 f858 a8bf
00000180: 4499 df43 1263 b33f 4392 b0e5 2524 ac3f
00000190: 8ef9 3866 ec1e 763f 7cf3 cf45 85be a4bf
000001a0: 555f 530d 819b 9e3f c1fd 6250 8859 95bf
000001b0: ad5e ee67 c8cf 903f f664 76c7 0d35 b13f
000001c0: 50f7 c463 0b23 81bf 3a3f 647e 48fc 673f
000001d0: ef5e 1ccf 8a1f a3bf c03d 2475 a5cd 9b3f
000001e0: 4dde dc2c 3d0e a1bf 40cc 229a 882f c53f
000001f0: 36b9 d0ed 6f92 b8bf 509c e0e8 9435 aabf
