simple-pendulum-system/2025-05-31_00-19-46/model_best.pt (torch, 277858 bytes, 24 tensors)

equations.x.layers.0.weight f8 [64, 1]
00000000: 661b a564 0e08 d4bf ed21 2500 bab2 e83f
00000010: 6853 5353 e4e2 d8bf 08a2 ae19 e24e e2bf
00000020: 38a6 92b7 b2f3 e93f ee17 40ef d39b b3bf
00000030: d1ec cd9d 7191 da3f bc7b 3bce 6133 eabf
00000040: 9a00 a81b f42d e43f 8008 ed1f 2a10 da3f
00000050: 3760 bec7 0a39 b4bf e8b0 e5fb 26b7 c2bf
00000060: 92f8 1485 9b59 dfbf 1497 4870 bb10 e03f
00000070: 7776 136c 2082 dabf 16f9 7da2 7447 e7bf
00000080: 42e4 7c14 26f2 b0bf ca5d 21f8 6fc2 c23f
00000090: 6800 84cc dcb9 e3bf abc9 693d 42cd e0bf
000000a0: a7d0 e169 13e7 e93f d0ab 695a aa74 a9bf
000000b0: 66be 221b 6758 e2bf 7bb9 e9b7 1e42 d2bf
000000c0: ff00 1a16 7b4b 95bf e7f1 2639 26b7 b83f
000000d0: 6466 688b 157d c03f 29bf 69df c9cc d2bf
000000e0: f5dd 45d6 2ebe e83f 1deb 7095 4d71 ea3f
000000f0: 8e13 b8c6 8adc a13f 5ff8 6577 2e8b e1bf
00000100: a284 0546 6f48 c73f a0a1 c311 7457 cb3f
00000110: fca6 2e53 81ea e23f ed53 8400 4f6b b13f
00000120: 81e8 391a cf6b cb3f 1c64 a53e 7e16 c8bf
00000130: 2ac9 ef22 d1cd e73f b4d2 df62 458e e0bf
00000140: be83 d5a8 00b1 cc3f 63bd 638f e12e d6bf
00000150: 2176 ed58 3b48 d93f a58a 6a63 4b8e c23f
00000160: 89dc d4c4 1369 e6bf 8080 ac81 54bb e6bf
00000170: 25e1 ccc3 c997 e1bf d04c 0f01 63a1 d63f
00000180: 1a60 5318 0016 dfbf 9dc3 de56 0703 b5bf
00000190: 413f cf04 6e49 de3f 5c2b e5ba dc71 e73f
000001a0: 96ed 3bfb fda6 d0bf 9d92 bd56 2069 e53f
000001b0: f4ec 932f d98e dc3f 3b0b fe12 4f1d de3f
000001c0: 71b6 e22e 31c0 edbf e272 afef 27f2 d63f
000001d0: 34e9 0cc5 4082 e0bf 5a05 d8bc 5264 e8bf
000001e0: 24f9 05b7 a701 debf 9224 4aa4 fe87 c83f
000001f0: 2384 7480 1516 e1bf 97c3 41f2 c179 df3f
-0.31299171284302074 0.7718172076066004 -0.38884838235144636 -0.5721292974095045 0.8109983048827365 -0.07659649458955162 0.4151271859224837 -0.8187722232795447
0.6306095638428986 0.40723660581364385 -0.07899539352945416 -0.1462143640486666 -0.48984420772820514 0.5020425026930035 -0.4141923003606744 -0.7274726079629399
-0.06619489669982762 0.14655875793208245 -0.6164382929273531 -0.5250559997060028 0.8094574993142672 -0.049718211685863545 -0.573291352271508 -0.2852856441521891
-0.02079574892422986 0.09654463668170586 0.12881726557752693 -0.2937493020790379 0.7732156929986888 0.8263309401293985 0.03488572765130647 -0.548239930343481
0.1818980304624676 0.21360636584655612 0.5911261200573956 0.06804364931697622 0.21422756939483992 -0.18818643626107778 0.7438741381031708 -0.5173670703066677
0.2241516899476021 -0.34661139490977727 0.39503368076643325 0.14496748308473176 -0.7003268093457261 -0.7103674442951302 -0.5497788261627973 0.3536002645825649
-0.4857177960925597 -0.08207746382573906 0.473231796929202 0.7326491976067291 -0.260192389817996 0.6690828031683683 0.44621877332947624 0.4705388722870116
-0.9297109523519805 0.35853002936145917 -0.5159000252381589 -0.7622464836460197 -0.4688510215127215 0.19165022870973708 -0.533945799721668 0.4918064943113278

equations.x.layers.0.bias f8 [64]
00000000: 9803 e256 97a3 cfbf 7185 a811 dd32 e4bf
00000010: a83f 669c ba8e ef3f 3ce3 7a75 d110 ef3f
00000020: ec52 25d2 56b9 efbf ab8f bf7f ca7b e4bf
00000030: a6ae 0026 5949 d6bf 64a6 e7c0 46a8 b13f
00000040: 356b 7c56 4e28 dd3f 480c 3d88 5fdf e83f
00000050: 4a43 45ee 6407 cd3f 4987 87d7 8881 be3f
00000060: aef6 6812 f23c ddbf ff06 aa01 3c49 e23f
00000070: e46b 3929 1d2d e8bf aa33 3a7a 3a13 e5bf
00000080: 4240 3d12 cee8 8c3f 2d0c cdd3 cdb8 e43f
00000090: 1ce6 4e33 9bf3 e3bf 6386 fae7 a127 d1bf
000000a0: af93 8ab1 1b4f b83f 3132 b243 4688 e63f
000000b0: f09e 622c 3f03 eb3f d379 0734 bf2f cb3f
000000c0: bec1 7d1a 5a1d debf b5b4 293b bc68 ebbf
000000d0: 9c8e 9047 bb7a c5bf 67a6 e4e5 4996 c63f
000000e0: ade5 a3a1 0c06 d03f 4c19 1c3e a1fe d43f
000000f0: cac5 ff8f 7b9e e7bf aa3b 49c4 3e47 d43f
00000100: 69c3 1144 c0a1 c83f d233 d54b 7536 e9bf
00000110: 1d55 a121 2b79 a33f 88d4 59a7 8c7e ccbf
00000120: cfca bed5 9136 9d3f 50de bd17 c3b3 b43f
00000130: 92e4 71ac 5f94 e73f 9423 2270 47c7 f03f
00000140: 32e0 1291 2c9c debf 1095 522c ba2d b0bf
00000150: ef37 95d7 d3da dbbf 3b8f 8871 04a3 eb3f
00000160: 9a7b 3183 0358 e43f b5ee 08d1 756a eb3f
00000170: d81a b32f 0ece de3f 0b76 6f15 d7d6 e6bf
00000180: fedd e7fa 7745 d73f 0044 615a 43e9 c23f
00000190: 214f 0a1f d445 eabf 2ab4 e33b 541b dbbf
000001a0: 8432 52ba 07f7 b4bf 5a13 de74 de4b d73f
000001b0: 88d8 7698 42be cc3f 82b2 c569 fe0a e13f
000001c0: e8c3 cb9f 70f6 ed3f 18ae 3e6b 5f90 d7bf
000001d0: accb 7270 392f f13f 731e a5b5 81d9 e2bf
000001e0: cd24 77fa 4cec eebf d935 b445 50a7 e23f
000001f0: 5494 ec02 e68c ef3f 0502 b695 dc4f dfbf
-0.24717990629508502 -0.6312089295280839 0.986172967403026 0.9708030027896721 -0.991374407235154 -0.6401112074931822 -0.3482268210525298 0.06897394380180227
0.4555850834455442 0.7772672329814521 0.22678815492920484 0.11916404020260275 -0.45684482381680425 0.571439746141749 -0.755507069126335 -0.6585972201588579
0.014115915233247848 0.6475590836274755 -0.6234870912659889 -0.26804397253190454 0.09495709499840531 0.7041350671948462 0.8441463343524145 0.21239461937416468
-0.4705415018752567 -0.8565350680852563 -0.16780796999329517 0.17646144604923394 0.25036922249963817 0.3280413729229579 -0.738096028564706 0.31684846085129925
0.19243624995899758 -0.7878977280721478 0.038033817153215056 -0.22261198207312227 0.02852847926232976 0.08086795167570782 0.7368620269836745 1.0486521129807658
-0.4782821099029234 -0.06319774229139719 -0.4352311711598977 0.8636495797586358 0.635743862378024 0.8567456324303381 0.4813266244713481 -0.7137256067905481
0.36361503126633454 0.1477436248119659 -0.8210239988570472 -0.4235430321558079 -0.08189438151220868 0.3640056744846355 0.22455627865355532 0.5325920167793614
0.9363330002798849 -0.36818681214455884 1.0740293877140443 -0.5890511081460786 -0.9663452999021956 0.5829240189938744 0.9859495217430188 -0.4892493688603568

equations.x.layers.2.weight f8 [64, 64]
00000000: 9da7 1223 23ba b93f a9ef 6535 3838 923f
00000010: f6d0 42fa 18ed 97bf f738 bda7 3ea7 b1bf
00000020: 920a f6f4 9132 b3bf aa96 2201 bbe5 c0bf
00000030: f153 a30a e8ac a23f 54b5 560c 2e98 ba3f
00000040: 8ff2 b493 3846 a53f b867 6bc2 450b 7ebf
00000050: 1da8 7c12 a4a9 b5bf 70ca 54c3 28b9 99bf
00000060: 65d0 9897 fc7f 92bf 0d79 403f 52ab 943f
00000070: ce21 f321 85b2 bb3f 62b9 c4d5 d3ed 503f
00000080: 90ef c882 0197 b5bf a30e 41be a47a 8a3f
00000090: 08f6 4d50 9633 bdbf 1edc e5bd 769d bfbf
000000a0: c419 b2a8 18ca a4bf 6f87 74fc 1295 b43f
000000b0: 94d9 4f26 2087 bd3f 8e05 ad61 d933 bf3f
000000c0: 3092 4dd5 d21c 8c3f 1fbe 289a 43cb ab3f
000000d0: 7228 16e5 aae2 adbf 5287 5c95 68c6 99bf
000000e0: 87e9 1dd2 05c2 b4bf 6fe1 feb8 ac34 b13f
000000f0: 42ad 7d98 c54f b1bf fc12 88e9 1814 04bf
00000100: 0c63 f679 ea21 ba3f 1899 2205 8219 bdbf
00000110: e7ba 1154 005a b1bf b178 d3c3 7e5d c43f
00000120: ebf7 98f6 87ec b5bf a133 368e ce1f b4bf
00000130: 2dd2 5f6f b3c3 803f 51f9 d808 92a6 bd3f
00000140: 8e38 5b97 31c7 91bf 709a 29e4 90a5 b63f
00000150: 6eea a59c d4ee b2bf 4ee6 bc54 3286 bf3f
00000160: a9be a96d 3a73 863f 7346 cb8f aa7f b93f
00000170: 68d3 d32c 7888 b13f c435 b2cf 7445 bdbf
00000180: f829 8ec2 ca53 b0bf d28c 7c4e 7a73 9fbf
00000190: 52bf 9ae1 cc5f 9fbf 203f 5325 1f85 b53f
000001a0: c472 cc21 6c17 bfbf 6427 88cb f199 b5bf
000001b0: 0474 df89 c703 a83f 0bf7 7da8 260b 9ebf
000001c0: 8243 b41c 63ef a13f 3a34 0959 511f 533f
000001d0: 83aa e116 edad 71bf ba8a 0153 fc26 b9bf
000001e0: f0b3 2271 126d 1abf 1919 ef09 4d47 ae3f
000001f0: 2ed8 e1a2 966c a9bf 8c34 bb87 4b63 bb3f
00000200: f713 e15f f3d1 a1bf 573d 31f1 13ce b43f
00000210: a58c 73f4 6de3 a2bf bc97 1e40 f056 b3bf
00000220: dc1d ec82 e41e b6bf 3826 45df def8 ae3f
00000230: ee85 e5ca c2c6 b33f 5fa2 aa19 3202 c13f
00000240: 59fc 7d15 cc51 b83f 2cae 450b 27ef a6bf
00000250: acc1 822b ad8a 953f 9e32 99cf 3b89 bbbf
00000260: bcca 95fc 6515 ad3f 451e d2b0 2805 a2bf
00000270: 36bb 9329 f153 c13f 2ae2 2ff9 9a66 a8bf
00000280: 403c abd1 f468 bb3f 0415 7351 30f3 bc3f
00000290: 8c85 daa9 6ba2 b7bf 140a a841 334d b9bf
000002a0: 5379 8dd5 a311 bcbf 5e0b 4d3f 7ef6 b83f
000002b0: 2344 f816 2175 a33f 2230 9157 3957 bd3f
000002c0: 5f12 cc4d d69b 923f d67a 0fcc d800 b2bf
000002d0: 32a1 d0e2 65f2 9abf 8364 776e bc2e b43f
000002e0: 6501 5992 cb87 a23f df5a b948 1602 8a3f
000002f0: 00f9 8c73 69f3 b2bf 4add e3a0 730f bd3f
00000300: 246f 19da b268 7ebf 9481 9c9c 9835 c23f
00000310: b69f f3e5 d5b4 94bf ade8 e4e7 8237 bebf
00000320: 05a9 fa88 9761 b93f 378b 78f6 63a6 bbbf
00000330: 3417 5d28 8f82 a5bf d4bc 3bd6 7311 b33f
00000340: b4a4 33a5 3e43 a8bf a1a8 59dc f5e8 71bf
00000350: 4968 91d9 e716 88bf 8844 f2bb a9c6 acbf
00000360: c068 1c25 2f0b a93f 14fe dedf bc64 aebf
00000370: 199a 5471 d230 b33f 7997 1c8a e585 af3f
00000380: 5aa1 454c aa55 acbf 916e b0d0 9526 b5bf
00000390: d5cd 7079 9f17 803f e5d2 104b 513c b83f
000003a0: 5023 c984 a382 aabf f050 d386 f33a b9bf
000003b0: 5ac4 b136 ec19 5cbf 029b 828b 5c1e bbbf
000003c0: 0415 87f1 de53 b2bf a4d6 ff80 6627 ba3f
000003d0: bf38 5b8a c36d bdbf 4ffd 9f57 e70d b8bf
000003e0: 4085 002c 3554 923f 735c a98c c01f a8bf
000003f0: 51e8 1d4e 007b 96bf 85e5 4c09 ea4c 93bf
00000400: d4d9 18d3 adfb bdbf 3517 eed3 d8a6 8ebf
00000410: 3af5 d9d3 9428 bbbf 1479 8b94 ec87 adbf
00000420: ac88 60a6 3fca 973f 392a e302 0dbd b1bf
00000430: eeae 0fe9 8bec 823f 785e 20de 83ba 833f
00000440: 7d77 6add 3dde b5bf 0ebc cf78 ca5e b13f
00000450: 620b 3e9b 6a28 703f fec3 bb1e 31b0 b6bf
00000460: 607f a794 c30a a83f c2fc 90c3 e059 9c3f
00000470: 9724 32c1 05ee 8ebf 3e13 e60c 152e b73f
00000480: 6812 0335 4010 b6bf 1453 3a8f 9c45 acbf
00000490: a993 e5ea bf15 bb3f 8fe6 32fa f463 753f
000004a0: f2aa 86eb 78b9 91bf d3e6 8dcf 9b0e c0bf
000004b0: c7ea a595 47f9 b3bf 7b7e 1a0d abba b93f
000004c0: fbf6 3ea6 ed9d b43f 29f5 a087 d5e0 c03f
000004d0: 6e53 dfa1 1513 c1bf af9f dc04 cfd9 babf
000004e0: 3a56 86c0 3121 c2bf d87d 6535 362f ba3f
000004f0: d258 b939 ecd4 b3bf ebf9 d6dc 4226 993f
00000500: 1fa6 2184 7506 bebf 2f91 7c95 01ec bdbf
00000510: d45d 769e dc37 b8bf f26d afca cc44 be3f
00000520: 1029 d29b 409d babf 00fa b1fc 5728 a2bf
00000530: 8adc 18cf b4e0 c0bf 10d0 02f6 7f4f babf
00000540: 5346 38b0 f215 aebf b04d 9a83 0298 9fbf
00000550: 096e 513e 7018 aabf 3385 0e5c 66f6 afbf
00000560: dfac 7c91 89ec a8bf a0da 5dfe b537 b73f
00000570: 43ae 5ffc b665 b2bf 8677 f29f 6cae a13f
00000580: 21b9 bb12 cbac bbbf 0b3a c8b9 4e12 b83f
00000590: c8e9 a45d 036b 8a3f a157 078d fdcd babf
000005a0: bd15 5594 148b abbf 975d e2a1 fbc5 5e3f
000005b0: 8277 9e6b 20e1 a5bf 1d93 3bda 9d52 a73f
000005c0: e98d 0d3f c0b6 b7bf b70d 26c4 2987 bbbf
000005d0: 1de6 2702 bcb8 b9bf 830c 2002 5e6c b8bf
000005e0: 5fe3 acd4 19ef b23f 8544 2d56 a339 99bf
000005f0: 8e1c e6b5 40a5 bebf e5cc 25d9 5c6c 62bf
00000600: b20e ad15 3495 b63f 50e4 9764 d876 b9bf
00000610: b4aa e01a 2960 b53f 3e0a d2ca 9dc3 b23f
00000620: 9660 6434 facc c13f c7e5 e692 b848 a73f
00000630: 9565 a71d 0226 a3bf d674 3c26 1abd 8f3f
00000640: 0883 3a93 75e7 9e3f c7ab e45d c7ee c03f
00000650: dc8e e409 479c b3bf 68ca 3760 20d8 b9bf
00000660: 80df 1fbd 9c42 b8bf 10f2 0455 9595 97bf
00000670: 8ead b82f f8d9 ad3f d20b 3e87 0dae b0bf
00000680: b776 eaa2 55c4 bc3f 3f0e 9418 8910 993f
00000690: 4d45 f8a4 ea25 b7bf 7370 9d2c 145b 713f
000006a0: 2277 4021 9a3a b53f f821 a1fa 37da 693f
000006b0: fc76 562d 998b aa3f 881e 3e7b f8da 893f
000006c0: 0ad6 b5c1 3bed bcbf e3d3 382a aed2 9c3f
000006d0: ccbb 53a4 cc50 b6bf e1c8 ae26 d0ae b83f
000006e0: 5e69 58f2 90a0 adbf f261 e342 3685 a8bf
000006f0: 8059 a355 2939 8abf 7de4 6fb4 9b31 b13f
00000700: 3ef8 964d 242e bebf 15f5 aa8d 0fb9 c4bf
00000710: afcf 8b3b a501 c13f 55eb 0438 d513 bcbf
00000720: fc15 0927 a06d bebf 83f1 4604 c58d b5bf
00000730: d181 9774 2f85 98bf 2680 92ce 895b b7bf
00000740: d134 ea20 acb6 c2bf 3f0c 6734 1717 803f
00000750: b31f 8a00 4d35 b3bf dcfc 1d47 2e13 bd3f
00000760: b208 b9d2 42af a83f bd14 44d2 34df c0bf
00000770: 96ff 75e0 db88 bebf ba20 6d6e 0062 923f
00000780: 8582 6b1b b8c6 9a3f eae2 e584 2c26 833f
00000790: ac7f f28b 8cf1 acbf 30c2 16ec 8748 bb3f
000007a0: 6b1b 0354 04e5 8e3f da0f 4840 c94f a33f
000007b0: 6663 00e3 f246 b53f 209a cd70 113e b2bf
000007c0: 9c13 8a7c ddf3 bcbf c877 5fd6 1978 b7bf
000007d0: 5872 4fdd ce80 9a3f bfda d258 8635 a23f
000007e0: 3059 bf2f 554b 98bf 3d90 1a96 25f4 983f
000007f0: 4215 77c4 64d1 acbf b242 176f 8c17 bb3f
0.10049647909423105 0.017792585620085486 -0.023365392946929263 -0.06895820231622794 -0.07499038916106773 -0.13201081805634846 0.03647542123659509 0.10388458062398814
0.04155136874257891 -0.007334969041687893 -0.08461976481763185 -0.025120388910361446 -0.018066355469457913 0.020184788809381838 0.10819274977541868 0.0010332649899954184
-0.08433541720381599 0.012929236465544952 -0.11406840763626047 -0.12349645744494395 -0.04060437258981467 0.0803996912332232 0.11534310279225785 0.12188490519203851
0.013726851591578798 0.054285156791930904 -0.058369961228053394 -0.025170930973337953 -0.08108555202298905 0.06721000210280235 -0.06762347195551846 -3.829670930958169e-05
0.1020800159225354 -0.11367046952600324 -0.06777956058952449 0.15910324632472375 -0.08564042826125699 -0.07861033412900877 0.008185769878744054 0.11582291332249396
-0.017361426222855907 0.08846383638738486 -0.07395676445404728 0.12314142769619105 0.010961967918063325 0.09960428248020907 0.06848860830707582 -0.11434106894213075
-0.06377856492887435 -0.030713950195729485 -0.030638886709027098 0.08406252537974668 -0.12145114731942913 -0.08438025683440525 0.046903834896262736 -0.029339412721575402
0.035029504064488584 0.001167134705741603 -0.004316259508508782 -0.09825112368120417 -0.00010080742893832351 0.0591377329470097 -0.049656588919717456 0.10698387206794474
-0.03480492158318065 0.08126949919209402 -0.036891399469618315 -0.0755453259031062 -0.0864088840136143 0.06049248195138229 0.07725160077600154 0.13287950757264164
0.09499812626562355 -0.04479333889579737 0.021036821156202798 -0.10756276911088 0.05680388172449599 -0.03519560965019911 0.13537420778399117 -0.047657816809025214
0.10707025641316736 0.11308576572908541 -0.09232209107223904 -0.0988342318815188 -0.10964416469275777 0.09751118703301873 0.0380030003108305 0.11461218250150343
0.018172596453057795 -0.07032542211480161 -0.02631529995793009 0.07883813569005053 0.03619228517027543 0.01269929322658697 -0.07402667113362682 0.11351702383023113
-0.00742406715434266 0.1422606243804806 -0.020221082840094794 -0.11803453599432841 0.09914538473336527 -0.10800766723018006 -0.042011712720109534 0.07448505382830045
-0.047388036409594575 -0.004372558969047231 -0.011762439086101877 -0.0562031785895068 0.04891345336928188 -0.0593623183517559 0.07496371523721058 0.06156842528279944
-0.0553410738091908 -0.08262001366568429 0.007857557195257417 0.09467037279757624 -0.05177794452590112 -0.0985557750858026 -0.0017151648305822249 -0.10593202978143881
-0.0715922679583692 0.10216370248221068 -0.11495611312713815 -0.0939621533325312 0.017899351893111204 -0.04711724965152877 -0.0219535873106696 -0.018848091905260062
-0.11712156680810121 -0.01496667286643181 -0.10608797237542414 -0.057677643902694836 0.023232454805232436 -0.06929093666546117 0.009240239191022206 0.009633093086491615
-0.08542238860760949 0.06785264443873038 0.003944794112501567 -0.08862597465828512 0.0469571227038148 0.02768660730020823 -0.015102429350252229 0.09054690899763515
-0.08618546766508361 -0.055218594058862674 0.1058006237486341 0.005222279494029216 -0.017309083342904104 -0.12544582018363445 -0.07802245524900818 0.10050458021077617
0.08053479489077724 0.13186139223572838 -0.13339491275715026 -0.10488599652000972 -0.1416380109846374 0.10228289416908554 -0.07746769341733575 0.024560017327297883
-0.11728605724206219 -0.11688241862845382 -0.0946023833151835 0.11823730419512637 -0.10396198085996766 -0.0354640480008932 -0.13185749160922838 -0.10277557140472049
-0.058761199961861486 -0.030853308946985514 -0.05096770058363737 -0.062426756608383725 -0.04867963696445953 0.09069383106348505 -0.07186454450100492 0.03453387691955272
-0.10810536582332421 0.0940293506211917 0.012899423880857422 -0.10470566456873921 -0.053795474154451274 0.0018782574984806727 -0.04273320497234946 0.045552189721808946
-0.09263230838183002 -0.10753117598328897 -0.10047507336266688 -0.09540355255016846 0.07396089021939421 -0.024633934149566734 -0.11970905724420985 -0.00224893698139682
0.08821416405867913 -0.09946968513385568 0.0834985437983658 0.07329736901923753 0.13906791265685986 0.04547669213520638 -0.03739935504899986 0.015497402469515736
0.030179822074049262 0.13228694996482046 -0.07660335532687718 -0.1009540781886159 -0.09476642243668998 -0.023031552614371675 0.05830360014473533 -0.06515583564582464
0.1123708269828637 0.024477140545981376 -0.09042231109221639 0.0042372501428325935 0.08292544662296256 0.003155812582040559 0.05184630087317818 0.01262468458277445
-0.11299489478354743 0.028147431685471857 -0.08717040073291499 0.09641743606951848 -0.05786564787213665 -0.04789132658487806 -0.012804339338271076 0.06716321139528421
-0.11789156812935261 -0.16189760606167938 0.13286271483923204 -0.10967762582451475 -0.11886025383963522 -0.08419448236867848 -0.023945561877441627 -0.09124051373737582
-0.14619971854373273 0.007856541907022783 -0.07503205550358309 0.11357392536409655 0.04821213552760763 -0.1318117167176406 -0.11927580099108889 0.017951971759686748
0.02614867846830517 0.009350154691433816 -0.05653037269917091 0.10657548440827536 0.015085252584311445 0.03771809491811924 0.08311384241131989 -0.07125958446486225
-0.11309608736526261 -0.09167634471620467 0.025881988771163073 0.03556461176179004 -0.023724871672891 0.024368846212965634 -0.056285046560825794 0.10582807266406283

equations.x.layers.2.bias f8 [64]
00000000: 489a a1cc a09a 79bf 4baa 8122 9091 b43f
00000010: 4f73 107c faab b73f 063a c09b 0629 b9bf
00000020: b5da ccf3 b1b3 b7bf 7241 7a4f 2a32 b33f
00000030: 1317 c1b3 9e1b bc3f d75e d377 8c6e bb3f
00000040: f062 a18a 5495 b43f ed1d 6b45 4e35 a2bf
00000050: 16ee 0c16 d3a7 98bf 064d 2342 c282 b33f
00000060: dc8b 84cb f23f a4bf 6ae7 20b5 adc7 61bf
00000070: bd07 8679 1b65 9bbf 3c5a 07f7 9450 bb3f
00000080: 9d67 63af 3f6a a1bf 1422 fbf2 165f babf
00000090: 099f 26d1 18b4 babf 5f51 eb9c 5d59 923f
000000a0: ed45 3726 550e 29bf a683 8939 a9f4 aebf
000000b0: ce08 4718 f25e b23f 87a2 f509 ab19 bc3f
000000c0: 6636 77ac 1411 babf d9ca 06fb 70ef bbbf
000000d0: b118 54bd 7f4b a23f 4905 a5e4 e69a b4bf
000000e0: 7a70 c64a 8f57 9f3f c8d0 b8fb 31a3 b6bf
000000f0: d502 afc7 6f6b b8bf cb50 7632 c7dc a8bf
00000100: d550 9132 9dfc bd3f 5069 074d 1033 bd3f
00000110: 370f 6dfb 8381 b6bf 706a 30e0 fb6a 97bf
00000120: 53d0 7170 0cdf 8b3f b75f ad6d 90cf b2bf
00000130: ad18 2cd5 99c9 be3f fa88 397b 96af b9bf
00000140: 4363 51d8 22e4 50bf 6a88 1081 e4b9 b53f
00000150: 75ca b97d 3453 8bbf 4e37 bf85 9eb3 773f
00000160: 0dfd 7072 11f8 b9bf a696 f9ce 96e9 b13f
00000170: 0941 7a51 4d10 bebf ab6a ac86 84f7 81bf
00000180: 0e56 0380 93dc be3f aa47 e2f1 d50d 80bf
00000190: b06d c86c d898 963f a8ab aa6e c231 56bf
000001a0: 3511 89d1 b21f 88bf 7e07 a991 c2d0 923f
000001b0: 1af9 5f3c 8cb0 b63f 0afa 35a4 b861 ba3f
000001c0: 8770 05a8 25e4 92bf 0341 e889 5daf b3bf
000001d0: 8169 daad b583 b73f 5675 99f3 3806 10bf
000001e0: dad1 af19 7773 b63f 0cf7 3507 d2ad a73f
000001f0: 5d4f 7561 4a50 b13f 8f8e 778b e5a0 b83f
-0.006250980493951071 0.08034611551708186 0.09246793297684273 -0.09828225424301004 -0.09258568002847307 0.07498421135301728 0.10979644669086168 0.10715558934623047
0.0804035986378826 -0.03556294057267082 -0.024077699871879764 0.07621397127813986 -0.039550387710071994 -0.002170409462476754 -0.026752881328782275 0.10669833212828278
-0.034013738784508286 -0.10301345283654256 -0.10431056123945494 0.01791902799853184 -0.0001911620084756172 -0.060460365556316106 0.0717612561484515 0.1097666644396985
-0.10182313166225185 -0.10912233475282153 0.03573226152552545 -0.0804886158193955 0.03060745138064689 -0.08842766185336182 -0.09538935303772729 -0.04855940333359995
0.11713583454667582 0.11406041985120408 -0.08791375053720861 -0.022869048651140422 0.013609025174652489 -0.07347967794100795 0.12026368574524567 -0.10033550747315081
-0.0010309543879627049 0.08486774588576088 -0.013342294775815259 0.005786532619777974 -0.10144146961191698 0.06997053673839079 -0.11743624915311925 -0.008772883758458269
0.12055322528188858 -0.007838889545641898 0.022067433967192407 -0.0013546370270584949 -0.011779210109246744 0.018374481335065244 0.08863140558239416 0.10305360802701827
-0.01844843709965052 -0.07689461342693353 0.09185348028623787 -6.112787823427576e-05 0.08769935967558898 0.04624801958105537 0.06763138655997865 0.09620508818584937

equations.x.layers.4.weight f8 [64, 64]
00000000: f4cd bd70 3571 ad3f c2be cbd5 5d9f 913f
00000010: 939e 816e 9d16 b3bf 533c f44d 5090 c03f
00000020: cde9 e1ea 66b8 b6bf d5ea bb6f 6df7 903f
00000030: ddd1 9edc 2e29 c13f 8415 39d8 d290 babf
00000040: 95ec 106a 17d2 8d3f 8e9c 3d47 e6ee a2bf
00000050: b37b b093 3d9b b03f c4a1 1f7a ce23 a1bf
00000060: a664 9a56 61bf a8bf 742b 3d66 0ffa a6bf
00000070: dac9 c3de 941a ad3f c65c 21c9 e015 b23f
00000080: 7bd3 55d1 3b5f b43f 1a72 0777 16cf a2bf
00000090: 7960 c76e 3bd4 ba3f 37b4 89df 2339 bc3f
000000a0: 88fb dbd3 8e7a a73f 5120 d1d2 75cc 7ebf
000000b0: 4128 0611 e499 b53f bd52 198d 2f4b b0bf
000000c0: a3cf f79d 1cc4 b4bf c2bb 561f 42c4 b3bf
000000d0: 76b5 1678 e240 bebf a439 6fdd a639 9f3f
000000e0: 83c4 21ac a721 b63f 6f89 8875 79db c03f
000000f0: 4c64 e17f 4e93 833f 9eca f9b6 15e5 bb3f
00000100: 0b69 79d0 0f13 bfbf 9f1a 7ae2 224c bb3f
00000110: 55a0 1e91 e55f 96bf ca0a cfe7 da96 b33f
00000120: 1119 6349 1d6e b53f b2e3 ff13 6091 77bf
00000130: 58ff 710e 8f20 b43f 444b 179c c250 5e3f
00000140: ff89 4f54 e5a9 8dbf d6b9 ed1f 3d77 babf
00000150: 4a39 2601 dab7 b4bf f8c5 200f 73f9 85bf
00000160: 524e 8111 cfa1 bebf 77c8 df88 abf0 b43f
00000170: 7777 b77a 1c7b a53f a08c 203d df55 bebf
00000180: c1f2 c7ef 2810 b7bf 404b 3cb0 4c97 a6bf
00000190: ebb8 5bba 0878 c03f aac6 08fe c2ea b3bf
000001a0: 6d8d 1ade 10fb b4bf 5d8f a48d f130 c2bf
000001b0: 0bfb bb75 2003 be3f 2a37 a965 b81f ba3f
000001c0: 1067 b5ef e2fa a7bf 4778 b5a4 1e7f ba3f
000001d0: cee4 7b12 d980 b9bf 4c68 6108 1679 a0bf
000001e0: 7741 dc6c 2826 b5bf 4297 16cc 09f3 833f
000001f0: dc92 1fa1 fcbb b7bf aaf1 7055 6df5 b3bf
00000200: 7584 66c8 a3b2 c0bf c970 72d7 a77c c23f
00000210: bb54 abec 0225 a6bf c368 2727 e09e bfbf
00000220: b2f7 6f2c 6751 b4bf 11c0 9603 90f2 b4bf
00000230: be46 0dd8 1cec bebf 927f a84e 7efd a43f
00000240: e5ff 2e38 1136 a1bf f4d0 3c98 bf3a b63f
00000250: 3beb acbc 7a96 75bf 06f0 bbd2 b1ad b9bf
00000260: 0ac8 0cd3 4049 b13f e33f c409 a93e 913f
00000270: 36c9 fc70 e4e9 c33f b2c9 7f90 d5b8 ba3f
00000280: 1cee 3019 fbcf 873f f1b0 6701 f4c6 803f
00000290: 21e1 7fa6 c484 c2bf 4e63 4d88 35a9 8ebf
000002a0: 2ee0 a272 db86 7e3f 4708 3436 37ec 793f
000002b0: 0d14 b983 7b81 a2bf b3a8 9db4 476b c0bf
000002c0: b6ac edda c8cc 9bbf 7f4d 1d98 cd5e b2bf
000002d0: 0f6d 172f 0d60 a13f e3aa d2b4 9dd9 bd3f
000002e0: 5ffa c682 0e74 89bf 86f3 9a48 7537 ac3f
000002f0: 0f59 0611 e81d a6bf 1751 8cb0 ff8b bb3f
00000300: f460 20f9 ad0c bc3f 1cd8 32c3 bd8c bebf
00000310: 8120 2bdb 0518 acbf 12e5 c05c d1e5 a63f
00000320: f7b9 086f 748d b2bf 4e30 254b 0a3c b03f
00000330: 632b 6769 9a78 ab3f 6833 c4cb 4627 a8bf
00000340: 3a2c ca57 78a2 9e3f 9839 f922 4fe0 b4bf
00000350: f4cd 65cd 78d1 aabf 6c7c cbe5 060a 79bf
00000360: 9e6a 389c b417 b93f bfe7 a8f4 59fb b3bf
00000370: c717 c1c5 21a2 b0bf 2d9f a57e 39c8 b83f
00000380: 42c4 0243 7501 babf 0b06 3a24 3d1f afbf
00000390: 3d46 2309 8e95 aabf 824d e845 dd10 a8bf
000003a0: a2e7 be1d d2cc b9bf 0db7 4970 e087 bd3f
000003b0: 85f8 33c7 311c 93bf 732d 3830 5209 82bf
000003c0: 2805 ad04 a7a4 9cbf fd4f 9576 af05 95bf
000003d0: 4cd9 803b 4cd8 9ebf a4cc 37d3 a42f 783f
000003e0: 52bd 6b47 b6f6 babf b745 d030 0ffa 9fbf
000003f0: ddda 4ce9 4493 b83f 006e 242c 269c a5bf
00000400: d551 3cee 3dff bcbf fb19 0865 ec96 bc3f
00000410: a32d 9f6e 2223 a13f e4ed 095e 052b b13f
00000420: f50d 1cbf 2cfa b93f e7e7 2853 c3b8 c03f
00000430: 25ab 0159 1738 aabf 740e 5885 b433 a3bf
00000440: 2338 d27d ca36 b1bf d12e 417f d03d aa3f
00000450: 9abc 8364 425e 9cbf 3441 c6a3 a48e bcbf
00000460: 5ca6 8ec2 7761 87bf a2b6 0452 9879 ad3f
00000470: ab9d 0572 acbc b53f a59d c7f7 1edf 81bf
00000480: 0527 13e2 1445 b33f 4653 4a69 ab1c a4bf
00000490: 4e69 ddd1 2b86 a83f 6026 bf01 2461 af3f
000004a0: 5edc 9536 694c a1bf 7700 9f10 9023 bfbf
000004b0: 2eae aabf 6a77 a4bf 519c 25db 8c73 673f
000004c0: c4a0 a831 cccb 69bf 00e3 a936 00fb babf
000004d0: 009a 2c2d 6913 96bf 5df4 06e3 c2fe bbbf
000004e0: 6bde 97bf 0489 143f e134 c139 37a7 b23f
000004f0: 6a6d c684 9b75 7f3f d79f 5a2b cb4c b2bf
00000500: be1e 368f 017d 96bf 3dfa 7218 7991 bbbf
00000510: 08a0 2b6d 81ae abbf 6d0d 1058 f006 a63f
00000520: 048e 19bb 6108 bcbf 580e 433b 2a2d b83f
00000530: 37cb 0bba 264e bb3f cbd9 aed7 9d7a a1bf
00000540: 3828 0603 5e39 a13f ef94 3acf 7928 a7bf
00000550: f267 d009 3554 c13f 922b f940 b09e a8bf
00000560: 775a 7bd3 9eb0 adbf e36e 9a67 3843 acbf
00000570: 5515 f550 9610 4cbf 9af2 2759 f820 bc3f
00000580: 8feb 2be7 5da3 b43f ac2d e8d3 788d 61bf
00000590: cdd4 5e6f 375a bd3f a733 8bc3 db4f b13f
000005a0: 1813 b3a8 c7ff bd3f 3922 431f 5b8c a4bf
000005b0: 7d88 3a05 b8b2 abbf 2efd 002f 192a bdbf
000005c0: c94d 7c65 8958 c03f 89e3 f950 e5fa be3f
000005d0: 36dc 0cc5 109b aa3f 96b8 5348 f6a8 b1bf
000005e0: bc99 80e4 13ab afbf a597 2356 6b2b b5bf
000005f0: 2e20 17bd ba11 b53f 4640 0c67 5c1e a7bf
00000600: e0ff b7c8 84c6 66bf edc3 1438 536f b2bf
00000610: f177 665b b7ab a5bf 9655 0c29 8403 a03f
00000620: 1b12 31f5 4471 78bf 4600 ebca bf2a aa3f
00000630: aa6f 85e5 0746 c0bf 0df8 1b0d edbb 43bf
00000640: ca64 7c3f 300c 9f3f 8588 a958 5490 a13f
00000650: 17d6 3ac1 2882 a5bf 0e1b cbec 2120 aa3f
00000660: 5eda e0c0 9f3e 8bbf 84da 9f36 e832 72bf
00000670: 70de 843a a8db c53f ac84 c034 c139 bdbf
00000680: c62d 6fb8 48c8 b03f f427 4234 4e2f ba3f
00000690: 62dd 7d1b 9bb4 b1bf ffb2 0067 39a0 bebf
000006a0: eb00 fc55 0b43 a83f 4c08 7e14 6087 bfbf
000006b0: e128 fe5d c8bd b6bf 66cc 9db3 5d32 b5bf
000006c0: 1700 bafa ce61 b7bf adce eec7 7ab7 71bf
000006d0: 879a 9617 1990 ba3f 8c46 51b3 6e5d bb3f
000006e0: 7416 f354 fb04 9a3f 84d8 ff91 b9d8 bcbf
000006f0: 87fc 270f 7bd2 c33f 5309 5d38 9a0f 903f
00000700: 1e57 c86d 551f aebf 4236 43b9 1861 a13f
00000710: f146 2bc2 79e1 b83f 43d3 3bdb 3d46 c0bf
00000720: dc42 6be8 9c07 79bf 9b3c 0d1a f606 c63f
00000730: 9819 37ee 33c5 a5bf 4ca0 40bc cbf5 94bf
00000740: 175b 5016 4e39 aebf e519 225e cd03 67bf
00000750: e35f 7b2c 9c30 c13f fad8 b2cf 4a89 8dbf
00000760: cfd6 ed5e b578 b3bf 198a 91b1 4f74 bbbf
00000770: 9fa3 3d79 cd89 8dbf 8eca c463 6b5c a6bf
00000780: 79c9 df11 7222 b03f 9395 7b55 026f af3f
00000790: f133 e9cb 37e3 a1bf b113 baaf ca67 ba3f
000007a0: e7f6 f765 bc40 b53f c29a c86e f265 b33f
000007b0: 0a87 f71c 0186 803f dca1 a681 94c9 96bf
000007c0: 9a85 f0bb 0c6c 823f 7224 2b0c 52e7 c13f
000007d0: 891f 5a8f a510 c03f 7f02 2a99 22a7 b4bf
000007e0: 9ed6 54bf f148 51bf cbed 67e8 e3d0 c1bf
000007f0: a2ec ece9 7674 b7bf 270e 7e1e 6c84 b43f
0.05750433922994694 0.01720949761778346 -0.07456382701786372 0.12940410429334523 -0.08875125154910464 0.016568860954957316 0.13406930706481904 -0.1037723329437395
0.014560873913174436 -0.036978908726092205 0.06486878257463395 -0.0334763073040594 -0.04833511526266791 -0.04487655756982792 0.05684342593476162 0.07064633284004448
0.07957815037464215 -0.03673620417587049 0.10480090574799474 0.1102468891856042 0.04585691772626094 -0.007519207237301443 0.08437943854929221 -0.06364724345014401
-0.08111742836609763 -0.07721341385943872 -0.11817756111005004 0.03049336172608154 0.08645103409232217 0.13169782866414034 0.009558308866120545 0.10896430699521395
-0.12138460960105506 0.10663049725745076 -0.021850192053222212 0.07652061614411845 0.0837114624183395 -0.005753875069779578 0.07862180807751196 0.001850309418263322
-0.01448420680566631 -0.10338193921572922 -0.08093035247859351 -0.01072969331662231 -0.11965650727625501 0.08179733363775364 0.041954889278470846 -0.1184978031383701
-0.09009033063916673 -0.04412307406723537 0.1286631498291578 -0.07780092908867667 -0.0819559614415561 -0.14211863914635617 0.11723521112797301 0.10204651338537177
-0.04683598686342638 0.10350219269955217 -0.09962231351154857 -0.032173813364992115 -0.08261349351619694 0.009740902462748505 -0.09271220143962061 -0.0779636701199197
-0.13045165333918232 0.14442918796419793 -0.043251124754229285 -0.12351799922854227 -0.07936711153885659 -0.08182621085757115 -0.1207902934522975 0.04099650106604637
-0.03361562548479905 0.08683392969834697 -0.0052704615034667125 -0.10030661959530116 0.06752400543771855 0.01684059259520144 0.15557532803502178 0.10438284662067224
0.011627160745880487 0.008191973011854677 -0.14467676286563694 -0.014971178266635878 0.0074528286151505484 0.0063287884433994085 -0.03614412291475597 -0.12827392882474484
-0.027148378717737308 -0.07175908054096246 0.03393593978736408 0.11660180725690909 -0.012428391805653747 0.05511061202330496 -0.04319691856214735 0.10760496196991585
0.10956847507657469 -0.11933504119483057 -0.05487077999492929 0.04472212083096329 -0.07247092924874453 0.06341614088631894 0.053654504171922544 -0.047174656270818016
0.029916649206409775 -0.08154768565984793 -0.05237939364715408 -0.006113078063861282 0.09801796735738796 -0.078054067832368 -0.06497393682465634 0.09680518476454543
-0.10158474813467058 -0.060785208389472066 -0.051922262778714125 -0.047003664764043954 -0.10078156686986842 0.11535456410794272 -0.018662240775477307 -0.008806840988674769
-0.02797184911765274 -0.020529500591990758 -0.030121985561174555 0.005904811714105982 -0.10532702678368835 -0.031227338175147525 0.09599714942747135 -0.0422069481739662
-0.1132696825628224 0.11167790857880526 0.03347117996562623 0.06706269784802249 0.10147361436616349 0.1306385189107566 -0.05120919190888732 -0.03750385406240478
-0.06724229404264341 0.0512528567638505 -0.0277033208703271 -0.11155156134032468 -0.011416373848834364 0.05756832123948398 0.08491018089045237 -0.008726350723874907
0.0752728511753525 -0.039281231501411315 0.047898644798538656 0.06128799935647744 -0.03378609458280189 -0.12163639455593676 -0.03997357930833477 0.002862715825517927
-0.0031489360965402963 -0.10539246878205333 -0.02155842149945819 -0.10935609858184266 7.83356807899594e-05 0.07286400947596718 0.007680518622147895 -0.07148427780577947
-0.021961235395365312 -0.10768849226858719 -0.054065746857134 0.043021689176408674 -0.10950289552561548 0.09443916270088815 0.10666124384060259 -0.03413861520623448
0.033640802258631586 -0.045230680986870435 0.13538229922488615 -0.04808569710856782 -0.05798813182416478 -0.055200350424653676 -0.0008564695325864827 0.10987808396016377
0.08061777967297544 -0.002142654411050512 0.11465784520153761 0.06762479328172209 0.11718414181366332 -0.04013333088511612 -0.05409789146257624 -0.11392362020068411
0.12770192580556586 0.1210158655830026 0.051964305929168494 -0.06898440614506493 -0.06185209431014324 -0.08269377568248489 0.08230177990401508 -0.04515351064594646
-0.0027802079619050207 -0.07201118582885586 -0.04232571593023227 0.03127682686878612 -0.00596739708550278 0.05110740043664967 -0.12713717181293066 -0.0006022365070916816
0.030319932818291297 0.0343042715292237 -0.04200866087687077 0.051026401668016516 -0.01330303962104756 -0.004443080028059602 0.1707659040200613 -0.11416251695529195
0.06555609228887879 0.10228432441559204 -0.06916207715209091 -0.11963232769694442 0.04738650726904033 -0.12315941334057462 -0.08883335394617432 -0.08279977450529116
-0.09133618947271348 -0.0043253704197245115 0.10376126123319739 0.10689441564434271 0.025409628925237418 -0.11268195928991714 0.15486086120651896 0.015684518518591272
-0.058832807208246005 0.033943913092667546 0.0971904849095855 -0.127143604324056 -0.006110775872642828 0.17208744308525045 -0.042520163373001185 -0.020468886723535015
-0.05903095266710617 -0.0028094302261394304 0.13429596111268358 -0.014422020400485003 -0.07606061523059825 -0.10724351964157854 -0.014422993910288727 -0.043673854759977634
0.06302559791928343 0.0613938073491155 -0.0349366604246838 0.10314623632628074 0.08301904191463515 0.0757743378131677 0.008068093010425343 -0.022253342068923362
0.00899515102907138 0.13987184137502912 0.12550801753627308 -0.08067527999265599 -0.0010549889387453724 -0.1391873249811922 -0.0916208573443549 0.08014560455745166

equations.x.layers.4.bias f8 [64]
00000000: 3991 a5dd 98e9 a8bf 5761 473f 7e52 a33f
00000010: f042 235a a7be 6bbf 9ffa 7573 dc57 83bf
00000020: 65a2 e99d ce16 7fbf ecf3 9355 f4bd b0bf
00000030: 3b16 5c88 c888 b2bf 8a3c 416f da3f b9bf
00000040: f619 b957 63e7 b0bf 1151 6cea bcbd b13f
00000050: 6993 6dcf eb80 adbf 6dfe d43e 3890 8b3f
00000060: f49e 0f26 b07f b2bf 4a3b d66a 1e3c a1bf
00000070: 0413 2a32 0b5e b93f 6ee8 f5c7 c420 b03f
00000080: 319c ad7c 0f53 a3bf d91a 3a80 6809 6dbf
00000090: 90ed cd45 aa22 bc3f bf7a 2b9f 7e81 b63f
000000a0: 0d4a 17a4 1740 b5bf 16ec 67c1 099b b83f
000000b0: b10f 7dac 0569 923f d808 08b9 be6d 9ebf
000000c0: 703f 5cec 09dd bd3f 5e91 4c42 3b1b 88bf
000000d0: bc6d 364d 3337 b93f 9df6 d82f adde b2bf
000000e0: 135f d5b8 e6e7 a7bf 51dd 172f b5b6 ab3f
000000f0: 0822 b50c 43fb ab3f 84be 5a9c f92d 903f
00000100: c022 7f5c 1e49 bb3f 0112 c60d a182 a9bf
00000110: 4ab1 065b c2a7 863f 463c 0252 1853 b0bf
00000120: babc 99b7 24cf 8d3f 64fc 8dec 9e2f 9d3f
00000130: ecf5 e5a2 5671 b3bf 3afa 45f7 7d0c bc3f
00000140: 2ff4 2fc0 d9e4 a53f 0819 3b8a 2bda bd3f
00000150: f767 0df7 e761 b13f 954a b29c 4d0e bbbf
00000160: 0175 0772 338c 9bbf ed35 30c6 1ff8 a43f
00000170: ed3e 1f11 2a2b b9bf fa8a a77a 161d 6fbf
00000180: 7872 fa88 5c4d a23f 16c5 fdbe 4b86 b2bf
00000190: 88c1 7241 1f74 a03f 1274 004b b4f6 bb3f
000001a0: 6fe0 d0fc 1b2f a43f e468 1178 67bd bcbf
000001b0: 3f42 4ae3 acce babf b118 b147 bd12 903f
000001c0: 8bed 9238 4c69 ab3f 2258 fe49 624d a73f
000001d0: e217 bfd7 da60 86bf 9898 8249 ea8c 9f3f
000001e0: 0658 7282 28e7 a03f 395b a9f5 c1bb b13f
000001f0: 7f08 32cc 6d13 96bf 63f1 5a94 b65a b63f
-0.048657204681861584 0.0377387478108086 -0.003386809215136892 -0.009444925569139171 -0.007590109917693687 -0.06539847459130471 -0.0723996479901751 -0.09863057342703221
-0.06603070155788501 0.06930142138691432 -0.05762421519356204 0.013458671014290513 -0.07226086549018956 -0.033661795178991996 0.09909124350276605 0.06300001031732602
-0.037743076295378215 -0.0035445252449933626 0.10990394787034163 0.0879134310339209 -0.08300922161223685 0.0961156937773214 0.017978752758849918 -0.02971551899282407
0.11665403385654627 -0.011770689926898722 0.09849854121278317 -0.0737102739157884 -0.04669114118831721 0.054128324507412125 0.05465135126229731 0.015800380867118338
0.10658445127695426 -0.04982474606643806 0.011062162783524915 -0.06376792909780801 0.014555250981372548 0.028501971424244835 -0.07594815709122543 0.10956561362216002
0.0427616164306318 0.11661026119972828 0.06790017873336739 -0.10568699908825814 -0.026902011713777266 0.040955536787901405 -0.0983148853113069 -0.0037980498357098576
0.03574647113893986 -0.0723616925513578 0.032135941256799916 0.10923315840814521 0.03942191563732044 -0.11226507836673566 -0.10471611546587044 0.015696485043257883
0.05353773298835581 0.04551226762048112 -0.01092692347436847 0.030810986267760215 0.033013597415603654 0.06927120444866554 -0.02155849036035606 0.08732167360262148

equations.x.layers.6.weight f8 [64, 64]
00000000: 2a81 8a12 d737 aabf 8b87 697a 4982 b03f
00000010: 6ce9 e624 5890 a9bf 0a43 661a 8c45 913f
00000020: ea42 87af ad54 823f 70cb e14f 76f2 c2bf
00000030: a1d6 a805 92d1 b1bf 0286 27a2 cacf afbf
00000040: e40a 8cc2 02a3 aa3f d18c f841 5746 8a3f
00000050: 591c 3a46 02cb b83f bff7 c537 b7ed 9f3f
00000060: c8de 17e9 b6ab c23f 1b8c 37f3 eed6 9d3f
00000070: 323b d489 1a62 bcbf 6f60 bf04 9c32 b0bf
00000080: 73d3 0a4e 84ef 70bf e8c4 d799 2bea 7bbf
00000090: 9b39 70b1 c1f5 c0bf 3ef7 a37f ce43 753f
000000a0: 94af 6027 79f7 b73f fcd3 5634 3a2a 713f
000000b0: b5bd 73a6 77d2 b2bf 2280 cc41 2ce5 b6bf
000000c0: 7516 e34b 0c2f abbf 7629 3293 0b01 bd3f
000000d0: 5a7e b5af feba 9f3f 9920 5db1 47eb ac3f
000000e0: 347e d761 76fb b73f 0a42 49a2 4957 95bf
000000f0: 5f27 1914 bae1 b3bf 47db 6f8b 86d1 b03f
00000100: 8afe 068e eef6 a8bf 4bb8 8c49 f958 bb3f
00000110: 9e6f 90a0 af86 b4bf 056c 90fe e216 83bf
00000120: b72c f924 bc00 b93f dddb 6f2b 58f9 95bf
00000130: 9a6f 4a6b 77ca afbf bab4 6ab5 bca5 b03f
00000140: e48a 7d04 e485 a1bf d856 0864 ec36 b83f
00000150: 6517 b7c1 ce34 b0bf 0ce6 8213 1e43 af3f
00000160: 4ddc 6497 9abe b7bf a23b 0db3 6854 bc3f
00000170: 83b5 8ed3 f7bf aabf 6169 b93d ac0b a3bf
00000180: 51c4 8f3b 712c b03f 03d9 9ac9 bd2b b1bf
00000190: 4580 b7b5 5c45 b93f f61c 3cc6 c212 9cbf
000001a0: e322 34a6 758b bbbf 2f38 c228 6098 b2bf
000001b0: 64ee f269 98d7 923f 6159 d019 c6e0 c0bf
000001c0: cfd1 f5e2 e2e0 933f 3de5 7513 85c8 913f
000001d0: af9f d892 7926 60bf 464c 05c9 4703 b5bf
000001e0: ddcf 903c 6b43 b1bf 6199 f61f 6f44 c2bf
000001f0: 4755 fcda a345 bfbf a79e 0c7c 88b4 9c3f
00000200: dfc6 4fc5 c895 91bf 01b7 c8c6 5168 afbf
00000210: ce43 b627 5fdf a73f d902 6b96 a072 c33f
00000220: 089e 5273 98ff 923f daaa d768 c83e b3bf
00000230: 413b 9d15 89b9 a53f c2ed 7f43 36f5 af3f
00000240: 29d4 4f08 af61 b53f 43e9 b2bc 642c b63f
00000250: 50d4 05ea 8c7a b63f 8600 20cf f7da 98bf
00000260: 2bb9 14ff 9871 b63f 56cf 3005 9894 b9bf
00000270: 7b31 092c 5694 9a3f 2b2c 8554 fcf8 b6bf
00000280: 0f19 b58c b0ac b73f 59b3 bf09 3954 ae3f
00000290: cbbe 1ec7 e75a bfbf 1527 080b 4eed 603f
000002a0: f936 0a67 39e9 963f 8720 73b6 f46e b3bf
000002b0: 35cc 48b9 d176 b33f cc69 5817 c846 bfbf
000002c0: d11a 6516 6d5e 24bf 114b 5f43 b7e5 b23f
000002d0: 53ab d4c4 af7d a5bf 2e38 a5f1 a891 abbf
000002e0: 7ff7 31b0 7a04 a03f 4dda bff6 34c8 b73f
000002f0: 6a88 628e 564a a7bf 444e 3a02 281f adbf
00000300: ba6a ee14 cca2 a93f 4174 639d c618 babf
00000310: 4cb2 1d3b 0370 b4bf 5b56 7a5d 4706 ba3f
00000320: 6010 8d0b 0903 9b3f 89db 71ed 68ed 903f
00000330: 3e64 c539 b340 c23f 0b57 5533 c8c6 a23f
00000340: 2b2d 7016 5fed ab3f b9ec bb82 9155 8d3f
00000350: 3dd3 952e 8840 c33f 6ee0 512c a32e 9b3f
00000360: 6bed 5d26 5990 b7bf 4050 92fa 35af a93f
00000370: e68f 1847 6cb8 b2bf c571 62ed 5ca3 bcbf
00000380: 4f31 2fdc 3be3 b1bf d68f 192b 1a5c b8bf
00000390: fb80 ca7b d831 a2bf 1206 85c3 97bd c03f
000003a0: 011d 6e85 7f4a b73f 85a9 6009 5670 bbbf
000003b0: 75ce 333d ed5e b43f dcb4 c269 6007 b7bf
000003c0: e0d2 a997 087d a03f 1501 1f74 8257 c1bf
000003d0: c7ab a886 4763 b53f 0a7d adce 20ba 9e3f
000003e0: a43f a865 9804 483f 2ebd 8f53 6a8f aebf
000003f0: c54e b2ee 686e a1bf 57a6 8c9e f66d 3abf
00000400: 2bd5 8e12 cb73 b5bf 05f3 17c0 99fd a2bf
00000410: f779 d084 1535 99bf 6f1b dfe1 da27 b73f
00000420: 3432 e4a6 e938 b4bf 8fc8 1b6d 7f2b 9d3f
00000430: 155c 2355 cacb bf3f 8cdc 0d6c 316c c0bf
00000440: f6e5 df21 dc31 a83f 8a5d 380c f5b6 a03f
00000450: 9d7d c2a6 8e9c 953f 5cd2 0a74 21a7 b6bf
00000460: 79a4 a5b3 5460 a83f 1441 f032 4144 90bf
00000470: a2bb 1bfd 939d a23f 9bda 4825 299e b03f
00000480: ff4c 1a43 f01b a9bf af86 485a 304a b8bf
00000490: 6bc8 5a89 896c b9bf 26a0 8c54 664a b2bf
000004a0: 090b c0f9 d4c4 633f fbe6 b286 853f 94bf
000004b0: 6122 f3a7 4d8a 7abf 5b03 4738 9881 afbf
000004c0: c97c 26a0 7303 3abf 84f1 836d 5036 ba3f
000004d0: 9de8 20f4 b0c2 c0bf 63ae 9263 3e9a a2bf
000004e0: eb14 4bf5 e60e b43f dcff 596b 49bd a3bf
000004f0: 5018 1df5 1ac8 a5bf 0957 4f88 dda9 b53f
00000500: 3a19 83b9 0e3a afbf 7328 ecfa 3bc3 b5bf
00000510: 4240 573e 808c a33f 4465 e257 f969 aabf
00000520: 1b36 48c5 829e a53f 8411 6106 0199 bc3f
00000530: 2304 d3b5 d61b bc3f c15b 54ce cd0c 653f
00000540: 8c23 c64a 515c b6bf 76b5 ddd9 db41 83bf
00000550: af37 0ca2 0708 bb3f 45cb 74ce 9e65 aebf
00000560: 1703 b99a 1a94 95bf b312 d917 aee8 b23f
00000570: 34ea af64 5e59 bb3f 0a43 d7a4 30af 863f
00000580: 4d74 12bb c2ed a23f db63 788a f7ee ab3f
00000590: 1663 39aa adad a23f 4483 21c8 79ae b0bf
000005a0: 9eaf 9c84 6ba2 b5bf e064 4171 7f60 b8bf
000005b0: b44b ea7b 437b 983f de24 d52e 4709 b1bf
000005c0: af5f f6ba b474 acbf ab7a af1b b513 bd3f
000005d0: eea6 a8d7 b368 b03f b932 1699 a7d6 a63f
000005e0: b5fa cea7 c904 b03f 3cf2 1ed6 f8e7 90bf
000005f0: 8c6d 3edb 8af8 90bf 42a4 bd13 61a1 b2bf
00000600: d656 f1c1 ec1d ac3f 3990 9a93 5d44 b23f
00000610: ebf3 f72f fc2d 933f 744f f3a3 0d55 a43f
00000620: 49f4 4f5e 2a2d b43f 8bf5 2364 6156 bdbf
00000630: 89a2 aaf2 bd77 c13f e21f 4827 be9a b2bf
00000640: 7163 d9c1 ef77 bdbf 1741 2e20 1565 ba3f
00000650: 99d2 0d6e 5c4d c33f faf0 92c9 a87d ad3f
00000660: 35f5 d98c 6d1b a53f 6233 f71e e905 b83f
00000670: e5f7 7fc6 8e95 983f 1072 6eb6 3e5d 85bf
00000680: 2322 5c98 d2f9 7dbf 60ff 6b3d d123 af3f
00000690: 1620 0974 e3aa 80bf 33dd 248a 9a15 b53f
000006a0: 1918 1c0b eb4a ad3f e533 1b10 3108 babf
000006b0: 865e e482 59d1 913f 4276 8790 49c5 6e3f
000006c0: 417d 72ef 3ba4 c03f 0bb5 81f1 bf7d a7bf
000006d0: e0fe 0e5b fd2d b03f 26d7 0bc6 d3c0 993f
000006e0: d5ff 2c41 7e92 9fbf ac32 7c42 7e65 88bf
000006f0: 07ca 0561 3514 993f d3b9 f4c9 eab8 c13f
00000700: 7ed8 088d baf8 b23f 9f72 bad9 7ada b63f
00000710: b887 721a d8c8 b3bf 5f02 b426 3b97 9d3f
00000720: efc4 4a80 94f4 923f 6ce8 f002 8a3a 9d3f
00000730: 9e7c aad7 cd95 853f f494 0eca 22bc b03f
00000740: 229d 73cd fa40 b0bf 249c 8f35 0e44 b4bf
00000750: 3228 276f 38c0 b63f 7e56 ae62 308f 833f
00000760: aec4 f02b 1b8f 973f 8aa9 afe6 4e11 9bbf
00000770: e9a0 9827 b6e6 a3bf cfe5 e1e3 04a4 b0bf
00000780: 10e2 3c04 7bf7 b53f 33df 1a87 55ea b33f
00000790: b4a3 9cdd ea42 bd3f 18bd 31c1 74cd a23f
000007a0: 52d9 0584 e43a c0bf 8f5b b05d 6d74 c2bf
000007b0: 6bdb db98 8d12 bd3f 5855 2b36 3d50 b13f
000007c0: 8763 2135 6a66 b83f 6aed 5c18 3123 b0bf
000007d0: fd42 73f6 1f28 81bf 2f6d fda0 45d1 b23f
000007e0: 70cb 8220 fc10 c0bf 2939 efe3 584e b2bf
000007f0: 88d6 bcfc 3948 c23f 23bb d883 5a66 bdbf
-0.05120727635699247 0.06448802221851062 -0.049929384712828234 0.016866864310546105 0.008950573844147287 -0.14802435780037682 -0.06960404050991055 -0.06213219861434639
0.052024923561494935 0.012829477024814658 0.09684766973997351 0.031180250910885606 0.1458653104925729 0.02914021834829948 -0.11087194313971052 -0.06327223888308862
-0.004134671035605264 -0.006815119091229983 -0.13249989665969228 0.005191618571414312 0.0936198922287857 0.004190661774761569 -0.07352397741100598 -0.08943440061966659
-0.05309332300525408 0.11329719871188168 0.030986766313957005 0.05648254432759465 0.09368076218333315 -0.020840788393174527 -0.07766306868248084 0.06569710640165481
-0.04875894054157211 0.10682638211867006 -0.08018014593147746 -0.00932099665992859 0.09766746428174398 -0.02145898594968886 -0.06209157166196562 0.06502894810792528
-0.03422462992491207 0.09458806459619085 -0.0633057806909086 0.061058940774682297 -0.09275213428632974 0.11066297885302714 -0.05224585015762797 -0.037198431524944515
0.06317813591137279 -0.06707369014734259 0.09871463238187157 -0.02741531691483786 -0.10759673412043073 -0.07263756747326576 0.0184005560556514 -0.1318595529598481
0.019412560560754074 0.017366484940315664 -0.001971471260521405 -0.08208130510074438 -0.0674349806657228 -0.14271344242770126 -0.12215637298898684 0.028032429286354212
-0.017172944109865248 -0.061342769160871675 0.046626065824177595 0.15193564743642332 0.018553144491901846 -0.07517674026136537 0.04243114842267071 0.062417693843567004
0.08352178528714717 0.08661489111810732 0.08780747140356593 -0.024272796646983362 0.08767086246073023 -0.09992361189580143 0.02595648425840256 -0.08973671973687718
0.09247878489722815 0.059236319007914325 -0.12248085604982888 0.002066280773083027 0.02237405482679031 -0.07591180281008479 0.07603178762001124 -0.12217379159884628
-0.00015540200838356233 0.07381768603162821 -0.041974537636937946 -0.05384567212841805 0.0312841739732752 0.09289866470485571 -0.0454890297708211 -0.056878328582709275
0.05007016902455548 -0.10194054930202957 -0.07983417695295109 0.10165830642866906 0.026378766374606122 0.016530646793821133 0.14259949036457614 0.036672836557654596
0.0545453753366821 0.01432336502283814 0.15040685915632848 0.02654509504324703 -0.09204632937137595 0.05016487773642142 -0.07312657104245054 -0.11186772151490405
-0.06987356305689228 -0.09515536834948021 -0.03553654204483966 0.13078591391426692 0.09098050124713454 -0.10718286255784022 0.07957346672247374 -0.08995630819363803
0.03220393039092584 -0.1354830805776223 0.08354613339967819 0.030006897558789304 0.0007329696775872818 -0.05968792219197848 -0.034045485627897366 -0.00040328284244370765
-0.08379811480593406 -0.03709106893436424 -0.024616562110276487 0.09045188917580814 -0.07899341892716266 0.028486243280845754 0.1242033441406963 -0.12830179000932096
0.047255400786479315 0.03264585279628836 0.021105030945020798 -0.08848771174491205 0.04760994618374865 -0.01588537095455063 0.036358475348485145 0.06491334114330487
-0.04904127902150356 -0.09488203243429426 -0.09931239703544896 -0.07144774975006438 0.0024131927184510888 -0.019773565622677385 -0.006479552597007472 -0.061535603399085224
-0.0003969342507392335 0.10239126847949903 -0.13094150467242552 -0.036333036093620284 0.07835238922696745 -0.038553518633307 -0.04254230730161679 0.08462318971518469
-0.06098981871177718 -0.08501028896367462 0.03818131218906774 -0.05158976743514157 0.04222496660450422 0.11170965581647435 0.10979978503293401 0.0025695819518989087
-0.08734615397965068 -0.009402959429020124 0.10559127527468946 -0.059369051649261574 -0.021072784131550195 0.0738629158232225 0.10683240850622938 0.011076335936111476
0.03697021993250669 0.054557548192128734 0.03648131087238064 -0.06516228805550123 -0.08450958240126602 -0.09522243990922474 0.023907713354286833 -0.06654782193540451
-0.05557789594894246 0.1135819618789166 0.06409763350589134 0.04460643523916503 0.06257305476081394 -0.016509903019811242 -0.016573114043791956 -0.072774951285866
0.05491580836739522 0.0713556752548933 0.018730106761711978 0.03971140505168949 0.07881417086169153 -0.11459931082568724 0.1364667353530147 -0.07267368754412432
-0.11511133654256668 0.10310489688550138 0.15079837201814852 0.057599329572868244 0.041224883502744815 0.09384018903729222 0.024008017411681144 -0.010431756918301921
-0.007318327557876122 0.06082013964441901 -0.00813844392645539 0.0823608958497644 0.05721220503441788 -0.10168749469012502 0.017400168050782948 0.003756183319849866
0.13001202766188594 -0.045881269675058865 0.06320174668416767 0.025149640047820963 -0.0308322646408213 -0.011912332920041756 0.024491151854315187 0.1384557233918274
0.07410779898859407 0.0892712384761105 -0.07728338857353279 0.028897213208440294 0.01851112397225035 0.028543621472842437 0.010539634842017084 0.0653707259467245
-0.06349151149662594 -0.07916344459191343 0.08887055123992196 0.009550455104356145 0.023006844098010397 -0.02643321307179173 -0.03886956437446704 -0.06500273288283796
0.08580750325644027 0.07779440449200763 0.11430232916303745 0.03672375543907885 -0.1267972607271966 -0.14417807650235345 0.11356434804825503 0.06763060162059753
0.09531272694711222 -0.06303698391723392 -0.008377313335957032 0.07350573711794504 -0.12551833713004212 -0.07150798382574365 0.14282917824464314 -0.1148430416003348

equations.x.layers.6.bias f8 [64]
00000000: 30c1 6f40 f0a0 b1bf b7ed 6110 460e aa3f
00000010: 5ee7 0a3b 39d9 9c3f 87a1 a811 e9fd 5d3f
00000020: 64b5 2968 a480 a8bf e842 aaf6 e02e a23f
00000030: a191 b237 bfd5 93bf 7a73 f939 a16a 90bf
00000040: a41d a2cc a862 b53f 31eb 5f78 3996 a83f
00000050: 9dc4 72af 7991 b6bf 5280 6cbc d7f3 ae3f
00000060: 6d1a 0a80 6671 bfbf ec33 0729 e24c b63f
00000070: dcea 6d10 e199 a63f 15e7 c323 6b4d a23f
00000080: dce8 d587 6d56 983f 278b ddce 7528 ad3f
00000090: cd99 78ed 69fc b03f fda9 f43b d2e0 b6bf
000000a0: 21a4 9642 d152 ba3f 9411 18d6 20df a0bf
000000b0: 209e 7ea9 3c4a 9f3f 0b86 1ad3 25f6 a23f
000000c0: 4259 056b 62a3 bcbf af76 30c5 8882 b4bf
000000d0: 3093 f289 190e b9bf 481f 2a9b 1415 b6bf
000000e0: 9d64 dfb0 b436 69bf 76ed d67e 9c75 b3bf
000000f0: 3942 2340 f532 b9bf 5232 c37c 3f9a b23f
00000100: 0158 af45 a318 b43f debd 5831 5938 aa3f
00000110: fade c4e1 8ba8 96bf e975 ea75 bc23 b1bf
00000120: 7c10 1d06 fbc9 bb3f 4992 3fff 19a7 aabf
00000130: ba00 ac6a 3727 b3bf bd8c 2b7a 49be 7b3f
00000140: c954 ca7e f4da acbf 36ab 0a24 e41d 4dbf
00000150: 1fe1 dbfe 4647 aa3f 703a b113 500a 91bf
00000160: 7a89 1eb5 390d b73f 6a40 70c3 9895 b03f
00000170: d582 227c de3f b73f bc99 be17 4caa a9bf
00000180: 0d2c 0ed7 8c52 b33f e2c1 ba64 d053 a13f
00000190: 3d6e bb08 9584 783f 9e6c e57c 849b 9fbf
000001a0: 52fe 2397 8f87 a03f e785 a99d 969d 70bf
000001b0: 3554 48cd 64ec 7f3f 21a9 0c6c c864 973f
000001c0: 5923 80c4 d911 84bf 1f40 14e1 bf56 923f
000001d0: 018d 679b 9319 a1bf 7c37 f133 c303 943f
000001e0: e224 8270 0770 89bf 41c7 def5 9081 be3f
000001f0: e7b7 f599 5b2d b2bf f505 559f d13c 84bf
-0.06886197636754754 0.05089014959318255 0.0281723921095599 0.0018305564941646106 -0.04785646220703191 0.03551390658424741 -0.01937006738138936 -0.01603176037166374
0.08353667255334202 0.048021121925521 -0.08815727742582387 0.060454122305828265 -0.12282410264934081 0.08711064817107655 0.044142754798448286 0.035746906391024215
0.023767196098085516 0.056949311735272005 0.06635152862199974 -0.08936799968493143 0.10282619357771285 -0.03295233357860919 0.0305566290332121 0.03703420831631029
-0.11186804879011894 -0.08011679472152865 -0.0978713952814132 -0.08625916279026768 -0.003077843582087582 -0.07601335617703406 -0.09843380752432375 0.0726661376567759
0.07850094271938703 0.05121115424514831 -0.022127328543517934 -0.06695154074483124 0.1085507287908189 -0.052056133659594446 -0.07481714586538404 0.00677326871911815
-0.05635799453481522 -0.0008885730713549037 0.0513250528437672 -0.01664090271179436 0.09004555389268445 0.06478266498038612 0.09081831484446508 -0.05012738981104145
0.07547836542487137 0.033842575355609986 0.005985815205089615 -0.03086668979936446 0.03228424758890171 -0.0040565379555075115 0.007793802029955767 0.02284539374810735
-0.009799672421665727 0.017909048187959905 -0.033398258896136575 0.019545602841666718 -0.012420709725363858 0.11916452410403357 -0.0710046053770551 -0.009881627726488576
