simple-pendulum-system/2025-05-30_22-34-31/model_best.pt (torch, 277858 bytes, 24 tensors)

equations.x.layers.0.weight f8 [64, 1]
-0.4107597007068568 0.853152375855584 -0.3305846296667346 -0.45499490725258285 0.7354107463217496 -0.07176903940371201 0.46875293996376105 -0.7400347944845507
0.5325967912778063 0.4052392389248303 -0.10274456558697986 -0.1276808235280161 -0.49399435129911606 0.482579712526995 -0.38078457608124566 -0.5325845037480463
-0.07657361293010885 0.16349966836315752 -0.573105745816072 -0.46055580033070564 0.6845218502989942 -0.05224957968177145 -0.5314256266723228 -0.28554139660964606
-0.040624921464950774 0.10909621197582209 0.13365770532992255 -0.3079507080929619 0.6488259362102545 0.7023629132204464 0.0314098270471559 -0.4293036325623153
0.16935939383300766 0.219794064018848 0.5281080133811537 0.09398015315727247 0.16277999756750822 -0.1781714784899273 0.4200891558258051 -0.436208954409504
0.23341796955494684 -0.40210002616574675 0.3722486480540061 0.14973766555536797 -0.5601232588365874 -0.6641708601356481 -0.5106802608470787 0.32483217458125985
-0.47425111856477287 -0.10645332274181542 0.3170388643100055 0.7933180054910282 -0.188575468956319 0.6191413337207817 0.47440198690738933 0.5026591963221565
-0.5054352892114551 0.2888161821809562 -0.4354677460194263 -0.7069280646150028 -0.5212611577678534 0.19105475912878758 -0.44120604005939656 0.5446515314752549
00000000: a33e 430e e349 dabf ebbd 1936 064d eb3f
00000010: 3da6 3e6f 4c28 d5bf f6c4 9ff5 a21e ddbf
00000020: 1486 121e 7c88 e73f feb1 1aad 745f b2bf
00000030: cb15 c354 0c00 de3f c0d2 0673 5dae e7bf
00000040: 55c4 0f6d 080b e13f a53c 8f8f 70ef d93f
00000050: a0ad 09c5 774d babf db88 b060 d857 c0bf
00000060: 9442 cf7b 9a9d dfbf bf0e c104 96e2 de3f
00000070: 69c5 4545 c65e d8bf 3489 3ea8 ee0a e1bf
00000080: 2d79 450b 549a b3bf df67 43a0 8eed c43f
00000090: 40c0 6ddc e156 e2bf bad2 1909 bf79 ddbf
000000a0: 91cf 0d5e 9ae7 e53f 5e08 edf7 74c0 aabf
000000b0: bb0b da50 7001 e1bf 14ed 056c 4f46 d2bf
000000c0: 7f66 302a cacc a4bf 50bb 8db6 baed bb3f
000000d0: d60d a018 b21b c13f 1e84 02e3 76b5 d3bf
000000e0: 5f3a 1a9c 2ec3 e43f 3590 c6c9 c179 e63f
000000f0: e18f e1e7 f214 a03f 6e2f 7af1 b579 dbbf
00000100: 533e e490 91ad c53f d66e 683e 3622 cc3f
00000110: 6148 c7c6 42e6 e03f 2797 4854 150f b83f
00000120: 8269 ff96 f9d5 c43f b7db 98b0 52ce c6bf
00000130: e844 6ba0 bde2 da3f b050 5af6 d8ea dbbf
00000140: a3c3 c4d8 a3e0 cd3f 6f91 86bf 01bc d9bf
00000150: a3d1 57fe ebd2 d73f 9914 4594 9a2a c33f
00000160: a6d3 cd9c 87ec e1bf 3da4 673f e340 e5bf
00000170: 67a1 6121 7e57 e0bf f7f6 a0e3 0cca d43f
00000180: 80ef 145d 215a debf 7104 ba63 8640 bbbf
00000190: e86f 7160 5d4a d43f 672e 1d71 dc62 e93f
000001a0: 7664 ffaf 3d23 c8bf b1d7 7d7c 01d0 e33f
000001b0: 962d bb26 9a5c de3f 0298 27bd c815 e03f
000001c0: 400a ada0 862c e0bf 4f75 41de f67b d23f
000001d0: f870 e71b b4de dbbf 21ac c49a 279f e6bf
000001e0: 8437 29e1 2bae e0bf bd05 1a7b 7b74 c83f
000001f0: da93 3642 b83c dcbf 90e1 6c0c c96d e13f

equations.x.layers.0.bias f8 [64]
-0.3245996209908179 -1.4859060139893738 1.025923751519693 1.058772632589097 -1.1277917614704205 -0.6356237781547476 -0.31418346445007006 0.15853645481769194
0.570614594377335 0.7266936076660375 0.24012147820304386 0.18462159499035782 -0.5103412996253331 0.46252152705312866 -0.6949535967749351 -0.5527902841438043
0.03405088505013498 0.6502879417270245 -0.5328958228139992 -0.2633450157056996 -0.018052339317245328 0.699099655389276 1.011720316391789 0.2229180145969433
-0.4671074571172043 -0.8463216018978397 -0.18581966752757223 0.16547009248618466 0.21977839226569953 0.21778986621672222 -0.7463822822324484 0.3148960831213475
0.14305394948655176 -0.7981404192248075 -0.07621159935720749 -0.2061430653956985 -0.06743540164117891 0.11272194163246946 0.4554250638557424 1.168894197458693
-0.48605007866264577 -0.14775662945701806 -0.45099555618422943 0.9165973245707715 1.0059645322656774 0.9919051934042729 0.5584129890226981 -0.6998819062087128
0.2963206703583259 0.16322739236673361 -1.0989658092074328 -1.158007955768341 0.01727687420268866 0.19042634988099438 0.2750697395797029 0.5079227699401002
1.344933828666193 -0.3976425329399004 1.1495717928046718 -0.5761394205889041 -0.9009968184796665 0.565808926979667 1.092694450941302 -0.4654004507250324
00000000: 8fc5 1c7d 3dc6 d4bf ab39 7062 45c6 f7bf
00000010: a777 0f06 2f6a f03f 80eb 6d92 bbf0 f03f
00000020: 456b c35f 6f0b f2bf d881 77ad 0757 e4bf
00000030: 2c73 30f6 941b d4bf e737 552c ec4a c43f
00000040: 1912 af89 7942 e23f 9069 e4f3 1241 e73f
00000050: 0881 f9f3 4cbc ce3f 9139 4f30 aea1 c73f
00000060: d20b f646 b754 e0bf 1ce8 18e4 f399 dd3f
00000070: 6f59 4c53 0f3d e6bf c736 fe3f 75b0 e1bf
00000080: f05f 611b 1e6f a13f 556c 56a8 28cf e43f
00000090: 0928 658a 7b0d e1bf 4951 810d a5da d0bf
000000a0: f479 effb 4f7c 92bf 8356 913d 065f e63f
000000b0: c59f 79a4 0130 f03f 250a 31d7 9388 cc3f
000000c0: b54f 02ad 16e5 ddbf f095 410a 1115 ebbf
000000d0: 9e04 7e59 f0c8 c7bf 76dd d8bd 1f2e c53f
000000e0: 9906 93c7 b221 cc3f 6388 66d0 89e0 cb3f
000000f0: 1612 9018 5de2 e7bf 8542 a9e6 4127 d43f
00000100: 42df 4d81 974f c23f fdf5 c5c6 5d8a e9bf
00000110: d3a7 d076 9a82 b3bf bcfa 155e e562 cabf
00000120: 9138 a44c 7243 b1bf 4463 da5c 58db bc3f
00000130: 0781 c22a af25 dd3f a91b e966 cab3 f23f
00000140: 2fc1 04ca 711b dfbf 987d a471 b0e9 c2bf
00000150: 55f7 1c77 1cdd dcbf f03d 94e9 c354 ed3f
00000160: b845 f043 6e18 f03f ceec ccf5 afbd ef3f
00000170: 7873 b0ea 84de e13f 5f50 47bd 6e65 e6bf
00000180: f056 14f9 eaf6 d23f ba63 039c a2e4 c43f
00000190: 567d 1f2c 5d95 f1bf 8286 a859 3387 f2bf
000001a0: e5ea b566 07b1 913f 108c 8400 e45f c83f
000001b0: c54c e71b be9a d13f b32a b940 e740 e03f
000001c0: 617c 9655 d984 f53f 2e6e 9eaa f972 d9bf
000001d0: a100 6864 a564 f23f 14b4 2bf0 bb6f e2bf
000001e0: 6972 a547 f7d4 ecbf 6133 a552 1b1b e23f
000001f0: 6004 352d ad7b f13f 5317 daf8 1ec9 ddbf

equations.x.layers.2.weight f8 [64, 64]
0.100563845571346 0.019618045487140533 -0.024006466414613962 -0.06920014357982315 -0.06851974620176213 -0.12351999579018223 0.03526082240000153 0.10538039332801405
0.03943214910396875 -0.00954295957708524 -0.0915877200714824 -0.026592053814125664 -0.015866416755100702 0.018005223129715708 0.11034147743587631 0.00330265532233322
-0.08436016080829678 0.007835829530667355 -0.11186674244055003 -0.1214534471534816 -0.04209856746915802 0.08751724720575653 0.11611539692759197 0.11635515921717457
0.02460166054715087 0.14725444143581753 -0.055645026806803395 -0.029419964634895785 -0.08277028599035628 0.06536619913764234 -0.0821875663833949 0.0019903474916308133
0.10505741960864669 -0.09559545248741033 -0.06906709791517819 0.1659113442047884 -0.07918598305330271 -0.08287996775267087 0.005851555336673595 0.11814921440094614
-0.006918238443502598 0.08829698928676756 -0.07610332111913636 0.11804004895928154 0.01034942019702566 0.0986874725680922 0.06880718483962647 -0.11097689261037935
-0.062198566612449734 -0.032797773785769604 -0.03240266514977005 0.08437369273026023 -0.125780553299856 -0.08613326256420732 0.0448677121260129 -0.03144583432306033
0.033235261398855305 0.0006890248428046364 -0.0024935147964417776 -0.0960608331124934 0.0023501373898141874 0.05721294320806535 -0.04909528783434916 0.10565326643258917
-0.05057001367903786 0.10188405763961753 -0.0503188765845539 -0.08863058217746451 -0.06838055615484769 0.053079000393867225 0.09461979159842908 0.11527946146829923
0.11012687518381528 -0.03031526213686688 0.010546668504492545 -0.10111799278355678 0.041418028855511026 -0.0198927776357877 0.12076291566221141 -0.06176108124660814
0.09893699756340985 0.12073798053806013 -0.10760845195407878 -0.1155551343178985 -0.09230118398640735 0.09986237201035839 0.027083016622383143 0.10170798714552277
0.006089415693913149 -0.043776631242467466 -0.030631946002436804 0.06422296967088012 0.05219119588090677 0.02834779944053677 -0.08023254476649078 0.09417092479843572
-0.0006971352616298577 0.10697665710970398 -0.001945675092660983 -0.10519090191248015 0.10691567221395629 -0.10691911783839632 -0.02821921672324831 0.06610705500443603
-0.05178724624760006 -0.0205825105688175 0.00537249556943951 -0.04709473334143327 0.026042007246369122 -0.08098860835005377 0.05408907125117045 0.07473674290697738
-0.07492532969105466 -0.08975287487218024 0.018202494004798692 0.11626261670613539 -0.0635159325422159 -0.0823173877605942 0.014552497193145946 -0.09008989402751115
-0.09549893458284962 0.11820324940923596 -0.1223509248583109 -0.1079296406451337 0.003875645734723822 -0.038025472872854044 -0.03507145541267793 -0.0015389862848671704
-0.12462272473216755 -0.005146272480623652 -0.08963520616409941 -0.05164137787206999 0.03189252350546005 -0.0982118629046776 0.0036503882378801965 -0.00541529737733639
-0.06925359223073392 0.08387283585988671 0.036854562233225086 -0.09732541141627314 0.031950648759088075 0.04204372969195302 -0.03086210931380458 0.0718103624791298
-0.06579179394306488 -0.03251127202954113 0.08797104938094846 -0.006009040794486258 -0.001629387819173598 -0.10044805782375439 -0.063931246023795 0.10135709401503301
0.05176161406813066 0.1971726755285784 -0.14089573939291797 -0.10405552477688713 -0.12617091118882506 0.1192438015198201 -0.1001589968574355 0.024430324138610557
-0.11123290238032188 -0.123523742509744 -0.0812768741356302 0.08283799558417797 -0.1023279747605768 -0.039508647344314904 -0.1128009388613566 -0.07860513656845823
-0.06163769703601491 -0.03546295384662461 -0.05878657007971946 -0.04018714308590926 -0.05985180639543359 0.07799821524472073 -0.07369296356965772 0.02340190528681315
-0.10987886332257997 0.1193182686144061 -0.003133500384961263 -0.09099079555381864 -0.05566320530901222 0.017189333592565286 -0.0320065852953484 0.059048194044608135
-0.10596256156297375 -0.11423094834276658 -0.07415275847304853 -0.1134664567035101 0.05558906634430368 -0.008590039450738742 -0.10458623537300893 -0.005968205818239269
0.0852102885186857 -0.09846270468539287 0.09021576376755988 0.07253325439967237 0.1401791952455367 0.04234869838231012 -0.03562173075280462 0.016430474144051792
0.02879195586277764 0.13146214127214956 -0.06829488098074821 -0.10765805489084583 -0.0937086920150897 -0.024053907603195278 0.059372120718431926 -0.06373083636979782
0.11331120280769381 0.02713740424568066 -0.08916650041981626 0.0050153001675501884 0.08184438939889846 0.004218130131721044 0.052050105755355625 0.004850162632501865
-0.11652368840642156 0.11639966162501078 -0.08057380021562222 0.08965539637090995 -0.05923266830580041 -0.04926809136865677 -0.0157931851535387 0.06766128630093562
-0.11515891329915014 -0.17758644369442708 0.13198040358344854 -0.11872165438099666 -0.11562644071795045 -0.07928076493910818 -0.02540841630368304 -0.0942403923036786
-0.14403424188744557 0.005841673736984112 -0.07346965574803775 0.11481063558522443 0.04753857212856671 -0.1353523165630917 -0.1182232744969568 0.018861809947573787
0.026678987145628285 0.013831472822650574 -0.05688872585796102 0.10708423822306286 0.01600207320370184 0.036428910335941006 0.08236395316455783 -0.07208061264145706
-0.11667032684101145 -0.08918381588481403 0.02234645134613539 0.037110540697477455 -0.022504749296652277 0.026655869874042698 -0.05611353110732967 0.10491949758175989
00000000: 9f90 e35b 8dbe b93f e365 1dbf c016 943f
00000010: 71ba 92b0 2695 98bf c6c8 8dc1 19b7 b1bf
00000020: 0e19 1195 828a b1bf df25 52a6 019f bfbf
00000030: 047e 13de b40d a23f 86c2 fb9e 35fa ba3f
00000040: 7005 a05d 7330 a43f 6536 535a 428b 83bf
00000050: 9716 6cf6 4a72 b7bf 214e dc85 f23a 9bbf
00000060: 217e 4534 493f 90bf 934b ff11 f66f 923f
00000070: a9ba facc 563f bc3f 2622 2e93 2b0e 6b3f
00000080: 88c6 c1a3 a098 b5bf 1dea 913c 3b0c 803f
00000090: c6ce 4a80 4ca3 bcbf 1fbb 82b7 9217 bfbf
000000a0: 781a fa84 f18d a5bf 0bad 95c2 8767 b63f
000000b0: 87b6 5d18 bdb9 bd3f e202 8fa3 73c9 bd3f
000000c0: 06c3 e87d 2d31 993f b32b 14c9 3bd9 c23f
000000d0: a1f9 a344 817d acbf 754e d367 4420 9ebf
000000e0: dfbd 68f7 6e30 b5bf fb5b 8fd7 d6bb b03f
000000f0: 9327 c18d 3e0a b5bf aa9c 4bac 0f4e 603f
00000100: 71d9 6b05 0be5 ba3f 726a 148e f178 b8bf
00000110: 617b c69e 61ae b1bf 398e b23a 953c c53f
00000120: c8fa 8357 8845 b4bf f4c2 fd1e 9f37 b5bf
00000130: 0af5 d3ec ccf7 773f 9e70 e6e3 063f be3f
00000140: 8aba c57d 4c56 7cbf f169 52a9 a19a b63f
00000150: 7bdc 52db 817b b3bf 77fa e565 df37 be3f
00000160: b9f4 3aaa 1332 853f 4171 340b 9543 b93f
00000170: aab3 9d00 599d b13f 808f 5f4c fb68 bcbf
00000180: f3c6 ea92 7dd8 afbf ba3d 95ab deca a0bf
00000190: 6b35 3e06 1597 a0bf 0b52 ebaa 8399 b53f
000001a0: 32a5 72c1 9319 c0bf 13a1 cf59 d40c b6bf
000001b0: cc83 7498 e6f8 a63f 1ba5 061c ab19 a0bf
000001c0: b96e 9051 3604 a13f cdbf 3e95 f593 463f
000001d0: 0404 1790 476d 64bf 4b09 a558 7197 b8bf
000001e0: 4a19 5f67 9840 633f 8f1c f9cf 034b ad3f
000001f0: c4c0 457f 0423 a9bf c525 0bac 170c bb3f
00000200: 79c9 d115 50e4 a9bf 7ac2 8bd7 1215 ba3f
00000210: 5daf 9a52 65c3 a9bf b5ad e06b 7eb0 b6bf
00000220: 750b 5e5c 6381 b1bf 5b91 97b5 2b2d ab3f
00000230: f336 78ae 0039 b83f 7e26 e86c f482 bd3f
00000240: ba3d 535f 4631 bc3f 2640 cacd f60a 9fbf
00000250: 63e8 77e2 7d99 853f ede3 0a68 dee2 b9bf
00000260: 7d64 cc6e be34 a53f 683e 7db5 c55e 94bf
00000270: dfbb 5685 51ea be3f eb53 3d00 269f afbf
00000280: 0437 e660 ef53 b93f 1dca cb2d afe8 be3f
00000290: 127c ea3d 3a8c bbbf 35bf c772 0595 bdbf
000002a0: fc8b 9ae6 0ca1 b7bf 7eae e295 9490 b93f
000002b0: 6b3e ae7a a6bb 9b3f b931 88de 8809 ba3f
000002c0: 4f1b 1d14 37f1 783f 03e9 07ff e369 a6bf
000002d0: e357 2c19 fb5d 9fbf 2670 63a2 ea70 b03f
000002e0: 092f e5ee cdb8 aa3f bded 0a9e 3407 9d3f
000002f0: a8d0 d8bb 1e8a b4bf a24c 3ef2 951b b83f
00000300: 7cb8 2593 fed7 46bf c3b9 b87b d262 bb3f
00000310: 3c50 10b9 c0e0 5fbf 4004 8d7b caed babf
00000320: 7abb 9653 d35e bb3f 7dde 6e22 0d5f bbbf
00000330: 17c5 c793 7fe5 9cbf b067 4757 64ec b03f
00000340: 7878 f7a1 db83 aabf f2f2 0ce7 9413 95bf
00000350: 6b61 4c4c 7801 763f f8d4 0707 cd1c a8bf
00000360: ef09 c885 c1aa 9a3f d347 3660 abbb b4bf
00000370: 6e88 3010 90b1 ab3f be53 987a f221 b33f
00000380: d543 aa70 4e2e b3bf 5b49 4c5e 0bfa b6bf
00000390: 4532 d3b1 aca3 923f 620f 8008 63c3 bd3f
000003a0: d133 0b85 9442 b0bf 4beb 5298 c012 b5bf
000003b0: 2355 281c b3cd 8d3f 2b5b 8c9c 2110 b7bf
000003c0: 0f10 d640 9e72 b8bf 8e5c 7e72 9142 be3f
000003d0: 48dc e6e4 6352 bfbf 7b02 d7e4 46a1 bbbf
000003e0: 8404 cf75 d1bf 6f3f 8cc4 ce24 1378 a3bf
000003f0: a988 0ac4 e2f4 a1bf 5fc0 ccf0 f936 59bf
00000400: 5b25 105f 46e7 bfbf b863 0200 4214 75bf
00000410: bb86 0b37 55f2 b6bf 2c6e 291a bd70 aabf
00000420: d5be e282 3754 a03f 443c 41a3 6924 b9bf
00000430: ca45 2e43 6be7 6d3f 97f0 23d2 592e 76bf
00000440: 19f3 c279 9aba b1bf 497e 0aaf b078 b53f
00000450: e80c 00e7 99de a23f 7f46 1a73 51ea b8bf
00000460: 5535 03df d55b a03f 2fbf 0e78 c186 a53f
00000470: 75e3 c018 519a 9fbf d39c 5cf6 2962 b23f
00000480: 77a4 5423 bbd7 b0bf c889 3c44 51a5 a0bf
00000490: 7002 164c 4585 b63f 6c16 159b ef9c 78bf
000004a0: f7a0 55d9 25b2 5abf e5bb 4cc3 f6b6 b9bf
000004b0: eb5e dd52 cc5d b0bf 301d 03dc 89f2 b93f
000004c0: 15ba 388f 7f80 aa3f 2bb0 8748 f43c c93f
000004d0: 1f4e 6b20 df08 c2bf 6585 e203 62a3 babf
000004e0: 649a a150 5e26 c0bf 7341 c703 c386 be3f
000004f0: 5321 e71f 05a4 b9bf bcf4 d24c 4304 993f
00000500: c66f f66d c279 bcbf 43df 5b82 409f bfbf
00000510: 6e69 55ac 8fce b4bf eb75 e6f1 de34 b53f
00000520: f305 1089 2a32 babf 1e8d 8138 7a3a a4bf
00000530: 7b1c 5eb7 85e0 bcbf b7f0 db5a 771f b4bf
00000540: 89dd f0e9 f98e afbf 764b fb45 3328 a2bf
00000550: c470 dff7 4519 aebf 381c 8cc2 6893 a4bf
00000560: b95a 265e e5a4 aebf 8058 9fe7 b0f7 b33f
00000570: a11c 7ac4 8add b2bf d6da 7b47 abf6 973f
00000580: 8dfc 7d6c 0521 bcbf c1a3 835d a48b be3f
00000590: b3f9 9c35 6dab 69bf 2a03 243b 2c4b b7bf
000005a0: 5b15 c93c e37f acbf 0bfc 7aa6 149a 913f
000005b0: a247 33ca 2a63 a0bf be70 9e9c 903b ae3f
000005c0: 7d6b 83c8 5c20 bbbf 5fc0 524b 3d3e bdbf
000005d0: 3cc8 8cd8 acfb b2bf 2a0d bc40 230c bdbf
000005e0: fb8b ed8b 2b76 ac3f 6e22 1994 a797 81bf
000005f0: e0f0 89dc 29c6 babf ccd4 e10c 1e72 78bf
00000600: 5671 786a 57d0 b53f 28dd 7f10 da34 b9bf
00000610: f61f f75a 6118 b73f dedf 8413 8a91 b23f
00000620: f95f 9451 64f1 c13f ac0e 2985 baae a53f
00000630: e16d 38f1 023d a2bf 0e08 6d74 26d3 903f
00000640: 4926 4673 a37b 9d3f a287 b65e c0d3 c03f
00000650: 20e9 4bf8 c57b b1bf 5b3b e870 7a8f bbbf
00000660: 6945 8ef7 4afd b7bf a6a6 fc69 96a1 98bf
00000670: c445 8fc9 0566 ae3f 787b f401 aa50 b0bf
00000680: 0958 5486 f601 bd3f 7c22 ef5e e8c9 9b3f
00000690: 7bae 33a3 9dd3 b6bf 3722 3063 ec8a 743f
000006a0: ce50 d4ff c0f3 b43f 28cb 74af 0747 713f
000006b0: d0f7 f1bb 4fa6 aa3f b4a5 309e c3dd 733f
000006c0: 3f35 ea16 7fd4 bdbf 26e4 f143 5ecc bd3f
000006d0: 502d d70c 7ca0 b4bf 83ae 52f3 a7f3 b63f
000006e0: 5dda 748a be53 aebf 4656 54d2 aa39 a9bf
000006f0: 89bd efb6 162c 90bf e228 de03 4052 b13f
00000700: bd76 76f6 0d7b bdbf 8bb4 f00f 27bb c6bf
00000710: 1449 8dde bbe4 c03f 96b5 e4d6 8a64 bebf
00000720: 26bd 6fc5 b199 bdbf 7886 9d84 be4b b4bf
00000730: 5817 45f4 a904 9abf 0511 e86a 2320 b8bf
00000740: de92 34cb b66f c2bf a9cd 775a 70ed 773f
00000750: d7aa af48 e8ce b2bf a94e 12d5 3a64 bd3f
00000760: 4f74 2ec9 f956 a83f cac4 8986 3953 c1bf
00000770: 6828 9769 e143 bebf 9b08 79a3 8250 933f
00000780: 739e 1f85 bc51 9b3f 222d 6edb ac53 8c3f
00000790: f260 24e2 8420 adbf f5ca 1565 df69 bb3f
000007a0: c0f8 4ff4 d862 903f 2427 0b65 cfa6 a23f
000007b0: 7a07 36d5 cd15 b53f f17f f801 e073 b2bf
000007c0: 521e 3246 1bde bdbf 76c9 8e24 c0d4 b6bf
000007d0: 116d daf6 fce1 963f a3dc 431d 2700 a33f
000007e0: 6869 ef28 7c0b 97bf c8f9 6b25 ad4b 9b3f
000007f0: 9428 f0a9 e9ba acbf 988f d312 01dc ba3f

equations.x.layers.2.bias f8 [64]
-0.008946732791869987 0.09291403326512858 0.11385322496776304 -0.0995340969290097 -0.08705590471031535 0.0878407976876396 0.11346745704494014 0.11265130498468012
0.07977772827367995 -0.028455846647356894 -0.025874879348408743 0.07660564934911342 -0.04156026233009223 -0.00224888460277659 -0.024959562978497437 0.1084839421391858
-0.03474648856703981 -0.09865698206214071 -0.10482157810006733 0.0192067771030113 0.0042410377647382905 -0.06936693630322574 0.08222206298694 0.10263114128290689
-0.11486508468204835 -0.1188235378228335 0.035344583794991294 -0.08744201773762764 0.03564748898294339 -0.07346655799977782 -0.0948784845817504 -0.05605710910032438
0.11675644405921624 0.11782599087855898 -0.09767709853884053 -0.03060615212272356 0.02793672817221251 -0.07933157083031857 0.12463020579298804 -0.10034277076588216
0.0019364877598745283 0.08364823659082818 -0.0075971909568732215 0.00862047229975202 -0.11259883438646641 0.07478256358114606 -0.12079734384283447 -0.011885381817195334
0.11635923765003542 0.04183367850313106 0.02975790503079966 5.56049421916657e-05 -0.02013849978170307 0.011884645872871268 0.08763298631042633 0.10144980541018908
-0.02358985661168897 -0.09575378076474556 0.09630047136308367 -0.041800510317828096 0.08762556333322191 0.04399147801066166 0.07297528748424947 0.10764497824762351
00000000: 8920 fa25 aa52 82bf 2f93 36ce 36c9 b73f
00000010: 2eda c725 7c25 bd3f 2fa1 250b 117b b9bf
00000020: 1a8d a7b7 4b49 b6bf cdad 5209 bc7c b63f
00000030: e315 2b09 340c bd3f d8cb c246 b7d6 bc3f
00000040: 1b77 e22d 506c b43f 1feb eb8a 8723 9dbf
00000050: 8a81 5bc2 f17e 9abf 61ae a486 6d9c b33f
00000060: eeb6 0aff 6247 a5bf cbef 48ba 406c 62bf
00000070: df42 dcea ff8e 99bf 7a03 a187 9ac5 bb3f
00000080: 36b1 17b0 4aca a1bf aa9c 7a7f 9541 b9bf
00000090: a9da da41 96d5 babf 7773 13fe f0aa 933f
000000a0: 91ab 02e8 0c5f 713f 0698 d812 08c2 b1bf
000000b0: 07df 894f 810c b53f 437a 5cd3 0846 ba3f
000000c0: 1763 2956 cc67 bdbf d0af f128 386b bebf
000000d0: 02fe fa6e af18 a23f 82b7 7a9e 9962 b6bf
000000e0: b786 bb3e 6340 a23f 856f f54f b4ce b2bf
000000f0: 8766 5fd4 f449 b8bf 04a1 9674 84b3 acbf
00000100: e7e2 d414 c0e3 bd3f 5b34 7119 d829 be3f
00000110: 97e0 cac7 5d01 b9bf a3a9 b119 3857 9fbf
00000120: c675 6d17 729b 9c3f adab 41e6 124f b4bf
00000130: 9381 f9e1 c3e7 bf3f 6059 d456 10b0 b9bf
00000140: cfc9 41e6 37ba 5f3f ce92 8688 f869 b53f
00000150: be44 386b 3b1e 7fbf 71fc d334 9ca7 813f
00000160: a5f1 41f7 46d3 bcbf 3d5e e438 f324 b33f
00000170: f0a6 3f21 93ec bebf 7d82 a4f1 5c57 88bf
00000180: 685d 4b10 b8c9 bd3f c5ab 1552 396b a53f
00000190: fd78 9e33 db78 9e3f fc2b 0344 2b27 0d3f
000001a0: b1c9 cfd7 2f9f 94bf acc6 c92a fa56 883f
000001b0: 7d0c 418a 1d6f b63f 8e1d 6c4c 9df8 b93f
000001c0: 787b a87a f027 98bf 045a dadc 5183 b8bf
000001d0: 2c05 18cf 25a7 b83f 66d8 8a61 e066 a5bf
000001e0: c04c cf00 a16e b63f a78c b70e 0d86 a63f
000001f0: 8c3a 2929 82ae b23f e6f4 260d 9f8e bb3f

equations.x.layers.4.weight f8 [64, 64]
0.06016186484329765 0.026661174557221418 -0.08671857646937348 0.13553421587610034 -0.08562960192136311 0.008044095925546977 0.11458139688895126 -0.08502492306556345
0.006856247986555214 -0.03192538779856051 0.09086877813320096 0.0164251401355508 -0.12941491267556307 -0.048820055010048234 0.07656413446747813 0.046113004474528624
0.09252270496344196 -0.00869714071964515 0.09828312731170337 0.14248272791822006 0.04623816613914125 -0.016027969545642888 0.06758887460806715 -0.08368596033055087
-0.11210213744518152 -0.04976796581734053 -0.0951354109236827 0.031668458560854554 0.05332119916744207 0.12370871604392789 0.035339275163298975 0.10963398709773726
-0.11704192826310496 0.09520571013420348 -0.02139318987165047 0.08372070150353647 0.04778112514599414 -0.020292922148485246 0.05294340033630218 0.027254962289483004
-0.005103877310644487 -0.10897600505108096 -0.06410418063777024 -0.016304173020888355 -0.11548819046961332 0.05598562391262716 0.07824776592381438 -0.1193877518979714
-0.07604889755319859 -0.04716224800367124 0.1215978922408643 -0.07072820817182617 -0.07819441171650332 -0.12530766101533933 0.11220654018987887 0.08982203625281622
-0.03370921693973614 0.0991207787598615 -0.09074692788436492 -0.042575141880033286 -0.1059324218213318 0.004348435621419323 -0.08955447671793244 -0.06624231325855712
-0.18291558935030355 0.14741435236931588 -0.05034370350010157 -0.1178297989059998 -0.0764622065632018 -0.06916846251414475 -0.11008112847540838 0.045508379701983896
-0.03489420311205904 0.08227999715570267 -0.010320169336938606 -0.15987431559821008 0.12019509442686775 0.025566589498873728 0.16482861870581758 0.07918465837629439
0.04110765873478992 0.006888116071811422 -0.13026552365953828 -0.030660741200964948 0.00726739400489185 -0.012578394724486476 -0.0246002026739256 -0.1259653696444537
-0.02446165210228052 -0.1283258216302932 0.05670082899372717 0.1196684544882905 0.004454348925752667 0.058767586571195865 -0.04425496443466838 0.12314838027374138
0.0994828579248073 -0.12038078865178889 -0.05746034851379665 0.025805405788806645 -0.007783322083139188 0.04050330617468926 0.043207840837246624 -0.02231281382730755
0.05782359987440458 -0.09960751967413121 -0.06732009542216953 0.0015278530720729481 0.10232019661564486 -0.07276783443534302 -0.08335199599107074 0.08882049240556343
-0.09327948078224131 -0.06094640717072625 -0.05101302928924409 -0.052807807734845946 -0.08860873757062755 0.11551046975760432 -0.0352448200321792 -0.01865097474777076
-0.02304775028715683 -0.0519916885645459 -0.01785937321009035 -0.04125584033031882 -0.08522864264999717 -0.02903046976445791 0.09264219189128296 -0.05184035360164903
-0.06396257152518293 0.09315315984926581 0.036819696336324405 0.06011255531756652 0.07741499505861782 0.12249877938636507 -0.027049720413596615 -0.05567295834697701
-0.06268825529390624 0.054442888870692915 -0.02371987818101782 -0.055755907689494226 -0.05122626149091398 0.05512272414293245 0.04013396938444622 -0.023814379854096564
0.0910108659993882 -0.10058961893401859 0.05443551735702024 0.0901757199320137 -0.04044582189785529 -0.09887236862082527 -0.0686859108227248 0.027038271720381837
0.030695468032631165 -0.06633195865606217 -0.04555714121589336 -0.09980543671979067 0.022884709562271375 0.07270033700920811 -0.01925401825697359 -0.07761265027555825
-0.038354527339723235 -0.10521975612495096 -0.044628209998861905 0.0724697237957621 -0.2563744788484213 0.07917245267415696 0.09499764806671113 -0.036651000162651
0.02355806291293302 -0.04483300857940256 0.10848546363257164 -0.03372631859256268 -0.05678903000382428 -0.042276808651922244 -0.021933488558846807 0.1032709698161076
0.07168539731430477 -0.0032624244176121435 0.1158854913243616 0.05476201349622688 0.10535864332562553 -0.05492871933968953 -0.023558710120777395 -0.08937768147992609
0.1129247404189854 0.1101162519931899 0.027514164282563643 -0.04550465781726177 -0.05426759291269232 -0.06287356654179682 0.09213020753396581 -0.05623958618994898
0.005972325098295414 -0.09010219055844124 -0.021179016319574945 -0.0016750815669670431 -0.019143632808651136 0.05133091087014314 -0.08037694373921855 -0.037344926685204984
0.062422254776727394 0.03142708346292433 -0.09439952392130939 -0.009599763483316273 0.08352798272954984 -0.004191320853965705 0.14426908675396496 -0.08290379175408327
0.03276605190673294 0.05396617659640586 -0.06480074502011446 -0.1371823122563771 0.04304114551761485 -0.10239796148626916 -0.03543018473142304 -0.04955889998034844
-0.05412962353801326 -0.07587148989134872 0.05788614375208705 0.09808355518995464 0.0755458218832458 -0.10923301942708362 0.10575528328280416 0.008212746968820836
-0.0696489310252301 0.06377876514681469 0.10520608548817681 -0.12954236847786377 -0.005823120905367047 0.1554198519868218 -0.015850808286334058 -0.07206847250982198
-0.07105469833786704 0.011039619834317883 0.1034246162654785 0.005196316373561165 -0.0805022638496424 -0.059973050773278774 -0.06636686452902257 -0.05725787288283613
0.040595739053972346 0.05678389477680529 -0.02959798620188844 0.08929925979657712 0.06638337404340823 0.04517010875465671 0.05330740470580576 0.025693979580834102
-0.024102554298590546 0.11992189330537918 0.0899060721073129 -0.07735427377837491 0.028350645315338 -0.1045567701738346 -0.09365075476639699 0.067337921235719
00000000: aec9 ef33 89cd ae3f 8852 2f23 114d 9b3f
00000010: 2442 e449 3033 b6bf 2fa3 5668 2f59 c13f
00000020: 6d5e d253 d2eb b5bf f2ac 6847 6c79 803f
00000030: fd37 5ed8 3455 bd3f ca58 e97f 31c4 b5bf
00000040: c621 020e 4c15 7c3f f68c 0341 8658 a0bf
00000050: 8240 4f1e 2d43 b73f b18d db7e c0d1 903f
00000060: d932 c7f8 aa90 c0bf 8b6c 5037 f1fe a8bf
00000070: f198 9505 b599 b33f a4dc 46ac 1f9c a73f
00000080: b997 f467 91af b73f 553b ad77 cecf 81bf
00000090: 2568 8d41 1529 b93f dda9 53c0 df3c c23f
000000a0: 740c ca66 87ac a73f be4b 14d4 a269 90bf
000000b0: 26dd 0326 814d b13f b00a c16e 716c b5bf
000000c0: 3a85 23c6 b9b2 bcbf 4dd9 25d3 2f7b a9bf
000000d0: 47d6 9b56 cb5a b8bf d2cd aa23 d936 a03f
000000e0: 0320 378d ea4c ab3f c289 a3d9 5fab bf3f
000000f0: 1672 2e4e fd17 a23f f567 1d15 f910 bc3f
00000100: bd9b 26b6 75f6 bdbf 643a 6bc3 665f b83f
00000110: d565 6cab 18e8 95bf b6b3 f44a b86e b53f
00000120: 487b bc83 c476 a83f 2940 dff3 aac7 94bf
00000130: 3087 f7b9 651b ab3f 2588 bf8e b9e8 9b3f
00000140: 3ebb 1ca2 cde7 74bf 583d bef9 d9e5 bbbf
00000150: 1048 60af 2169 b0bf 39f4 a687 0ab2 90bf
00000160: 3726 2451 a290 bdbf 8d74 80cf 25aa ac3f
00000170: 84ba a0ab 0b08 b43f 14db f119 3290 bebf
00000180: a349 e3c7 f077 b3bf 172f 9071 a625 a8bf
00000190: 23e2 6f1a 0a21 bf3f 33af 006d 3e1b b2bf
000001a0: 3866 0d89 8c04 b4bf b5e3 ffd8 140a c0bf
000001b0: 7149 835c 91b9 bc3f 257d 2ab4 93fe b63f
000001c0: 5ded a8a0 5542 a1bf 1aae 20b7 fa5f b93f
000001d0: 32cf 79cf 303b b7bf 7d9e feb3 68cc a5bf
000001e0: c106 4f1f 631e bbbf a72c 864c aacf 713f
000001f0: 05c3 b6cc 0aed b6bf 5890 0e99 41f5 b0bf
00000200: 4e14 182d c769 c7bf d090 3137 79de c23f
00000210: 8556 2f60 a6c6 a9bf 93a7 cbfc 172a bebf
00000220: 98a6 91f4 0693 b3bf c7b0 693c 06b5 b1bf
00000230: 4e6a b5de 462e bcbf 3727 07d5 df4c a73f
00000240: 705f 5f2a a7dd a1bf 4012 e648 4d10 b53f
00000250: 90a6 54ae bd22 85bf 207b 7bf6 c276 c4bf
00000260: b3f9 b30f 1bc5 be3f 8a59 12c7 202e 9a3f
00000270: cda6 64ab 1a19 c53f b734 121e 7245 b43f
00000280: 2d19 c323 100c a53f a5d6 2694 b636 7c3f
00000290: f9fe f469 8aac c0bf 3dc4 ea82 8765 9fbf
000002a0: 8321 4039 6ac4 7d3f 27a2 d28f b3c2 89bf
000002b0: 8182 d6a7 cb30 99bf e496 861b a21f c0bf
000002c0: 5146 24af 790c 99bf 4a35 9103 fb6c c0bf
000002d0: 7d48 5e1c e407 ad3f c4db 6382 97a2 be3f
000002e0: e195 602f b93e 723f a2b9 c6fc c816 ae3f
000002f0: 6276 dd31 96a8 a6bf 5dc2 d4f9 a686 bf3f
00000300: a2b6 4c65 b577 b93f ae7c 537e 46d1 bebf
00000310: 2ef6 5d5b 716b adbf 8315 b177 bb6c 9a3f
00000320: 3332 d29c 67e1 7fbf 75e2 cc6e d9bc a43f
00000330: 734b a78e 561f a63f 621a ae96 2bd9 96bf
00000340: a48c cb0c 0e9b ad3f 4ba2 6fdf e07f b9bf
00000350: 4faa 33c8 e33b b1bf 63c2 91be 4708 593f
00000360: 613a 2f0a a831 ba3f 0cbd 19ad e9a0 b2bf
00000370: 5485 d670 8e56 b5bf f7b4 1896 f0bc b63f
00000380: 75fb 58ff 29e1 b7bf a8c4 3613 5e34 afbf
00000390: fc33 ef38 611e aabf 20a5 63fe 9f09 abbf
000003a0: 0575 01ee 0faf b6bf 9c5a f419 1892 bd3f
000003b0: ce81 c8ea 9b0b a2bf 3b1f 52ba 3d19 93bf
000003c0: ef39 eb56 d499 97bf 79da 1894 a79e aabf
000003d0: 6124 753f ba49 92bf 11b6 f949 7c1f a5bf
000003e0: c73c dd58 8bd1 b5bf c648 e7d8 29ba 9dbf
000003f0: ff1e 6710 66b7 b73f aa10 aa9e d18a aabf
00000400: 8964 dee0 d95f b0bf 1c58 12af e2d8 b73f
00000410: adf0 39ff 07da a23f 1dfc 55a6 12c7 ae3f
00000420: 002c ff17 78d1 b33f e5ac 437b 145c bf3f
00000430: 745b 2b02 ecb2 9bbf 5a61 be7e 2a81 acbf
00000440: eba3 5466 560c b0bf 3e16 6636 f0df ab3f
00000450: 5ad6 3514 064a 98bf bf9b 2bd0 098c acbf
00000460: f981 991b 543a aabf a7af ebb2 0b39 ac3f
00000470: 5d02 ee8b 708c a43f 2f6a 97fa cb62 98bf
00000480: 6d4a 0cf5 7c4c b73f a582 a3c3 3dc0 b9bf
00000490: 9117 94dd f8de ab3f 3252 0088 c115 b73f
000004a0: 514c 9f94 50b5 a4bf 305a b415 b34f b9bf
000004b0: a8f8 ad5c 6695 b1bf 771b 1eb3 ebaf 9b3f
000004c0: 2c9e 57fd a16e 9f3f 4c7f 1b99 21fb b0bf
000004d0: 4d37 3eff 4353 a7bf eeab ac5e d98c b9bf
000004e0: d9f9 97dc 166f 973f b2db dc41 7d9c b23f
000004f0: bfd0 eb4a 53b7 93bf 0c7d b032 6cde b3bf
00000500: a2c1 2761 34a3 a3bf 7a23 7393 aeef babf
00000510: d727 d93c 82d9 a6bf cf27 a735 608d b23f
00000520: 7db6 8b80 7068 d0bf d8c7 fa56 a544 b43f
00000530: 9cb8 a40f c451 b83f e1e8 207e ebc3 a2bf
00000540: f697 12d7 9a1f 983f f477 4223 5af4 a6bf
00000550: d2ae 640e b4c5 bb3f 7d33 bd76 9344 a1bf
00000560: 5ea6 46a5 7313 adbf 5919 144d 4ea5 a5bf
00000570: 6193 3080 bb75 96bf bf83 fc5d f76f ba3f
00000580: 0fd2 1065 f959 b23f eaf4 bcc5 ccb9 6abf
00000590: 9cab 51eb abaa bd3f 2e0e 0f42 c409 ac3f
000005a0: c23a 6fb7 c8f8 ba3f 8aaa 59fa 9d1f acbf
000005b0: a7cb 0446 c61f 98bf a0d6 f2aa 74e1 b6bf
000005c0: ca42 02c3 a2e8 bc3f db9f 1125 9430 bc3f
000005d0: 0fdf 144f ac2c 9c3f 4118 48f2 624c a7bf
000005e0: ddd6 9541 f6c8 abbf 2474 1468 7b18 b0bf
000005f0: ee02 5564 d895 b73f a451 da5e 6fcb acbf
00000600: b0f2 a6cf 6f76 783f 5618 bfe9 ef10 b7bf
00000610: d8eb d0b9 f3af 95bf d99f 1623 cd71 5bbf
00000620: b7f1 5b73 639a 93bf 991c ec8e 0b48 aa3f
00000630: 405e b658 9593 b4bf 75a6 91cd df1e a3bf
00000640: f503 9e4d cff5 af3f f024 5def 3517 a03f
00000650: 93ff ff33 912a b8bf 0872 ae71 0aa9 83bf
00000660: 1ed0 1f02 1762 b53f 23ce ea1f eb2a 71bf
00000670: f34d b7d0 6877 c23f aa55 4cd2 2e39 b5bf
00000680: 9a87 b742 b6c6 a03f fab8 2467 74a1 ab3f
00000690: e029 9e18 c896 b0bf d78a 5da4 308f c1bf
000006a0: 31d5 c230 7d09 a63f 43b6 c2b7 c036 babf
000006b0: 14e7 6cb9 e723 a2bf 9d5c 48bd c85f a9bf
000006c0: b85d aec5 e0b6 abbf 273a c85f 506c b3bf
000006d0: c710 9dac 40a3 ad3f d3f6 d0fd 001c b93f
000006e0: fa85 5692 f856 b33f ff28 15f6 b1f6 bbbf
000006f0: 2130 143b c712 bb3f d89a 213d d8d1 803f
00000700: bb68 f428 83d4 b1bf 101e 7c1e ce53 b03f
00000710: da0b 8338 c9ee ba3f f686 0726 d894 c0bf
00000720: 6158 961d fcd9 77bf 225e b736 cce4 c33f
00000730: cfe3 d1bc 313b 90bf b29a 8054 1473 b2bf
00000740: d099 9605 a430 b2bf fa78 30b1 f09b 863f
00000750: 182a 7620 097a ba3f 4555 258e bb48 753f
00000760: 2ef9 7cde cb9b b4bf 44d7 6ca7 c9b4 aebf
00000770: e4b1 b038 6bfd b0bf 01cc f066 e750 adbf
00000780: 7801 30f7 f6c8 a43f 3803 0356 c712 ad3f
00000790: 77eb 0e3b ef4e 9ebf 5d20 62f8 50dc b63f
000007a0: 19bb 8334 80fe b03f 984d b757 8920 a73f
000007b0: 6130 b1af 1b4b ab3f 66dd 03c8 854f 9a3f
000007c0: 629c d909 57ae 98bf 612d d281 33b3 be3f
000007d0: 75a8 6997 1504 b73f c97d 155c 7dcd b3bf
000007e0: 54ab cc99 f307 9d3f 82d5 7884 3bc4 babf
000007f0: f3a6 f7f0 7ef9 b7bf feef 7cd9 0e3d b13f

equations.x.layers.4.bias f8 [64]
-0.051196390014151376 0.04769723339074027 -0.00765405469140244 -0.008575447165249491 -0.006485601047886473 -0.07402640536249437 -0.07557029304469044 -0.10416850372371271
-0.07114182546115262 0.06728523176215982 -0.059124320424490784 0.017202644155943872 -0.06762504059097779 -0.03774862764366671 0.09760951432701233 0.05838103111928198
-0.040853905186233656 -0.0021771154805865535 0.11377406657442478 0.0914602960490777 -0.0754853417884418 0.10000181523355721 0.01992189124862513 -0.03194584083569989
0.12109088441257385 -0.008922988357432212 0.090140336776937 -0.07246940475717296 -0.05207339753639664 0.04389410098866533 0.058642568593903974 0.016425711694506892
0.10981959256358581 -0.0576103280978012 0.0058814110398340775 -0.06039719619513699 0.011718140610986343 0.031739282383326 -0.07462317565482003 0.10863360704956306
0.054155778535151286 0.11403567964073313 0.06926385573799107 -0.11013756997662894 -0.029153447112945385 0.046253050953967624 -0.10679248577831986 -0.0037718587479641952
0.03427823215111744 -0.06734038254771912 0.03370274360379216 0.10122988173265234 0.03478600337387622 -0.11614997493559856 -0.10673282533811641 0.012353709576554009
0.061826371006370354 0.04118381346320973 -0.008537583642691861 0.03627646059377729 0.029119067381985227 0.0744017071282487 -0.02077409037373569 0.08340386332043506
00000000: d76d 91c9 6936 aabf afba 0b93 c56b a83f
00000010: 6d49 4da9 db59 7fbf 7e90 fc08 0190 81bf
00000020: 3847 5446 a590 7abf af85 12fe 64f3 b2bf
00000030: b113 2d21 9358 b3bf eb3f c47c c9aa babf
00000040: 7dbf bbc5 5936 b2bf 0719 ecdd 9a39 b13f
00000050: d029 3efd 8a45 aebf 04d0 37e8 919d 913f
00000060: a49a bae9 df4f b1bf a098 65c2 c953 a3bf
00000070: 3d1e d0e7 effc b83f f567 ba56 1ee4 ad3f
00000080: efa4 6095 cdea a4bf 4850 3df9 bdd5 61bf
00000090: d7f0 1117 4c20 bd3f d9cb 6924 f169 b73f
000000a0: 9009 4fe2 0153 b3bf d700 f80d b899 b93f
000000b0: ec9b 8c7d 6766 943f e6dd 438b 345b a0bf
000000c0: f64d 65ec cfff be3f 7e0d 6c39 3746 82bf
000000d0: 08e3 81e6 6f13 b73f 5d84 64db 5a8d b2bf
000000e0: f423 d246 5da9 aabf 839f 77a0 4979 a63f
000000f0: 564c 8714 6606 ae3f 1c6d 2ada e6d1 903f
00000100: 0c49 8506 231d bc3f b00b 2fd6 197f adbf
00000110: 7971 2041 1b17 783f 363e db9c 61ec aebf
00000120: 968c 8d35 aeff 873f 3d77 ab97 2140 a03f
00000130: a90b f622 811a b3bf 513e 867d 69cf bb3f
00000140: 4e52 6563 4eba ab3f 3053 a23a 7131 bd3f
00000150: 4685 30ab 46bb b13f e04b 1ccd f931 bcbf
00000160: 93be a9b7 66da 9dbf a501 60da 7aae a73f
00000170: a55d e099 c056 bbbf 64e3 f63e 29e6 6ebf
00000180: 7b84 1b9c ea8c a13f e819 be24 383d b1bf
00000190: 38a5 206b 7c41 a13f c770 6b97 33ea b93f
000001a0: 38dd b295 78cf a13f e294 c737 01bc bdbf
000001b0: d5a4 3caa d752 bbbf fbb5 ecd4 e64c 893f
000001c0: f264 01c3 b4a7 af3f ebe9 e577 0b16 a53f
000001d0: c1ff 4114 277c 81bf fcd4 ba07 d492 a23f
000001e0: 42f1 6188 63d1 9d3f dae4 e182 fd0b b33f
000001f0: 4491 099b cd45 95bf 3242 52a1 f459 b53f

equations.x.layers.6.weight f8 [64, 64]
-0.03899304607012583 0.062354696342643345 -0.07074795648902943 0.01815434167644577 -0.012369784978737275 -0.08087449909950008 -0.07445662956055965 -0.08803432105015083
0.06128250051434965 -0.007547153873591767 0.08409724540083616 0.02537836071163938 0.099232117301128 0.02114774968999723 -0.08813617150591305 -0.06311903761286267
-0.010598913960077953 -0.02081325306026317 -0.13657248125806906 -0.007472301407670944 0.0375523402561384 -0.0024325110643680457 -0.07542127440606025 -0.09863161282358117
-0.03856630546989125 0.0839723874358668 0.012432132148796795 0.05530843433686266 0.0993092614814841 -0.03736044853827352 -0.06354748263937031 0.07370596704800231
-0.073067297274178 0.09886033437401966 -0.08247489845667355 -0.00552521448716658 0.08806735902896022 0.009050966093570019 -0.08176922529886782 0.08059921800661576
0.00295723135778138 0.09569867830903725 -0.06243146969370754 0.035970085227826694 -0.07680838251623749 0.12853713767794817 -0.07331246476833063 -0.0026614743974119545
0.06636369836902267 -0.06827872461366437 0.09128162762775831 -0.020158732985070045 -0.10870421883101712 -0.06736753859458314 0.002131043662786411 -0.11563883540609923
-0.02126673835323756 0.024449649376178106 -0.005890091604011071 -0.07784828440756027 -0.08359190585779414 -0.10540128083205652 -0.10880205259967973 0.05281373115524425
-0.009949601906474119 -0.07018929164452545 0.028810533372478603 0.16171634452126646 -0.007703122141773933 0.003251402371027437 0.04033603392807539 0.03174706371085718
0.08901074600247505 0.06701130988211393 0.06769684490188622 -0.03889212328918754 0.04865135996446457 -0.10840788722007179 0.03929533423314891 -0.09290786465454717
0.08591170935271068 0.0376990793056295 -0.12807702505078736 -0.012783702313112265 -0.02802597683135215 -0.08219102058052116 0.08728926845782894 -0.13104198136537304
0.014372346726991442 0.0442630779992727 -0.058411563487165905 -0.05483258556620986 0.04039577423441693 0.07639175265814024 -0.049413507769824526 -0.047406808540254836
0.022300669983086937 -0.11116130088401627 -0.08481036492100467 0.1058380887903649 0.0005477249711142132 0.04542631665206753 0.12291392181864594 0.05326817900877304
0.09293738935724276 0.01824194470026833 0.12981688318619783 0.005585180527444273 -0.07711477900423676 0.07606771718191156 -0.09470322146094622 -0.06856445044118965
-0.06824105243672299 -0.09972228385324665 -0.043363772455445045 0.14261528309628413 0.09454438748927076 -0.10159483737799216 0.07004142932549047 -0.07273735034613929
-0.001236225716483316 -0.12527239946435467 0.07029534807919739 0.03542288699631182 -0.014908779031340413 -0.023525095220458005 -0.02167286178706415 0.02889347585090843
-0.06490220950875099 -0.021389885861580856 -0.026433266298112615 0.10955439102724605 -0.07801285298880349 0.06287494386253464 0.13107100925804113 -0.1588638738199815
0.050750413507144376 0.02610793485550049 0.007587336332691874 -0.07344227101130887 0.04608483711737094 -0.014255301377936533 0.04776194283222961 0.0716227334481915
-0.0520552480121057 -0.1005943810173381 -0.10751187867635074 -0.07334836474929035 0.0117462638710851 -0.019805038415956325 -0.017349337189971815 -0.07548047296415301
-0.007145919011488014 0.11087704966051681 -0.12490548434098281 -0.04275092696184818 0.10423648917304563 -0.03825637409683724 -0.047926132669825386 0.07534295644291418
-0.053430198320927956 -0.07498965294933738 0.034103029601503486 -0.036636688924255215 0.025207644903982637 0.09853320153882227 0.11507462850047223 0.00591931605767049
-0.09093927897908602 -0.019732800948507354 0.1266527246382954 -0.05175773539548196 -0.023461321307948535 0.069850665804626 0.1138034385589348 -0.005689847408877147
0.03700630458299507 0.057470107651343506 0.03705236603771844 -0.06617434392634 -0.09949342198158255 -0.09500059355382258 0.03974955505946028 -0.07082299189272116
-0.06030629212974924 0.10139940338035731 0.07284046942508172 0.036190028014219416 0.07518770152237597 -0.027903360179301936 -0.01954698226126302 -0.05282167747529541
0.07034863989235252 0.04317087214944218 0.008799612189867774 -0.022591729723291556 0.07247981156866645 -0.1872393724028777 0.09081105721874891 -0.02223765379790572
-0.09252298491531057 0.0994229336921691 0.161490008469568 0.04685512094208529 0.03301058096988543 0.09681796610159595 0.00010779336842306238 -0.014236042175473241
-0.006247334399091811 0.07450837815270459 -0.003928854163863255 0.08116111485125607 0.07989604984520783 -0.10124219738861732 0.0055177271560234945 0.014547355307596472
0.12407066921688086 -0.049366265081454405 0.06658307378387031 0.02843693120821845 -0.0713054499773607 -0.001261684940997991 0.07086146161791226 0.1368942219631016
0.09764106088296894 0.10741788981763263 -0.07359645081163811 0.012019429806554415 0.07656676015934154 0.027717071293988163 0.011050283763880118 0.07683591475097215
-0.06430336939505274 -0.07282157103717456 0.06614461967366471 -0.008231279309222262 0.031228044115437767 -0.047678832900068635 -0.027618972979591008 -0.07813720146623392
0.08802913718139982 0.0729468565261272 0.11825424576733994 0.023167053963345566 -0.10188557796299506 -0.13822024722777412 0.08443406290143683 0.061319501212572736
0.10861076831209728 -0.052478299733168234 -0.028765095450090285 0.06238840710232123 -0.11828283163305635 -0.07878334238989444 0.15341813316987474 -0.14938411744390984
00000000: 6904 4983 e5f6 a3bf 205b 166b f4ec af3f
00000010: 1014 61bf 891c b2bf 757b 1f3f 0d97 923f
00000020: 2daf 896f 5455 89bf c175 b6f0 30b4 b4bf
00000030: 78d8 eef4 960f b3bf 9e01 d6d1 6a89 b6bf
00000040: aa6e 0d7f 6b60 af3f ad0f 0ab1 c3e9 7ebf
00000050: ae26 aea6 6587 b53f 495d 21f5 c8fc 993f
00000060: 176c 85aa 4667 b93f 03cb 3575 c1a7 953f
00000070: 4269 3696 1790 b6bf 8a5f 4dba 9128 b0bf
00000080: 8239 a726 e2b4 85bf 436a dec4 1150 95bf
00000090: bfbb 4402 357b c1bf e5b2 bfa2 469b 7ebf
000000a0: 5fa6 9372 0f3a a33f 14ed fe6e 58ed 63bf
000000b0: ce25 ff02 cf4e b3bf f3d3 6ddf eb3f b9bf
000000c0: 5f03 7179 f6be a3bf cad8 cde1 367f b53f
000000d0: 0133 fd87 0476 893f 87ee 5619 6351 ac3f
000000e0: 2fbd 40ee 546c b93f 6784 45a1 e820 a3bf
000000f0: 93e1 add7 a544 b0bf d4c0 fded 64de b23f
00000100: d51f 33d4 89b4 b2bf d90e 022f e94e b93f
00000110: e8c1 9c2f 131d b5bf 7a89 6978 9ba1 76bf
00000120: 8fdd df1a 958b b63f 77e4 f31a 5089 823f
00000130: 3457 7af4 d3ee b4bf 42ed 6b7d 26a2 b43f
00000140: 23f1 fc7e c339 683f d294 9b65 b57f b83f
00000150: b6c0 2681 04f7 afbf a92d 60c7 ab6a a23f
00000160: 1b45 f7d2 b6a9 b3bf 6cf9 52a9 e773 c03f
00000170: a7b2 910e 9bc4 b2bf 3071 df2f 84cd 65bf
00000180: a8f5 221a 36fd b03f 7970 3ae9 b67a b1bf
00000190: 0b0a 6395 3b5e b73f b243 99ab 7da4 94bf
000001a0: 9902 d128 0ad4 bbbf 8264 13bf ff3e b1bf
000001b0: 4606 d15a 1f75 613f 2a7b 37b8 819a bdbf
000001c0: a104 e1a6 f2c6 95bf c09d e031 5409 993f
000001d0: 596a f46c 3520 78bf 8d86 947b dded b3bf
000001e0: f499 de75 4766 b5bf 6c54 210e 94fb babf
000001f0: 6c3e a789 73da bbbf 72da 2ec0 660a ab3f
00000200: cf48 5ff6 7460 84bf 3e84 24e8 ecf7 b1bf
00000210: f8df 752a 8280 9d3f f347 7905 1fb3 c43f
00000220: 80f2 d01a 4f8d 7fbf 6dbd 305b afa2 6a3f
00000230: 8092 24b5 eca6 a43f 79aa c3b0 2641 a03f
00000240: c8bc 1283 68c9 b63f 92e2 6738 a727 b13f
00000250: 515f e596 9454 b13f 0db8 321b abe9 a3bf
00000260: d016 e8bf d4e8 a83f 2119 3d8a 9ec0 bbbf
00000270: 1162 d59e 841e a43f 7283 3b50 cfc8 b7bf
00000280: e36a 034e 4ffe b53f 79fa 6931 4b4d a33f
00000290: 3d26 fbf4 d364 c0bf df59 da7a 572e 8abf
000002a0: ed68 b777 d7b2 9cbf 3e0f 6b81 780a b5bf
000002b0: 9a71 51e9 9658 b63f 4c04 2fd0 fbc5 c0bf
000002c0: 1d0b 46b9 3f6f 8d3f 77b6 da70 a6a9 a63f
000002d0: 0e6e c5d5 1ee8 adbf f223 8643 0413 acbf
000002e0: d982 7742 c1ae a43f 38d0 59ef 688e b33f
000002f0: 5b3e b42f ba4c a9bf 8485 9388 b445 a8bf
00000300: af65 06a1 fcd5 963f b4ae e027 1175 bcbf
00000310: 0792 b2cf 21b6 b5bf 4d98 067a 3418 bb3f
00000320: e41b 486b a6f2 413f 30f7 cb40 1e42 a73f
00000330: c226 6f6a 4977 bf3f e432 857d f745 ab3f
00000340: 136f dda7 beca b73f 69c4 9c2f 04ae 923f
00000350: 7e6e e0f1 d69d c03f fa72 527b 7ce0 763f
00000360: ed88 dc4d cbbd b3bf 53e3 9385 2c79 b33f
00000370: ef27 0067 783e b8bf c928 5098 708d b1bf
00000380: 42d9 75e0 3e78 b1bf 0706 d54b 6687 b9bf
00000390: 29fd 0dc1 c633 a6bf 1877 67b4 3741 c23f
000003a0: b969 499c 0f34 b83f 3a1d fb87 1e02 babf
000003b0: 7d6d 5130 3cee b13f 6232 ef3c ea9e b2bf
000003c0: 5810 7541 1b41 54bf 9d3a 650d ed08 c0bf
000003d0: 8ba3 0f3d e0fe b13f 23ae 5bda f222 a23f
000003e0: e036 e772 7e88 8ebf 87b9 6d6a f616 98bf
000003f0: 983c 5822 6931 96bf 68c1 6357 4096 9d3f
00000400: cd39 4763 6e9d b0bf 3f70 f6f0 3ae7 95bf
00000410: 447f 1b79 5211 9bbf 2f60 98ae c10b bc3f
00000420: 4b2b 417c a6f8 b3bf be9e a083 9218 b03f
00000430: a7c6 1b51 efc6 c03f f14d 49c3 a655 c4bf
00000440: 4017 8b4c f5fb a93f 4c5d 7bd9 09bc 9a3f
00000450: c045 9a16 e613 7f3f da35 23d8 1ccd b2bf
00000460: b96c 8588 6e98 a73f 8bf0 b329 e231 8dbf
00000470: 076b eadc 4074 a83f 3a63 cf11 de55 b23f
00000480: bf25 9847 fca6 aabf 197e a1a8 8dc0 b9bf
00000490: b3b0 d802 e685 bbbf 3433 d05b f5c6 b2bf
000004a0: 3077 69d9 6c0e 883f d193 2ba1 c547 94bf
000004b0: 8a52 5a4f 06c4 91bf 451e de32 b052 b3bf
000004c0: 2a6d 4407 0a45 7dbf 383c 2b36 7062 bc3f
000004d0: 58e7 554a cef9 bfbf 5882 5912 73e3 a5bf
000004e0: 914f 0c18 3eaf ba3f d00a 38e7 5696 a3bf
000004f0: d29d e128 c689 a8bf 3d01 e80d ad49 b33f
00000500: db79 d0f4 335b abbf eaae f49a 8532 b3bf
00000510: 037c aac9 f375 a13f 92dc 8649 0bc2 a2bf
00000520: ff1b e369 08d0 993f 5fee 2dce 7839 b93f
00000530: d045 02e6 8775 bd3f 033d 1e4e da3e 783f
00000540: 1612 23ed cb47 b7bf 79e4 edda d534 94bf
00000550: aaa8 220f 2836 c03f 295f ad69 fd7f aabf
00000560: 2050 f49e 3e06 98bf eb14 3cb5 bbe1 b13f
00000570: be70 c8de 3822 bd3f 1a4e a5c8 3c4e 77bf
00000580: f60b dc87 7df2 a23f 9d61 b8d1 b86c ad3f
00000590: 002b be18 87f8 a23f 7e75 ff42 cdf0 b0bf
000005a0: 6bf9 93a1 6678 b9bf b50c 6a7a f551 b8bf
000005b0: 0b99 05be 0d5a a43f abee fba1 7421 b2bf
000005c0: 5e6e e160 77e0 aebf 7d40 5ab1 4ff5 b93f
000005d0: 218a 014a aca5 b23f cc58 86d5 7f87 a23f
000005e0: 889a 194f 803f b33f 3ca8 accd b292 9cbf
000005f0: 75c2 30c6 1f04 94bf 1e71 8d62 710b abbf
00000600: 40de a753 5e02 b23f e415 0b18 7e1a a63f
00000610: b16e 95f4 8705 823f b453 4951 4922 97bf
00000620: 20c3 4e74 098e b23f ec38 7fb2 75f7 c7bf
00000630: 66a5 deb8 643f b73f 9304 35af 77c5 96bf
00000640: 6bed 561a 96af b7bf 6524 ae08 c873 b93f
00000650: a6f7 8060 b4ab c43f db58 31f8 64fd a73f
00000660: 730f 604b c3e6 a03f cd53 12ee 0fc9 b83f
00000670: 51c7 e9f7 e341 1c3f fa89 8b3c c927 8dbf
00000680: c380 e60e ce96 79bf 46a1 7127 fb12 b33f
00000690: 940f 50c2 b317 70bf 2e38 fe8d f9c6 b43f
000006a0: 492d 2a49 1174 b43f b360 c236 02eb b9bf
000006b0: 7a17 ef9a c199 763f d7ba 50fa 00cb 8d3f
000006c0: 0be9 ad6a 18c3 bf3f e6dc 19fc 8846 a9bf
000006d0: c96e 5e9c 960b b13f 43cf 2626 921e 9d3f
000006e0: 73e8 adef 1241 b2bf 13e6 cde3 e3ab 54bf
000006f0: e618 320c fa23 b23f b3e3 2bf7 bf85 c13f
00000700: 6d35 3d2b 01ff b83f f5a5 c523 bd7f bb3f
00000710: c770 568d 37d7 b2bf 265a 7c8f a49d 883f
00000720: 0b55 d812 e199 b33f a48b fe2a dd61 9c3f
00000730: 5fe2 04fb 87a1 863f d67f 03bd 84ab b33f
00000740: 2e09 9384 2f76 b0bf 174a 0c3a 6fa4 b2bf
00000750: f903 4e92 daee b03f edb1 7f9b 8fdb 80bf
00000760: bc80 c690 3efa 9f3f 28d4 0828 5c69 a8bf
00000770: 772a c9e6 2548 9cbf 0700 e6b4 cc00 b4bf
00000780: a809 4ad9 1389 b63f 382f 202b a5ac b23f
00000790: 3312 2f06 e945 be3f d10c 78ac 1ab9 973f
000007a0: c3fd 4859 2c15 babf 6b81 be78 33b1 c1bf
000007b0: ff7f d482 789d b53f e84b a108 4565 af3f
000007c0: 09d6 e451 eacd bb3f b510 358a 6fde aabf
000007d0: d7d7 e5e0 9874 9dbf 96d9 4e90 5ff1 af3f
000007e0: fbd0 8a9d c847 bebf 2dbf 0827 252b b4bf
000007f0: 68fb 4994 34a3 c33f 3651 7bcd 041f c3bf

equations.x.layers.6.bias f8 [64]
-0.06722510857196877 0.052987372189056435 0.02347182405201695 0.0024668188215045423 -0.04708678658935013 0.04815962548632318 -0.025718747187883483 -0.014529783755378663
0.08504471174401113 0.048884376460367786 -0.08477910654679825 0.060127763610530516 -0.12400518761620684 0.0850154103046225 0.05020723034333559 0.037128234239724694
0.021345629926690125 0.056121549690003755 0.062480755568562855 -0.09133788004400623 0.1047302663044299 -0.03271558303641335 0.03155950819343126 0.03796472207353729
-0.11175055572500703 -0.07671785296954176 -0.09473238506837392 -0.08850259303473584 -0.00528999100910385 -0.11585917186429846 -0.09538700539496353 0.07228708299744659
0.08008496300301074 0.052604705102930735 -0.021276279794153967 -0.06666812788146761 0.10901589912257575 -0.05121179876374026 -0.07582902189704667 0.0039047027306588337
-0.05235821838299147 -0.0012592096710063343 0.05448612807853048 -0.019057759204588437 0.08991631425597829 0.0641759517508713 0.0918371701195852 -0.04750782954380064
0.07566227453363414 0.0336029834580567 0.00716298198563656 -0.03315028852486665 0.03143555810081144 -0.005100884630430638 0.005795903405155204 0.021491079369267873
-0.012932571208911885 0.020542863781646544 -0.032220347911023385 0.02096383589208491 -0.012557501174484334 0.11901305133081612 -0.07312402285476255 -0.011130231035084823
00000000: 3b62 c92a aa35 b1bf 0b53 4e2d 2921 ab3f
00000010: 5838 b972 ff08 983f c48c 3b45 4b35 643f
00000020: ea31 f360 c21b a8bf 7719 e7e0 60a8 a83f
00000030: 03a3 43e8 0356 9abf 9ee0 6090 cac1 8dbf
00000040: fc65 a37f 7dc5 b53f ed81 5d7c 5f07 a93f
00000050: 43aa 0062 15b4 b5bf d0e3 93f4 10c9 ae3f
00000060: 5990 58d1 cdbe bfbf 7b14 eae6 91c3 b53f
00000070: dad9 b118 c3b4 a93f 94bc a2cf 7802 a33f
00000080: 8a65 caf9 a0db 953f 76ef 09b9 f6bb ac3f
00000090: d7ba 9743 7afd af3f 58cb ac57 eb61 b7bf
000000a0: 35cc ad4c 9acf ba3f f603 6cce 18c0 a0bf
000000b0: a423 235f 9128 a03f df46 6aaf 1c70 a33f
000000c0: 3813 2636 af9b bcbf 4c05 86fd c7a3 b3bf
000000d0: 72a1 bdaf 6140 b8bf f004 b21e 1ba8 b6bf
000000e0: 5f71 1526 f5aa 75bf 4d4b 195a f2a8 bdbf
000000f0: 947e a264 486b b8bf 89b3 6501 6881 b23f
00000100: 32d2 ffb8 7280 b43f b6cc 1000 01ef aa3f
00000110: 8ef3 95f7 72c9 95bf 22bb ef94 2911 b1bf
00000120: 3cba 7949 77e8 bb3f 2f1d b8d1 6e38 aabf
00000130: 09af 22e1 8769 b3bf 5dc7 eb50 c1fc 6f3f
00000140: ee77 4347 b2ce aabf cf15 c516 82a1 54bf
00000150: 60ac 5d14 9be5 ab3f 4833 1392 e083 93bf
00000160: 8435 1b6d c104 b73f afac f5cd d56d b03f
00000170: cc86 380a a482 b73f 339e 633c f252 a8bf
00000180: eeb5 a952 9a5e b33f 2332 0006 6934 a13f
00000190: 631e ec55 ee56 7d3f bc70 221a 13f9 a0bf
000001a0: bff0 f24b 5218 a03f 50a3 b14a aae4 74bf
000001b0: 5ef4 36f9 71bd 773f 23de 2fec c101 963f
000001c0: fcea 2953 647c 8abf 8ff4 6e40 3009 953f
000001d0: 1551 1679 2f7f a0bf 758a 3836 8b77 953f
000001e0: 1b40 e946 bfb7 89bf 9355 43ab a377 be3f
000001f0: c491 b686 41b8 b2bf c545 5752 72cb 86bf
