simple-pendulum-system/2025-05-30_20-27-09/model_best.pt (torch, 277858 bytes, 24 tensors)

equations.x.layers.0.weight f8 [64, 1]
-0.3386869973116244 0.8206514960350805 -0.2915285982140688 -0.5132719203530528 0.9768795689473653 0.010549667149224281 0.3961715817079425 -1.1840120665144747
0.8243396375361717 0.24130003974496758 -0.05131651401389048 -0.09570875526115188 -0.6076486421124779 0.5072462576629118 -0.33992160408920535 -0.9817173875843112
-0.03669688575641154 0.06133465702680368 -0.870878619771889 -0.5509844197785302 1.180373029036636 -0.08573192397362996 -0.6933207206195633 -0.15889309394063209
0.032044684962008886 0.13683907815927537 0.015176085223857426 -0.18353453277999413 0.8348910408189019 1.0567105540674553 0.06583082737298494 -0.3946107615663288
0.14956895147278265 0.1981597062329435 0.8298394114779831 0.03885154046313226 0.19133137673129572 -0.14216184224330167 1.087534239746037 -0.5636929912378251
0.22319812297674382 -0.3172994837183742 0.40320787219582244 0.039185819504749 -0.9392775069453704 -0.9175675988752299 -0.41736797156957745 0.30470864180272433
-0.574436512797547 -0.05157683506553538 0.628146699455377 0.9751365698220366 -0.3271061706385535 0.9252102595784413 0.45911061340466564 0.43618568231184307
-1.1241335130453667 0.4242846575173024 -0.46670849869648967 -0.9411083011167602 -0.3647651170498287 0.10784724369750813 -0.5831048716799305 0.5051581669176572
00000000: df2a 423a 0cad d5bf e94a 1ced c642 ea3f
00000010: cd66 cb90 67a8 d2bf 27e3 fb3b b96c e0bf
00000020: ea4d 18f1 9842 ef3f 9ee8 1d5b 109b 853f
00000030: b792 c20c e05a d93f 17fc fba2 b6f1 f2bf
00000040: 9175 0085 fd60 ea3f 8f33 9d71 ebe2 ce3f
00000050: c067 de7a 2846 aabf 9a9a c975 5e80 b8bf
00000060: ef9e aa90 db71 e3bf 70c7 f580 5c3b e03f
00000070: 7a16 318b 46c1 d5bf 81da 3295 3a6a efbf
00000080: 16af 6028 efc9 a2bf 473f 1594 4167 af3f
00000090: 9696 d6d6 3cde ebbf 03bd f113 aaa1 e1bf
000000a0: 5aaf 4cd4 cee2 f23f 399d b001 87f2 b5bf
000000b0: da67 96ef ae2f e6bf bf83 04e1 9b56 c4bf
000000c0: 854b d833 2968 a03f d622 c162 f183 c13f
000000d0: 9901 bead a314 8f3f fd04 fd3f 0f7e c7bf
000000e0: 784c 816a 6db7 ea3f 96ec 7053 49e8 f03f
000000f0: 27b6 a202 4ada b03f 28ee e47e 4d41 d9bf
00000100: 5e4b 894d 1325 c33f 1ae6 d318 4c5d c93f
00000110: b95a a761 0b8e ea3f 8672 605f 59e4 a33f
00000120: 9b39 e1ea 8b7d c83f a548 96f7 5b32 c2bf
00000130: ccd4 8f4d 8a66 f13f 5b3a 4be2 c509 e2bf
00000140: 8d5a 5b8f c191 cc3f 23eb 667e a24e d4bf
00000150: 1288 2464 28ce d93f 64ce 7aea 2910 a43f
00000160: 655c c6b3 8f0e eebf 3c3a a1b9 b65c edbf
00000170: 2382 1227 28b6 dabf 5d7b d6ac 5880 d33f
00000180: 0000 83ae c861 e2bf d5e1 ac67 4768 aabf
00000190: b609 681b c719 e43f d79d 909b 5134 ef3f
000001a0: ae97 4db8 4eef d4bf b804 da8b 529b ed3f
000001b0: 5073 747b 1162 dd3f e8d1 205a 77ea db3f
000001c0: 08e1 2d6c 73fc f1bf d6ce 0ed6 7a27 db3f
000001d0: eaaa aa52 8dde ddbf a44c e927 8f1d eebf
000001e0: 10d7 1cca 4f58 d7bf 8b00 a580 e09b bb3f
000001f0: 501d 408c cba8 e2bf 28ff c675 412a e03f

equations.x.layers.0.bias f8 [64]
-0.5224376370862269 0.18289504739710444 1.1242613417200755 0.845463823844864 -0.9036692111426358 -0.5747526678347707 -0.1963960974066465 -0.8520412337710142
1.435925833742336 0.7601750084075041 0.2641106664521479 0.1332491909967759 -1.114944411343822 0.7443110568058502 -0.9884909155349585 -1.7444952448039175
0.0320076132896447 0.5623828713325573 -1.5277499281005518 -0.6102858018160608 1.2015469821659888 0.650244947604444 0.49414624673578617 0.2909269889552234
-0.44111322979444667 -0.7896982598191762 -0.2764762201213468 0.24386121054101956 1.016561644596832 1.0768435754376864 -0.7207159101275034 0.37471765798478945
0.19873398556131702 -0.7550981267593977 0.7913356368064238 -0.23523673385364716 0.07930675788529294 0.08528703624454499 0.2718418412468363 0.9191182750225594
-0.4785703414809166 -0.2114107101753265 -0.34140234658348734 0.7635402303333626 0.3806618956088711 0.5691121893992426 0.3657663698978658 -0.7084691735686024
0.31512975358445316 0.2165138291310953 -0.47177943557954527 0.3175486782214349 -0.3048184577417004 1.4027601776385452 0.62214491496593 0.6817524609302782
0.5639393918369854 -0.2853269946805593 1.1482027743590124 -1.2102055166089722 -0.4465266225865889 0.5448329356410384 0.8889796325524674 -0.47128213890559506
00000000: fc83 af22 cfb7 e0bf 26e1 95db 1a69 c73f
00000010: 5284 ed75 f9fc f13f 68ac 2b26 0a0e eb3f
00000020: c94f 88b1 dbea ecbf 7073 f4b4 5f64 e2bf
00000030: c737 b6df 8123 c9bf da7a 3cfa eb43 ebbf
00000040: 557a f65d 8df9 f63f 9e18 0b8a 5a53 e83f
00000050: 8bf3 bb6c 30e7 d03f a059 c63a 4f0e c13f
00000060: 6646 79f3 cfd6 f1bf ce08 e16b 65d1 e73f
00000070: 2fb4 53b3 b7a1 efbf 8d5d 87d8 73e9 fbbf
00000080: daa4 9a48 4d63 a03f 6d86 065d 0aff e13f
00000090: 1388 9ae8 a971 f8bf 786b 0017 7687 e3bf
000000a0: ab2a 1054 8939 f33f d335 0b7e cece e43f
000000b0: 5ff7 4a94 17a0 df3f 3288 c53b 8c9e d23f
000000c0: 8834 f3fb 323b dcbf 0635 f448 3545 e9bf
000000d0: 93be e250 c9b1 d1bf eeb0 041a d836 cf3f
000000e0: f794 9e24 d643 f03f e599 3654 c03a f13f
000000f0: 488b f6cf 1a10 e7bf 0bd1 91c5 5ffb d73f
00000100: c777 4b80 1d70 c93f ae7a f68b c329 e8bf
00000110: 09c6 071d 9f52 e93f 0f11 5cbf 3c1c cebf
00000120: 7718 789b 724d b43f 2d6e 7107 5fd5 b53f
00000130: c6bb 7552 db65 d13f 2717 8cba 6a69 ed3f
00000140: ecbf 5f7f e5a0 debf a313 1d93 810f cbbf
00000150: 9aa3 563a 89d9 d5bf 85c9 ceeb eb6e e83f
00000160: 4a4d 1eb6 c35c d83f c830 27c4 2a36 e23f
00000170: be07 2c59 b768 d73f 0271 568b c7ab e6bf
00000180: ae12 69fc 152b d43f 00f9 9fa3 b9b6 cb3f
00000190: bc53 af5f a231 debf 7f57 f6b0 b752 d43f
000001a0: cdef cd46 2582 d3bf 536b f1a7 b471 f63f
000001b0: 07d8 e473 9ce8 e33f cf37 7589 ead0 e53f
000001c0: 1fb6 9b9f ca0b e23f f969 b427 cc42 d2bf
000001d0: 5ac6 50df 095f f23f 9e63 b475 005d f3bf
000001e0: ff5f 3366 e493 dcbf f494 0b7b 456f e13f
000001f0: 29ef 136a 8572 ec3f 2176 728f 7c29 debf

equations.x.layers.2.weight f8 [64, 64]
0.10031221711594383 0.018862636108198688 0.004758128746685036 -0.06728151196685568 -0.07031269743093549 -0.11397304031850541 0.03274423241699238 0.10424038522607275
0.042014940586905636 -0.008556431739363355 -0.024442722008591287 0.013896444286726265 -0.018265285166941873 0.019838613078118135 0.1082852215745375 0.0006256182387686254
-0.03889862284227534 0.0016013659391337337 -0.11458240178077489 -0.12241177233243335 -0.04000310288901766 0.17335963769642557 0.11639518627109124 0.1313184115760963
0.024233556917465836 -0.04095297880702277 -0.14756826128218323 -0.018567900616127182 -0.0810445927796316 0.0673689942896332 -0.10688722502372854 0.00744095490609733
0.09482188813588271 -0.15096996084347333 -0.0672484452021885 0.09574177797762164 -0.09097434300286353 -0.06330775710053667 0.007307741794443547 0.1221274667828014
-0.027990938668868322 0.08977197566935836 -0.07843790097345789 0.11439159042241198 0.0105712962556976 0.09849006841296026 0.07089290073452395 -0.12409912752469394
-0.059443149849792876 0.016235889648452795 -0.034749533166737206 0.08422216628676621 -0.12015386669666168 -0.08373396060057213 0.04579169119150975 -0.030796684284853038
0.03432992112537966 -0.004372929338173757 0.010687022071391803 -0.09819089955295927 0.001990256735152684 0.052095131580997746 -0.04577058251906759 0.10330674473223264
-0.04372490159068651 0.08882606490134486 -0.05346958384195023 -0.07730653412481772 -0.08397290981807153 0.05877056686557779 0.08811676683408606 0.12135252275625649
0.10319660106446604 -0.03714313549220945 0.014611349776468167 -0.0951676270733954 0.04879429830169972 -0.026734166695924804 0.1278205183560127 -0.05524747025778309
0.10803139406908872 0.1143235282629505 -0.10044871780229712 -0.10835312450242165 -0.09864707989318053 0.15750666098602864 0.03827884155135714 0.10737599392977011
0.0014232998053126833 -0.16202760992350448 -0.045496015516746 0.06975242625554814 0.045827466471827304 0.022587101281110595 -0.07476547180309089 0.10233006128251948
-0.00488451062427541 0.10784848474696913 -0.010192742836566385 -0.10961357875715248 0.10267237348378383 -0.10383803548643596 -0.03354754897965235 0.07207259504429903
-0.05171040207713677 -0.014198331698815765 -0.0006916901622466214 -0.0530989007105959 0.038573253083884894 -0.06762516850113234 0.06382893959047146 0.07616702775378499
-0.06666819903873186 -0.07948856927767192 0.012502134033956119 0.10690494067651858 -0.06002328753785098 -0.0892493272752881 0.007937177360147828 -0.09715295136451006
-0.07875272250154533 0.11399717952334211 -0.11672640831035463 -0.1025403361895484 0.010355792686924076 -0.04464918893991168 -0.026353160324148445 -0.009284195901967761
-0.1302160999617552 0.004557296166985517 -0.0841539908988108 -0.05350699014246389 0.043624385307692394 -0.11367411102604533 0.006571910346607611 -0.01717710272759008
-0.0596516743237665 0.091479337126679 0.009359885950548756 -0.12155840590837512 0.023216183162712935 0.050649611870934995 -0.03895626424949632 0.06228896434300657
-0.08432255539075147 -0.019374850658067856 0.07860654329507444 -0.014117317148654383 0.009346260583762976 -0.012967038669225998 -0.06959350895202118 0.10039645115711823
0.033900083184065226 -0.010258653452770399 -0.12507508531848818 -0.10507467103953935 -0.11566816652252096 0.12980425111357977 -0.10444001392897752 0.02088222867935788
-0.10163457714515604 -0.08260653082360592 -0.07054205573542657 0.11404208194376197 -0.09448265805386097 -0.05453649153796498 -0.10330910780796818 -0.07313450181335203
-0.05319395671285631 -0.0404857086081899 -0.0549853860522384 -0.028702954772776738 -0.07354960980568047 0.06737735673045217 -0.08035005047940143 0.021629907735155166
-0.11528441149067295 0.09526770250051857 -0.003142073964231119 -0.0789766015121287 -0.0640141602243306 0.027660452990074875 -0.023777030866728718 0.06693382693802145
-0.12008795218666704 -0.11207597497742303 -0.06489328242927851 -0.12341591663862761 0.04788624779504707 0.0010540898837543165 -0.10324464761059303 0.00012031882344143563
0.10036774895933792 -0.11338257653536082 0.05914353219066293 0.08885265887132512 0.1292210640937052 0.06692746629347923 -0.04452764644671539 0.03369301824345871
0.006888208024582767 0.11086113074954326 -0.07112732607935345 -0.11812787889557817 -0.07238171277972691 -0.04403162326111664 0.08016466046846013 -0.04117565383540459
0.11364476482831921 0.007225223764432991 -0.06669341751827183 0.02314548269047379 0.06161914142049824 0.009067847141474256 0.06417915038675681 0.0038539682735487355
-0.08842090202968489 0.0317695802561367 -0.09392652968556962 0.09120293230021731 -0.07906297467949924 -0.069419602829641 -0.00482310518309753 0.07988143042616955
-0.12010763923925871 -0.1164473181150032 0.11245579851279046 -0.12075711018239983 -0.11618546894936542 -0.09081137753978327 -0.04440005169136764 -0.08172257998944567
-0.11302275465587684 0.018802420656308685 -0.08327312302890492 0.09342842860649972 0.058870795574191 -0.12214194003815716 -0.10427897527852778 0.03820801959025495
0.039061372260439126 0.003019667547859542 -0.06476517746282115 0.09152513065318386 0.018390470998791066 0.015289462906177512 0.06455341391299436 -0.0912285761240988
-0.10550060403217196 -0.09292558842199201 0.0325423765429662 0.05768661420728747 -0.0018631894514948466 0.010532613698095298 -0.039637360078704116 0.09361724342280225
00000000: 8ff8 e6bb 0fae b93f 38e3 cd14 ba50 933f
00000010: 93f7 b675 427d 733f 6de8 8575 5c39 b1bf
00000020: f89b f54f 0300 b2bf f82d cb50 562d bdbf
00000030: 7a2a ba1e dac3 a03f a3ea 7775 7faf ba3f
00000040: b83d 8777 fb82 a53f f29c edd3 0886 81bf
00000050: 16c5 9b4e 8307 99bf a2f9 ef2d bd75 8c3f
00000060: d1c9 c689 22b4 92bf 125c 79c9 9250 943f
00000070: 2b81 4d8d 94b8 bb3f 8a94 09f0 1080 443f
00000080: 161c ef31 85ea a3bf f3b9 9995 9d3c 5a3f
00000090: a476 58b4 4555 bdbf cd2d d0be 6056 bfbf
000000a0: 7130 4b65 497b a4bf 9320 2d0b a630 c63f
000000b0: e037 722e 13cc bd3f 067f 8aad 0acf c03f
000000c0: 3680 b479 aed0 983f 72c5 4cf1 c9f7 a4bf
000000d0: 4339 114c 84e3 c2bf b248 9bb7 7603 93bf
000000e0: 6793 81a3 56bf b4bf d206 3d2b 183f b13f
000000f0: a34c d60f f65c bbbf 992c 901f 687a 7e3f
00000100: 0414 7d4c 3f46 b83f a724 40d2 fb52 c3bf
00000110: d6a9 d9b0 3137 b1bf d957 467d 8882 b83f
00000120: 3eee f833 184a b7bf 6d75 54ea ef34 b0bf
00000130: c267 3c00 b9ee 7d3f 7084 c6e3 be43 bf3f
00000140: 7224 ab18 a8a9 9cbf 39e2 98d3 4bfb b63f
00000150: cda8 729b 8114 b4bf 503b cd6b c448 bd3f
00000160: 6a6f 8e5d 67a6 853f e880 d026 a536 b93f
00000170: fa60 2c82 0926 b23f f541 2ede f5c4 bfbf
00000180: f8f4 2621 556f aebf 200c 3f1c 24a0 903f
00000190: 0c3b 01d9 b0ca a1bf 84c8 cc79 958f b53f
000001a0: 1d3a f35f 67c2 bebf 0711 58be 966f b5bf
000001b0: 842f 3130 0272 a73f bd91 507f 2a89 9fbf
000001c0: cbf9 0301 b193 a13f d73c ec47 59e9 71bf
000001d0: 325a 4ed2 13e3 853f 9343 58ee 0923 b9bf
000001e0: 7fea d1f2 de4d 603f cda7 d78c 36ac aa3f
000001f0: 6b97 13e6 3d6f a7bf dec6 1492 4f72 ba3f
00000200: 6ca4 b43c 1c63 a6bf 439d c813 4ebd b63f
00000210: d222 dd83 5d60 abbf 9a4c d56b 5cca b3bf
00000220: b327 6ba5 3f7f b5bf 1f61 4ffd 2c17 ae3f
00000230: ae1a c807 d28e b63f a674 867c f510 bf3f
00000240: 7057 a1aa 176b ba3f ca7c 6bd0 6c04 a3bf
00000250: 02d5 852b 8eec 8d3f 5e0c ebd5 e75c b8bf
00000260: 76c7 dff6 90fb a83f eb48 948e 3360 9bbf
00000270: 5465 0c39 6c5c c03f 5048 e37b 6549 acbf
00000280: 73d0 7708 f2a7 bb3f 047e 0d87 4e44 bd3f
00000290: d7d0 e2d5 01b7 b9bf f245 28c6 07bd bbbf
000002a0: 36b3 fc5d ef40 b9bf cd27 eba2 2d29 c43f
000002b0: 4906 2fc9 4899 a33f 95c9 4d3e fe7c bb3f
000002c0: cd2a 7087 c051 573f d7d2 d51a 52bd c4bf
000002d0: 7347 7cf5 404b a7bf 2a90 9585 4bdb b13f
000002e0: eb93 829b b276 a73f 5557 41b5 1221 973f
000002f0: 37a8 4378 d423 b3bf 2c29 9b8a 4d32 ba3f
00000300: f72d 36d6 c701 74bf ad50 e952 f59b bb3f
00000310: d5e1 1dc9 eedf 84bf 27a1 f5af a20f bcbf
00000320: d4c7 5096 bc48 ba3f d5c0 7e26 2195 babf
00000330: 7906 75f3 242d a1bf 9c32 a77e 5973 b23f
00000340: 7691 912b c979 aabf b1f2 6ed2 0314 8dbf
00000350: c7ad 1a50 51aa 46bf d5d8 0274 c72f abbf
00000360: 7bc1 fd98 dfbf a33f 6a4e 190f e24f b1bf
00000370: d355 14e8 1757 b03f 856c 3cad ae7f b33f
00000380: 6ef8 8dc6 2a11 b1bf 1214 74e5 5c59 b4bf
00000390: 63ca 7206 b89a 893f 2189 fc47 1f5e bb3f
000003a0: 3a6b f251 5fbb aebf 6f5d d63d 0bd9 b6bf
000003b0: a69f 79e9 5d41 803f f708 d20c 04df b8bf
000003c0: 3a77 9d6f 2329 b4bf 3195 e34d eb2e bd3f
000003d0: 98c3 452a c8e1 bdbf f977 745e 1540 babf
000003e0: b0e2 50f7 6a35 853f a466 942c 42dc a6bf
000003f0: 782f f4a6 52fc 9abf 591c 26ae 9703 83bf
00000400: c0cb 5fd1 ebaa c0bf f71c eddf abaa 723f
00000410: 87ff bcae 1d8b b5bf a6de 89a9 4465 abbf
00000420: cdc6 6878 ef55 a63f a23c 421d bf19 bdbf
00000430: 58be 2cc0 25eb 7a3f dbf3 d1d9 df96 91bf
00000440: a093 be0c aa8a aebf 3806 3899 306b b73f
00000450: dc48 6aa0 462b 833f 5b2c eea1 731e bfbf
00000460: caeb afad fbc5 973f 63de 14f5 beee a93f
00000470: 4612 da51 13f2 a3bf 5085 82d1 56e4 af3f
00000480: c5ea b7b9 2996 b5bf 5ae0 c337 00d7 93bf
00000490: 4036 b4f4 8e1f b43f 7f93 af3b 8ae9 8cbf
000004a0: 3f93 60dc 2124 833f 8214 1578 768e 8abf
000004b0: fe7a f654 e1d0 b1bf 5eb2 5af2 94b3 b93f
000004c0: 1fe8 3609 5a5b a13f e929 a528 7d02 85bf
000004d0: 6360 7edc 7502 c0bf 2eb6 c073 2ce6 babf
000004e0: de0a 67d0 6d9c bdbf 8111 b5fa 6c9d c03f
000004f0: 89ff 37ac 94bc babf 6953 fba4 2662 953f
00000500: 2b32 fb40 b904 babf 90ca 529c b325 b5bf
00000510: fe52 604e 0b0f b2bf 20f3 50a4 dc31 bd3f
00000520: 6467 61f6 0330 b8bf 2933 30ff 34ec abbf
00000530: 7e06 6a37 7772 babf b162 7f55 f1b8 b2bf
00000540: bf65 da00 3d3c abbf 51e9 daf4 8aba a4bf
00000550: 7760 b465 0b27 acbf 61c9 30b0 4e64 9dbf
00000560: bfbb bfb0 25d4 b2bf 96f1 a577 a43f b13f
00000570: 8d7d 0a27 d291 b4bf c119 5a89 2626 963f
00000580: da4e 1779 4783 bdbf 2bd3 9ad2 7663 b83f
00000590: 9c23 601d 68bd 69bf 2fd1 a480 cf37 b4bf
000005a0: a8f7 a464 3b63 b0bf 158e f093 0553 9c3f
000005b0: 0fd4 df87 0159 98bf abe6 b145 9322 b13f
000005c0: 7a0c 4983 15be bebf 3602 32d7 02b1 bcbf
000005d0: 318b c39d d89c b0bf f8cd c47d 2f98 bfbf
000005e0: 276f 6ad8 8b84 a83f cc2b fa64 2c45 513f
000005f0: 8f7b f9c0 3d6e babf 6220 a8a5 758a 1f3f
00000600: 9c7e 5a67 b3b1 b93f dcd4 27fa a306 bdbf
00000610: 90c1 0ea1 0f48 ae3f 1ad6 0340 0cbf b63f
00000620: ee4e 1eda 508a c03f 4844 ef8e 2822 b13f
00000630: 1453 83e2 53cc a6bf 7f1a eb16 3640 a13f
00000640: 6919 1943 cf36 7c3f ae84 f722 6561 bc3f
00000650: 3fdd 5c83 6635 b2bf 0f34 9af0 a03d bebf
00000660: 06a7 37a1 9b87 b2bf 5fe6 ca1b 508b a6bf
00000670: 76c9 01d3 ab85 b43f 159d 3aad f914 a5bf
00000680: 219b 4cc4 d217 bd3f df70 643c 3298 7d3f
00000690: 9f75 19df d112 b1bf 02a8 d20c 73b3 973f
000006a0: b9d2 6a4a 8b8c af3f 0a92 57d7 2992 823f
000006b0: 1006 ff77 0b6e b03f 9917 3b76 5b92 6f3f
000006c0: c014 8092 c0a2 b6bf ca5e 6a38 1a44 a03f
000006d0: 73ee 39ad 910b b8bf 345b 874b 1359 b73f
000006e0: 3cab 929a 783d b4bf 31c8 daab 7bc5 b1bf
000006f0: bed6 6c70 64c1 73bf f6f3 3c03 1c73 b43f
00000700: 384a 88ce 5fbf bebf e0c6 02cf 7dcf bdbf
00000710: eba5 db38 e7c9 bc3f 1d2d fe1e f0e9 bebf
00000720: 476f 68b5 54be bdbf 1659 a318 6a3f b7bf
00000730: 4207 e983 9abb a6bf f13f 6660 c5eb b4bf
00000740: 1f69 f32a 0fef bcbf c7c9 3717 f140 933f
00000750: 9b80 0b2c 6351 b5bf b2af 61ed ecea b73f
00000760: 677e 5c1b 5024 ae3f a112 efb5 b144 bfbf
00000770: ae4e 7be4 06b2 babf 9a8e 2b65 0090 a33f
00000780: bc7a ca28 daff a33f 0776 9cab b3bc 683f
00000790: 1659 1f5f 7394 b0bf ade4 eae2 306e b73f
000007a0: d7ca fd9d f3d4 923f 0856 3ef9 1450 8f3f
000007b0: 6df9 9991 9286 b03f 05e5 e986 c15a b7bf
000007c0: bec3 066c 1602 bbbf 35e8 3bab f8c9 b7bf
000007d0: 9ee9 f8f5 64a9 a03f ade1 df92 1989 ad3f
000007e0: 52c3 aa70 c886 5ebf af6d ff7a 1f92 853f
000007f0: 41c2 791a 594b a4bf 14b5 d7b6 4cf7 b73f

equations.x.layers.2.bias f8 [64]
-0.0057760556363537 0.08566740006855801 0.12203722154763463 -0.12407354577357141 -0.07914224675721498 0.10139769879203032 0.10770030331885921 0.14904134784518336
0.06297854005145317 -0.00516006488309079 -0.06605782629420728 0.0809158228653314 -0.03858231556835613 0.00459222244090367 -0.02307227068368529 0.10958237217330621
-0.03677681657633829 -0.11258711130458775 -0.11729723011118463 0.029902035857597046 0.006347320876856579 -0.0852537989940734 0.07736503848720977 0.07049894916022618
-0.09227127528053061 -0.07818194884619835 0.06459517980845435 -0.09186711962486571 0.0358743290699123 -0.08898364884401942 -0.06923061754789755 -0.11286030428517385
0.09722343870061355 0.08359551617775474 -0.08486728761267415 0.03692770119952475 0.028070708641560353 -0.09411859161622463 0.13171967563619041 -0.10618491312308752
-0.011294839316148027 0.06014828657469109 -0.03671432251612642 -0.0003056697611883561 -0.09551176550511187 0.08247628171366303 -0.11421397716855121 -0.006353593745640147
0.09318384332756594 0.010657598113364511 0.003179843356169902 -0.015044010764206434 -0.005443397597843469 -0.007017801219897716 0.09752295589308395 0.07504136309536356
-0.008502406643629251 -0.06226944688890563 0.08815076238225102 0.013443048441631961 0.06627675653637588 0.04348479754180441 0.06557602923994335 0.09605595059777257
00000000: c7a1 ed20 a2a8 77bf d1b7 a079 4cee b53f
00000010: a019 71d3 d43d bf3f 8670 65ad 48c3 bfbf
00000020: 14e0 8d91 aa42 b4bf d990 3318 33f5 b93f
00000030: 7c16 8640 3f92 bb3f e297 5f71 c913 c33f
00000040: e6ed de91 5c1f b03f 4497 b05e b822 75bf
00000050: 8e16 946b 2ae9 b0bf b97e ef3c e6b6 b43f
00000060: 72dc 23af 0fc1 a3bf 33b8 3153 4bcf 723f
00000070: 13a1 1fe0 41a0 97bf ced3 b320 970d bc3f
00000080: c789 e430 69d4 a2bf df1a 0149 82d2 bcbf
00000090: 272a 3df7 3007 bebf 5169 5ea8 a39e 9e3f
000000a0: 4244 55f9 a5ff 793f c20f 8a66 31d3 b5bf
000000b0: 6006 28f6 31ce b33f 63a8 0b19 380c b23f
000000c0: e2a9 b01d 179f b7bf 6195 6e71 bb03 b4bf
000000d0: 53ad c148 4f89 b03f 20d4 5d82 9a84 b7bf
000000e0: f30f 3ebc 1e5e a23f 8fef a9e5 a1c7 b6bf
000000f0: cc06 4006 19b9 b1bf dce2 ebb3 69e4 bcbf
00000100: 17b1 9fa1 a2e3 b83f c860 1308 8466 b53f
00000110: 00f2 cbd0 dcb9 b5bf 96d4 ef09 30e8 a23f
00000120: 3e3b 5d5e 91be 9c3f 92f0 eff0 2718 b8bf
00000130: ee6f 8cb9 30dc c03f 1738 3139 ef2e bbbf
00000140: f1ba cfab bf21 87bf 135a 7f97 c1cb ae3f
00000150: 65cc 003d 38cc a2bf f2a4 afa0 4908 34bf
00000160: 0049 3a85 7573 b8bf cee6 a764 2a1d b53f
00000170: 595d af90 203d bdbf 7bf0 97d5 3906 7abf
00000180: 0a84 9b77 e5da b73f 7576 ce9a a6d3 853f
00000190: a3ae 1367 9d0c 6a3f ea0e ddf1 64cf 8ebf
000001a0: 4dfd 96ea d04b 76bf 912b abab b2be 7cbf
000001b0: 2388 2bb2 43f7 b83f 5783 5728 e935 b33f
000001c0: 9000 c6b3 b569 81bf 4910 dbeb c7e1 afbf
000001d0: ad9a 8c61 0c91 b63f 9da4 526b 0788 8b3f
000001e0: 3806 cf75 83f7 b03f fa65 a1ae a343 a63f
000001f0: 5ab2 fc34 97c9 b03f f553 676e 1f97 b83f

equations.x.layers.4.weight f8 [64, 64]
0.007219420760910545 -0.061837864548406715 -0.10768824509226745 0.05044171455470149 -0.06572009917673477 -0.058665553907397916 0.1294390559503766 -0.1673890634702703
-0.008005910409026356 -0.10428669998768969 0.07590334872119368 -0.09005360443318071 0.04305867287713639 -0.0770701498891042 0.11679003241620094 0.015062657750534008
0.1220311498336818 0.0036343140179511237 0.06199010999342289 0.04521352959993882 0.02316438499768395 -0.006945374487496897 0.06618190025407836 -0.10250970653937228
-0.16491310205271073 -0.16738990712293964 -0.054528715084014204 0.08800344841736762 -0.029324680645047795 0.18093224172830646 0.012733149083750875 0.09659369292517321
-0.08907447398656619 0.09420446491248081 0.014541100437569707 0.09927149548836392 0.03396645194731471 0.050635166311284806 0.036827396530896006 0.02897614142467393
-0.011686892421318703 -0.07518997290538525 -0.07614253602842491 0.02524061497772509 -0.13476996713949885 0.022004939234246443 -0.010940268222889741 -0.15135811139270802
-0.014314533347191235 -0.030952059638690035 0.20079156570772957 0.010345448148616956 -0.08555011798869222 -0.06963005463422059 0.0036725595034259938 0.06876988591980857
0.015670895376725155 0.05439901133169102 -0.027934733161131323 -0.13528101422599562 -0.032005463545618125 0.054053792468257374 -0.07362276641315753 -0.06435672000721726
-0.08270001057641281 0.07527072485986573 -0.011605403501986414 -0.10431815306257917 -0.043708317529720694 -0.0895298785147176 -0.12508460250940412 -0.061917808886018944
-0.04594484315158986 0.14330677080350182 -0.043900696821376074 -0.06682073561435901 0.03469241002908571 0.055473033973538144 0.06029184689466532 0.0946884960856093
-0.004155010191123809 -0.13158330294374354 -0.07248936026510361 -0.026636010537885096 0.04781092908510565 -0.04233187722590291 -0.028369745675059982 -0.056640656706502625
-0.009057575963730932 -0.01465946605937517 -0.06004296641596757 0.12866829796234014 -0.020725805541348695 0.020301243654817766 0.026716752698741214 0.13873318018329292
0.018814968547207423 -0.05859793672761031 -0.0716294439248802 0.0060752437960079056 -0.07734762663857232 0.007468056306495576 0.06787077929551194 -0.11694167035417946
0.03116251630087422 -0.019265245245873586 -0.011429800947890745 -0.018058201358772993 0.16106742508297142 -0.015319944555474224 -0.10804712804894522 0.1359789650734819
-0.1200318982905451 -0.07360157526974581 -0.07819666914564388 -0.036150466191140346 -0.04462168079949769 0.11416826802623813 0.001747269705486331 0.09675869649846178
-0.0016039263757960552 -0.014559953563330043 -0.07595783074611155 0.04640959542251642 0.007296503551642146 -0.011661341800152242 0.04165683938785748 -0.0947005566925385
-0.0803435894011191 0.10847419324506431 -0.010995145859742284 0.10135272388950947 0.03326532502520924 0.09784657170497671 -0.031525535938984876 0.04056416035155138
-0.06083946571584813 0.010231983284987017 -0.013087346685229642 -0.049135675203059594 -0.05792220023498455 0.007598784355599855 0.04404743601640319 0.022428111012200894
0.03203403944954924 -0.06017390130584986 0.02478200114244251 0.06187297624830511 -0.07269520918052554 -0.06915969091105575 -0.05840598271975587 -0.006017585289203623
0.026915022949241856 -0.10785812605988387 -0.013085588940391968 -0.09671185453368117 0.0329679902874753 0.12249173922201488 -0.06548254252640937 -0.07563682314689008
0.02778467931865795 -0.16449704462991835 -0.02167390402087961 0.09771257279816686 -0.149077317286453 0.15443311588678343 0.09578659053406043 -0.006121345490242494
0.03110844350908257 -0.06340178418467293 0.08269794166871079 -0.015160500920308836 -0.0958675285413148 -0.06360316813473219 0.0001210450555792783 0.06901375531123252
0.0751121753977732 0.017958081929783723 0.15641482972974333 0.0840565552396285 0.024383922493965943 -0.06794149317078203 -0.019618900819153694 -0.08480749817939533
0.11789125907325827 0.1298413055136791 0.04821779242812246 -0.032772914856202755 -0.11597709366614128 -0.04821857040633715 0.12191784351124844 -0.019698181764641633
0.0828256989822927 -0.016175975754208198 0.0346847981401636 0.0892116899007676 -0.021514652668988096 0.060070902908893435 -0.10285738521996632 0.01634673938744432
0.004126926234638681 0.009267530133668269 -0.05432566550172004 0.11348476632410218 -0.05286780043778153 0.014281409897627044 0.0820735519261061 -0.058140230668327374
0.07637598101434098 0.08922292225101221 -0.06865880208825074 -0.017775807199233003 0.050544682238357154 -0.09648060936690166 -0.11762462509525722 -0.048521401200738404
-0.00266756197493748 0.01609108801443922 0.09840532700759201 0.02747764998994291 0.07707017477112994 -0.11816616312542301 0.06598904172638054 0.011257935033564414
-0.05149158509778189 0.0656500825164662 0.09402505815106789 -0.06389637329422457 0.01849284808170404 0.1196445267524397 0.03921862427492462 -0.0291094602613762
-0.11590850260901746 0.06384320431878932 0.055838356144487726 0.003341955931660583 -0.0592831161124082 -0.06941307660189922 -0.02813020722689475 -0.057656358623349786
0.02011999715006888 0.01210721508862504 -0.015143157933541733 0.04851093505789222 0.0543387965387698 0.09272638973906089 0.1048912188384868 0.0346541382356902
0.0008931793736517565 0.02687458632822392 0.06910885206646986 -0.005679970342160169 -0.009932371471856586 -0.0961474794273038 -0.1004594389877261 0.04518084613774192
00000000: 8edb 0681 1c92 7d3f f69e c76b 36a9 afbf
00000010: 65bd d5f2 7491 bbbf 52b4 bb14 7fd3 a93f
00000020: 6c69 a74c 08d3 b0bf 2035 de56 6909 aebf
00000030: c7e4 1080 7591 c03f 6d0c a83c 016d c5bf
00000040: 5642 0d1b 6765 80bf 20da da7d 88b2 babf
00000050: cb16 6ae0 666e b33f 2b6c edc5 c00d b7bf
00000060: 7107 a24f c90b a63f 5f82 458d deba b3bf
00000070: ebf2 b999 f3e5 bd3f 2361 6fb3 2bd9 8e3f
00000080: 2802 a1f5 6e3d bf3f 1a40 377b b5c5 6d3f
00000090: 6cc3 31ee 2abd af3f acda ef4d 3a26 a73f
000000a0: 09ef fc8f 67b8 973f 932f 84c4 c072 7cbf
000000b0: aaab 2d09 4cf1 b03f fef1 1b7d 133e babf
000000c0: 65c8 ff5d df1b c5bf 2702 6350 086d c5bf
000000d0: ca1d f50f 30eb abbf f847 e3dc 6487 b63f
000000e0: 0331 5801 4a07 9ebf ecec 81a6 c928 c73f
000000f0: b550 1e57 d613 8a3f 630d 1d40 5dba b83f
00000100: a742 aeb0 95cd b6bf 59b0 efa7 c81d b83f
00000110: f221 9e76 b9c7 8d3f 3a2b 8c52 db69 b93f
00000120: 0cbc 8c00 0d64 a13f 2b42 ab3e daec a93f
00000130: 18e0 645f 0adb a23f 130b 22ef ebab 9d3f
00000140: fe74 ee25 4cef 87bf 2ba2 9d6a a63f b3bf
00000150: 309b 13c6 137e b3bf 38e7 70ff acd8 993f
00000160: 286f ac6c 2440 c1bf ac3b 7279 7688 963f
00000170: c271 d0f1 d967 86bf af3f 35dd b35f c3bf
00000180: 7e64 ab24 f050 8dbf 746c 918f e5b1 9fbf
00000190: ab7f 03bc 89b3 c93f 0eaa af8b fe2f 853f
000001a0: 042d eece 9ce6 b5bf f200 7977 46d3 b1bf
000001b0: 8fea b65e ea15 6e3f 96a8 f93a e79a b13f
000001c0: 5c7b 91fc 070c 903f e26c 35ed 2fda ab3f
000001d0: 51ef 6535 ec9a 9cbf 0568 ef65 e350 c1bf
000001e0: 3989 7126 0563 a0bf c17a c04d f0ac ab3f
000001f0: 954d fc0d f1d8 b2bf b075 b597 ae79 b0bf
00000200: cdf6 cdf0 d32b b5bf e78c 9e35 f144 b33f
00000210: 22bb fbe3 92c4 87bf 1f6c c82f 98b4 babf
00000220: 2ee8 b4c4 ef60 a6bf ff4d 3c1c 6eeb b6bf
00000230: 186a 81b2 c502 c0bf 102e 69e8 b0b3 afbf
00000240: ff08 831d 1586 a7bf 7fbd f252 e057 c23f
00000250: cd24 3df2 267a a6bf 9b88 28ea 291b b1bf
00000260: dc1a fd1c 34c3 a13f 28d6 7325 f666 ac3f
00000270: b78c 41ad 92de ae3f ebbf fe59 813d b83f
00000280: cdb1 2a0e d804 71bf b4e8 6bbf b8d7 c0bf
00000290: 6486 a5a7 a98e b2bf fbdf 9f68 7846 9bbf
000002a0: e0b1 9f91 ac7a a83f beee 8618 86ac a5bf
000002b0: f81a 7b67 f50c 9dbf 2d56 5b10 0100 adbf
000002c0: 4bb1 5c44 c78c 82bf 392a 6a3a c805 8ebf
000002d0: 580a 39a2 f3bd aebf b8de e3e9 3378 c03f
000002e0: d6f2 ee43 2539 95bf bc24 4366 d9c9 943f
000002f0: 28ba 62ec a25b 9b3f cfef e043 02c2 c13f
00000300: bd93 572a 3b44 933f 3661 b77b 8c00 aebf
00000310: e588 16a7 4e56 b2bf 1f8e b4d6 5ae2 783f
00000320: a9fc d5d6 0dcd b3bf 5c0b 9e19 d396 7e3f
00000330: 4ca2 6db9 fa5f b13f e0f7 b5a9 e3ef bdbf
00000340: 0948 7e11 11e9 9f3f 602d 1fb9 44ba 93bf
00000350: daf7 2aea 8168 87bf dcc3 0a61 d97d 92bf
00000360: 5b55 977d db9d c43f 3005 bd26 1060 8fbf
00000370: 1f9e 6501 faa8 bbbf b69e f73b c267 c13f
00000380: 037b a215 69ba bebf 4cb7 b786 8dd7 b2bf
00000390: fcfc a268 b204 b4bf 2c5d 0d5c 5082 a2bf
000003a0: e0e9 7327 a7d8 a6bf 4fe5 69b1 213a bd3f
000003b0: fcbf 828f 94a0 5c3f f681 108d 2dc5 b83f
000003c0: 4c33 12d5 5a47 5abf 7414 16e3 9bd1 8dbf
000003d0: b3fd edee f871 b3bf 8edf 1e9d ffc2 a73f
000003e0: 123b 1242 f0e2 7d3f d0e6 45cd e6e1 87bf
000003f0: 72b1 a695 0b54 a53f 6f4e e8b1 4b3e b8bf
00000400: 82ca ebc0 6591 b4bf ad91 72f8 f6c4 bb3f
00000410: cd09 0f7f 9f84 86bf 3a49 778a 40f2 b93f
00000420: 59ee 2516 2708 a13f daa3 7f11 790c b93f
00000430: 6f91 b173 1d24 a0bf 7b00 335c d3c4 a43f
00000440: 3782 1cb7 5926 afbf 566c a88c 81f4 843f
00000450: 5b2a 09f0 89cd 8abf 1dc7 20ac 4f28 a9bf
00000460: 7678 7187 faa7 adbf 431c bf24 e71f 7f3f
00000470: 6582 53b2 628d a63f 04dd 3b0d 65f7 963f
00000480: 37d4 96ff c366 a03f ceda 5c14 1dcf aebf
00000490: d3b1 bef1 7360 993f 4e3d fc92 d0ad af3f
000004a0: b198 013a 279c b2bf 9619 aa12 73b4 b1bf
000004b0: 851c 5893 63e7 adbf 9dcf 4940 e5a5 78bf
000004c0: 7e32 5a9d 9c8f 9b3f d0f8 0814 979c bbbf
000004d0: 6010 6204 9ecc 8abf 4290 5bac 1bc2 b8bf
000004e0: 7df8 3230 2ee1 a03f 631c fd5d 9e5b bf3f
000004f0: 9e1f 9cc2 76c3 b0bf e40a ca51 ef5c b3bf
00000500: 2b91 0344 9673 9c3f 01b1 7c39 3d0e c5bf
00000510: 5408 c913 af31 96bf 4c7e 93f0 b003 b93f
00000520: b70d 292d f714 c3bf 3499 13df 76c4 c33f
00000530: cd37 bd51 7885 b83f 2a7e 022b b212 79bf
00000540: 19ff 004e e4da 9f3f daca 946d 193b b0bf
00000550: 8fe3 e93a b12b b53f 784e 26fd 770c 8fbf
00000560: bc52 d53b c68a b8bf ae87 0f17 4c48 b0bf
00000570: 3d78 6038 32bb 1f3f 1630 09ae e2aa b13f
00000580: ec66 dd30 8d3a b33f b467 597a 9a63 923f
00000590: 5d3a 26b1 6605 c43f 67c4 c4fb ba84 b53f
000005a0: 059e a356 19f8 983f 11bd 351b 9d64 b1bf
000005b0: d35f 9b25 fa16 94bf 4dd6 22b7 f1b5 b5bf
000005c0: 4933 341e 1f2e be3f fff3 6cd0 a39e c03f
000005d0: 08d2 20a3 00b0 a83f f703 018b 9cc7 a0bf
000005e0: b096 61c0 acb0 bdbf c001 e9bd 1ab0 a8bf
000005f0: 0ffe adfe 0136 bf3f 1713 e199 c22b 94bf
00000600: a4b4 65a4 1034 b53f 8e7f 615b 6f90 90bf
00000610: b558 5cb3 34c2 a13f d370 8bca 93d6 b63f
00000620: 1c75 64e6 ef07 96bf b7a9 de06 9dc1 ae3f
00000630: fefc ab91 dc54 babf 36e0 421c 33bd 903f
00000640: 4a58 5f53 65e7 703f a1dc b5d6 dafa 823f
00000650: 139f 53d9 92d0 abbf e6ca f46f 560d bd3f
00000660: 5590 c803 7d11 abbf 3ccf 9b63 923f 8d3f
00000670: 88a1 63b5 c502 b53f 3bcf 9a6a 8ec4 adbf
00000680: 2211 a854 608d b33f 5524 1f3d 50d7 b63f
00000690: eb33 8d8d 9f93 b1bf e2a4 523a d233 92bf
000006a0: 2da2 661a fee0 a93f 8bd2 ed05 f4b2 b8bf
000006b0: 2b07 fdbd a51c bebf 7a64 a00e ccd7 a8bf
000006c0: 4738 286e 48da 65bf 95c5 1da3 2e7a 903f
000006d0: 73f2 3f6d 1731 b93f f39a 4fe0 1923 9c3f
000006e0: fd95 23f8 deba b33f 0514 1e3e 2340 bebf
000006f0: 78f3 1b68 a8e4 b03f f934 5176 660e 873f
00000700: d741 07e4 1a5d aabf f84e 639d 71ce b03f
00000710: e969 c3b5 0612 b83f 3eb7 a141 835b b0bf
00000720: 601d e206 caef 923f 6c10 8c11 06a1 be3f
00000730: c050 4fa9 7614 a43f 87aa 4ecf dece 9dbf
00000740: 33b8 08fc 2dac bdbf e0fc 9e3a 0758 b03f
00000750: ff85 0153 d896 ac3f 7106 cced 9660 6b3f
00000760: 6dc6 d049 5b5a aebf 907e eb2d 0ec5 b1bf
00000770: 82e0 4640 2ace 9cbf 3931 635d 2285 adbf
00000780: 6a48 0527 569a 943f 176d cfe6 aacb 883f
00000790: 8f6b a940 6003 8fbf b7e0 24df 6cd6 a83f
000007a0: 9c76 1374 4bd2 ab3f 60c9 67ab eabc b73f
000007b0: 6583 8ca2 26da ba3f 8165 c9ec 2fbe a13f
000007c0: 8288 8219 8844 4d3f 5e35 7ef5 0285 9b3f
000007d0: c655 7d23 1eb1 b13f 010c ca6d e143 77bf
000007e0: 5593 2555 6c57 84bf 9dac bb07 1f9d b8bf
000007f0: c5db 06b5 b5b7 b9bf 4769 22a1 f121 a73f

equations.x.layers.4.bias f8 [64]
-0.038577498101363544 0.004390238633385732 0.0052522305597265855 -0.029191702570649045 -0.017702745154036456 -0.0879216322036414 -0.09103949658638033 -0.10285713615571457
-0.04847387324818661 0.08614529211555913 -0.09687415680328716 0.026349975171727998 -0.07164370902075541 -0.030118221730552418 0.08252832465535563 0.11150151339495731
-0.03552302417706956 -0.037285833594007174 0.07887268740075355 0.051147226462108446 -0.03831016792322339 0.1097676843035732 0.015566428733489096 -0.030313404495418108
0.05618252410809446 -0.04636060746497024 0.1187134530383285 -0.08204106602199344 -0.06914767187078726 0.1152709155323501 0.03251530825629076 -0.01996668985907743
0.11266645479097283 -0.000674773307759458 0.026415309898572818 -0.07957067488027414 0.0036129925602078616 -0.005329858834217935 -0.08104830172505106 0.09722908964661173
0.0039767160526369754 0.10767565102281475 0.07159816884770746 -0.12623856623696864 -0.02848788374324365 0.06037739582405373 -0.09223268233218902 -0.026749754290949387
0.03520243970795609 -0.06089912818791911 0.008066636883176336 0.1085608957201328 0.004687482887811121 -0.13633804766039342 -0.1132482021361924 0.041661926790665875
0.03789860507660527 0.06671869724437833 -0.017363965089239167 0.03721492317253141 0.009109327341692593 0.0732203427740429 0.017898969987146636 0.053983147858465336
00000000: 5ce9 6909 6ec0 a3bf 8ae7 a1b5 7ffb 713f
00000010: 95e0 c2e7 5c83 753f 5907 6cff 6de4 9dbf
00000020: 5cac f11d ab20 92bf d3f2 ec36 0882 b6bf
00000030: 4099 7b4c 5d4e b7bf 88f2 f263 d854 babf
00000040: 3c71 9f48 91d1 a8bf aa37 572c 9e0d b63f
00000050: b135 4ca7 becc b8bf 02b2 73e6 7cfb 9a3f
00000060: 2552 35fb 3d57 b2bf 76b6 62a5 4fd7 9ebf
00000070: af6f 6387 9320 b53f 8260 7cf9 5c8b bc3f
00000080: 73e9 30e6 1230 a2bf 21dd c7f7 2017 a3bf
00000090: f511 ef1c 0031 b43f 3f29 df21 f82f aa3f
000000a0: 4045 abec 639d a3bf e8d2 3d26 bc19 bc3f
000000b0: 7057 9bb2 4ae1 8f3f 07c2 c023 7a0a 9fbf
000000c0: 844f 4daf f4c3 ac3f bafc c4d9 93bc a7bf
000000d0: 1215 653e 0164 be3f ff51 7eaf a400 b5bf
000000e0: ed91 476d a9b3 b1bf 3d34 640c 6582 bd3f
000000f0: 7c06 29b3 d8a5 a03f d802 d1df 2572 94bf
00000100: 41f9 ae72 b5d7 bc3f 6b48 ffa4 681c 46bf
00000110: 2e26 8370 9d0c 9b3f 58d8 5466 be5e b4bf
00000120: 0089 609c fe98 6d3f 3d09 2a16 c3d4 75bf
00000130: f830 4edd 94bf b4bf 5286 4070 01e4 b83f
00000140: 27ce 4396 e349 703f 81ef b7a7 a190 bb3f
00000150: 1386 a7f1 4154 b23f ada8 bdd8 9528 c0bf
00000160: 87b5 0984 ed2b 9dbf 2ac3 f638 c9e9 ae3f
00000170: 3d36 3da2 8f9c b7bf ff32 6c9f 4964 9bbf
00000180: 6df6 91de 0d06 a23f 9213 d8a7 2b2e afbf
00000190: 06cb d0ac 3d85 803f 5610 be98 a5ca bb3f
000001a0: be63 429b 2e33 733f c670 f36f 8673 c1bf
000001b0: 6b78 818c d5fd bcbf 77c7 1b4a b654 a53f
000001c0: a36f bc2a 7267 a33f b342 b2fe 7914 b13f
000001d0: f4a8 bff8 dbc7 91bf 43fa e59b d50d a33f
000001e0: 5145 2b38 e9a7 823f facd 9d81 91be b23f
000001f0: 5253 e88a 1b54 923f dcaa 2cdd ada3 ab3f

equations.x.layers.6.weight f8 [64, 64]
-0.12357050791377859 -0.01557603221198386 -0.030103192359044795 0.05222938367168791 -0.01851492931850373 -0.11241396183664584 -0.04539245349814297 -0.0427846384449154
0.05639123813397688 0.0645848347762997 0.09624263965479653 0.025535742008569735 0.11263284092556983 0.04042705717124746 -0.09161971610735666 -0.06660997813811552
0.05325308742707293 -0.09300642493268398 -0.11500056156094175 0.017075168327786355 -0.01662943556366075 -0.015895002619225586 -0.12290818435028797 -0.08698648904505735
0.01887467726516163 0.0774939398972744 0.013491584747617571 0.11563516242605203 0.12399632833379634 -0.06203531872387807 -0.06205004124993409 0.15049356329462985
-0.026337081717009447 0.08314903237935935 -0.12462678062105238 -0.01291325253123108 0.11386703248908839 -0.052164753319788655 -0.021190361438875604 0.11266668262900108
0.0024502063225731547 0.08948558372305578 -0.0016107905377032012 0.06960864918249902 -0.06934573078324391 0.06633625249243548 -0.062428966737532524 -0.03070847892165716
0.054228997451508124 -0.022963258244325633 0.108712726906916 -0.039674695308376376 -0.10136607525111858 -0.0574025696804283 -0.016218143593220748 -0.10151007453764416
0.004556834939533679 0.007266943475981851 -0.1142812189369621 -0.07949631575781517 -0.06511748998168385 -0.06991950258405201 -0.10139060415300231 0.011647047759562337
0.06221002811338637 -0.07582743858688228 0.04738283777643393 0.07571204427108695 -0.037493842771976864 -0.06546813299887162 -0.026151701398779818 0.0068091798231387545
0.08535345200385185 0.050597325567021144 0.06532399768975483 -0.029400466442821103 0.0718994539859345 -0.06845928177261112 -0.003113687607017826 -0.0393461458461994
0.0621253835114332 0.06342611485013716 -0.10463005416039634 -0.0009353505743751832 0.016302808583995135 -0.09306541765563418 0.09353790412368801 -0.11589388350918153
-0.005833887149856415 0.024657514382235422 -0.017239812181098248 -0.12832387990009514 -0.04378738107468775 0.13836584436089192 -0.0637803164531159 -0.11926493865721222
0.017489816054424533 -0.12369994998258542 -0.04647995751141655 0.1332514259481895 0.022715669843948537 0.032079045961995824 0.12599728428591986 0.11370659775265626
0.07217610313454306 -0.025061560583608665 0.11188712126615717 -0.016433859788527367 -0.03826194497720579 0.07977496188452864 -0.09719955567170797 -0.079359947549732
-0.03133197323281151 -0.04841566891692252 -0.11879218205334467 0.13869732970657397 0.13745158367952856 -0.14844587925048264 0.01305171438184158 -0.11800974445914272
-0.05135100229942313 -0.06978827457673507 0.036871277005695015 0.03355770211385927 -0.06911044655276008 -0.04226092269863274 0.04152011306421185 -0.029743327016765415
-0.10227190122256961 -0.03383777207238026 -0.06410286014741225 0.046370949640840486 -0.06804030847869327 0.04704936808575237 0.03989551698591763 -0.13858369979712998
0.05925503117658049 0.03573480294334233 -0.00813728723442028 -0.12605955422316256 0.05240757087640859 -0.022729138530842886 0.01865052738285055 -0.005096566735710785
-0.10842059559980394 -0.09862341365291286 -0.08407865863931571 -0.056213997202964966 -0.012507229107342997 -0.017785816785389208 0.035201254819021394 -0.05776568664726286
0.02947014886754002 0.12149491690028717 -0.11118256494936342 -0.07437860836884377 0.012120511582750609 0.0026354171980239294 -0.03138225213107566 0.048670136531472515
-0.09562789550315892 -0.09086543871744518 0.07961193310353652 -0.07922302056261012 0.04323978035466031 0.09865761482574487 0.10011132063468313 0.012512252290051444
-0.0624822927947599 0.031201151164750772 0.10027130274456136 -0.03389007009118002 -0.025335900598033603 0.15337289018395145 0.11892244398587076 -0.0005088162580620809
0.05483688085999049 0.03941645790304115 0.029482087719378023 -0.06570205652809116 -0.10175605993169697 -0.08368594918232054 0.04317629408021207 -0.03833885316825834
-0.08121740135591957 0.11190339024232633 0.018911742671288027 0.03449401727060038 0.006259811262912915 -0.01615755848244822 -0.051197698857218775 -0.06617788772600167
0.01763532573397407 0.04194323259321849 -0.04072060148744814 -0.027448904746914186 0.07462686375654741 -0.11538289383743791 0.05552521936921283 -0.06977253435973238
-0.07253593152238577 0.12299518838621903 0.10611979734669473 0.023808269219657716 0.03255123981645255 0.06820343512190959 -0.022636297606029913 -0.060750794345746886
-0.05401362303760489 0.01708580536418953 -0.014742607432472538 0.05145002567692982 0.059271016543838304 -0.07347104474066507 0.08799904141338467 -0.0011382414064945742
0.1328328479991949 -0.041680924580289054 0.10617646183783498 -0.03442397216786948 -0.09016314097579321 0.013817928412031577 0.01565612727829206 0.09183730393783691
0.08538395920834102 0.1112001674469648 -0.03493536475276099 0.01216974439863978 -0.004401630231790928 -0.020214131607028993 0.027338279016496336 0.09034749490727197
-0.03401792417023493 -0.040793098240928 0.10049724725263576 0.025547088466417383 0.020649278306765734 0.09176317768749694 -0.03527658334869477 -0.06681020859732544
0.08299831724180516 0.056916551110871585 0.07710489812685008 0.07379635420475363 -0.10394946755274988 -0.08834268987516708 0.11414181849823336 0.057975891104084125
0.0630857956321311 -0.053063621175472336 -0.07315291558766394 0.04952336348960339 -0.15586067642341736 -0.11971386419582393 0.09510952252936089 -0.11320721378383422
00000000: c362 3d1a 51a2 bfbf ad84 9da7 53e6 8fbf
00000010: 20ca bf0a 5fd3 9ebf 8b30 854d cfbd aa3f
00000020: 1e95 a4df 93f5 92bf 76c2 b351 29c7 bcbf
00000030: a8fa 84fe ad3d a7bf cdc0 c83d dee7 a5bf
00000040: 66fc 21f7 4fdf ac3f 8688 2eb9 a188 b03f
00000050: e94d cc8d 5ba3 b83f f23d 39a3 0a26 9a3f
00000060: ca1b 3b80 81d5 bc3f 7a1a d9f0 dab2 a43f
00000070: 2193 59c4 6374 b7bf 5fc3 b0fd 590d b1bf
00000080: c313 d219 fd43 ab3f 995c 67e1 44cf b7bf
00000090: 7106 ed42 ad70 bdbf c888 2a26 277c 913f
000000a0: 0f63 9687 4e07 91bf 5a79 ad91 c746 90bf
000000b0: 52fa 3128 e976 bfbf 4073 a41d bf44 b6bf
000000c0: 1342 4e26 e253 933f 4a3a 7f91 a4d6 b33f
000000d0: fb0b 19da 79a1 8b3f eb35 e318 449a bd3f
000000e0: 2e8a 042f 39be bf3f 6763 3be2 17c3 afbf
000000f0: e290 c4e3 05c5 afbf c9f1 4d82 5f43 c33f
00000100: 8327 96a2 1bf8 9abf c16d c346 4149 b53f
00000110: c122 f96a 8ae7 bfbf b4f8 736a 4372 8abf
00000120: aa19 a2cc 6326 bd3f 4159 06ab 56b5 aabf
00000130: 9347 7b15 edb2 95bf f388 3d45 b9d7 bc3f
00000140: 96d2 c380 7412 643f 95d2 8df7 86e8 b63f
00000150: 3b70 872b 2564 5abf 23f0 c157 dfd1 b13f
00000160: 00cd d44d a4c0 b1bf 7984 fea2 69fb b03f
00000170: 92ea eb84 b0f6 afbf 7bb4 b622 0b72 9fbf
00000180: f222 1935 e7c3 ab3f 5909 ad2c ae83 97bf
00000190: 1664 b9e6 98d4 bb3f 3a0f a8dd 3d50 a4bf
000001a0: 359f 208a 20f3 b9bf bab4 f79e de63 adbf
000001b0: 8abf 5631 7d9b 90bf 588c 5a72 90fc b9bf
000001c0: bcf8 9d10 30aa 723f 52ba 2349 f1c3 7d3f
000001d0: c99a e1b1 8841 bdbf fb11 55dc de59 b4bf
000001e0: d672 de31 8aab b0bf b17a f398 3ee6 b1bf
000001f0: ab75 f510 bcf4 b9bf a835 c749 68da 873f
00000200: 5ee1 7528 fed9 af3f 63bf de50 6d69 b3bf
00000210: 106d 4835 9042 a83f 5bc0 0e52 dd61 b33f
00000220: 5f96 0399 6432 a3bf 850b 2902 85c2 b0bf
00000230: 5156 f8f8 82c7 9abf 658a 724a f1e3 7b3f
00000240: 4b0e f54c b9d9 b53f 839d 2685 e4e7 a93f
00000250: b0b2 b8d1 12b9 b03f f9ad 6fe7 271b 9ebf
00000260: cc47 78ab 0068 b23f f42d 5228 8c86 b1bf
00000270: 3ab3 254e e081 69bf 1a22 4493 2d25 a4bf
00000280: 77ba ddf4 e5ce af3f c061 fea0 b13c b03f
00000290: 3c30 cc04 09c9 babf d646 4910 4aa6 4ebf
000002a0: 4109 cef6 aeb1 903f 1b33 389d 22d3 b7bf
000002b0: a8ca 259f 19f2 b73f 5a76 7ab7 38ab bdbf
000002c0: e066 4628 46e5 77bf 8649 7dc7 d13f 993f
000002d0: da2a 0736 50a7 91bf 26be bbb9 ea6c c0bf
000002e0: b5f4 62b3 4c6b a6bf 27ec 34d4 f8b5 c13f
000002f0: 116f 4b25 e853 b0bf a098 17a3 2588 bebf
00000300: 3603 deaf d9e8 913f 8b29 b1c7 ccaa bfbf
00000310: 82ac dc92 38cc a7bf 2ce2 4bfa 610e c13f
00000320: 7691 58cc c642 973f ad59 962a aa6c a03f
00000330: 9948 b2d3 ad20 c03f dae4 af26 e01b bd3f
00000340: 6afd 8312 227a b23f c68f 5fdc bca9 99bf
00000350: ef85 ae66 a2a4 bc3f b5e7 5aa9 09d4 90bf
00000360: cd86 b7d4 1197 a3bf 2b6d 55c4 216c b43f
00000370: 1db4 cbf0 11e2 b8bf b29f 56fb ee50 b4bf
00000380: 0949 b590 be0a a0bf 326b 3945 f0c9 a8bf
00000390: 3389 f018 2a69 bebf 0bee 9087 d5c0 c13f
000003a0: 0bef 5774 0398 c13f 3aab 4d4a 4600 c3bf
000003b0: f1f7 6973 dbba 8a3f aab3 0ff9 e235 bebf
000003c0: f055 fcb6 ad4a aabf 5f8b f3f4 a4dd b1bf
000003d0: 4d6c cdc1 cae0 a23f 5743 37a2 792e a13f
000003e0: 2e8d c1e3 38b1 b1bf f860 c741 39a3 a5bf
000003f0: ab59 79cf 1f42 a53f e2b5 3ee3 0875 9ebf
00000400: 4bf9 0cc7 7d2e babf 703b d738 2f53 a1bf
00000410: 4dc7 e987 0b69 b0bf 283d 62e0 eebd a73f
00000420: 0aca b9f3 166b b1bf 7698 73d2 da16 a83f
00000430: 7e4d 6c69 2f6d a43f da94 3155 1cbd c1bf
00000440: 61c2 0dea ac56 ae3f 54fa f003 d54b a23f
00000450: ef62 6634 48aa 80bf 2e50 5e2f b822 c0bf
00000460: 5336 f445 2ad5 aa3f 1af9 9faa 4e46 97bf
00000470: 3e65 a6b4 1f19 933f f567 3a37 23e0 74bf
00000480: 4462 50c0 73c1 bbbf 0a57 4250 623f b9bf
00000490: 96bc 25d1 2d86 b5bf e4da 20bf 14c8 acbf
000004a0: ac41 d6df 639d 89bf b01d b4f5 7136 92bf
000004b0: d4a3 731c e605 a23f bb42 f6cd 7693 adbf
000004c0: 9299 6036 6c2d 9e3f 6b8b b776 4a1a bf3f
000004d0: 11c9 57e8 7576 bcbf 4e57 77fa 790a b3bf
000004e0: b69f de86 a3d2 883f bb94 a8d5 de96 653f
000004f0: e9d4 27a5 5511 a0bf 5999 63c9 4aeb a83f
00000500: b478 c5db 117b b8bf 6ccc a017 f542 b7bf
00000510: 3f10 0d99 7261 b43f 8120 68ba f547 b4bf
00000520: c8db 0445 8623 a63f 688d 2d1d a041 b93f
00000530: 73d8 1540 e5a0 b93f a9a0 1413 06a0 893f
00000540: dde2 43d8 adfd afbf 868f 66cf 31f3 9f3f
00000550: 8ce4 034e 61ab b93f cbca 660d 0a5a a1bf
00000560: 04dc ee81 a7f1 99bf de6e b70d b9a1 c33f
00000570: 4401 ae87 b371 be3f 8003 1298 42ac 40bf
00000580: af0d d163 9413 ac3f 1f46 3cdb 642e a43f
00000590: c945 4a6a 8d30 9e3f aa6e 1198 d9d1 b0bf
000005a0: 8592 9365 af0c babf d16e df3e 716c b5bf
000005b0: 41f0 1206 341b a63f 8d31 0c71 26a1 a3bf
000005c0: 7695 b0e2 a9ca b4bf 41fe 6659 b3a5 bc3f
000005d0: de5a 2291 995d 933f 6a76 2b28 33a9 a13f
000005e0: 3d18 744a e3a3 793f b3b0 0f65 9b8b 90bf
000005f0: abc5 71b4 9536 aabf ba64 80b7 08f1 b0bf
00000600: bc7c 20ad fe0e 923f 9b83 8d58 9579 a53f
00000610: bdf6 52a7 54d9 a4bf beca cbd0 901b 9cbf
00000620: 7bc7 3c03 bf1a b33f eeb4 8cbb bb89 bdbf
00000630: 7e86 9632 cd6d ac3f 1eed 3be1 9cdc b1bf
00000640: 466d acfd b691 b2bf c025 afd7 9c7c bf3f
00000650: 6fec 0fc3 aa2a bb3f bcf0 b0e6 3161 983f
00000660: eb6d e95c 8eaa a03f 3dce 52c3 c775 b13f
00000670: fe82 ae37 f82d 97bf ea8d d765 ba1a afbf
00000680: fa4f f870 aca7 abbf 3260 0ffd f07e 913f
00000690: 6aec 3d46 5f31 8ebf f350 5263 a857 aa3f
000006a0: 961b 504b c558 ae3f 4436 5d96 ffce b2bf
000006b0: 8128 f3ec 1a87 b63f 890a 6a67 21a6 52bf
000006c0: bfdb feb0 aa00 c13f f1f6 e0bf 3357 a5bf
000006d0: 75d0 326f 612e bb3f aa9e 51d5 04a0 a1bf
000006e0: fdb0 cb7d ee14 b7bf cd70 06f5 924c 8c3f
000006f0: 4bb1 91ea 2808 903f 1540 f748 a682 b73f
00000700: 641f 6720 b9db b53f 7793 7e3a 9d77 bc3f
00000710: 5883 2c52 0ce3 a1bf 26ee 8a71 73ec 883f
00000720: 5564 509e 7107 72bf 7c4a ad68 03b3 94bf
00000730: e316 38d9 90fe 9b3f 7dfa e66f 0321 b73f
00000740: 7af3 931f cc6a a1bf 6cd1 b13d d5e2 a4bf
00000750: b0c0 4906 30ba b93f 9b97 e215 0429 9a3f
00000760: f5e2 0d9c 1525 953f fd13 25a7 ca7d b73f
00000770: c032 98b7 c50f a2bf 3fe6 f64c 791a b1bf
00000780: bf34 2db2 603f b53f e29e 3e8b 2a24 ad3f
00000790: a1f4 d087 25bd b33f 599a df5f 51e4 b23f
000007a0: 5d5f 93ab 6e9c babf 5cc1 da63 a09d b6bf
000007b0: 294e 8ef1 6538 bd3f 373b 7f18 04af ad3f
000007c0: 4e07 1505 6426 b03f 4caa 1cab 272b abbf
000007d0: 4b5a 0e44 26ba b2bf efca 2655 205b a93f
000007e0: 3f4a fc1d 3ef3 c3bf 2d4e 995b 91a5 bebf
000007f0: 7841 cd00 1959 b83f fe72 dfe0 25fb bcbf

equations.x.layers.6.bias f8 [64]
-0.05859797153082521 0.025097905109104774 0.0425932806498244 -0.03408350422143992 -0.046494021372083354 0.017473751802548156 -0.041061073728692006 0.016987006766371507
0.07392541707998637 0.07296352383879054 -0.06218004227217901 0.028186789808356236 -0.12443682646957202 0.09791147988198559 0.038928848478741986 0.08054036054324291
0.06383892769406672 0.06608112553326341 0.10405962385680341 -0.08748343096735824 0.07063636499928404 -0.0005977679220854334 0.06493313317873142 0.02894374660305415
-0.10479381726043327 -0.12746585798448526 -0.12492362111708029 -0.03392109638779349 -0.0009091320030851964 -0.05131600978061083 -0.02833413994702065 0.028707728092512316
0.04672499199993416 0.041645338689458425 -0.015256791170383265 -0.036714078409377265 0.0980314900478214 -0.06364734849661266 -0.09878351552924852 0.017751177712479353
-0.04887508605508187 0.012710352330858729 0.05709515007430177 0.028850502577333504 0.11267126266823375 0.046460368196183904 0.06419070104364276 -0.08948107780182347
0.03713447364391973 0.015686371635087366 -0.018385903062259 -0.024451309171179266 0.0384306931678409 -0.003729776612051562 -0.010375345509259901 0.020845277151777256
-0.02349679075261887 -0.003749001680039781 -0.028186341253042143 0.010832283039210189 -0.025275071114571987 0.08180288714674924 -0.04758218985886743 -0.028195007705167502
00000000: 6b75 aca6 8d00 aebf 151e 91e6 43b3 993f
00000010: 8437 d756 c9ce a53f b2a6 ed9f 6473 a1bf
00000020: cf57 817a 10ce a7bf 1a18 1fa2 a3e4 913f
00000030: 3954 9b01 f505 a5bf b4f0 12ba 0a65 913f
00000040: b2a2 b3b0 c6ec b23f f642 b0cc bcad b23f
00000050: 63ba 0b00 10d6 afbf e9dc 9f71 ffdc 9c3f
00000060: bad6 1a84 17db bfbf c2ff fe0b ba10 b93f
00000070: 1d9d 2c66 7bee a33f 2391 8a06 4b9e b43f
00000080: af60 a87a bf57 b03f 4159 0c51 b1ea b03f
00000090: 5d8d 4cc9 a6a3 ba3f 7159 f26a 5065 b6bf
000000a0: df8a 948d 3915 b23f f3af 85d6 7096 43bf
000000b0: 5af1 6d33 759f b03f 2fd7 55f4 6da3 9d3f
000000c0: 32e1 f481 c4d3 babf 6331 b31d cd50 c0bf
000000d0: fd1c 3293 fefa bfbf 2e94 421f 1b5e a1bf
000000e0: aaa8 491c 5aca 4dbf 75b2 898f 1746 aabf
000000f0: 6c20 bbf1 9f03 9dbf fffe 3205 8f65 9d3f
00000100: 1c56 1791 56ec a73f 6275 67af 8952 a53f
00000110: c617 f3d8 f33e 8fbf 5461 240c 30cc a2bf
00000120: 6fc9 bb7b 9718 b93f 0e23 4550 314b b0bf
00000130: f4ff 9460 e049 b9bf 5e5b f65e 5d2d 923f
00000140: f43a 64c0 2706 a9bf 8b45 a79c e207 8a3f
00000150: 009f a854 933b ad3f add6 2b74 fc8a 9d3f
00000160: 4ded 5b1c 06d8 bc3f bcea ec43 a7c9 a73f
00000170: 0794 b041 cd6e b03f a908 c55e 3be8 b6bf
00000180: 8da9 b52b 4a03 a33f a593 a994 1610 903f
00000190: ec76 7011 c1d3 92bf ef3a f094 c309 99bf
000001a0: c510 a314 30ad a33f 36a5 3e92 e88d 6ebf
000001b0: 85ff 2c4d ab3f 85bf b15e 92de 7658 953f
000001c0: 37b2 5fef 8a0f 98bf 0b2d 78f3 39b6 6ebf
000001d0: 8fba 8057 e1dc 9cbf 60c7 276b 3c2f 863f
000001e0: 4c59 5d4f b5e1 99bf aa7f 03b5 08f1 b43f
000001f0: 72bd a15a b15c a8bf 2843 04f0 26df 9cbf
