simple-pendulum-2ndorder/2025-06-01_06-58-00/model.pt (torch, 138642 bytes, 12 tensors)

equations.x.layers.0.weight f8 [64, 1]
00000000: f6fa 574e 991e d4bf c49a adb6 8a6a e83f
00000010: 8ec1 2e27 365b dabf 4920 f38d b1c6 e7bf
00000020: be0e d0e8 b875 e93f e51e 8d26 99c5 b7bf
00000030: c3da 1e00 73a0 dc3f 7e00 c063 fd65 ecbf
00000040: ccf8 2cb8 747a e13f d672 1987 3d22 d93f
00000050: 0ff0 2576 5aa9 b9bf c2ad a574 350c c4bf
00000060: 6f3f 1d15 0216 e0bf 2a7f 7e4d 9979 e13f
00000070: a419 8cf6 5296 d9bf 230b abb4 ed1a e7bf
00000080: a0a4 e79b ec4f b5bf e926 698e 79f8 c13f
00000090: 5d99 9693 f58b e4bf b306 cd6a db6e dfbf
000000a0: e7ca 7ccd a142 eb3f 1699 b201 22ec a0bf
000000b0: 27d5 392f 8296 e5bf 6637 30b3 9319 d3bf
000000c0: 3e34 62a5 7278 7fbf e6cc 0d4f 84c2 b73f
000000d0: cfc2 97af 754b c13f bae5 0098 376d d4bf
000000e0: 42ae 62af 63c9 e93f a244 582e 9908 eb3f
000000f0: e8da 8f36 361e 9a3f 8986 987a 8906 e0bf
00000100: 7e84 4231 9997 cb3f fd1d f383 0a32 cc3f
00000110: a9a1 7103 f05f e73f e524 23dc 7282 b33f
00000120: 41ac 77fb 4189 cf3f b9b4 7f5e bd4c c9bf
00000130: d72d af18 2351 ec3f e3ef 4519 bb41 e3bf
00000140: ce03 3ec4 ff61 d13f fe9f 3771 dde4 d7bf
00000150: d80a 9d09 5214 df3f bf6a 98fe f033 c03f
00000160: 4ada 2cc0 d303 ebbf 6f7e c310 ba08 e9bf
00000170: 922e 173b f750 e4bf f12b c704 f2ba d83f
00000180: 3c06 bcb3 3c65 e3bf a19a 7f3d 9b87 bcbf
00000190: 6794 7515 85a5 e23f bf06 04ff 6b86 ed3f
000001a0: 1ca7 5263 c7c9 d3bf 4fbd e827 82ae e83f
000001b0: 3008 4e04 7922 e03f fe0d 1059 28e1 db3f
000001c0: 0afa 5ee9 4a03 eebf 62dd 0aed cdba da3f
000001d0: b8d8 93aa 72af e3bf 1f68 7dd5 a2f1 e8bf
000001e0: a5ea 6015 f315 debf 1358 6295 7bfd c43f
000001f0: 56d6 2b5c 4510 e5bf f79b 70fd 9a25 e33f
-0.3143676056933339 0.7630055969173886 -0.4118171103136995 -0.7430045864539433 0.7956203982471022 -0.0928588599318761 0.44729304324884483 -0.887449927162393
0.5461982342892724 0.39271486466695416 -0.1002403772781124 -0.1566225833479234 -0.5026865398776702 0.5460936082417664 -0.3998000533760211 -0.7220371750521263
-0.0832507973315324 0.1403953500142088 -0.6420848734458492 -0.491141180322397 0.8518837941577119 -0.03305155058596847 -0.6746226236706762 -0.298436093319529
-0.0076832273827110425 0.09281184129740758 0.13511534761302932 -0.31916608661739654 0.8058336663720598 0.8447996049091169 0.02550587375659577 -0.5007979769181513
0.21556391625657406 0.22027713244300165 0.7304611270201821 0.07620923876233439 0.2463762739056126 -0.19765441049768187 0.8849044305911161 -0.6017737859360718
0.2716063896587543 -0.37334381157279484 0.48561526240170627 0.12658512526907903 -0.8442171815320958 -0.7823152854361534 -0.6348835138428106 0.3864102408085151
-0.6061080465735311 -0.11144418956210213 0.582705060875594 0.9226589184547364 -0.3091906042051151 0.7713022975421299 0.5042080959394806 0.4356175298455297
-0.9379019315745734 0.41765163563419183 -0.6151669818489358 -0.7794965905879997 -0.4700896939063262 0.16398567957065832 -0.6582361984462277 0.5983405065534261

equations.x.layers.0.bias f8 [64]
00000000: c48f 7ff2 36af d1bf 0eee 8c81 81b4 e3bf
00000010: b6ee 501f 5648 ef3f 1276 1bdb dc72 ea3f
00000020: 99df 96e7 8d6b edbf 1253 f9c9 e41c e5bf
00000030: 97f1 5731 b086 d4bf a2b3 c66d fdd0 b8bf
00000040: f3c7 ae80 c9c7 dc3f 4a2c 5644 cb26 e93f
00000050: f6d2 b2f9 7642 cb3f 4606 6d19 5cd0 b23f
00000060: bb0b 5109 0d26 e3bf 5c19 4225 ebaf de3f
00000070: 57f2 25e8 2862 e8bf 94ff 27c2 c36e eabf
00000080: 9c9c 33e6 d629 82bf d663 cbc8 5ff7 e33f
00000090: a077 2813 3c37 e6bf 4a4a 67fd 4d47 d0bf
000000a0: 41a8 dcad 05f8 cc3f fb65 f09b ddc7 e63f
000000b0: ff67 964e 4cd1 e83f e81b a67e e217 ca3f
000000c0: 68c5 5969 87ca dfbf 7351 d4a2 62dd e9bf
000000d0: ae9f 105e 2607 c5bf 2303 5999 e98b c43f
000000e0: 8c62 9b64 86d9 d33f a6cd 0854 c6ff db3f
000000f0: 8af2 d5da 9525 e8bf f5e0 ba62 6cc6 ca3f
00000100: 8d44 cb73 b7dc cc3f b136 84e5 04d8 e7bf
00000110: b30c 9c3a 5463 c73f f8c6 97d0 ff16 cbbf
00000120: 31b7 e6e1 60d1 a93f 37bd c71f ccd8 a13f
00000130: e71d ce64 959f eb3f d8f3 91cd 98fc ec3f
00000140: 1265 f77d b290 dbbf 6209 62cf bcd6 c6bf
00000150: f55b c603 324c d8bf fcf8 207c 70e4 ea3f
00000160: 4764 4828 a4c2 e03f 25d7 14cb cc64 e63f
00000170: 8c7d 9225 4605 d53f 3cd9 dcdd d2c5 e5bf
00000180: d1f0 682a 41b1 d03f 4b88 6422 6e41 c03f
00000190: d338 05c0 5709 e6bf 02b8 defa 5000 d1bf
000001a0: f05d ffcd 016e bebf 4b4b 6afe 3a44 c93f
000001b0: a8b7 2986 be63 d63f 4543 24a1 a9c0 de3f
000001c0: d819 377d 4cca e93f a66d 0721 e6ac d4bf
000001d0: cf71 16da 9d3c ee3f e447 8254 b5a0 e5bf
000001e0: 389c c46a dce8 efbf 2ee9 09ea 9fea e13f
000001f0: 31e4 981f 53dd ea3f 35dc fe71 2676 d9bf
-0.2763192527911509 -0.6157844095500324 0.9775801288264663 0.826521327918899 -0.9193791888455848 -0.6597770638278198 -0.3207207185621654 -0.09693893365938647
0.4496940380732887 0.7859855971049765 0.2129658431273566 0.07349181767224264 -0.598394888111549 0.4794872154092411 -0.7619823965211009 -0.8260210792650349
-0.008868864917941637 0.623947040726416 -0.6942425131016883 -0.2543520903247197 0.22631903638222364 0.7118976636585893 0.7755490813171945 0.2038539045717862
-0.49673638618613447 -0.808274572397336 -0.16428069680227736 0.16051979053192963 0.3101516706933942 0.43748624998553465 -0.7545880579123871 0.20918040104675809
0.22548573640827776 -0.7451195223563528 0.1827187811069045 -0.21163938222121437 0.050425555778345184 0.0348571575922229 0.8632304161882843 0.9058345809022468
-0.43070661832241897 -0.17842826963539965 -0.3796505963195494 0.8403856682196245 0.5237599169514703 0.6998046842988727 0.3284469000736514 -0.6803984006171855
0.26081875936121174 0.12699677161532671 -0.6886404753111272 -0.265644307127218 -0.1188660743640566 0.1973947279226088 0.34983790494777134 0.48050919281472587
0.8059446759805793 -0.32305291390886237 0.9448994884037861 -0.675867714935745 -0.9971754155457182 0.5598907061642302 0.8395171754010616 -0.39783631451013274

equations.x.layers.2.weight f8 [64, 64]
00000000: 4c95 4ec4 6ace ba3f 0196 15cc fd00 903f
00000010: 831f 8bf0 9cc3 98bf 5a72 0574 e7a7 b2bf
00000020: 30de bdbb 55a7 b1bf 327b 3ba1 f2fb bcbf
00000030: 4ce1 81d8 dfdb a13f 48de 351e 102c bd3f
00000040: ff7e 45f8 c58a a03f 1c18 d1ba b184 90bf
00000050: 84a5 046f 96df acbf 3e5c 2255 3bd5 81bf
00000060: bf51 c24c 9bba 82bf 9240 1a71 6160 873f
00000070: 3310 57a8 26f4 bd3f 9a57 b810 c65b 863f
00000080: f97c 63e3 fb8a adbf 62c9 ccfa 81fb 463f
00000090: f299 ece1 32bf babf 80d6 c860 4286 bdbf
000000a0: 7184 c357 31d4 a9bf a0cb a622 d012 bc3f
000000b0: 47e0 432c 89c1 bc3f 4481 9a11 07dc bd3f
000000c0: 0f12 ad38 7db7 a43f 0c96 a7b0 ac31 893f
000000d0: 0ab7 8b47 0f6f b4bf 50d0 66a2 e763 9dbf
000000e0: 1a64 621c a52a b7bf 5928 e44c be42 ad3f
000000f0: 71bd f430 9927 b7bf 5d92 7873 38ba 743f
00000100: 0bd0 2206 a47a b93f d434 89a9 6182 bdbf
00000110: 78b5 9f9c d783 b3bf fdae cd6d 9859 c03f
00000120: dfe4 08e0 896d b5bf 5d72 3053 8e7a b3bf
00000130: 3372 12d3 1e68 5ebf f6ec b7b1 fe72 bc3f
00000140: 1a1b 7761 e5d9 84bf e155 7444 2c97 b73f
00000150: c6c8 906b d681 b3bf 1b0c 6716 552b bc3f
00000160: 4bcc 9c19 dae0 8d3f 3605 cf75 f571 b93f
00000170: 35d3 210a c746 b23f cf6a ff3c b431 bcbf
00000180: fc19 b761 3e22 aebf 2ef9 c067 06b4 72bf
00000190: affa b20e 0090 9ebf afe6 16fc 8891 b33f
000001a0: 8a68 8aae e7ad bebf eb39 64a4 05f5 b7bf
000001b0: 3b9a 63ed 09f7 a33f c4b3 d5c9 0261 a3bf
000001c0: 9e54 983a aac8 a23f 230f 2ff0 58b4 333f
000001d0: b339 c6c9 e0fd 84bf 16b6 1abb e597 b6bf
000001e0: 36f1 f4eb 4e48 833f b0eb d4cb 8f3b aa3f
000001f0: 1b76 a578 8170 acbf 8e72 c8a4 37a3 ba3f
00000200: 26a6 9ebb c793 a5bf 44b0 76ab 5220 ba3f
00000210: fd67 40a7 1c01 b1bf 0e87 bf84 6a0f b6bf
00000220: dbaa 46bb 6019 b2bf cf34 3897 21e0 b03f
00000230: 7991 c98a fc41 b83f b475 c002 a687 bd3f
00000240: d79a 928c a922 ba3f 62bf 20a1 3148 a5bf
00000250: 60b8 e254 f51c 813f d4de 1228 a218 bbbf
00000260: 578b 93bc a8f3 a93f 4c7a 3839 cd7f 9dbf
00000270: c38c 14fd 96dd c03f 9dfe ac83 b7c9 aabf
00000280: bc70 1000 5b38 b93f bbd5 9a8b 33c5 bb3f
00000290: 2090 7d32 cc3a b9bf 1c8b 13cf 8bb6 bbbf
000002a0: ef5b 37b8 8336 b8bf 9df4 ca8c 369e b63f
000002b0: 81f5 fcdc ce0b 9e3f 6581 d5ab bba4 b83f
000002c0: 9ce0 2864 e104 943f b4ef e8e2 18a0 aabf
000002d0: 2417 0266 5b4c 9abf 1333 a568 6367 af3f
000002e0: 1e5f 03db 556a a83f 3f28 76d5 2c14 983f
000002f0: 4d4f b0aa 63a3 b1bf 0aee 1a2f afe4 b83f
00000300: a483 dc30 64b2 77bf 5e56 9979 1024 bf3f
00000310: 040d 13f6 c120 78bf f8a5 eb83 df53 babf
00000320: 45b8 cec0 5139 bb3f d24c 4787 926e bcbf
00000330: 8c2f 2474 6e48 a3bf d3de 69f9 be7e b13f
00000340: e296 e3e7 c9b9 a4bf e299 b8fa 07e2 8cbf
00000350: 4df4 63d0 bc38 783f 3d46 ab78 f5ef aebf
00000360: c288 c466 1b8e 983f 3e38 4537 74c1 b4bf
00000370: 744b e237 0b9a ac3f 96da 6939 075e b63f
00000380: f455 bcd6 1d74 b2bf d3da 5a14 2f92 b7bf
00000390: 9e71 7c30 880b 943f 6c2d 2b04 5f87 be3f
000003a0: dd9f 63e0 dcc3 aebf a37f 6ba3 1154 b6bf
000003b0: f732 078e b23e 7d3f 15ab afc4 cb6c b9bf
000003c0: 8486 f064 33c9 b8bf 790f 26e6 13e4 be3f
000003d0: cdce ca44 c025 bfbf 6796 740a 06d5 b9bf
000003e0: 000e dd1c 73f5 8f3f 67b0 ec98 ec65 a9bf
000003f0: e93c 0e50 6568 a0bf 6083 a3dc 1aa0 56bf
00000400: 1841 9c13 bf21 c0bf aec1 2ed0 8f84 86bf
00000410: 8c33 6440 92b7 b1bf 8a2d 07bf a6ea a2bf
00000420: d89c 08c8 c2a2 973f 0d7e 5a28 8e86 bcbf
00000430: d960 cbee 2614 7dbf 3f63 53a7 32c3 94bf
00000440: 14ac 15ee 422e abbf 9d9d 7b1d 8c82 b93f
00000450: edc9 54f5 1d69 953f aee0 3a40 4617 bdbf
00000460: 02c3 f504 ae17 913f c331 b11c 2444 ad3f
00000470: e0d8 b1f3 c5db a7bf b502 22cf 1bce ab3f
00000480: f7e7 256f 7771 b5bf 5653 6d1f 8936 97bf
00000490: 4329 fbd4 4d40 b23f 600c e61d a1d2 92bf
000004a0: 04bc dd08 6403 8c3f cb38 d5d9 3aac b5bf
000004b0: bad1 7c43 389a aabf 026d 7882 e89f bc3f
000004c0: 8be5 b652 bf00 9f3f 3d3d 1f64 8478 b63f
000004d0: ca43 4508 4775 bebf 08cf e3d9 d205 b8bf
000004e0: 3fde 7c3f e04c bcbf 61f3 a8cc dc61 c13f
000004f0: c8ce 8836 0e33 bdbf 940d b250 4dea 9d3f
00000500: 9698 7114 e90f bcbf 545c ad31 9944 b8bf
00000510: 56b1 a41a 4337 b1bf 9ff6 63a7 a8f6 b83f
00000520: 2a77 9b45 16b2 babf 187e d68e be57 a6bf
00000530: 6181 a701 9954 b8bf ef3f e6a3 d184 adbf
00000540: 7485 4437 731e b1bf 1706 bde0 5201 a2bf
00000550: 9b5c 84e3 cba2 b1bf aebd 5b8a 4cae 9cbf
00000560: 7e31 ab03 c535 b0bf 390f 14e2 c79b b53f
00000570: ff1e 480b 9149 b2bf 3602 4aa7 4aae 783f
00000580: 48c5 703f 6069 bbbf 4453 d963 8ee3 b93f
00000590: f33b c9b8 9c51 94bf 613f c2eb 8cce b4bf
000005a0: c3ba 9e00 3682 acbf c6ca 040c 40b1 a03f
000005b0: 68ec dbec a917 94bf dcd6 4dbb 28b4 b23f
000005c0: e624 3203 9f0c babf f618 6f2a 9809 c0bf
000005d0: 3f7e 1201 7147 aabf b301 14c2 b3bc c0bf
000005e0: b6b3 ce31 52b9 a33f 1a13 7d62 8d85 5bbf
000005f0: d60b 0a64 549c b6bf 7c49 0297 eec5 8bbf
00000600: a25d 1581 1518 b83f d3b5 70c1 2eb1 bebf
00000610: b70c e608 a950 b53f 66d2 6b14 eb19 b93f
00000620: b7f4 ae55 32c3 bd3f c5dd 430b 4787 a93f
00000630: d57a 3f0c cddb a8bf 1ce3 c394 f020 9d3f
00000640: 8d2a 9269 55c8 923f f29e 5dc9 1e44 bf3f
00000650: debf 8c59 3001 b1bf db50 53f8 4f99 bcbf
00000660: 3902 c01b 1153 b5bf 5655 7fc0 19a9 a1bf
00000670: 85a9 2b00 548a b13f 5a22 df79 a3c8 abbf
00000680: 996a 5166 5c58 be3f 831a 2571 849b 963f
00000690: 13d2 10ec a738 b4bf 17c0 7efd 4a01 913f
000006a0: ae48 a52c efff b13f 4006 a6dd e431 8b3f
000006b0: 4b53 3d67 e9ad b23f 0257 958b f242 873f
000006c0: 4ee0 9447 62d4 babf 4d2e c436 8234 90bf
000006d0: 18a9 ef5f 33c8 b2bf 0522 f238 a95e b83f
000006e0: 532c d15f 6e0e b2bf 97f1 f5c3 df82 aebf
000006f0: 997c 6046 be2c 92bf bf7e 9a2f 2809 b53f
00000700: c33f 63a9 a02c bdbf 647d 1cb6 00cf c0bf
00000710: 2e15 17a4 8773 be3f b778 58b7 2cbd bfbf
00000720: 26b8 cba1 9ca1 bdbf 5657 316a f756 b4bf
00000730: 9016 5447 94b9 a1bf a449 2b6d b88e b2bf
00000740: f4b5 e9e8 87fd c0bf 5a6e c598 45d6 8d3f
00000750: baf8 7579 3786 b6bf 1a7f e450 28ef bb3f
00000760: 063e 452b 2628 b13f 2743 4474 7d94 bcbf
00000770: c89a 51ed d691 b9bf 22d9 663a 1cde 963f
00000780: 255f 066f 64d5 a53f ac06 2e02 3705 8b3f
00000790: c00f 2e99 44de b2bf 9682 2174 dd26 b73f
000007a0: e5b0 03b2 4807 903f 5983 4544 798a 993f
000007b0: 9636 5f7a 883b b23f 8873 3722 5526 b5bf
000007c0: 4549 2a4b c8db b7bf 6503 2262 9535 b9bf
000007d0: 4900 27c9 c611 a63f a4c8 1e2f 5cee a73f
000007e0: f266 4afa f406 8bbf a982 32ed e52b 973f
000007f0: 0bd1 81a4 7341 a0bf ee04 4351 1dad b63f
0.10471217434549834 0.015628781873052947 -0.024183704549414663 -0.07287451345968901 -0.06895957788025764 -0.11321941791855464 0.03488063352500834 0.11395359742697864
0.03230875640542585 -0.016131188418761253 -0.05639333825304063 -0.008707488570776186 -0.009144986419678312 0.011414300216785276 0.11700669870248319 0.010917231927162697
-0.05770098829975185 0.0007013687769357564 -0.10447996154525876 -0.11532988417533296 -0.05044702717146599 0.10966206403717971 0.11232812243167799 0.1166386049249058
0.040462411087478604 0.01230177797419698 -0.07981963631365488 -0.028701419150550855 -0.09049446051575707 0.05714983643163469 -0.09044797368254877 0.005060406219432237
0.09952759885601396 -0.11527071370183545 -0.07623050283264898 0.12773423539635323 -0.08370267600629998 -0.07608880549418857 -0.001855878927279464 0.11112968291120126
-0.010181228672889332 0.09215046569109787 -0.07619991422760383 0.11003619954048853 0.014589027315741762 0.0993951237315017 0.07139247891775542 -0.1101334237022613
-0.05885500853360168 -0.00456621648851145 -0.02984619226185242 0.07643943933990259 -0.11984107981916928 -0.09358248961891717 0.03899413130584547 -0.037849509370836226
0.03668720212241648 0.0003006665357896279 -0.010249859006560813 -0.08825527017571519 0.009415260864095925 0.051235669738580625 -0.05554585073216974 0.10405299923918163
-0.0421430985000593 0.10205570875285824 -0.0664232166604108 -0.08617273083612195 -0.07069973537606293 0.0659199709118241 0.09475687397349998 0.11535108153517265
0.10209140474271848 -0.04156642047780569 0.008356014874461859 -0.10584462622034191 0.050687096614430764 -0.028807837121457333 0.13176238400874327 -0.052320227454854186
0.09851616622512699 0.10847780378647702 -0.09855343086889023 -0.10825418286871663 -0.09458182570902783 0.08835164010356995 0.029341919172329426 0.09626362748304514
0.019549867380391647 -0.05200269479652722 -0.025681903935512854 0.06133566524895264 0.04768627451420414 0.023514462021502643 -0.06889937321858249 0.09723944568661849
-0.005785361643376872 0.12164404839253382 -0.005890615140006664 -0.10284230204310763 0.10634337384428345 -0.11106220057199614 -0.03766198318234534 0.06834024037550117
-0.04047995525051619 -0.014102995242024133 0.0059134841487749725 -0.06042449090967892 0.023979595324939103 -0.0810768732964968 0.0558627610891084 0.08737225677200863
-0.0720842980629966 -0.09207433936067426 0.01957524105010721 0.11925309993528338 -0.060088064566855094 -0.08722028960937549 0.0071398711010714965 -0.09931634475621494
-0.09682007994026703 0.12066768998016454 -0.12166978530404578 -0.10090673213252331 0.01560487682184597 -0.04960574499850239 -0.032046476385511564 -0.0013809454272221897
-0.12602985818421852 -0.01099502901146895 -0.0692073256688685 -0.03694649774441945 0.023081820925793334 -0.1114281509894612 -0.007099296647276009 -0.020275870764496103
-0.05308732181841705 0.09964824409291002 0.020908802126720905 -0.11363638942828189 0.0166918936278675 0.057160500051938644 -0.04659861182965286 0.054306859049579805
-0.08376261199546763 -0.022668974440722543 0.07129370164617392 -0.018381612253062563 0.01367834236199706 -0.08465926950632079 -0.051957853544453994 0.1118150061160357
0.030276288436402104 0.08777644581208661 -0.11897701217573267 -0.09383886165215582 -0.11054803419107716 0.1357990264240483 -0.11406029540449503 0.029214103746665623
-0.10961777447809803 -0.09479672873327277 -0.06724948311302134 0.0975137146633309 -0.1042798919620195 -0.04363818639398803 -0.09504085817707654 -0.057653952843906946
-0.06687088107402933 -0.0351663493479572 -0.06889032654395282 -0.028008647865986162 -0.06332045878952461 0.08440827626696724 -0.07143503690178575 0.006025592436913521
-0.10707665966835578 0.1011284822246355 -0.019842575815626828 -0.08127671008901195 -0.05568093068665327 0.03260231157982711 -0.019621520120363917 0.0730615098271658
-0.10175508335136704 -0.12529279777499597 -0.05132630479897359 -0.1307587335250112 0.038523262577064996 -0.0016797905645528689 -0.0883229011761125 -0.013561119063784537
0.09411749268962535 -0.11989109251654577 0.08326202838184114 0.09805173157276101 0.11625971404915246 0.04986021053803883 -0.048551948304284366 0.02844596775045992
0.018342337196865222 0.12213318267970033 -0.06642439066194991 -0.1117143613112747 -0.08329874923220694 -0.034493260143487234 0.06851696972049666 -0.054265125872522815
0.11853578088759277 0.02207762661535152 -0.07898950112650764 0.016606494638551874 0.07031149711591198 0.013278759016205233 0.07296618242737656 0.011358160862680492
-0.1048032212028158 -0.015825304596587753 -0.07336731998626467 0.09519441261557667 -0.0705327018669533 -0.05959224001978496 -0.017748806996789133 0.08217097437090624
-0.11396221290055934 -0.13131722347405195 0.11895034557445136 -0.1239803264256548 -0.11574725103466274 -0.07945200293155827 -0.034618982035721335 -0.07249024071942373
-0.1327371489782504 0.014568847393710605 -0.08798548426964006 0.10911800360599636 0.06701887661369463 -0.1116407784322858 -0.09988158506312594 0.02233165842491148
0.04264367919239324 0.013193540338537112 -0.07370403995270092 0.09043678364970228 0.01565278612626821 0.02494229773708709 0.0712209032783114 -0.08261615834585545
-0.09319736323439994 -0.09847386976072199 0.043104373984079354 0.046740418197616124 -0.013196863067878681 0.022628395655035636 -0.03174935706275236 0.08857901796274678

equations.x.layers.2.bias f8 [64]
00000000: 8964 bd70 827e 90bf e95f 511f cb13 b43f
00000010: 685e b3b5 dfef c03f d939 fb49 389e bbbf
00000020: 04b2 dcf3 ff0a c0bf 93b4 ab1e 22ef b23f
00000030: e996 7da2 c3f1 bb3f 3f51 4b1d 0a1b c03f
00000040: d303 33db 5183 ae3f a44a e10d 5a1d a9bf
00000050: e758 4d3c 2626 a3bf a996 cd41 a40d b73f
00000060: e0d9 8485 6972 a7bf 21ae 0ab4 c95c a33f
00000070: cd7d fe98 7f42 a7bf b186 9736 5083 b93f
00000080: 16f1 d487 9d85 a2bf 55b5 2249 7a1f b5bf
00000090: 8858 0297 fa78 bdbf 3b53 a453 716c 983f
000000a0: 8af7 566b dc33 54bf 6884 8ddb 3795 b1bf
000000b0: 113d 4dac 2a9a b43f 69a7 ed8f 3793 b93f
000000c0: ca34 d35a f049 bbbf 4b03 eaf4 7d1f bfbf
000000d0: 93de 7144 dbb8 a53f 7cbb 57ba 0956 b2bf
000000e0: b5bf e8a4 b316 a23f 7583 b6a0 1576 b5bf
000000f0: 1cea 8bed 546f babf 606d 45dc 3e0a a6bf
00000100: 8246 4b7a fe80 c03f 1f06 0089 b487 bb3f
00000110: 69ac b7f6 4f44 b5bf 73f8 e9a2 9e23 a8bf
00000120: b34b af3e 51c9 693f 3b18 add5 0a84 b1bf
00000130: 7e49 5e03 ccf0 bd3f 6c99 b19d 1e7e bbbf
00000140: b304 3ac3 8f9e a83f 1f97 aa42 e5c7 b83f
00000150: 94c2 1664 54ef 89bf 88ef 745e f94d 8fbf
00000160: 93a8 f3a3 365f c1bf 2798 688a 37f8 b03f
00000170: 9d03 f8a5 cde4 bcbf a91d c294 f54e 88bf
00000180: fba0 3f12 8159 be3f 8d4e 0656 b68d b13f
00000190: c214 8735 71a8 a63f 61a8 c97b b3ac 69bf
000001a0: eff6 1be0 ab89 a0bf 3af9 a1c9 1706 8c3f
000001b0: 5f66 89be 20bf b43f 9df7 04d8 c7aa bd3f
000001c0: f53f 567b 6b5c afbf dc5c 5401 bad2 afbf
000001d0: 28b7 9f27 cd2e b93f c7a4 76f6 c131 83bf
000001e0: 8134 9460 f22b b53f c644 323a 40e4 ac3f
000001f0: c50f 0b9b 9230 b33f a3cb 2729 fe7d b53f
-0.01610759556874489 0.07842702402683667 0.13232036945440773 -0.1078829937571081 -0.1253356877072208 0.0739613842849443 0.10915777890258095 0.12582518034344933
0.05959564018986154 -0.04905206126627107 -0.03740043150053101 0.09005190474052917 -0.045794770764064685 0.037817290523289644 -0.04542921774486395 0.09965993244943651
-0.03617565425017426 -0.08251156125580413 -0.11512724100825455 0.023851176004501467 -0.0012330677540002021 -0.06868313894439526 0.08047739702782432 0.0999026037585772
-0.10659696786315745 -0.12157428006504493 0.04242596827037661 -0.07162533568746982 0.0353294504933496 -0.08383307622581333 -0.10326128768421267 -0.043046917332243195
0.12893658610714814 0.107539447257317 -0.08307361386657565 -0.04714675654121061 0.0031477534116474914 -0.06842105595305352 0.11695551950677971 -0.10739318227715494
0.04808472879541039 0.09680016400906453 -0.012663516334982895 -0.015285442538349306 -0.1357181835695128 0.06628749016871947 -0.11286626150105268 -0.011869352915040947
0.1185532254745602 0.06856860733233301 0.04425386217511963 -0.003134108117866894 -0.032300349337658456 0.013683496323434786 0.08104138042235708 0.11588715576087201
-0.06125198250367695 -0.06215459123830566 0.09837038247470942 -0.009372248968093534 0.08270182474025668 0.05642891607670601 0.07495991025194744 0.0839537477948356

equations.x.layers.4.weight f8 [64, 64]
00000000: 840d da20 556c 9d3f b4b7 80ea 5713 9e3f
00000010: c7b0 be96 9201 b8bf 7cb1 ef73 cfb9 b93f
00000020: 8b61 ddcb 2706 b0bf b239 23f6 9b20 8e3f
00000030: 1ea6 d7b5 a7ad bc3f 489e b869 f37c babf
00000040: a2ff d262 9020 903f 6297 dfb6 137a 9dbf
00000050: e523 ca37 c00f ad3f 866d 9532 5e9a adbf
00000060: cd6f 9e1b 075f 9dbf 2af5 016f 0783 aabf
00000070: 03a0 025d b6ae b83f 86bf 0e9b d489 ad3f
00000080: 653c 8949 8c10 b13f 3aa6 af03 9b04 87bf
00000090: 3765 79f5 f0e8 b83f 2c76 6c4c 4e8a b83f
000000a0: bae7 d08b 767e a93f 52cb e1cc 72e9 93bf
000000b0: a3ad 24cf efa3 b93f aa5c 9571 d7f7 b6bf
000000c0: 8f13 1425 e4b1 bdbf 9f36 5a49 298d b5bf
000000d0: 3db5 c648 f8f6 b6bf 86e5 b865 9e22 9f3f
000000e0: fca9 76ed b7f3 b13f a235 9aaf 02e3 c03f
000000f0: 35f5 1f51 efd9 a53f fee0 295e 3914 ba3f
00000100: d2de efc6 69d9 bdbf 1962 8799 e744 b93f
00000110: 1942 afa3 3d1a 92bf ee95 db73 0575 b13f
00000120: cfff 4312 1787 b73f 8413 20ad ccd5 793f
00000130: 7f7b 9be2 d6d6 ab3f 86dc fa61 75a7 7b3f
00000140: 1656 4ab9 2350 91bf 2551 87fc a57b bcbf
00000150: fbcd d411 09d2 aabf ea0a 06b4 8682 8cbf
00000160: 9ae3 5d0d 4053 bcbf 14ee db56 83aa af3f
00000170: 933f d761 f750 b23f d304 4d48 0b5a bebf
00000180: 46f8 93d5 ec41 b6bf 53ee a1ce 2495 a6bf
00000190: 4cf5 32e6 cf87 c03f 6b06 a9ca 53dc b0bf
000001a0: 188e 8d3c 1b73 afbf 72c6 6760 2a7f bebf
000001b0: 6728 15da f8a0 b53f c81d 026c f45f b33f
000001c0: f50c 4cb5 f414 a5bf e33a ce43 dff2 bd3f
000001d0: 3f8a 2694 7865 b6bf 2a1f bdf0 005a aabf
000001e0: 72af 3ae7 3122 b9bf a6c1 cd27 2e68 98bf
000001f0: 7ea8 6f3b 1446 b7bf adcf f9f1 6cae b0bf
00000200: fcf9 c6cf 38ec b9bf ad76 84dc 03ab bf3f
00000210: 8228 5828 21d0 abbf 5758 901e 4b4c bfbf
00000220: c622 fbcd f45d b5bf e6fb 04ae b35a babf
00000230: 96ad f4eb bf5a b8bf 7e42 b61b 8b0f 8e3f
00000240: 831a 8bb4 42a6 90bf 757f b8b4 0037 b93f
00000250: fb2e 8006 1012 9fbf 511e 68d4 b203 b4bf
00000260: 5655 fe5b cd3e ae3f f437 4584 6f4a 743f
00000270: 3e3f 020e 1468 c03f f846 82ab 5992 b53f
00000280: 884a dee7 80b7 88bf 3609 f8ef b020 aebf
00000290: 52bc d130 584c c0bf 0f66 b4dd c52e 8abf
000002a0: 3fba ddfe 7e16 873f 4090 033b d2c3 68bf
000002b0: b242 5ecd 152b a3bf c528 d5ff d560 c0bf
000002c0: d25f 76a0 0350 96bf c623 2b45 f383 a7bf
000002d0: fa63 652d 6151 6f3f dfc3 37d0 e8d4 bd3f
000002e0: 30a3 6d8c 8e79 65bf e63c bc6d b7f2 b13f
000002f0: b59e 808f 81c8 a2bf df5f 88b7 58f8 b63f
00000300: 72ee b13b ffee b73f 70e2 a060 cc5e b9bf
00000310: 57d2 62a1 047f a0bf f96e aa8a eb74 b03f
00000320: ce5a 7223 7202 b4bf b00d 4211 a4f8 ac3f
00000330: 0514 256c b2e8 a53f ae40 f663 dd92 b4bf
00000340: 692c 7aa7 0a17 80bf 082e 3bf4 90e5 b5bf
00000350: 213c a760 0768 aabf f044 f0bf bae2 903f
00000360: 87f0 189c 37b8 bf3f bbad 75b8 6704 abbf
00000370: 80aa c1ec bc0d babf b14e 81d3 5757 b63f
00000380: c4f4 9752 d8dd c0bf bf72 6957 8821 adbf
00000390: 5c7b d637 83df a1bf 4193 66fe bd09 abbf
000003a0: 3f0a 03ae 57f5 bbbf 53aa baff 038f bb3f
000003b0: d900 565e 29e5 82bf 247e d750 ac67 7a3f
000003c0: a258 ac4f ca48 a6bf 69b1 8a94 55e2 98bf
000003d0: f3a6 8cdb aace a8bf 002d 8775 ea68 a13f
000003e0: 110a 98f7 3880 b2bf 54e1 6e04 689c 94bf
000003f0: 41ac ffd1 bc9f bb3f 52b8 229b bd0e abbf
00000400: 8b74 3580 96df b5bf 376c 97da bd19 bb3f
00000410: 6dbb 4c40 cdd0 a33f 426b f4d2 9d9e b53f
00000420: 531e 22ea 01b1 b63f 1db4 8f58 10ad bd3f
00000430: 33ed f887 683a 95bf 86e9 c4e8 1f9e aabf
00000440: 974c 12e3 0985 b0bf 0db9 64eb 20c2 a93f
00000450: c670 3ba6 28e5 9fbf 9785 d9de ae5c b5bf
00000460: 8940 1ce6 59c2 98bf d4aa a2ff 2eea ad3f
00000470: df57 8b94 8e73 a93f 8914 80ee dc0f a2bf
00000480: c8d4 d0c6 e2e8 b13f 187f d7c3 beec b7bf
00000490: 4534 7e2f e30e b03f 690c c480 9d4a af3f
000004a0: 8a8a 652b 9733 9dbf 1226 7db2 ad05 bdbf
000004b0: e66f 006f fa04 a6bf 407e ee12 cc02 923f
000004c0: b26c 547f c023 913f db04 b2ed a304 b6bf
000004d0: e9bf 74b2 9521 abbf 1bd4 bcac 6e6e bcbf
000004e0: b23d 8dda dc39 883f d4c5 4c8f 69ef b53f
000004f0: 5e1f 3ae9 ba5e 7cbf 84cc 5811 c4ae b3bf
00000500: 894a 5c06 6ce3 9fbf 6f01 1fee 89c1 b7bf
00000510: f9b0 86f3 dd32 a9bf ccca ca41 d43e ad3f
00000520: c625 ffcf a987 bfbf a07a 153c 697d b53f
00000530: 479b 7db0 aa73 b93f 8c60 3b50 f589 adbf
00000540: 80f7 0861 272b 833f 5953 b25c 39a1 a6bf
00000550: 94b0 3520 9555 bf3f 257c f5c6 ac8d a4bf
00000560: 5d1c 7e06 6743 aebf 17ba bb55 f8c5 9bbf
00000570: e55f fef8 5166 a2bf 3274 e5e7 b552 bc3f
00000580: caf3 acc1 0663 ad3f 35f4 ca10 f47c 763f
00000590: f4e5 5aab 2ffa c03f be8c cac0 7740 b03f
000005a0: 5698 efd6 a06a bb3f 0505 04d8 77ba acbf
000005b0: 08b5 d51b 937f a3bf d53b b11d 3269 b6bf
000005c0: 63bd 8362 09d1 ba3f 11b2 dcfe 9eb0 bd3f
000005d0: e835 42c2 8a48 a33f f883 40e0 e582 a6bf
000005e0: 2dae 6e4c 48fa a2bf e887 96c9 1332 b1bf
000005f0: 995e 14a7 7f4f b53f 1af5 e6cc 8368 afbf
00000600: 3938 7295 aefe a93f fe2c 9f0b b8eb b6bf
00000610: 74ec a7dc 8cf5 78bf ce6c 4c7b 09f3 b13f
00000620: aa95 88e1 4835 b0bf af74 5c5b 68c0 9f3f
00000630: be15 bec6 7cf7 b3bf 2884 28cd 94fa 0f3f
00000640: 270c f3df a788 a43f 736e 253c 6358 953f
00000650: 74d4 de49 8aa3 89bf 211f ebec 2ebc b93f
00000660: 79d3 b95a 7b5a a7bf 43b7 0889 0750 773f
00000670: 9d31 245d f306 bb3f dd71 9aa8 edfa babf
00000680: bcb0 b791 62c6 b93f 95a5 f65e 512c b13f
00000690: e874 8a82 b00e adbf 34cd 77d9 488b b3bf
000006a0: 701b dcbc f8e4 a53f b8b8 51d1 4073 b7bf
000006b0: f626 f397 cff8 bfbf 714d 81ab 07a6 a5bf
000006c0: c1cb 8973 0de7 a8bf 3641 f177 b83d 903f
000006d0: 3775 4ab6 c5dc ae3f a36a 174f c665 b93f
000006e0: d63a 0505 10cf af3f 88ad ce51 e3b8 bdbf
000006f0: 2b84 77a6 04c7 b83f 6550 06bc 9318 983f
00000700: 40e6 b70e 0855 b1bf 5d39 b810 0ec2 aa3f
00000710: 0882 a101 da30 b83f 3706 c646 54f9 babf
00000720: 42ae f719 27d2 a3bf 6644 9cc4 40a9 bf3f
00000730: 243f e84a 8417 71bf e9f6 78a4 6f2f 94bf
00000740: cd91 79cf 1a3d b1bf 0985 a6ac 0cd4 983f
00000750: 7450 4893 1779 b73f 9289 458d 661f 6fbf
00000760: 839a 8b84 6736 b8bf e04a a55b 8dfd b1bf
00000770: 7885 34a3 1883 abbf 3f3f be0a 82e4 a9bf
00000780: 4135 68ff 3ed6 a93f 1d38 c9bb 2914 af3f
00000790: 3dfc 0bff d65f a1bf f318 93fb a237 b73f
000007a0: 3e4b d546 3fcf a63f 2fb5 5da1 7b4d 9d3f
000007b0: 37c9 e80c a1c1 b23f 9ad1 5b85 f062 a43f
000007c0: 243b 8507 12a6 96bf cb8a 6ef7 a811 bd3f
000007d0: 13fb 9e5d 2eb5 b73f 5f13 4b85 ba42 a9bf
000007e0: 0850 3883 3a2c 8d3f e93d 1223 cbbd b2bf
000007f0: 673a a9f5 9c27 b8bf 2dd7 3474 47fb af3f
0.028733568315613592 0.029370664298930385 -0.09377399616522829 0.10049149113155481 -0.06259392478148677 0.014710634659789477 0.11202476682196802 -0.10346909838755736
0.015749221832038203 -0.028785999333102004 0.056760794458632614 -0.05781835906483494 -0.028682814655993916 -0.05178092222284143 0.09641589899786145 0.057692188194209
0.06665875239672088 -0.01123925309180428 0.09730440133116224 0.09586037984669166 0.04979296166170806 -0.01944522262096921 0.10015772635659075 -0.08971926234277086
-0.11599565415606448 -0.08418520012693385 -0.08970596100580948 0.030405497511514244 0.07012509868096822 0.13192781042418483 0.04267833581250572 0.10187109517017132
-0.11659871203289221 0.09870765207541189 -0.017678225627436903 0.0681918533187724 0.09190506168306388 0.006307410732920075 0.05437346950724641 0.006751497770600362
-0.016907270607211165 -0.11126172461746771 -0.052383693148296794 -0.013920833939442063 -0.1106452973016431 0.06184778628627555 0.07154794825259918 -0.1185614635005721
-0.08694343771273436 -0.044106626723956176 0.1291446565646005 -0.06586192796478378 -0.06142506708308931 -0.11912789205214283 0.08448748897822754 0.075682903641897
-0.04117550576304466 0.11698718457612815 -0.08748582474667276 -0.051467923533492346 -0.09817802329297168 -0.02383491628592229 -0.090913071165831 -0.06516152293789786
-0.10126071045576873 0.12370323308683835 -0.05432227723584139 -0.12225789543330855 -0.08346490887482635 -0.10294650076410469 -0.09513473044051177 0.014678084166719115
-0.016259233731739996 0.0984955254757532 -0.030342340847751875 -0.07818143544874913 0.05907289264647868 0.004953799831424622 0.12817621883413638 0.08426437794903652
-0.012068755222377506 -0.058843163769795856 -0.12732984908822914 -0.012784524753942454 0.011273376610657524 -0.003023062330713727 -0.03743808872161959 -0.127955198210037
-0.021789604824874527 -0.04592857570020885 0.0038229845041937134 0.11652999003832985 -0.0026214393760039187 0.07010981015286041 -0.036685990111718615 0.0897269676282799
0.09349055488012839 -0.09910275801747459 -0.032219071102563994 0.0642840589084094 -0.07816232076070692 0.05658447943371969 0.04279096193435098 -0.08036597910381957
-0.00785644839858986 -0.08553415262866093 -0.05157492689942723 0.01648990437030745 0.12390468178722545 -0.052767983691264196 -0.10177212505520039 0.08727024949740315
-0.1317701724328001 -0.05689645831146128 -0.0349083905850793 -0.052808701805850074 -0.10921237943970484 0.10765099519145709 -0.009226153556256044 0.006446526630923741
-0.04352409575055673 -0.02430089682700168 -0.04845174722716008 0.0340035694567522 -0.07226902050755536 -0.02012789275224354 0.10790615202829291 -0.052846837222532486
-0.08544293050859346 0.10586153589922352 0.03870240602406381 0.08445154571783767 0.08863841978210844 0.11592199480192318 -0.02073062257680398 -0.051987645305831484
-0.0645300082563146 0.05030920861678299 -0.0311476088962628 -0.08344548168817877 -0.024178890867063294 0.05842730398702192 0.049709754593706405 -0.035277275193984776
0.06995980600261753 -0.09345619469922573 0.0627271643590613 0.06111614415024109 -0.028517114661904354 -0.1133678971065353 -0.04300673108102142 0.01758879533337976
0.01673794533881496 -0.08600830605611824 -0.052990606340585895 -0.11106006352640956 0.011829114360493918 0.08568439243824538 -0.006926279183637833 -0.07688546584613404
-0.031140983474936355 -0.09279691756728935 -0.049216209389983896 0.057119973212498815 -0.12316380813640312 0.08394487110988758 0.0994211846242311 -0.05769316295999358
0.009359653137945179 -0.04419879204321004 0.12239963566179518 -0.04014339379022428 -0.05910798982864016 -0.027122383339639535 -0.035936891216976886 0.11063706313639513
0.05739613641933479 0.005490258580434439 0.13263507716128198 0.0634837003404298 0.10709576842745724 -0.056110139006714056 -0.03808269228725619 -0.08754265999708306
0.1047521462930852 0.11597627374857945 0.03766282674142102 -0.043967422127259626 -0.03706575329792048 -0.06717036887724215 0.08324430302706744 -0.06134425998923572
0.05077119421285698 -0.08953428539023275 -0.00609354995912802 0.0701147008916678 -0.06331305986585414 0.031007414413683317 -0.07799510814773833 6.099478345712061e-05
0.040105100715230706 0.02084498457530377 -0.012518959407183262 0.10052769931928342 -0.04561219675534906 0.005691556391452415 0.10557480834922335 -0.10539136282245161
0.10068336541707174 0.06708248680538127 -0.056752696929132374 -0.0763440638473199 0.04276253991525081 -0.09160237417538297 -0.12489030322754133 -0.04228233307426422
-0.04863779101733413 0.015860445328429416 0.06027810907583347 0.0992092078298961 0.06212663708958181 -0.11610241648911857 0.09678677620060287 0.023531254149546394
-0.06770372733435526 0.05226177171799649 0.09449541606728229 -0.10536696174497072 -0.038712713165150806 0.12367634582575845 -0.004172817962640161 -0.019712204373937423
-0.06733863416008674 0.024246404683826692 0.0916914686752664 -0.0037991526570959134 -0.09458014474840053 -0.07027514922564704 -0.05373455993891246 -0.05057150250570296
0.050462692906970925 0.06070070664701197 -0.03393432486881707 0.09069269792516703 0.044549920460346545 0.02861588642502005 0.07326704564255669 0.039817348746427686
-0.022117883404742092 0.11355072060409126 0.09260835443181419 -0.049337223788404876 0.014244515542522165 -0.07320851904136529 -0.09435444829544225 0.0624639825204397

equations.x.layers.4.bias f8 [64]
00000000: ffa5 37ac aeaa afbf e577 a35f c320 8e3f
00000010: 314c 1399 5128 81bf 89ae cc76 c40d 853f
00000020: e5bd 6d3d 8bff 5c3f fbd6 1538 8fae adbf
00000030: bba7 cf37 503c b6bf b9f3 3f99 a42c b8bf
00000040: ceec 160a 01fa b2bf b496 91bb af40 ad3f
00000050: 1c7c 87ca b3c5 b1bf a9f7 46de 39db 77bf
00000060: 11eb b08f 25c6 b3bf aeaf 25df ff25 a0bf
00000070: 4ba8 963e 31bd b73f e05e aa56 1824 b33f
00000080: faf6 cf2d 8a7f 99bf 4a11 7874 fb56 7c3f
00000090: 3fc9 7269 e478 c03f 1ca5 b4ee cb00 b83f
000000a0: 9b2d 9fa2 49a8 b6bf 8f58 73ce 58ef be3f
000000b0: bbca 60a4 6b2e a33f 01e9 d4a4 f1dc a4bf
000000c0: 0496 db5e 48a9 bf3f ab2f 4c84 9a0d 6d3f
000000d0: 0ab6 9fa8 126b b33f b19f 7770 2b54 acbf
000000e0: 71b1 2007 95eb aebf 5475 07e2 34c8 a03f
000000f0: 3a8f 9aa8 0f58 ab3f 0715 bd29 422b 9e3f
00000100: 575f aa42 b160 bf3f 22b7 ea16 fd95 adbf
00000110: 8b97 0923 91c3 6cbf 2341 0f98 d437 b2bf
00000120: f2ec c6ca 98b7 973f 1e6b a8a8 7fad a03f
00000130: 587b 83fa 598b b5bf caa1 f582 0bc5 b83f
00000140: 42ee 38bb b208 a93f 1dc9 e21e 0178 c03f
00000150: acdb 3ab5 9733 ad3f 0445 8255 5536 b8bf
00000160: 636c 1f32 94ac a7bf 5989 4b80 bc98 a73f
00000170: 252a 5fe5 ba85 b9bf a0be 96c0 30c0 7dbf
00000180: 5f6e 9b77 259b 953f 0521 80a7 2c73 b3bf
00000190: 766a 5768 a287 a93f c5c3 6e4d 05a6 bc3f
000001a0: 13fe f3d6 160a 9a3f 5c27 4fc5 d499 babf
000001b0: 350e fcee 770a bfbf 1b79 7e42 5d85 753f
000001c0: 3660 9ca9 9e9e b13f eb44 5ed8 6ac5 a23f
000001d0: b637 fc99 ddf7 7a3f aa47 f1b4 75c8 a13f
000001e0: 83f6 ed31 907e 8d3f 9ecc dab8 dbb7 b03f
000001f0: 1601 f49c 2f25 8cbf 2a4e 759f 98c0 b83f
-0.061849077723149286 0.014710928302914492 -0.008377683147420796 0.010280165553545178 0.0017699107899850016 -0.05797240790972854 -0.08685780870987873 -0.09443119756174569
-0.0741272592194264 0.0571341434922891 -0.06942294783174002 -0.005824304626399193 -0.07724222906191992 -0.0315399131676196 0.0927305963329285 0.07476951709611113
-0.024900588079609577 0.006918890233923067 0.12868933819624748 0.09376215532087823 -0.08850536556490456 0.12083964386269684 0.03746353513306163 -0.04074816834550355
0.12367679897177913 0.0035465257555013694 0.07585255257409798 -0.05532966373340232 -0.060391099090653884 0.03277745494026854 0.053406228381645396 0.029461892888567067
0.12256915929390054 -0.057784947440593606 -0.0035112223343273844 -0.07116440498726155 0.023161303879288782 0.03257368978321139 -0.08415758482031543 0.0967566675877897
0.048894486765189274 0.12866224296664877 0.057034245369713105 -0.09457906091326512 -0.04623854743814417 0.04608716074087011 -0.09969680881400984 -0.00726336521022089
0.021099648881188645 -0.07597617234580774 0.04986293338489116 0.11190827503629837 0.025429112310119417 -0.1039097768508816 -0.1212534864862896 0.005254139228695355
0.06882659569635127 0.036662424957407534 0.006584039336088246 0.0347325118424487 0.014401556514481278 0.06530545485547853 -0.01374280164463974 0.09668878453276677

equations.x.layers.6.weight f8 [64, 64]
00000000: 3e0d 604a cab2 a2bf a747 3c96 0b5b a13f
00000010: 73ea 8412 cecf b1bf cbac 4239 563b 90bf
00000020: 2e48 4d56 fe04 8abf d1ed 7436 961d b8bf
00000030: 0635 0606 f3b4 babf f737 b886 1307 a7bf
00000040: ff5d 71c5 0fe5 af3f 8cef 5596 7fd5 80bf
00000050: c2cf 7e0f 6f5d b93f c6b0 422b fda5 7cbf
00000060: dd2c 73a2 1199 ba3f f03e f81e a6d0 8a3f
00000070: 751b bf46 6d3d bdbf 95ca 79e1 6cef b2bf
00000080: 5d7e c81d aeb3 83bf 7261 44f9 e1fe 593f
00000090: fcef b495 dbb9 bdbf 08ea 07ab 8001 84bf
000000a0: 957b 25ee 6957 a23f a6ab 1357 b9f1 813f
000000b0: f890 cbcf e06d b1bf a208 7e27 4627 b8bf
000000c0: 08bd 76b7 6adb 9abf 43c7 fd9d 86fc b53f
000000d0: e8d0 852a 441a 883f dfaa e8b5 ce07 b13f
000000e0: 6786 10bf 8352 a73f 7a12 e935 5fe0 a1bf
000000f0: 408d 6e4b 241b abbf a701 409f f6ff b53f
00000100: d978 5841 3593 a9bf ca93 0f49 2a3f b73f
00000110: 6c59 ab32 e2d8 b5bf 2c68 f887 937f 9ebf
00000120: 0f9d 312c 6993 bd3f cc82 30a3 6abd 993f
00000130: 3c67 8fba 88eb b5bf a909 4cf1 4700 b63f
00000140: 15b0 3715 b0bb 903f 4b95 0f48 4488 ba3f
00000150: 4b11 aaea b623 bbbf 95b4 4249 d136 993f
00000160: 85d9 5fac 7298 b2bf 9928 04b2 8543 bb3f
00000170: 1d1f 4d28 a172 b4bf 9031 f373 82a5 813f
00000180: 58e5 188f 8f73 b03f 66b0 dfd1 a49a b4bf
00000190: 712b a82c 3038 b93f 9d3a fd3e 52ab 96bf
000001a0: 625f 8fd0 8080 b6bf 3334 0617 549f b1bf
000001b0: cdb8 d9cb 4b0f 9abf 6e74 01cc 63b3 bdbf
000001c0: 6992 9fed 960b 96bf d713 2892 177c a13f
000001d0: 551c 79a4 272e 99bf 2633 f654 0d25 b1bf
000001e0: da7f a8ba 4d02 babf 27f7 b4eb dba3 b8bf
000001f0: 5b54 c6d5 33b5 babf cd5d 8bc9 0e87 a13f
00000200: 34bb 8251 f3f3 78bf 2443 9b0e 2823 b6bf
00000210: 8fd7 d0de ce71 9e3f a146 4ad6 653a bf3f
00000220: 7c30 ace9 c092 50bf eb80 4d79 ce35 96bf
00000230: 5eb0 fa6c 8768 853f 0a04 cb1f 9022 b33f
00000240: 1162 c65f 4fb6 b63f b548 03d6 b477 b13f
00000250: a6fd 5978 4260 b83f 941e cd10 1c75 aebf
00000260: 1f12 1548 a0e3 a83f bb3a 6999 533d bebf
00000270: 247e bbb2 552f 9d3f 48ba b540 8fe8 b8bf
00000280: 5504 9d0a c92f b63f bffd eb56 c160 b23f
00000290: da8c 8b71 3ad2 babf c006 3e66 5404 81bf
000002a0: 641e d99a beb2 a1bf 1586 072a c698 b2bf
000002b0: 4ea5 2652 ac3c b43f 5b69 d914 4f96 bfbf
000002c0: 2c33 a411 1c9b 9d3f 9ef2 3ef9 8a74 a73f
000002d0: aa36 e6d6 32d3 b0bf 5198 22ce b4f1 a5bf
000002e0: 0c57 5a82 79d9 8cbf fa6c 48db 38c1 b23f
000002f0: b668 febd 9446 95bf cb18 0fd6 416c a0bf
00000300: 9c3d d644 6bad a73f a75b 955a e823 bfbf
00000310: 0d4c 0687 efb5 b4bf 0634 5649 93ae b53f
00000320: 5981 6ffd a61a a83f c9ec db3b 6007 b03f
00000330: 0046 450a a2eb bd3f 639f e67c a105 ae3f
00000340: faac 313c ee57 ba3f 4c9d 444e 0ae2 923f
00000350: 35d9 0a4c 3239 bb3f 662c 1db5 5098 85bf
00000360: d862 576d b6de b2bf bdee 4669 196d a53f
00000370: a6bf d451 fb92 babf c29b dc47 2ae8 b0bf
00000380: bc98 42b0 0a54 b1bf a420 6523 c0fb babf
00000390: 6c5c 2813 5f6d a2bf 7300 f6cf fea4 c03f
000003a0: 8519 75f7 d78e bb3f f986 d424 bf22 bcbf
000003b0: 75e8 093e a53a a43f 4989 d030 207f b2bf
000003c0: 5b5e 1a52 c40b 8bbf 4cf4 c760 8d63 bdbf
000003d0: 6827 7836 ecca b03f 1b23 5833 4c95 a63f
000003e0: 552d 5cb0 4402 a2bf a614 64c2 6b30 87bf
000003f0: 7388 9db0 4963 8dbf a21a 8768 1534 833f
00000400: b4ab 6e73 9d52 afbf ec24 486b 466b a8bf
00000410: 06ea 0b55 bfeb 9bbf 5b1f dbde c3e9 b43f
00000420: a003 a5b0 e309 b6bf c0de 87ec 33bb a03f
00000430: 10d7 d1e2 ab9b bf3f fdb8 ad18 69b0 c0bf
00000440: dace 91cc ec7f ad3f ca07 3b42 426e 933f
00000450: c42b 41cf c26c 77bf be71 a5ef 7012 b7bf
00000460: 9aff d5b9 3d55 ab3f 80ca 3acc a6df 7abf
00000470: aac6 0a86 82d3 983f 0f65 8422 b186 b03f
00000480: cd8c 293a dfef aabf 4052 0c27 9a98 bfbf
00000490: 4fd3 e7cc 3bf7 bdbf e9b1 4c21 a851 b4bf
000004a0: f8d7 f3a1 bedb 9e3f 8f65 1337 2700 97bf
000004b0: f55e beaa 27fe 63bf 7e5b 61f4 b82d aebf
000004c0: 1492 a011 19b7 90bf 05ab 563f 6de0 ba3f
000004d0: 7d82 5608 d884 bdbf 3c9c 00dd 7e15 a7bf
000004e0: 5337 bffb 130d b73f c9fb 2204 3543 8dbf
000004f0: eaee 7e00 524f aabf 897e 5198 26b6 b23f
00000500: 0e1d 745a ca19 b0bf e264 40b1 46d5 b0bf
00000510: dfd9 3618 2cad a03f 0f40 1d18 8510 a6bf
00000520: 6ec8 6595 29bb 9d3f a6c5 de46 25ce b93f
00000530: 47d7 26a0 9e9d be3f 186d faea 668e 813f
00000540: 4aa9 c8b9 f0bd b8bf 9fa0 668e e0bb 79bf
00000550: ee97 cdcb c89d bb3f 198e dedf 2b7b adbf
00000560: e3d9 66f4 a4c0 93bf a4b9 1457 e5ab b53f
00000570: 9af5 eb53 0458 be3f 4570 9e66 540e 94bf
00000580: c795 784f 6524 a53f 51c9 62d0 4cb8 ac3f
00000590: 5999 f252 21ae a13f ccbc 7da4 9624 b0bf
000005a0: f334 5fca 976c b2bf 6c11 2d94 f271 b5bf
000005b0: db53 6845 6949 9f3f 3285 b1a3 218d b1bf
000005c0: 0da1 9ea1 816d a4bf 76d3 7599 3c33 ba3f
000005d0: 86ab bca2 dee8 a63f 67af 6fbf 7e80 a73f
000005e0: a710 a54a 564e b53f 6ca1 a653 2d64 9fbf
000005f0: 8e8a 9a0e 4317 95bf c4ab 0a2b 1e2b b6bf
00000600: 75d8 1ed9 b73a b23f 68f8 01db f6ec a73f
00000610: 5e08 01b0 6fce 893f 5dc3 c983 b3ad a13f
00000620: 8815 7c48 084a ae3f 1b68 1094 1349 bdbf
00000630: b862 cc1b 2a0d c03f d2c6 1d42 6f2c b2bf
00000640: 9e78 df15 09d7 b6bf 9b4e 047b 9abc b53f
00000650: eed9 2491 1b27 bd3f b338 ca7c e700 ab3f
00000660: b18a 71bd 8360 a63f d78d 5f04 c724 bb3f
00000670: 4b2f d5f2 4c26 533f 9512 f7d7 6cc7 8abf
00000680: b120 193e 706b 8ebf 998c b385 bd21 9a3f
00000690: cd2d e877 db79 9cbf 8dd9 4004 97b6 af3f
000006a0: 1e9b 3143 6900 b73f f077 83a0 7ff2 b8bf
000006b0: f067 1e35 5b05 9e3f 2a66 80d9 7ee0 75bf
000006c0: 0979 7b7d 36ae bb3f 5932 29e6 1bc4 a4bf
000006d0: 06f8 aad8 e940 b63f b6cc 0f7a 127a 903f
000006e0: 2821 db04 f5ce 92bf 5a93 825a f50e 913f
000006f0: 958f 94d4 9a70 833f 62e3 f9a7 24c3 bd3f
00000700: 33d4 954f 4ad1 b33f b837 d61c 76e9 be3f
00000710: 4962 17e5 8216 b8bf 355a 9e52 9a65 a13f
00000720: 784d 7055 b625 5ebf c386 bf97 8ba0 8b3f
00000730: e1df 65e0 e43d 973f 40ac 1833 a2af b33f
00000740: 1ff6 cac1 9c2e b3bf 5617 0191 72ef b0bf
00000750: e98b f1e9 030f b73f 7c56 740f cbf5 913f
00000760: ed94 036d 93b5 953f cf17 013b fa6f 78bf
00000770: b9b2 f6e2 9372 90bf dff4 a35b 37c0 b7bf
00000780: 4658 bd36 71af b73f 3a8b 7283 9d29 b33f
00000790: 2718 b708 bd20 bb3f ded4 9c34 b208 aa3f
000007a0: 233d 95c4 2f65 babf d3af eadc 9450 bfbf
000007b0: b52d 5c32 b926 be3f 246b 3f4b 81e6 b13f
000007c0: 2880 7218 9eea be3f 1a2b cc7f bda8 b4bf
000007d0: 7202 c717 32a9 9ebf 63fb d40a a9da b13f
000007e0: e769 ae74 b6f6 b8bf fd26 ecb7 a2e5 b7bf
000007f0: 424e d63a 4210 c03f 65a1 60d5 b903 c1bf
-0.0365203109540979 0.03389774521760041 -0.06957710220459905 -0.01585135197153135 -0.012704836853718229 -0.09420145825872984 -0.10432356736255963 -0.04497586268927017
0.06229447636786389 -0.008219715857869202 0.09908193710617666 -0.006994236890175814 0.10389814582883923 0.013093278713341289 -0.11421854951104911 -0.07396584038523664
-0.00962005642310187 0.0015866476797495557 -0.11611721425009586 -0.009768491000603965 0.03582316429196123 0.00876183316218777 -0.06808285782932788 -0.09434927429359388
-0.026227633903258357 0.08588448865137104 0.011768848941507717 0.06652538243421756 0.04555141169863646 -0.03491494687162784 -0.05294145031737196 0.08593694103183812
-0.04995123312640865 0.09080757411682253 -0.0853406308845927 -0.02978353993794529 0.11553056076956046 0.02513662930516851 -0.08562521509830118 0.08594178811112009
0.016340972228064816 0.10364176520632389 -0.10601371029958277 0.024623174759359562 -0.07263867100104988 0.10649905773257941 -0.07987410768430121 0.008616465724480077
0.06426331752381509 -0.0804846775424167 0.09851361360794698 -0.022137913794092346 -0.08789830295370174 -0.06883740961184585 -0.025448974911733303 -0.1160185216007947
-0.02152858567559904 0.03414987239015204 -0.02459012929309908 -0.06697161983738606 -0.10159765059552175 -0.09625029091418168 -0.10432743043050278 0.03423353395708837
-0.00609202429056559 -0.08647394520381774 0.02973101839980746 0.12198482972805859 -0.0010115512765791748 -0.021689630655033303 0.010453279507906806 0.07474613929936438
0.08871933067565176 0.0682328245632416 0.09521880567807858 -0.05948722558110578 0.04861164932166084 -0.11812326903712293 0.028500880273780407 -0.09729857759314442
0.08666664609064985 0.07178886768450975 -0.10477032920930487 -0.00830903946894368 -0.03456683769450988 -0.07264364744289538 0.07905079846991223 -0.12338728198065978
0.02891200883555027 0.04581102650215495 -0.065722634759562 -0.04285969749734931 -0.014086674967340972 0.07326083520495166 -0.020777057739544268 -0.03207593668007432
0.04624495711606899 -0.12164165698537364 -0.08090111776827787 0.08469505825469534 0.047078340947112 0.06261254750636448 0.11687672377345137 0.058636709686935594
0.10290421456891244 0.018440400149441857 0.10634149891379681 -0.010544424559745202 -0.07371082467524148 0.04184798631783113 -0.10380526302173951 -0.06604255918919846
-0.06768862536646031 -0.10540390838753183 -0.035990687454778264 0.13003525881140696 0.10764837066117224 -0.10990519189047267 0.039509929488262076 -0.07225228492510384
-0.013206037288269792 -0.11480029690569998 0.06559635476892611 0.044107800738919255 -0.03517355587799879 -0.011322824354019833 -0.014349532797215602 0.009376685383256703
-0.06117717775426659 -0.04769344386665772 -0.027266492429570043 0.08169197264498733 -0.0860884004841993 0.03267824423158805 0.123469107509518 -0.13038362221727332
0.05761661526858371 0.01897529153098513 -0.005718956923440769 -0.0901251397203344 0.05338471311097166 -0.006560946992680727 0.024244346076278823 0.06455523579315446
-0.052611327981844626 -0.12342227414439666 -0.11705373528077455 -0.07937098324754967 0.030135134348675735 -0.022461521851118212 -0.0024405264611678753 -0.05894258483083713
-0.016323463154678988 0.1049869804034352 -0.11530828670084677 -0.04508587310584075 0.09004330536046483 -0.014288343609562564 -0.051386416016127104 0.07309190005025291
-0.06289353092516967 -0.06575433566503677 0.032571199375002406 -0.04309478682864675 0.029034280532365057 0.10080178241948676 0.11959258470491561 0.008572391553846745
-0.09664825950372805 -0.00628268925940048 0.10787634826337442 -0.057580348089029516 -0.01928956739149069 0.08465417266845648 0.11853053139562633 -0.019585913432465202
0.04129330248933232 0.056093597829561255 0.03453163278145394 -0.06305829540154945 -0.07196949663849121 -0.08376995198802256 0.030553479062365923 -0.06855974432393877
-0.03989796731849724 0.10234431025112464 0.04474540459189939 0.04590221487873585 0.0832265789259191 -0.03065558264793948 -0.020596549764955223 -0.08659542609045362
0.07120846796792242 0.04672976897653386 0.012600777205197197 0.03452836021177206 0.05915857205222169 -0.11439630856367027 0.12540174825041617 -0.07099051822822425
-0.08921868118292983 0.08490911010113182 0.11387798589280582 0.05274127386393115 0.04370509803336143 0.10602992874878879 0.0011687995386919388 -0.013075685826046604
-0.01485336007603197 0.025519334111674927 -0.0278085987029451 0.06193992545051961 0.08985002413247087 -0.09745023411548437 0.02931730758391632 -0.005341048723516853
0.10812702716382118 -0.040558692785087565 0.08692800082914695 0.016090668392234796 -0.01836760370386617 0.016658624314590177 0.009492120373188398 0.11625889874438891
0.07741226618766532 0.12074983791373384 -0.09409349530268075 0.033978293023370666 -0.0018400459864594525 0.013489809578405404 0.022697044559634953 0.07689870593519377
-0.07492999774236651 -0.06615367927687762 0.09007286511909708 0.01753918916536755 0.021200469521223054 -0.005966165030320838 -0.016062079170000774 -0.09277673709216881
0.09252078615585999 0.07485374888578358 0.10596829855703103 0.05084759609455046 -0.10310648488415501 -0.12232332604861477 0.11777837256902653 0.0699234780035281
0.12076747986657266 -0.08069977159554434 -0.02994230527997605 0.06974274172260446 -0.0975145373217071 -0.09334771147055317 0.1254961764612848 -0.13292620581456585

equations.x.layers.6.bias f8 [64]
00000000: ba16 ef4f 139d acbf b560 58c2 3d3d b13f
00000010: 9254 83c4 97f7 863f c6b9 0f14 f407 8bbf
00000020: 976a 6978 6ff8 afbf 3fc9 c266 bd74 a73f
00000030: a336 5e35 25d0 a1bf d165 d375 f503 64bf
00000040: 5dc0 3909 1baa b83f ade4 bbae 6749 a33f
00000050: d598 a420 6260 b2bf a7af 6941 84f6 b23f
00000060: 6f52 24a9 cf88 bbbf f57e 552c 8c58 b93f
00000070: 75d5 436e bd45 b03f dde1 738e bc64 a43f
00000080: 53d6 7e09 6472 9c3f 11dd f314 e17b ac3f
00000090: 6592 b289 55a6 ab3f be93 f748 a195 b5bf
000000a0: f1df 0b12 63a3 be3f 79c9 70fd ab41 a9bf
000000b0: 5d46 dc79 22c3 893f d69c c49f cc3b a93f
000000c0: 24c2 eeea e81d c0bf 4c7e 5e30 e0c2 b0bf
000000d0: eb68 60e4 541f b5bf 8a9f 036c cff4 bcbf
000000e0: ee83 f31c 3ff5 91bf 6271 0722 3005 b9bf
000000f0: 1732 4f99 581d b5bf 4708 f68d ff61 b63f
00000100: 6dea 6427 05a7 b83f adb4 274c 8f01 a53f
00000110: e297 7cd6 0a20 85bf f8fc 05f9 41d3 acbf
00000120: a103 19bf 01bc b83f 1cd2 d337 0f91 a3bf
00000130: a5a0 4f03 66e2 b7bf e70b 80e0 f784 81bf
00000140: fbbd 33f4 4e49 acbf e8ba 6105 a86c 8b3f
00000150: a28f cf1c 0f1d b03f 625f 31b7 ab40 9dbf
00000160: 8210 752f 98e5 bb3f e12e 0a60 6c0c aa3f
00000170: 2eae 3ac4 c51a bb3f 7833 c2a1 f285 acbf
00000180: b3e9 ef43 417c b33f e9af 2d47 3788 943f
00000190: c797 c1d4 4fd3 963f 3040 7457 ebb3 a8bf
000001a0: 97d8 6912 2597 a53f f581 738c 4422 7a3f
000001b0: ea4c fa7d 660e 933f 7b9d 06d5 18f9 a53f
000001c0: c252 2ca3 ba80 85bf b460 b182 a1b4 743f
000001d0: c285 66a7 3370 92bf 1133 6f80 45fc a13f
000001e0: 68b4 f92a b574 80bf c28b 2e39 2f51 bb3f
000001f0: 83b9 d0af 7255 b6bf 58e6 ddff 2d11 343f
-0.05588589049106703 0.06734071726566777 0.011214433369256125 -0.013198763715959749 -0.06244228691931147 0.04581252936749757 -0.03479114796128371 -0.0024432939668314964
0.09634560561403434 0.037669410781697145 -0.07178319260546868 0.07407404515259818 -0.10755632285538196 0.09900737841007497 0.06356414739624035 0.039831058873406745
0.027780116157109024 0.05563262348908372 0.05400340371969462 -0.08431442290709776 0.11968058767877189 -0.04932916134602556 0.01257922109974457 0.04928435755055609
-0.12591277571984094 -0.06547356778036678 -0.08250933242416962 -0.1131105078417233 -0.017537103788416823 -0.09773541289127288 -0.08247903578666925 0.08743283477636608
0.0962985249688388 0.04102752499225324 -0.010315022154440304 -0.056299268387187185 0.09661875644179797 -0.038216090741034686 -0.09329831677280483 -0.008554398096753913
-0.055246798810795604 0.013390839256513812 0.06294340566051784 -0.028567011886792122 0.10897208365082814 0.050876032565694514 0.10587726631882141 -0.0557094404658533
0.07611472996351303 0.02005087253512264 0.022290465698823227 -0.04824767534785257 0.0421687684037561 0.006380336540332089 0.01860962051302987 0.04291608429349033
-0.010499437431954365 0.005055075550522915 -0.018006140796961174 0.03512780373384861 -0.008035102247243311 0.10670752664604691 -0.0872413329350135 0.0003061997702996414
