simple-pendulum-system/2025-05-30_21-42-58/model.pt (torch, 276310 bytes, 24 tensors)

equations.x.layers.0.weight f8 [64, 1]
-0.34057540823603805 0.7897164610535921 -0.41373591576793944 -0.733920171499757 0.8122364579557403 -0.09497384768850947 0.4286979499927733 -1.152725298408065
0.6745192975940566 0.4429431120417212 -0.1017985868651041 -0.16647344996313246 -0.921433681603503 0.47482933704621183 -0.4390886809596124 -1.210398807968943
-0.07871285891786979 0.13960938603181697 -0.9832950185101884 -0.4781189606715879 1.3794644482442386 -0.036648831654706726 -0.642564901796637 -0.29421567874834414
-0.003972892882245668 0.09048798443733616 0.13863621071624813 -0.31532214380305146 0.9446480018225225 1.6784282360434712 0.034758355816228756 -0.5818267212750756
0.21604377249664977 0.21520866693595703 0.7838133357606375 0.08051473248574009 0.23316195377202528 -0.19504348016299036 1.7894868367173316 -0.5807452130794717
0.2637986571324107 -0.393091837331027 0.48337279451532916 0.1355123732563558 -0.8428937050377715 -0.8175599129090986 -0.6238595891251965 0.3871261422672783
-0.5626634372071693 -0.1084325709131936 0.581977788263656 0.8148851879355927 -0.2911248819585299 0.6431578210752583 0.4784141855180383 0.4730921641683362
-1.0688562465113756 0.40752253049380344 -0.6064429456864283 -1.957715870202359 -0.5548321926413669 0.15946589769898295 -0.6711394916923245 0.5650793960836703
00000000: 3e85 0ccc fccb d5bf 30d1 aa74 5b45 e93f
00000010: acd9 d934 a67a dabf d8ea ce27 467c e7bf
00000020: b73d f14f d7fd e93f 9824 ccc1 3450 b8bf
00000030: 7532 c586 c96f db3f a1f3 1e15 9071 f2bf
00000040: e4fe 757e a995 e53f 3e4a 0d11 2e59 dc3f
00000050: de58 5de1 780f babf a239 9f83 004f c5bf
00000060: 0170 fd7c 627c edbf adde 7296 9a63 de3f
00000070: e4fa 3069 071a dcbf 0081 f523 cb5d f3bf
00000080: 8db0 d3a2 8626 b4bf 5553 9c69 b8de c13f
00000090: 6b45 5a1d 2777 efbf 90a5 eb44 8099 debf
000000a0: 5042 3350 4912 f63f a882 c9ba a2c3 a2bf
000000b0: abc4 d844 e48f e4bf 0174 8cff 6dd4 d2bf
000000c0: 7c00 ff4f e145 70bf 66dd d675 382a b73f
000000d0: c5a8 88d3 d4be c13f 82ad d5ed 3c2e d4bf
000000e0: 48e7 4172 8e3a ee3f b8d5 e790 d7da fa3f
000000f0: 5ea3 fce2 d8cb a13f 6817 7a12 539e e2bf
00000100: 6154 b084 52a7 cb3f ea20 2725 f58b cb3f
00000110: e156 68b4 ff14 e93f 6458 df0e 9d9c b43f
00000120: efa7 0f3b 40d8 cd3f 818d 4c4c 2ff7 c8bf
00000130: c62c 05f3 bca1 fc3f 2884 2ffc 7695 e2bf
00000140: e831 47c3 13e2 d03f f352 6aaa 6a28 d9bf
00000150: bf0b 0e72 94ef de3f 3c71 ab2d 7858 c13f
00000160: 2987 2438 fcf8 eabf cfe2 0e68 7329 eabf
00000170: c3d6 9262 a8f6 e3bf 11bc 1dba acc6 d83f
00000180: 34b6 aec0 5601 e2bf b9b3 e4a9 3cc2 bbbf
00000190: f5e7 f2e1 8f9f e23f b0b3 051a 8a13 ea3f
000001a0: 6c14 c441 caa1 d2bf 53ea f5b5 bf94 e43f
000001b0: 5384 2f88 569e de3f 1233 465b 2447 de3f
000001c0: 4a44 ee01 091a f1bf bba8 3661 d914 da3f
000001d0: a19e 5309 fb67 e3bf aa11 56e0 cd52 ffbf
000001e0: 5e34 4571 2fc1 e1bf 8ae2 b8e7 6069 c43f
000001f0: 51ec fb86 f979 e5bf 5554 ba62 2115 e23f

equations.x.layers.0.bias f8 [64]
-0.30016216169033183 -0.6586690247862557 0.9697831876015317 0.819453407279414 -0.9606087504429225 -0.6522757190146224 -0.35010567209213167 -0.23226702857716197
0.40458802363007423 0.777863653361274 0.21448414797724208 0.0648240820091469 -0.5304686516518252 0.47418133599440626 -0.754579892429519 -0.7352064837983057
-0.016556763691054927 0.6291666432461306 -0.5083055440676113 -0.22334569802367765 0.37498837562368476 0.7110745531225785 0.8199099531342726 0.2043183601596736
-0.4952720278870268 -0.811303275057801 -0.17249193393414014 0.15849330672615386 -0.002789219400704982 0.4060740213340462 -0.7537547441307725 0.03009946936498097
0.22683428338567282 -0.7636661418150451 0.3036798972137397 -0.22071956476027166 0.030077462061496786 0.034312094378191944 0.39878276275536595 0.9691856180054386
-0.4382503698228111 -0.10643651728899546 -0.3989432288673028 0.8540878024792238 0.563673065159162 0.7225043261636821 0.37400122966989124 -0.677494851222746
0.2897280386874827 0.1281763750660462 -0.7008079519119798 -0.33709042853601917 -0.11162795571079727 0.15388424437295228 0.23185650800124208 0.49163950644362336
0.6799003517331924 -0.3457030202493078 0.9204476479223117 -0.12114662488166046 -0.9879388400215853 0.5510808374863408 0.8590623856496723 -0.44324647670032424
00000000: 9439 fd5a db35 d3bf ba0b 0b10 d113 e5bf
00000010: dcb1 5ec0 7608 ef3f 188c 1b5a f638 ea3f
00000020: bfeb ec8f 4ebd eebf e890 2454 71df e4bf
00000030: 55e8 f19e 2168 d6bf f8c8 d60d edba cdbf
00000040: 5f0b 762a c5e4 d93f 4de1 fd50 42e4 e83f
00000050: 8e4d 8970 3774 cb3f 47f6 38a0 4f98 b03f
00000060: d3ba cc64 99f9 e0bf 500d 9eac fc58 de3f
00000070: 0587 06bb 8425 e8bf 6c11 77bf cf86 e7bf
00000080: 159e 529a 41f4 90bf 473d 8f15 2222 e43f
00000090: 07ab 04fd 0944 e0bf f063 5b82 9796 ccbf
000000a0: d9c4 6b3e cfff d73f bdbc d56b 1fc1 e63f
000000b0: 0e0d 4ccc b33c ea3f c7d7 6da1 1a27 ca3f
000000c0: 0f7f 9972 89b2 dfbf af59 3049 32f6 e9bf
000000d0: 0e14 8937 3714 c6bf 8209 8338 8249 c43f
000000e0: 08cb 6fc3 6ad9 66bf c5a2 58e4 1dfd d93f
000000f0: 75e3 e744 c21e e8bf 7dbc 3232 65d2 9e3f
00000100: 4d64 60e2 e708 cd3f 4b0f 05fa f36f e8bf
00000110: f314 bfce 7d6f d33f ccc9 1de8 8940 ccbf
00000120: ca6d 9a4f a0cc 9e3f d156 6cd6 5a91 a13f
00000130: 6c8a 0f23 a885 d93f f2c7 a28e 9103 ef3f
00000140: 0954 7647 4b0c dcbf 553b db70 6c3f bbbf
00000150: 7e86 3c2e 4988 d9bf dcf1 71f1 af54 eb3f
00000160: 67d4 8f18 9c09 e23f d4ed 8264 c11e e73f
00000170: 5624 86da a2ef d73f f9b8 a6ae 09ae e5bf
00000180: cf67 b978 e78a d23f d5a5 835d 1568 c03f
00000190: 61a3 47cc 046d e6bf 43d6 96bb e392 d5bf
000001a0: cde2 1853 a693 bcbf d2ca 799a 7ab2 c33f
000001b0: d273 9d5b 79ad cd3f 5334 668c 0577 df3f
000001c0: 6574 e761 bec1 e53f 5759 868f ff1f d6bf
000001d0: d934 30a0 4e74 ed3f f533 e317 7703 bfbf
000001e0: 87e8 0aea 319d efbf 9398 ce47 74a2 e13f
000001f0: c3d9 7266 707d eb3f 06b0 5f78 265e dcbf

equations.x.layers.2.weight f8 [64, 64]
0.10514892287557222 0.015212242774927333 -0.02100772494412733 -0.06967918420480505 -0.07070558846865638 -0.11149291368023771 0.03265174193092704 0.11160941783629519
0.033657192551738165 -0.01515139143978338 -0.05629325461630216 -0.00570218558443389 -0.010266731522777737 0.01251517952308542 0.115997998133028 0.009398246461358438
-0.055665983918766586 -0.000897252077461145 -0.10596966280089547 -0.11621160528417623 -0.04820567589096513 0.10869080819762403 0.1165645059514629 0.12014096207096203
0.03981135232319887 0.019085218784537186 -0.08170069231651877 -0.025528296284657075 -0.0887824872172232 0.059184515105004575 -0.09024739042456134 0.005722500603330856
0.09679916617041726 -0.11609463346484346 -0.07457205295755441 0.12895187297397315 -0.08671530898828417 -0.07248886978619935 -0.0002790975390738039 0.11724055364870956
-0.013265184638136538 0.0926506991949647 -0.07852711171095958 0.10964572442519575 0.013781852977081642 0.0996926907724392 0.07158895728101866 -0.11417851353811384
-0.05839363013929231 -0.0032228882570763838 -0.03424546174152426 0.07856220184485292 -0.11840894721830196 -0.09192679045251877 0.03982455831112061 -0.036900098475202044
0.03607054621471059 -0.0024933221097859855 -0.003679389878590978 -0.08995671551765137 0.008262590714170015 0.04991613137855713 -0.050912160644373865 0.10255670910789472
-0.03118979795871506 0.08087757831957386 -0.048393175703190135 -0.06583088604472773 -0.09341256253983832 0.07423765827078241 0.07755770083689591 0.13003634361538938
0.09150370847549807 -0.05100434841501463 0.02430254627635271 -0.0876864066041567 0.06092167628869161 -0.03940720653199642 0.1413518995437925 -0.04247946131209639
0.11524742999758399 0.09994659697689362 -0.08846175485484915 -0.09646738118151985 -0.10833617075625218 0.07890214227485651 0.047537168863474095 0.11701710532186152
0.026819997551749984 -0.045592911157265555 -0.04293112899690003 0.08021601162321647 0.03583547588427575 0.011780529348255341 -0.060404493934324247 0.11351771657706787
-0.017821810846115154 0.10856044921359542 -0.020161555601489863 -0.11806315782015689 0.0911629520496567 -0.09263457875800807 -0.046400927716137276 0.08313008971382924
-0.06100350000795486 -0.0023236851464708483 -0.011494446254710876 -0.06847763344269063 0.04594918992801356 -0.05850071392156964 0.07430224571146524 0.06682674706751296
-0.055266847076554305 -0.07516991521946911 0.0018537985992202336 0.09990885265928882 -0.047531547740178204 -0.09967242731602058 -0.0040337007385258744 -0.10995032475155943
-0.07359083163315058 0.1027292346155882 -0.10674981220174995 -0.09247408337013582 0.024934263658626235 -0.05842039759614329 -0.014405322783671475 -0.019609984263381168
-0.12796817455326526 -0.016625657068411948 -0.058221075269083364 -0.03046349104119722 0.017502591709244408 -0.11560782146608087 -0.011727809128732747 -0.01937510601305948
-0.052171948179923634 0.10166226016803626 0.03422468759565978 -0.10254264247009773 0.015656162403022544 0.057770773104603705 -0.048393760472955044 0.05151747510490471
-0.07280185671799694 -0.01841098273522696 0.06914902764144358 -0.016768105617333086 0.013973024531510501 -0.07608285107602862 -0.045255186903290855 0.11976314666313284
0.02476279346276881 0.07676381703340511 -0.13158900893482742 -0.08798816134844299 -0.1104985545890448 0.13752709019445114 -0.12157473436671506 0.03205937415735342
-0.11218979434255708 -0.11030132105891623 -0.06890574316142374 0.08391847819022057 -0.11008102990048792 -0.03449443779237398 -0.0919166811865446 -0.049784043402662015
-0.07874272554444015 -0.03585231276961971 -0.07314564659455874 -0.021562422455775748 -0.05396247529555372 0.0903036754316732 -0.06647207684066955 -0.003723597261106666
-0.10306359013399949 0.11367014661443627 -0.026511870013708895 -0.08870613086137485 -0.054137868303924815 0.032438872026210916 -0.02108069326449322 0.07338981055409304
-0.09357139939838446 -0.13024900129894323 -0.04303856809403015 -0.13328195786977357 0.03579343747601371 0.00135917103958686 -0.08153606412585664 -0.017656756655782164
0.09287587556627093 -0.11862120178428419 0.08521729866918001 0.09765930059112385 0.11681775854205682 0.05132751904293624 -0.04706288136026265 0.027142890636842252
0.018820958083913316 0.12238683508355673 -0.05808153855728289 -0.10751600577429375 -0.0838094644373795 -0.03396502312726009 0.06826081469740647 -0.05449251602805221
0.12609501597968556 0.021313249708539185 -0.07938405014805457 0.01573058385325858 0.07143766047017226 0.013939034543230413 0.07273103083242276 0.009163596214089758
-0.10369780877031573 -0.017548431205037393 -0.08172279645343494 0.09196904801946229 -0.06963972364456536 -0.05879662339593699 -0.018040230841860128 0.08062029413667403
-0.11207577799171431 -0.13836182726757632 0.12005760669757037 -0.13154684314507423 -0.11306563497156794 -0.08473238121802097 -0.034400393927290704 -0.06923746310724255
-0.1358154976878594 0.013047375876142438 -0.08623141386814946 0.10846573168357683 0.06576998746661776 -0.11280731407075739 -0.10130762575494422 0.016894569561682136
0.041309009152116064 0.021809953497315123 -0.07323979978111125 0.09210662601429398 0.014030758957267284 0.025812287530713636 0.07204432519272266 -0.08202272859987413
-0.09449131809919067 -0.09649383902596978 0.047072520209838785 0.046261776727188376 -0.013253873200114234 0.022401529519562483 -0.031957764856078055 0.09000668145437118
00000000: 41d0 f530 0aeb ba3f 21ac bca9 9827 8f3f
00000010: 6ec0 648e 0c83 95bf 0321 5fb9 7ed6 b1bf
00000020: 4808 1eee c219 b2bf 170c feb1 cc8a bcbf
00000030: 1464 80a7 bab7 a03f 1051 884f 6f92 bc3f
00000040: 21dd 91fa 833b a13f 7a38 c855 b107 8fbf
00000050: 5cf5 1f2f 78d2 acbf e225 9dc9 2c5b 77bf
00000060: 5f63 0461 b906 85bf 2eb1 0af6 8ea1 893f
00000070: c600 6278 0bb2 bd3f f9be 8749 633f 833f
00000080: 278d dc78 4080 acbf 547b 1b2a b266 4dbf
00000090: 1f16 19ec d320 bbbf 7477 1c34 0bc0 bdbf
000000a0: afd5 dd12 6aae a8bf 9aa8 952a 29d3 bb3f
000000b0: 2499 efe4 2bd7 bd3f d837 01df 8ec1 be3f
000000c0: 3fb0 7950 2762 a43f 84fd 105a 138b 933f
000000d0: 985c 8f29 56ea b4bf 4e2a a9f6 1624 9abf
000000e0: 0436 0ef7 72ba b6bf 4379 9cc9 6e4d ae3f
000000f0: e23e 6cf6 731a b7bf 4814 150f 7a70 773f
00000100: 1e65 fb84 d4c7 b83f f5fc f8bd 60b8 bdbf
00000110: 6ff5 a570 2717 b3bf 4830 97b6 7e81 c03f
00000120: a0ce 2a78 f932 b6bf 3d44 0e6d a18e b2bf
00000130: e4cc 7ecd 7a4a 32bf f0a6 af17 7a03 be3f
00000140: 45d0 91f1 c62a 8bbf af70 feca f4b7 b73f
00000150: 6edd a550 5a1a b4bf fb6c 8d00 be11 bc3f
00000160: eccd 84fe a839 8c3f f492 84ce 7585 b93f
00000170: e0d6 4666 a753 b23f ea55 8d95 cd3a bdbf
00000180: ed67 7c17 c5e5 adbf e6b3 35f5 e266 6abf
00000190: 67ba 6e04 9f88 a1bf d519 a007 a71c b43f
000001a0: d73c db7b 0c50 bebf 13ac 9e9e 8388 b7bf
000001b0: ac3d 0c6f e263 a43f d120 57d8 91e4 a2bf
000001c0: 9c9c aeb0 d677 a23f 9105 701d e06c 64bf
000001d0: 353a 5466 3d24 6ebf 0732 343f 6707 b7bf
000001e0: 8045 2e27 faeb 803f d4a2 a06f 9b8e a93f
000001f0: 9f60 dfa1 2811 aabf 3092 9a0f 2841 ba3f
00000200: 8d5d cee8 37f0 9fbf 4fbc dc99 64b4 b43f
00000210: 4154 fd85 fdc6 a8bf 96f9 a0fe 4ada b0bf
00000220: b0e7 24bd e2e9 b7bf 1e96 673a 3d01 b33f
00000230: 4dbd a54c d2da b33f 4b4c 8fe9 07a5 c03f
00000240: 7a6f 5d7b c96c b73f dbe4 caf0 3d1d aabf
00000250: 13a8 dd45 c4e2 983f 1f2a abc8 9d72 b6bf
00000260: 310b 8e3e 2031 af3f 6833 906e 2e2d a4bf
00000270: fd4f e2ac d117 c23f 169f 2c32 debf a5bf
00000280: e9a4 c906 db80 bd3f 74bc 5ca5 1996 b93f
00000290: 6d60 0cf8 6da5 b6bf 462e 4e17 16b2 b8bf
000002a0: bc39 5f56 ebbb bbbf 1aa4 a748 ee32 b43f
000002b0: c9e1 39b3 ca56 a83f 5a13 6e40 d5f4 bd3f
000002c0: b64a 7491 b376 9b3f a924 b33c f457 a7bf
000002d0: 3549 0ba6 11fb a5bf 918a 895a 0989 b43f
000002e0: 954b eb09 0759 a23f f91a 3ee2 6320 883f
000002f0: c26d f57b 56ed aebf 0711 3740 7f0f bd3f
00000300: eb4f f57a e13f 92bf 20ef 021b 9eca bb3f
00000310: d28f c717 3ba5 94bf 2a37 b319 6339 bebf
00000320: c5fb a889 7456 b73f c08f 3e56 e6b6 b7bf
00000330: 25f9 16c6 dcc1 a7bf d46a a278 0348 b53f
00000340: 328f f3ca d93b afbf f0b8 baf6 1e09 63bf
00000350: 0c35 ff75 668a 87bf 2fd2 240c c087 b1bf
00000360: 417a 09f8 a686 a73f 21ed 2b3a cef3 adbf
00000370: 1ea0 59d3 7805 b33f 1c2d 27c5 8e1b b13f
00000380: 0561 7ea9 ef4b acbf 0ebe 82e7 553e b3bf
00000390: c470 d916 655f 5e3f afa5 c066 a093 b93f
000003a0: 3008 2516 0e56 a8bf 729f a2d7 2184 b9bf
000003b0: 39a5 0f4c a485 70bf 4116 fe58 b425 bcbf
000003c0: de5a 2647 d9d6 b2bf 345e 048f 764c ba3f
000003d0: 78ba 42a8 f453 bbbf 3e64 cdab 61ac b7bf
000003e0: b4c4 da1b 5e88 993f 6583 3042 47e9 adbf
000003f0: 491b f4b1 8980 8dbf 2e5e 58c4 a314 94bf
00000400: c04a 51da 4261 c0bf 6d8a 88f5 5006 91bf
00000410: 2ef5 6f1c 27cf adbf 10c9 f946 d231 9fbf
00000420: c31e f20b 33ec 913f cace 5b64 7998 bdbf
00000430: 8d08 4be5 bf04 88bf a201 bb5a 11d7 93bf
00000440: 1d1b 6716 48b6 aabf a8be a8b2 8906 ba3f
00000450: a1db e0f3 e585 a13f e2bf da0f 3c40 babf
00000460: 13e4 0146 2b08 903f d73d 4c7a 2194 ad3f
00000470: 2ca4 1f25 11c7 a8bf b501 7f9d 7f60 aa3f
00000480: b41e b179 24a3 b2bf 31a9 f022 54da 92bf
00000490: d72b 452c c0b3 b13f 9a22 f884 a82b 91bf
000004a0: bfc2 1c9b e39d 8c3f 7771 286d 2a7a b3bf
000004b0: 5bb0 7217 b02b a7bf 3228 2f2e cca8 be3f
000004c0: 8b1e 52f0 6a5b 993f c3b2 ac23 cba6 b33f
000004d0: 6dae f19c e8d7 c0bf 6f3e 6d63 6486 b6bf
000004e0: 8918 371e a249 bcbf b67f 59d9 7c9a c13f
000004f0: 50fb 1f94 851f bfbf 8576 1217 166a a03f
00000500: 8a70 a569 78b8 bcbf 0955 a716 b53c bcbf
00000510: 3188 6289 cea3 b1bf 076a 5b6f ae7b b53f
00000520: dd24 5537 452e bcbf 479f 6c44 41a9 a1bf
00000530: 6f2f a703 da87 b7bf 28dd 8d4c 4b7d a9bf
00000540: dee2 02b7 7b28 b4bf bab7 a9fd 3b5b a2bf
00000550: 4ce9 f74f acb9 b2bf 3893 14ad 7514 96bf
00000560: ab12 3635 f8a0 abbf da08 b044 241e b73f
00000570: 66bc 2064 5004 b1bf 90bb b70e f380 6ebf
00000580: 1aac 081d 6062 babf 4d93 3d9a 7c19 bd3f
00000590: 9aa2 a87a ed25 9bbf e419 01eb 71b5 b6bf
000005a0: 9957 ae6b f5b7 abbf 5683 f1ec d39b a03f
000005b0: d98e 9760 2d96 95bf cb80 30b4 acc9 b23f
000005c0: c2cb 4194 4bf4 b7bf 2033 75d0 ffab c0bf
000005d0: 3d6e dcb4 2609 a6bf 9348 1919 620f c1bf
000005e0: 90e6 bd76 8453 a23f 9c60 8aca c644 563f
000005f0: 0d78 dd28 8cdf b4bf 0560 8fe1 9c14 92bf
00000600: e5fd 24a0 b6c6 b73f 6b95 4686 f55d bebf
00000610: 766c d606 cdd0 b53f 8a69 302e 3300 b93f
00000620: 7bb8 87c4 c4e7 bd3f 7634 59bf 9947 aa3f
00000630: 9780 9840 a018 a8bf 39a4 6a8e 58cb 9b3f
00000640: ef96 cc1d cd45 933f 0713 255e be54 bf3f
00000650: 8ab4 3509 ddbc adbf 17de 9840 2b86 bbbf
00000660: f293 da7c 8974 b5bf da34 140f dd63 a1bf
00000670: e442 b96e 8a79 b13f 173a 6f6c 71e6 abbf
00000680: e521 e9a8 e123 c03f daed e0f9 23d3 953f
00000690: 35bd 355b 8352 b4bf ec73 c99c ad1b 903f
000006a0: 7d11 6c0f bd49 b23f 7b06 028c 118c 8c3f
000006b0: 3362 d436 809e b23f 2916 6d10 5dc4 823f
000006c0: aeda 5589 f08b babf cca9 7c48 37f8 91bf
000006d0: 48ec 1a02 c9eb b4bf 5ae3 7c95 488b b73f
000006e0: 8e4e 8eaf e8d3 b1bf 2799 334d 971a aebf
000006f0: c08d e965 2379 92bf 8ffe b516 88a3 b43f
00000700: 70ee 2589 ffb0 bcbf 6d84 9021 d7b5 c1bf
00000710: b8ef 6666 18bc be3f 0b9e 99e6 86d6 c0bf
00000720: 9e1d 8194 def1 bcbf e15c 3e76 05b1 b5bf
00000730: 1643 c6ad ed9c a1bf 0020 b4df 8bb9 b1bf
00000740: 30fe 6df8 6662 c1bf f142 7e25 95b8 8a3f
00000750: 4f98 730e 4313 b6bf 0d53 5102 69c4 bb3f
00000760: 5f3a 3a49 4dd6 b03f 18fa aeac f0e0 bcbf
00000770: c7f0 73eb 4bef b9bf 265c fd5e cf4c 913f
00000780: 4a50 ad56 7426 a53f 0f35 fe33 5955 963f
00000790: 6651 d3f0 d7bf b2bf 80ee 79c2 4c94 b73f
000007a0: 184d e096 28bc 8c3f 8211 1e4b 896e 9a3f
000007b0: 8aac 9034 7f71 b23f 077a dd08 71ff b4bf
000007c0: e2f0 fd40 9530 b8bf a2cc e1fa d1b3 b8bf
000007d0: 83e0 aead e319 a83f d53d 32a4 9faf a73f
000007e0: 22c1 84bf d824 8bbf b1e7 aa32 6df0 963f
000007f0: 62fa d1a5 c45c a0bf 909c 4489 ad0a b73f

equations.x.layers.2.bias f8 [64]
-0.015036130405689754 0.07026351769507014 0.13636708365863498 -0.10832475080424026 -0.12660271588200467 0.07205729421989376 0.13492233581808918 0.13000740667026175
0.06574932338230112 -0.0435262642778087 -0.037289730789052934 0.08291613210181108 -0.05049975420525047 0.0415498502199552 -0.04525119776392932 0.097358086032315
-0.03847721554501159 -0.09128370236631564 -0.11419275049751218 0.033588306494501535 0.00010213535064797913 -0.06136109078110376 0.07507909952843485 0.0979780722786197
-0.10526052140119184 -0.11696232782862971 0.04666699107381837 -0.07015094741668132 0.0356670908921183 -0.08416504924938481 -0.08369213533877955 -0.049043214162876464
0.11839193835436777 0.11245543986686801 -0.0844102838140835 -0.04999509951290212 0.01043916922106955 -0.07320392121991254 0.1110639331926636 -0.11256577400815655
0.04387432838064562 0.09315469483941914 -0.013115789752005868 -0.013196424236696891 -0.13746695986729732 0.06264353189503029 -0.11300588271345957 -0.010448660794629139
0.09716935263809293 0.07748307773449427 0.03818603356103702 -0.0058045664618920365 -0.023003409011680083 0.013352522275229135 0.08200994691096307 0.11045422397125869
-0.04930889986544395 -0.05058591835199323 0.10199571802451807 -0.009168812569410083 0.0891677406308787 0.05122966921625342 0.0673648935508718 0.0927791638743721
00000000: 487f ce42 43cb 8ebf a22c 9a36 cafc b13f
00000010: 2e49 4802 7a74 c13f 2433 0dbe 2bbb bbbf
00000020: 8824 268e 8434 c0bf 7cd9 1cca 5872 b23f
00000030: fb57 eb95 2245 c13f 5b7a f12b 15a4 c03f
00000040: 993e a999 f2d4 b03f 2034 2e13 1349 a6bf
00000050: 9d66 6ebc a317 a3bf f326 b0db fd39 b53f
00000060: 7501 8991 1adb a9bf 4562 b29f 0546 a53f
00000070: 9776 003d 2a2b a7bf e88b 82a3 75ec b83f
00000080: 0e5e d01c 49b3 a3bf 2635 5264 5e5e b7bf
00000090: febc d370 bc3b bdbf 6404 d88b 7c32 a13f
000000a0: 00e6 93f6 2fc6 1a3f 42af 4d8c b86a afbf
000000b0: 3977 1645 6238 b33f 736b 2948 1715 b93f
000000c0: fb5f fa80 5af2 babf a953 e33c 3ef1 bdbf
000000d0: d6f6 ed60 bce4 a73f d424 f098 69f5 b1bf
000000e0: b3a7 d9f9 f442 a23f ce09 fe35 d78b b5bf
000000f0: 0b64 3608 d96c b5bf bc2e d731 311c a9bf
00000100: 1791 571f ef4e be3f 4049 7c34 e1c9 bc3f
00000110: 0475 6d90 e99b b5bf 1b82 bc2a f598 a9bf
00000120: 3019 3793 2161 853f 9417 94ff 7dbd b2bf
00000130: d7de d398 af6e bc3f d592 034e 1cd1 bcbf
00000140: cdc3 0e2b b276 a63f c5dd cd6f fcd8 b73f
00000150: b35d 5e80 73dc 8abf 8d81 2a14 ba06 8bbf
00000160: 198e 7470 8498 c1bf e38a cb10 6809 b03f
00000170: 288a 821a f4ed bcbf 400e 3383 1b66 85bf
00000180: ba0c c137 17e0 b83f b9f2 dc54 eed5 b33f
00000190: 7202 9eaa 1e8d a33f 41c8 f071 87c6 77bf
000001a0: 6251 9ba5 348e 97bf 1705 ee33 9158 8b3f
000001b0: 77e5 ed97 9afe b43f 9f5f a95f ba46 bc3f
000001c0: cfcb a520 043f a9bf e17c ebc1 65e6 a9bf
000001d0: dc51 3f31 641c ba3f 96b8 0731 19c7 82bf
000001e0: 662a de71 b2d3 b63f 16c7 bc73 c63a aa3f
000001f0: 7613 b35e d33e b13f 0635 9712 60c0 b73f

equations.x.layers.4.weight f8 [64, 64]
0.03743350781148771 0.023377254715448614 -0.09709839839300834 0.1052378710281908 -0.06190020720856979 0.024169039508459996 0.10669735920220286 -0.10827011355041999
0.01614570966216538 -0.02693613094026496 0.06011594179108362 -0.0590651305990142 -0.017268364401870594 -0.05410885178626252 0.09528044839265555 0.07332037768807434
0.06736311275661952 -0.010762280891706881 0.0871677360865928 0.08968055799262144 0.04462246812548402 -0.015496839242147323 0.09215814866133185 -0.08649968598597288
-0.11048544879444033 -0.08051628549321006 -0.09033989940246916 0.028954130323128865 0.06552236436330607 0.13876099350419085 0.021902180980422372 0.09982970249282422
-0.11968508424758963 0.10776374051141364 -0.016278753812893825 0.07351136958319571 0.09367007684710736 0.014706555769606057 0.06784591995553968 0.0133137692318673
-0.01609490377204071 -0.10970963607283424 -0.055868838865050355 -0.010580768749064674 -0.10879859334093415 0.05786537167950407 0.07245402370372779 -0.12242899994718023
-0.07666351811752134 -0.051804016033783026 0.11919554386624899 -0.06747990435910728 -0.06135224578435742 -0.11852835392120037 0.09518455444679562 0.07541303245563333
-0.026163705816605588 0.11609384519935267 -0.09179853441577492 -0.04241811223387612 -0.10354792478082811 -0.02241094362511982 -0.08707578199224414 -0.059424091559002044
-0.10387466670743489 0.11546815142209702 -0.06096807295704688 -0.12237257944825525 -0.08577870619264741 -0.08712571893451233 -0.10929622371780177 0.0032258059091831107
-0.015251393355257797 0.09841537921765031 -0.03518049770239074 -0.0696732394182941 0.07106080802069568 0.004604933248902297 0.1300027096040303 0.1098571754982802
-0.020513940440527408 -0.0617847144963115 -0.1430520111406519 -0.018284204415420276 0.010036668365461155 -0.004655402128808543 -0.035148724959275006 -0.13379818170395544
-0.020144535591183687 -0.042197376567274646 -0.002911176555332166 0.11453400961559786 0.0018417901840580304 0.08342906498868412 -0.06732852629480139 0.08360646317527856
0.09141807935598355 -0.08689413774628084 -0.02922706810210647 0.07725220716600914 -0.0834283225701602 0.0740739856987123 0.05002398280909718 -0.08299491585820902
-0.009959728628163547 -0.08484558144036784 -0.04566371300601179 0.020977838297830183 0.12123661326154994 -0.050156322787653466 -0.1065111337381994 0.0856778667472158
-0.1317008307624951 -0.07112662866178508 -0.03783482024930904 -0.055741636601906605 -0.10469286921437099 0.10849018251019116 -0.013463690812949982 0.008431821858258628
-0.039314396554648995 -0.03192929638357359 -0.0551227596570302 0.031304138566080046 -0.0741452321451258 -0.02364903857268935 0.1141937603408978 -0.052570634740319255
-0.08028168175254885 0.10003401520550076 0.036816446340695176 0.0880085331889869 0.08742272994097776 0.12821164540288507 -0.02663964837388226 -0.058581087728591
-0.0655147582805755 0.05009217803657471 -0.03128138992711088 -0.08200679750198867 -0.009582434982898472 0.057714482900172996 0.0466304367602151 -0.016742960167459416
0.06698961770152567 -0.09151321117050044 0.05044507387448473 0.055853192890299976 -0.03260659705393739 -0.11084222315636974 -0.048016637450363914 0.017044855345240598
0.021179234667449715 -0.08426297944623222 -0.05525633071253331 -0.11742276198910541 0.010697557324149167 0.0957020040813212 -0.03765363553141091 -0.0775119148803534
-0.03311719440386731 -0.08153612494372016 -0.049566727418269875 0.061744501459729734 -0.12334714061370862 0.09494403643985792 0.10970038118101637 -0.052734631461708883
0.011319643383779613 -0.04075401775671782 0.12168687951834764 -0.03843011759951017 -0.05928994413984387 -0.029905049235297805 -0.044446092279612895 0.10814472754322456
0.06709962825116299 -0.001293067443796351 0.12366495608447549 0.06326644120647866 0.10758438215429614 -0.05755686428605153 -0.0313890871265294 -0.08579941734885255
0.11865656398723545 0.11399446351832465 0.03468061866803263 -0.03840974623365218 -0.04153653013556309 -0.06441526657231456 0.08653996202082562 -0.05702694961275964
0.04946596508500594 -0.08352331348580593 -0.004732709200719565 0.06722937492408097 -0.06012274635867198 0.019874844030935306 -0.07079041974477465 0.006693840561981142
0.04269397607151065 0.02315766842578311 -0.009890244311324427 0.09740329312658348 -0.05974461382812076 0.004668164749664248 0.10970616754475414 -0.11834761354377574
0.10588440472146846 0.0644534023322092 -0.04563597996007928 -0.07156710091986507 0.04535850183223916 -0.09341794980194115 -0.12317973553870508 -0.03978376158830205
-0.0521933543074351 0.016213640261348927 0.06104672130478007 0.10256629029948448 0.061263767575883574 -0.12836555500275096 0.13471177023099531 0.023285263192184782
-0.06615474988287957 0.042588958261033094 0.09600317630783874 -0.10985534564123171 -0.03623138778395368 0.11155222390218344 -0.01379128555584479 -0.02193277119344232
-0.07013454553589656 0.019533465366320026 0.09042383850001565 -0.0037318368265298898 -0.0921920281961393 -0.06820931438068484 -0.04819060219066989 -0.05021112165691639
0.042715123330731804 0.06640941985478668 -0.027479223524655916 0.0895255834245848 0.04489492164519539 0.031079105837967903 0.07241368239218 0.035896662553828264
-0.03328682201875021 0.11555459711473424 0.09427167173746381 -0.05152880124138578 0.01833429867787651 -0.07647665545706081 -0.09738160199700378 0.059549294589214256
00000000: 5359 a617 7c2a a33f e377 e401 35f0 973f
00000010: 058a 97cd 70db b8bf 06e3 5d7e def0 ba3f
00000020: ed21 274b 62b1 afbf cfea 0ec9 c4bf 983f
00000030: 8cd0 57a4 8450 bb3f 8c50 d514 97b7 bbbf
00000040: 0efc e03b 8088 903f 0a79 e025 2595 9bbf
00000050: d400 ec47 84c7 ae3f c172 83e8 c83d aebf
00000060: 961e 7251 ccae 91bf 2935 b1c9 27b4 abbf
00000070: 956f cba9 4c64 b83f 3af7 4cd0 1fc5 b23f
00000080: c616 3f7e b53e b13f dc95 aee3 880a 86bf
00000090: 511e c2ef 9f50 b63f c153 aa17 4ef5 b63f
000000a0: 3511 8892 c1d8 a63f 9521 e48d cebc 8fbf
000000b0: 8e71 8f2a ad97 b73f c68c 6cea d724 b6bf
000000c0: 7889 413d c648 bcbf d51d fd1c b79c b4bf
000000d0: 0321 7501 8420 b7bf fcaf 49cb 26a6 9d3f
000000e0: b1d4 18dc 12c6 b03f cecd 8794 ebc2 c13f
000000f0: d783 167c 866d 963f 6a47 607b 708e b93f
00000100: 3193 a982 aea3 bebf 55ef 308d 6796 bb3f
00000110: 2beb fbac 60ab 90bf 7076 3e20 a4d1 b23f
00000120: e710 ac1c c3fa b73f a1be 8980 781e 8e3f
00000130: 9046 60a7 595e b13f 2cb7 7fdb 3f44 8b3f
00000140: a22d 55b5 2e7b 90bf 9027 fd42 ee15 bcbf
00000150: e2ee 9427 d79a acbf 873e f3bd 5eab 85bf
00000160: 9307 4080 39da bbbf b963 dead 87a0 ad3f
00000170: 1968 45ce 588c b23f 76e9 dac6 8157 bfbf
00000180: 466e 1c67 38a0 b3bf 0e47 5555 0e86 aabf
00000190: 6906 bc62 9983 be3f 040d 5cee 5c46 b1bf
000001a0: e524 5cc2 8f69 afbf 4482 bdcb df57 bebf
000001b0: f7ed 6ed4 035e b83f 56d1 16bc 444e b33f
000001c0: 0d46 4c93 a8ca 9abf 4cea 6584 53b8 bd3f
000001d0: 99f0 22d7 1b80 b7bf 8ce8 9aa9 d3b7 a5bf
000001e0: 5a98 80e6 1d82 babf b401 c5f7 e4f2 96bf
000001f0: 1429 ee33 994a b6bf fb4b aea3 d56c aebf
00000200: 642e 64b8 8797 babf 4265 161e 528f bd3f
00000210: b1bc e60e 3537 afbf 8c4c a832 cf53 bfbf
00000220: a265 cae1 97f5 b5bf 05d7 7601 df4d b6bf
00000230: e7ba 715a d6fa bbbf 340d 435c 016d 6a3f
00000240: f021 6f5d 1f3c 8fbf 80ca 2913 c031 b93f
00000250: 7173 2d9e 2d03 a2bf 4b3c b5fc 1ad6 b1bf
00000260: b7e9 7986 0a31 b23f 64ce 445b 9fdc 723f
00000270: 4d02 12c5 eda3 c03f defc fe8f 991f bc3f
00000280: f274 373d 9b01 95bf 9f07 4f00 3fa2 afbf
00000290: c0f1 bc3e 874f c2bf 2f8d fd2f 18b9 92bf
000002a0: 0da6 1fd3 1a8e 843f f891 49fe 8a11 73bf
000002b0: 5f72 6480 03ff a1bf 7d64 577f 4c20 c1bf
000002c0: a39d 3ae6 c4a0 94bf d3b8 aa00 e59a a5bf
000002d0: 5517 2303 2ed9 67bf 7528 94d1 1952 bd3f
000002e0: 88e9 d226 072d 5e3f ab89 a971 9b5b b53f
000002f0: 0328 863a 713c b1bf da71 12b1 3b67 b53f
00000300: 5fda 18dd 2c67 b73f ef9a d5b7 b13e b6bf
00000310: b444 a056 b3ed 9dbf 3263 52f7 ccc6 b33f
00000320: f0bc fffc 8e5b b5bf 8372 0f42 83f6 b23f
00000330: c589 5c54 be9c a93f 3d64 58a1 273f b5bf
00000340: 4e46 e125 c465 84bf 9b19 7fa5 70b8 b5bf
00000350: 7f12 f3f3 3b61 a7bf a246 b8e5 367b 953f
00000360: 9441 09d9 5c09 bf3f cf05 1fec 16ae a9bf
00000370: 3ec1 104c 5044 bbbf 419b ab13 fcee b53f
00000380: ae8f 7da4 92db c0bf 6f23 facf 5a35 b2bf
00000390: 3cdc 3de7 155f a3bf 061f 76f4 2a8a acbf
000003a0: d46e 66e1 26cd babf e07e d139 03c6 bb3f
000003b0: 8ef4 ccfd d992 8bbf fbed 03f9 b344 813f
000003c0: a4aa ed3e 0421 a4bf 05e4 8067 0959 a0bf
000003d0: 5403 fce3 0c39 acbf 0fd5 bd96 1807 a03f
000003e0: 78b7 3793 2efb b2bf 9094 011d 7437 98bf
000003f0: 7148 1262 cd3b bd3f 8817 e1c9 89ea aabf
00000400: fc56 981d 578d b4bf bc91 cb47 d49b b93f
00000410: 95f8 f9f1 9ad9 a23f 15cd d02b ba87 b63f
00000420: af06 0606 5661 b63f fb61 fc3b 3d69 c03f
00000430: 4cca 2b8a 6c47 9bbf 18b4 ea1f 57fe adbf
00000440: 3f6d 3840 93c5 b0bf cdad e794 aea5 a93f
00000450: f8b4 6b45 1d04 a0bf be1b 52c1 65fe b4bf
00000460: c8d5 f0a6 f49f 83bf 7fa3 1fb1 c08c ad3f
00000470: 8642 c4d1 f1df a73f 520c 6e09 1125 91bf
00000480: b018 3349 3b26 b13f f515 21e9 686d b7bf
00000490: d207 12cd efd3 a93f ed99 ae29 ca98 ac3f
000004a0: 8b05 f6d7 cfb1 a0bf 82f8 78eb 2760 bcbf
000004b0: 64c2 06ff a295 a8bf 6468 17e1 3474 913f
000004c0: b507 0161 02b0 953f b32e fc34 4292 b5bf
000004d0: 3d55 9dca 8e4a acbf 5998 8c0a 6b0f bebf
000004e0: 5b9e d5d6 99e8 853f fde0 b031 ed7f b83f
000004f0: d5a6 5d5a 5647 a3bf d321 7623 d2d7 b3bf
00000500: a3bd cca5 bcf4 a0bf c56a 132e 8ddf b4bf
00000510: e561 7662 cf60 a9bf fc68 f4ac f99c af3f
00000520: a5b1 fd9e ad93 bfbf af9c 759b 404e b83f
00000530: abfc 87fd 5215 bc3f 1243 fd9a 0800 abbf
00000540: 62f2 15d1 c02e 873f 9e33 e4ea b5dd a4bf
00000550: 4e33 e20f df26 bf3f cbeb 8ac4 1cad a3bf
00000560: 4ce5 1f66 405b aebf e2b1 cde1 6d9f 9ebf
00000570: 6a47 8d61 a3c1 a6bf 5f71 0874 5faf bb3f
00000580: c799 e9f4 702d b13f aaf8 7c98 842f 55bf
00000590: 094a 0bae 81a8 bf3f ab87 eabf 3a32 b03f
000005a0: d2be e96a a68a bb3f 7cad 89e3 1778 adbf
000005b0: 3bc9 51fd 3a12 a0bf 2078 875b f3f6 b5bf
000005c0: 90e9 c7cd 4660 be3f 287c bcbc bd2e bd3f
000005d0: 41ef f775 a8c1 a13f e9a6 d737 71aa a3bf
000005e0: 2a0a 0bad 4644 a5bf f08c 4ad7 847d b0bf
000005f0: f230 ada2 7b27 b63f 8ca6 27e7 a232 adbf
00000600: 5740 9c5c 9a53 a93f 0b06 e0ab c861 b5bf
00000610: 8d2d d1f3 9a62 73bf a723 a1be f135 b13f
00000620: bf5f b69a 68c8 aebf befd 8034 125a 943f
00000630: 0286 ac29 521f b2bf c807 c624 006b 7b3f
00000640: 883b ed1d fcdb a53f 9451 29d2 a4b6 973f
00000650: eec5 ee1e 5641 84bf 495a 8016 6cef b83f
00000660: db02 0295 d896 aebf fe13 eaee ec1e 733f
00000670: ff32 c611 b415 bc3f feeb ba79 074c bebf
00000680: 0265 6f87 3d1b bb3f 20fd 21a7 0480 b03f
00000690: 8f1e e662 995d a7bf 309c ebb5 3852 b2bf
000006a0: 8817 eec3 3a39 a73f 9e3a 421f 3dea b7bf
000006b0: c72d ab07 b588 bfbf 3803 de85 895e a4bf
000006c0: a050 a35b 16b9 aabf 93b8 affa 4e9a 903f
000006d0: c169 100f 8441 af3f c721 82ce c841 ba3f
000006e0: be19 56ec f65d af3f e1b8 5552 486e c0bf
000006f0: 53a2 c33b 3c3e c13f d486 8e8f 17d8 973f
00000700: cdd6 3887 84ef b0bf c8be cd4d 38ce a53f
00000710: e9e5 8d06 aa93 b83f c3e2 d1dc 7a1f bcbf
00000720: 37d6 3da3 eb8c a2bf f8b8 74c1 af8e bc3f
00000730: 5a0b 7503 9b3e 8cbf 4c29 f25b 8b75 96bf
00000740: ed80 656b 56f4 b1bf 571d b4ab 9400 943f
00000750: 06e8 2245 0426 b73f 036f f7a3 3a92 6ebf
00000760: 73e8 0d92 e599 b7bf 1431 8c66 2a76 b1bf
00000770: 9756 c448 70ac a8bf e9e8 d2aa 45b5 a9bf
00000780: 110d 80b3 c1de a53f 4232 6c2e 3500 b13f
00000790: bd75 6e79 8323 9cbf e6c2 f60c 26eb b63f
000007a0: 32f8 7198 77fc a63f 1de8 a67c 33d3 9f3f
000007b0: b547 a8fd b389 b23f 2d92 681f 0c61 a23f
000007c0: efa6 ea67 f80a a1bf 0f9f 826f fc94 bd3f
000007d0: 3c39 0d33 3022 b83f 2b86 44a8 fb61 aabf
000007e0: 02c6 ddf4 39c6 923f 0e75 185e f993 b3bf
000007f0: 0329 cf2b 00ee b8bf 2766 85c1 3e7d ae3f

equations.x.layers.4.bias f8 [64]
-0.05902848543568264 0.012134351588989881 -0.004602572275667037 0.006534581438126188 -0.003488717127626907 -0.06226812322270533 -0.08487996359593565 -0.09902159752990045
-0.045456674971889134 0.06796656694022984 -0.06660294828092786 -0.00015579897553870677 -0.07263472644087994 -0.03231948126114853 0.09136977060849008 0.06859562087279669
-0.026850105631351987 0.009903364822412776 0.13210514483793837 0.09530531046755383 -0.0846984291278431 0.11723996245226917 0.03459954966884608 -0.035387145367620915
0.11795922687411349 0.0005473867390501169 0.08515535411642397 -0.06134997151957762 -0.0546617543407349 0.035124282157298944 0.05324355578079924 0.02426183090624963
0.11626580514770428 -0.05256102204960005 -0.008501097913917635 -0.06894640763082593 0.005676533163943207 0.025511735252362992 -0.08007887933967522 0.11234174336343646
0.045113488069000604 0.125450981088338 0.06373150102984947 -0.09866802866802224 -0.043925310667568516 0.046649469495497226 -0.10694412006924565 -0.011730505532454047
0.023386348312843024 -0.06740528747638667 0.04437909484371107 0.11034275687784813 0.025966525799054865 -0.11600607753345851 -0.12607051114157714 0.01072161309969589
0.06107606347248558 0.033040102051695296 0.0015585712094758107 0.044649687861559505 0.015221394299430873 0.06810646756068182 -0.01732768730043576 0.09124965648946037
00000000: 2314 f54c fb38 aebf b5ee dc19 e5d9 883f
00000010: d867 6c96 25da 72bf 43e7 1d59 01c4 7a3f
00000020: 361b fbbe 5e94 6cbf 7b4e a681 9be1 afbf
00000030: 51ef ba7b b1ba b5bf ae14 fdba 7a59 b9bf
00000040: b540 c7e8 1846 a7bf 70cc 3ac6 4166 b13f
00000050: 320b af0c e40c b1bf 659a 6602 bf6b 24bf
00000060: 8d13 9e7e 3098 b2bf 88a4 14d6 2d8c a0bf
00000070: ba42 9b60 0264 b73f 7027 4c8c 7b8f b13f
00000080: d1bd 5216 987e 9bbf 21ce 4220 3748 843f
00000090: 452c 5b46 d2e8 c03f 8ee0 97c7 ed65 b83f
000000a0: c96c 20d7 cbae b5bf a64a 842c 7003 be3f
000000b0: 466b 913c 08b7 a13f 64ff 1a90 431e a2bf
000000c0: 158e af6d 9332 be3f 42ed 3c12 d0ef 413f
000000d0: 1a64 02c5 bdcc b53f 0a01 9372 4369 afbf
000000e0: e98b 781e a0fc abbf 7678 5256 cffb a13f
000000f0: f641 9a45 bd42 ab3f f439 22e9 17d8 983f
00000100: bba3 c086 98c3 bd3f e7a6 7e3d 47e9 aabf
00000110: c8b7 290c 0669 81bf 207a f3c5 78a6 b1bf
00000120: e462 b3c4 4640 773f 2edd 4a92 bf1f 9a3f
00000130: 843e dda7 0c80 b4bf c5b9 b8b1 6dc2 bc3f
00000140: cecc ba77 1d19 a73f 7144 831a c70e c03f
00000150: 07f0 a528 b550 b03f e639 4ad4 4e42 b9bf
00000160: 5b54 91d9 607d a6bf 14c3 b773 70e2 a73f
00000170: 8568 329a b060 bbbf cbfd 04cd 2906 88bf
00000180: 1ec3 b444 97f2 973f 03df 4911 7941 b1bf
00000190: 22ab f551 dbb8 a63f e10d 2444 6c3f bc3f
000001a0: 7706 640c f896 9a3f cab8 2405 93b2 bdbf
000001b0: f6e9 2b19 1423 c0bf 850c fd8c 36f5 853f
000001c0: da90 5d9e 5c45 af3f 437d 89db a1ea a03f
000001d0: 9446 e217 1f89 593f 0bb5 48ea 52dc a63f
000001e0: 2380 b9f5 642c 8f3f f7b7 d1ea 6c6f b13f
000001f0: be2e 1569 59be 91bf 38ba 6432 235c b73f

equations.x.layers.6.weight f8 [64, 64]
-0.03336597699281169 0.026440482314301093 -0.06634462588447157 -0.015083851018024449 -0.030367267902752994 -0.09533006459577659 -0.10364986886296401 -0.040452119888902745
0.05900137713668869 -0.01490698245967354 0.09782933972717978 -0.002034267522880748 0.1011468638038686 0.01287982216017662 -0.1270511463097364 -0.07094020694080033
-0.013320394941017036 0.002227381791648439 -0.10592252996291347 -0.0072469600592956155 0.04163047977137038 0.011463653824276322 -0.061869312165705334 -0.10119033030757879
-0.025187399142820963 0.08462824047344895 0.011356979194412845 0.06754100550643775 0.041883006086985586 -0.03282650116290841 -0.04222117689176019 0.0855658072824203
-0.05438280096986915 0.09135937185612332 -0.09010090072766293 -0.03665316042436228 0.1132558718598338 0.02211826764287153 -0.08819630468262638 0.09097299169289692
0.014854286529853688 0.10979939281966673 -0.10519131883465836 0.023161045622204616 -0.07484138089195913 0.10576908364123172 -0.08275631530863278 0.009319612853360046
0.06144373885037977 -0.06737935870638978 0.08547488602366297 -0.019537829205679487 -0.09219777573855431 -0.07090979843066866 -0.036705149584931505 -0.11269316839863806
-0.02651639453552825 0.028816693149091126 -0.025098227682318872 -0.06255582417759561 -0.10141880481331572 -0.09235606566279254 -0.10097971610802096 0.03166920984131564
-0.0024840575504538106 -0.09327516107395041 0.033733143485201685 0.12264606725429064 -0.017698804552751177 -0.02291855937789267 0.012122297315928036 0.07969585545381203
0.08484218538191832 0.06076149110247409 0.0943822835924679 -0.05313913059169396 0.04666240532474746 -0.1176278550422473 0.015171987376779885 -0.09367431233109079
0.08254830091093185 0.0723985440111568 -0.09661045091410099 -0.005129648941298151 -0.02786578418107306 -0.06986407311032049 0.08343148012304469 -0.12958457084696903
0.02966511149029269 0.04335516660911279 -0.06606493944351267 -0.04176574950498495 -0.016805326527678483 0.07622368438426148 -0.009703011982204865 -0.03298111641764911
0.040920488618368576 -0.12121124817573657 -0.08637365362034395 0.07862689413604398 0.044830829639183764 0.05941191640002274 0.11376669536942677 0.06443231745653964
0.10031633958304005 0.02395261189271514 0.10701368564857894 -0.012102556426982889 -0.07626613008086243 0.04013372871212436 -0.10676111015833482 -0.06644220674703216
-0.06962987671570227 -0.09063447316177797 -0.049297258099289955 0.13164776633649086 0.1015881660642941 -0.11132830513231512 0.029924253479632693 -0.07122163861174188
-0.015831864564876615 -0.12068323613628758 0.06435671906841622 0.0463686384675165 -0.034590449759390005 -0.0064713924749919575 -0.01016399133667571 0.006084239530448264
-0.0644595476235436 -0.03963043769403788 -0.03130558737845468 0.08107507645821158 -0.06634338189821941 0.03413312616657661 0.1227798075814637 -0.13545593157780228
0.06175069393215033 0.026808660094706737 -0.004502696987761107 -0.09553517567310348 0.05624241927563687 -0.006775388658205422 0.03761991478092255 0.06083731558770444
-0.04822217105830311 -0.12438361645957814 -0.12725331095543185 -0.08236409080203415 0.023146823524507476 -0.025396622399142307 -0.009963811618196684 -0.05252233269688147
-0.01726318122892749 0.1067442717867572 -0.11495734679038291 -0.045988929896157854 0.09470183664285124 -0.017368447837200863 -0.0629526128776149 0.07401637962223549
-0.05758557454434247 -0.06605848906953622 0.03845244645800708 -0.0365613454025619 0.03201821328744581 0.10465454927718804 0.12298196901611891 0.0021133107367361584
-0.09438830603911172 -0.011752920753470755 0.10665856133964491 -0.05576001882318994 -0.016390893085058453 0.08519515436857449 0.12208938277816134 -0.020133240392513047
0.04471489621785874 0.039901425144250366 0.04946605458265547 -0.06504761153338347 -0.06588736698147955 -0.08165273272795616 0.04166213893471945 -0.0718583143923005
-0.033572468936167554 0.1086737916206582 0.045701454232555096 0.04152120707364321 0.08277024942185027 -0.03616457932756885 -0.02491196866685387 -0.08270277179888534
0.07252276213256498 0.057427083127775 0.011119546728574965 0.026010728838008333 0.08290147398501801 -0.11284449066187759 0.12987317498191686 -0.07857355976273112
-0.08419065002303545 0.08987387080739068 0.11936456782989834 0.053245628981199056 0.050259323182137855 0.10664305538609235 0.018121118233714453 -0.013695157365616707
-0.011396995897329565 0.018842846696138515 -0.038295540811584074 0.06194268375796696 0.08823180088886894 -0.1034830899475338 0.016573214300167276 0.0056082643024915725
0.10355902544449719 -0.04421455744376109 0.08873051442869355 0.01623677165385538 -0.013755603573257004 0.01720710175654183 -0.005474577089081731 0.11655168683380926
0.07763742879491975 0.12269012066894777 -0.08433624038685414 0.04541258395386757 0.0018258378030325617 0.015328408548306237 0.029436923999903417 0.06766123569861304
-0.07869568274806456 -0.07507902313998872 0.08578409076625099 0.018729215997801328 0.025843310143237062 -0.01149441955116974 -0.010035280702755592 -0.09871734949802263
0.09889753840585389 0.04934898336083972 0.12376403697480129 0.04645155405283604 -0.0949586369086376 -0.12268109315201874 0.12940365497793294 0.06087415592914668
0.13159253083593633 -0.07317401983328968 -0.0339651400027873 0.05808598839147198 -0.09326630478077147 -0.09794943286752547 0.12055130339121928 -0.12999716301258973
00000000: e967 f767 5815 a1bf a651 52bb 3613 9b3f
00000010: d26c 701e f6fb b0bf 7eab 8f36 48e4 8ebf
00000020: 9a76 0bda 9818 9fbf 8cb1 c315 8d67 b8bf
00000030: 5849 003d cc88 babf 2113 f4e7 23b6 a4bf
00000040: 292c 71b2 6d35 ae3f 23b6 2b51 8d87 8ebf
00000050: c8ae b7f6 570b b93f 4743 6d0f 2baa 60bf
00000060: cf6d 21c8 c2e4 b93f d768 a677 bc60 8a3f
00000070: 9ae9 2843 3643 c0bf e43e c82c 2329 b2bf
00000080: 15bc 2125 b947 8bbf 7a3f 6d7e 283f 623f
00000090: d5ac 192a bd1d bbbf 9a94 3307 fdae 7dbf
000000a0: d407 451a 9750 a53f 9ab9 2492 417a 873f
000000b0: 6e64 c1a0 55ad afbf 54ad 5707 9ce7 b9bf
000000c0: 1cde 5bbe b9ca 99bf d7c7 2645 32aa b53f
000000d0: 1556 c5f1 5342 873f db02 ca09 5e4a b13f
000000e0: 10b5 cd7a b071 a53f efa3 df99 a2ce a0bf
000000f0: 60c1 e59b 039e a5bf bc0f ef07 a4e7 b53f
00000100: 52cc 42ff 0fd8 abbf 791e 4eea 5363 b73f
00000110: 0d28 f745 da10 b7bf 9fa6 a2fa 33c4 a2bf
00000120: c2cb b739 56fe bc3f 4865 aed0 2ba6 963f
00000130: 2e6c 3d74 0894 b6bf dde8 2388 014a b73f
00000140: d31f cf96 ec6b 8e3f ddf7 4721 d01b bc3f
00000150: a7cc 377a d1ed babf f141 f475 87b7 973f
00000160: 8885 5103 ce28 b3bf 20bf 2ac3 ae13 bb3f
00000170: 1ebd c993 842f b5bf cb1e 5543 2916 833f
00000180: 8d0c d0c1 8d75 af3f 00c4 110e c63f b1bf
00000190: 83d8 19a0 aee1 b53f a295 e485 b901 94bf
000001a0: dc9f 8fff 459a b7bf c6c5 3901 2527 b2bf
000001b0: 7bc7 1f72 04cb a2bf af38 c1a0 75d9 bcbf
000001c0: 8509 5a1d 1d27 9bbf 2eea 9d8a 1f82 9d3f
000001d0: c91d 558c 59b3 99bf 9e60 0493 a803 b0bf
000001e0: 9c62 df31 95f6 b9bf 59e2 9ba9 a5a4 b7bf
000001f0: db49 3e82 ced9 b9bf 6502 1e59 f236 a03f
00000200: 4c3d 193e 7259 64bf e17c 5786 e1e0 b7bf
00000210: b9d4 1e78 7845 a13f 0217 d78f bb65 bf3f
00000220: 5cf0 edaa a21f 92bf 8178 ff7b f677 97bf
00000230: efc3 3134 93d3 883f 8c05 cd94 f266 b43f
00000240: 9e58 89ab 37b8 b53f 415b 4852 211c af3f
00000250: 6ff8 59f5 6f29 b83f 21f3 0e58 0d35 abbf
00000260: f71c a581 22e4 a73f fb4c 81ee db1c bebf
00000270: e1eb c9ac 7d12 8f3f 7ff4 ef2b 0afb b7bf
00000280: c4b8 c0ac e221 b53f c451 ce02 b688 b23f
00000290: 8dbc 2067 76bb b8bf d0db 15a7 d302 75bf
000002a0: d3be f01e d988 9cbf 0797 2ca5 9ce2 b1bf
000002b0: 90d9 95f6 c35b b53f 7b4d ed2a 3a96 c0bf
000002c0: 9864 bbee 8760 9e3f 44c5 65fd a532 a63f
000002d0: a175 52c2 a1e9 b0bf 7605 6f00 5262 a5bf
000002e0: 1505 575f 6a35 91bf 656c 9c37 6583 b33f
000002f0: a512 1739 2cdf 83bf 6f7a cca0 e6e2 a0bf
00000300: eb57 b4c0 87f3 a43f ff76 d24a b307 bfbf
00000310: 9510 8971 951c b6bf 327e e662 e420 b43f
00000320: 4641 4e06 11f4 a63f af8f dc1b 3d6b ae3f
00000330: b255 fc6b d01f bd3f 1705 48e8 a27e b03f
00000340: 757a c3e5 54ae b93f 8195 ee92 0887 983f
00000350: 38c7 15b8 3f65 bb3f 4543 6aa0 39c9 88bf
00000360: 9d62 7d56 2d86 b3bf fbf9 9178 688c a43f
00000370: 135d 9d34 b254 bbbf 7875 0d41 5b02 b1bf
00000380: 2586 517b 43d3 b1bf 08ba 1e22 d233 b7bf
00000390: ad49 a37e 7d3d a9bf d3da 8081 d5d9 c03f
000003a0: 7021 e89a ae01 ba3f 3493 a905 0380 bcbf
000003b0: 847d 35a8 76a4 9e3f cede 9ad0 943b b2bf
000003c0: 9fd3 2972 3a36 90bf 257c 61b8 18e5 bebf
000003d0: b03c ad93 ae79 b03f 125a 8e53 a1bd a73f
000003e0: d6e6 f0e4 d6b5 a1bf 037e a230 bf81 7abf
000003f0: d750 1ad3 dbd0 84bf a56f de9c c9eb 783f
00000400: 5b44 f5c0 6b80 b0bf d5e4 a4d3 704a a4bf
00000410: e0ef f133 4907 a0bf c2a1 e811 56c1 b43f
00000420: 7713 8f3f e1fb b0bf 12fe 30a9 e579 a13f
00000430: 52eb 2b5a 7f6e bf3f 0e83 16b6 9e56 c1bf
00000440: b945 e375 c99d af3f e3e5 6cb9 ba73 9b3f
00000450: 2d53 e684 6b71 72bf 3b33 2247 fe74 b8bf
00000460: ada1 df6e cecb ac3f 3960 468b 82c0 7bbf
00000470: 1422 53df ea42 a33f dfb7 a691 1126 af3f
00000480: 466a 468f 93b0 a8bf ed22 dacc 9ad7 bfbf
00000490: 063f 6e24 d649 c0bf eb08 5c24 d015 b5bf
000004a0: a019 2d08 cdb3 973f 9f5f 887a 9201 9abf
000004b0: 346a 5928 e867 84bf 1348 7c0a 35e4 aabf
000004c0: cc70 367b 70ad 91bf 6b05 5cb4 9753 bb3f
000004d0: d64d e63c d86d bdbf 0c9a c36b dc8b a7bf
000004e0: e78e 402b 613e b83f 6db1 c5cd 08c9 91bf
000004f0: 99d1 8195 a91d b0bf cf87 d8c9 bcf2 b23f
00000500: 1555 c73e db7b adbf d544 2d8a 35e9 b0bf
00000510: 9406 faff 09b0 a33f b980 9a2d 2bb8 a2bf
00000520: 4051 e4f5 b064 a03f b4ec 85fa a3ca ba3f
00000530: b002 ec0e bf7b bf3f 10a6 0410 ef4f 613f
00000540: 3e15 90ff d429 b8bf ee2a 2652 ea11 88bf
00000550: a0cc cab8 f94d bb3f 4236 8ac2 938c acbf
00000560: b99e 0237 c6c8 90bf 3f6b ca81 59cf b53f
00000570: 5495 38f2 3f41 bf3f 9882 31e4 ce9d 94bf
00000580: 61aa ccf1 dee4 a63f b6df 1da8 f56d a43f
00000590: f9a9 635d 9d53 a93f e902 38d4 f5a6 b0bf
000005a0: 67ae 6796 fedd b0bf e112 b288 31e7 b4bf
000005b0: 8b7c 6968 bd54 a53f c8b7 4276 4e65 b2bf
000005c0: f8ed 4020 6930 a1bf 736b f1ac 0bd2 bb3f
000005d0: 1def 9d56 2e66 a73f 1888 f184 4442 a53f
000005e0: 7e3e 595a 6e30 b53f 3a94 f8ea 2984 a2bf
000005f0: 24fd cfea 8582 99bf f32d 2a44 022c b5bf
00000600: 2c30 930b da90 b23f c07e e027 1567 ad3f
00000610: 8455 5d4c d8c5 863f 5646 d176 8ea2 9a3f
00000620: 004c 8eef 0739 b53f d531 ed64 60e3 bcbf
00000630: 0067 9627 af9f c03f 14e0 8295 651d b4bf
00000640: e558 7ab8 848d b5bf ccf6 e157 f901 b73f
00000650: 276e 2123 ad8e be3f 7826 42d6 0243 ab3f
00000660: 2cd3 c50a 97bb a93f 8b91 3a93 f54c bb3f
00000670: 4717 b9a8 578e 923f dabd fde7 340c 8cbf
00000680: 40a2 36e5 4e57 87bf 3338 4b09 8a4b 933f
00000690: 359d bc1e 799b a3bf 8f12 ef91 f3b6 af3f
000006a0: 9fed 48fb 5b96 b63f cc80 0327 de7d babf
000006b0: 2ea1 a295 91f8 903f 4db0 43fc b0f8 763f
000006c0: 1460 7d23 d882 ba3f 3bc5 745c 4aa3 a6bf
000006d0: 0be5 a001 0bb7 b63f bbd4 fb4c 5fa0 903f
000006e0: 41fc dedb e52b 8cbf 0092 360d bd9e 913f
000006f0: 8a9f e998 826c 76bf 22ae 3ed3 54d6 bd3f
00000700: 40a5 9ee9 0be0 b33f a6bf d0a7 9e68 bf3f
00000710: 0e42 5452 0f97 b5bf 2b43 d175 5140 a73f
00000720: a481 b769 1eea 5d3f 594f 512b 8064 8f3f
00000730: a968 7f87 b624 9e3f 5051 882a 3f52 b13f
00000740: a544 bd77 6625 b4bf 217b 00fd 6038 b3bf
00000750: 4caf 5b38 f2f5 b53f e6d7 c268 c02d 933f
00000760: a6d7 8a2f ab76 9a3f 1860 78e0 628a 87bf
00000770: 3568 6593 608d 84bf 9c4d a44b 8a45 b9bf
00000780: eea8 1b5d 5951 b93f d255 401b 4544 a93f
00000790: f64a 3afb ffae bf3f 9bb7 0283 7fc8 a73f
000007a0: 68ce fe8f 354f b8bf 4bea ec32 0768 bfbf
000007b0: b879 0e89 4c90 c03f cf4a c6b9 e52a af3f
000007c0: bb4a 2b28 06d8 c03f 4bd0 1956 88bb b2bf
000007d0: 7435 08fb e063 a1bf 0592 fe58 72bd ad3f
000007e0: 9828 daf0 4ce0 b7bf b2e8 d3ca 3613 b9bf
000007f0: ac32 8e41 73dc be3f 061e db3d bfa3 c0bf

equations.x.layers.6.bias f8 [64]
-0.05825042360355883 0.06368995432127778 0.01485324961833978 -0.013354811485319017 -0.05739641234211629 0.04453902052093478 -0.029561319608647822 -0.006248997398549866
0.09318265438992801 0.03840003594579452 -0.07260321010762717 0.06918049295786999 -0.1099920411453078 0.09700206279512433 0.06274726834732204 0.02834316575446441
0.020797050100224066 0.054782525909916856 0.05764115755389597 -0.0850792251471021 0.1161148475598276 -0.04661336030555944 0.012031196479312608 0.04861870783680996
-0.12373047513550423 -0.06989322745623051 -0.08572605996038822 -0.10802551304578291 -0.014744091854591235 -0.0935772721359193 -0.08028193928135911 0.08319659563881801
0.09177881666843823 0.042918653231303436 -0.013370576430644753 -0.05973200016325928 0.09838208794245687 -0.04196369976599179 -0.09126277951237853 -0.007430377398121395
-0.05088431200841941 0.008499593466014043 0.07212098771860735 -0.0259752035528624 0.10474347043781344 0.053753327381054185 0.10361774343904172 -0.055546193512966226
0.07495109219543966 0.02329514913764086 0.019227423271372127 -0.04395600473176798 0.04200509642208408 0.0017756862218048612 0.017107608328796483 0.03643965299043276
-0.0059570426987630865 0.00782126334872113 -0.02211853903298676 0.02948532144666081 -0.004857345310997916 0.11068487173288527 -0.08351624897771967 -0.0034414642059315457
00000000: 23fb b5e0 ffd2 adbf 68c4 e41e fc4d b03f
00000010: fffd cc6a 616b 8e3f f9ea 9674 c459 8bbf
00000020: c890 d503 1063 adbf 180b 1189 d1cd a63f
00000030: 9e71 c893 5245 9ebf 605c 5a77 8c98 79bf
00000040: 18c2 2885 d1da b73f bbd5 1a65 2ba9 a33f
00000050: 3933 ffbc 1f96 b2bf 2874 c612 d0b5 b13f
00000060: 0815 8a3b 7028 bcbf 367f 598f 20d5 b83f
00000070: c10f 7779 3410 b03f 8810 eca7 fd05 9d3f
00000080: a98b 2268 d24b 953f 83c9 598a 740c ac3f
00000090: 3ef4 314d 2483 ad3f 3969 9389 c0c7 b5bf
000000a0: d877 d9e0 b3b9 bd3f 8559 23d4 b4dd a7bf
000000b0: be7e 48db cfa3 883f 8b08 4420 8de4 a83f
000000c0: 74bc 39e8 ccac bfbf 11eb 22c6 85e4 b1bf
000000d0: 93de f19f 24f2 b5bf 694e aa5d 8fa7 bbbf
000000e0: baf6 9882 2632 8ebf 9b00 791b aef4 b7bf
000000f0: db42 ac6f 5b8d b4bf 2a42 6841 5f4c b53f
00000100: 3878 0e08 d17e b73f b69b 0808 6ff9 a53f
00000110: 397e fc63 0862 8bbf 9da4 7356 3195 aebf
00000120: c29c 398a 912f b93f 006b 3a1c 447c a5bf
00000130: 7b04 595d ff5c b7bf acf9 bfbe 506f 7ebf
00000140: 3747 e92f 820d aabf c602 ba1f 3c68 813f
00000150: 834c 9b63 8576 b23f f9e1 1067 3e99 9abf
00000160: d3fc ffd3 77d0 ba3f fd3c 4e5e 8e85 ab3f
00000170: ff22 5b43 b186 ba3f 8567 1cf9 8c70 acbf
00000180: 9c65 c7a9 fe2f b33f e172 cefe aeda 973f
00000190: 942d 8c88 5ab0 933f c14f 92c5 6681 a6bf
000001a0: f4dd cb26 b181 a53f 30fd 0990 c417 5d3f
000001b0: 0fcc 2329 a884 913f e534 bedb 37a8 a23f
000001c0: 922b 2779 6966 78bf 8089 5e32 9804 803f
000001d0: bcbe 2007 3ea6 96bf 3b44 4d6d 6631 9e3f
000001e0: 0a0c 19b4 4be5 73bf d433 4100 d855 bc3f
000001f0: fe3c 0b26 5261 b5bf 6be4 df06 4631 6cbf
